results/inf_sensing/DroneAgent/DroneAgent-670152.pt (torch, 596251 bytes, 36 tensors)

network_body._body_endoder.seq_layers.0.weight f4 [128, 56]
00000000: 2286 0bbd 7465 c5bd bd5b ed3d c856 653d
00000010: ea04 74bd da4c 363c a364 183d fabc f43d
00000020: 8159 6ebe 095f 1dbe 5e3a a23e e466 d8bb
00000030: e2ce aebc 181b bebd 0c8e 0d3e 2644 aabd
00000040: 37e2 98bd 0f4d 7a3d fa91 7abb e039 123e
00000050: 58e1 f63d 80cf 743d 844a fd3d eb16 463e
00000060: 7e43 85bd fbf3 ddbd 928a e8bd 329a 553d
00000070: 84dd 2ebe 6819 ac3d d6af 613e 1688 fe3c
00000080: 03e1 033e a294 93be 18eb fb3b 47c6 6dbd
00000090: 47c0 f3bd 0980 f9bd fcfb 13bd c1e9 35be
000000a0: d796 f0bc 23dc 8cbd d410 67bd b749 423e
000000b0: 702d 5b3d f872 743e 7b86 153e 6442 8d3d
000000c0: 971a 6ebe e131 acbd dbd3 83bd a7f9 2abd
000000d0: 6320 2b3e 4659 6dbd b5f9 5abe 5c8c aa3b
000000e0: 9640 8b3d dc54 fb3b 513a df3d 0de2 3a3e
000000f0: 4f90 b7bc 8c9b 24be dbe9 dbbd e105 01bd
00000100: a71b dfbb bdcd 02be aecd dc3d 903d 0c3e
00000110: a3a9 aabe ff01 71be 063c 543d ede2 1cbe
00000120: 6f36 34bd 5347 55be 9464 123d 542c da3c
00000130: 3c6d 5bbe ef7d 16be 75af 02bc 8fd9 183d
00000140: 039e 793e dd0f 153d 08be 6b3e 1851 f8bd
00000150: eb94 c5bd 6f63 5ebe 55c8 77bd 96ed cc3d
00000160: 3e20 773d 29d8 143d a5a3 d3bd 9fdd 1bbe
00000170: 5110 f13b 6c0b f33d 5e2c ba3d 32cd 59be
00000180: 6a55 c1bd c2a9 07bd 461b c13d c354 283c
00000190: 276e 9ebd f44a 4c3d 5945 5f3e 6f89 8b3c
000001a0: 927c 92be ba9e 2abe b4f9 cebd f021 afbc
000001b0: 655f 82be 64ad fabd 1138 223e 3f32 7fbe
000001c0: 4c06 ddbc d113 09be 691e b0bd 824b 2ebe
000001d0: 58b6 acbd 1af2 5abe a5d5 7bbd 9b60 3e3e
000001e0: 0109 acbb e212 febd 1cbe 213d e409 b03c
000001f0: 80a0 94bc d527 503d 308f 8c3e aafc cbbd
00000200: 9476 d4bc 9434 063e b1a2 09bd 22ac 1e3c
00000210: 29f6 24be 911c 95bd 43a4 5bbc ce15 543d
00000220: 8d1c 563e 8215 da3c 5e7e b83b ac80 adbd
00000230: af25 883e 700c 003e 7aaa 36bc 976c 97be
00000240: 66d1 f0bc 02e7 95bd bc93 32be 36ec 083e
00000250: 615a 25be 6e78 72be 1cb4 cabc d0cc 393e
00000260: c79a b4bd a484 133e c4b1 82bd 908d 05be
00000270: 95fc 6ebe 15ed 0abe 3aac 02be a0e9 bbbc
00000280: bd80 17be c49d 1bbe 09db 743d 80ee f7bd
00000290: 4868 5fbe 9dcb c73d c357 4a3e e646 b4be
000002a0: c9e4 0c3e e887 37bd 01ec 45bd c77e 0bbe
000002b0: 38a2 de3d 67c8 55be c4c6 12be 6e9e 073e
000002c0: 9ffc 3cbe d44f 84bd dcd1 033c d42e e8bb
000002d0: 281e 01bc 5aab aabc 6dbc a6ba c07b 8abc
000002e0: 6575 f13d aef8 143e 4f83 cd3c 53fe a93d
000002f0: 2082 403c fa65 b23e ef9a d6bd ac44 06be
00000300: 1e90 e83d 2a42 6dbe 7836 8f3e bd9c 7cbe
00000310: c387 b23d 53b6 0dbe 3b65 79be a05f 4ebe
00000320: f25b 463d c621 0bbe e2ac 593d 4c3a 573d
00000330: 7ad0 afbd 3e12 863e 30ca b83d 7d71 85bc
00000340: b3e9 7c3b a03b 92bd 1d38 6e3e bc90 b43b
00000350: 991e e6bc c459 ad3c a7b7 59bc 5b03 913d
00000360: 7e94 06be 8516 823d 2af4 14be e280 72bc
00000370: 5f50 b3bd a560 313e 934e 2f3e 47e4 19bd
00000380: c3cc 8b3e a485 f2bd c89a 4bbe 49fd c93d
00000390: e447 f9bc c5ab 483e 8796 a83a a699 27bc
000003a0: 70fd 05be b1d7 923d 9ffa 143e 4ec0 163e
000003b0: a71a b7bd 560b b53d 69aa 65bd 1183 023d
000003c0: 5c6f c83d 724b 31be 0b6c 25bc 4f13 37bd
000003d0: 975e 383e 6129 08bd 83b6 8ebd 55ac e7bd
000003e0: e4f2 c7bc 5cc1 fb3d 8d7f acbd 9ab1 e2bd
000003f0: 8ab7 a53d 9c7c ea3d 87f9 93be 3e46 aabe
-0.034063466 -0.09638491 0.11589763 0.055990964 -0.059575 0.011126721 0.03720535 0.11950107
-0.2327633 -0.15368284 0.31685156 -0.0066040624 -0.021338884 -0.092825115 0.13823718 -0.083137795
-0.07465022 0.061108645 -0.0038233981 0.1427989 0.120547 0.0597682 0.12367728 0.1934468
-0.06507014 -0.10837551 -0.11354555 0.052149005 -0.17076689 0.08403283 0.22039732 0.03107075
0.12878804 -0.28824335 0.0076879375 -0.05805042 -0.11901908 -0.12182624 -0.036128983 -0.17764951
-0.029368801 -0.06877925 -0.056412533 0.18973432 0.05351013 0.23871982 0.14602081 0.06897429
-0.2325233 -0.08407951 -0.064368926 -0.041741993 0.16711573 -0.057946466 -0.21384318 0.0052047204
0.06799428 0.007670028 0.10899795 0.18250294 -0.022407679 -0.16074961 -0.10737964 -0.031499747
-0.0068087163 -0.12773795 0.10781418 0.13695359 -0.33332548 -0.23535918 0.051815055 -0.1532094
-0.043997224 -0.2082799 0.03574045 0.026632465 -0.21428388 -0.14696477 -0.0079764025 0.037316855
0.24376683 0.03639208 0.2302171 -0.121248424 -0.096475445 -0.21717618 -0.060493786 0.100062534
0.060333483 0.03633896 -0.10333947 -0.1522126 0.0073566814 0.11867413 0.090904936 -0.21269682
-0.094401196 -0.033120878 0.0942903 0.010274115 -0.07735854 0.04987617 0.21803798 0.017033307
-0.28610665 -0.16662112 -0.10106221 -0.021378487 -0.25463405 -0.12240103 0.158417 -0.24921511
-0.026980542 -0.13386466 -0.0859955 -0.17020991 -0.08433217 -0.21381417 -0.061483044 0.1859154
-0.005250097 -0.12405945 0.039487943 0.021489091 -0.018142939 0.050819237 0.27452993 -0.09960301
-0.025935449 0.13105994 -0.03360242 0.009684594 -0.16109528 -0.07280839 -0.013405862 0.051778607
0.20909329 0.026621584 0.0056302985 -0.08471808 0.2659125 0.12504745 -0.011149043 -0.29575035
-0.029396724 -0.07319452 -0.17439169 0.13371357 -0.16147758 -0.23678753 -0.024744086 0.18144536
-0.08818584 0.14406067 -0.06381562 -0.13042283 -0.2333854 -0.13567002 -0.12761012 -0.02293855
-0.14795204 -0.15196902 0.0597792 -0.12106037 -0.21817124 0.09755633 0.19760041 -0.3521034
0.1375915 -0.044807345 -0.048320774 -0.1362258 0.108707845 -0.20877229 -0.14333636 0.1324403
-0.18455742 -0.064605385 0.00804564 -0.0070856605 -0.007880725 -0.02083366 -0.001272095 -0.016904712
0.11789969 0.14547989 0.025087027 0.083004616 0.011749774 0.34843427 -0.1047877 -0.13112134
0.11355613 -0.23169771 0.27971244 -0.24669166 0.08717301 -0.13839082 -0.24355023 -0.20153666
0.04842753 -0.13587102 0.05314339 0.05254583 -0.085846856 0.26185793 0.09022939 -0.016289467
0.0038591444 -0.07140279 0.23263593 0.0055104177 -0.028090762 0.021160968 -0.013288415 0.07080718
-0.13142583 0.063519515 -0.14546266 -0.014801236 -0.08755564 0.17322023 0.17119817 -0.037571218
0.27304658 -0.11841896 -0.19883263 0.098627634 -0.030429788 0.19596775 0.0012862243 -0.010229504
-0.1308496 0.07170046 0.1454873 0.14721796 -0.089406304 0.08840053 -0.05607072 0.031863276
0.09786865 -0.17313936 -0.01009656 -0.04469615 0.18004833 -0.033242587 -0.06968405 -0.113121666
-0.024407811 0.1229274 -0.08422766 -0.11069031 0.08091648 0.114495486 -0.28901312 -0.33256716

network_body._body_endoder.seq_layers.0.bias f4 [128]
00000000: 2e48 d9bd ad83 d8bd ef31 ac3c f469 f23c
00000010: f43e d93d 9ea5 8bbd 73de f8bd 2607 97bd
00000020: 5dae dbbd 90a6 b2bc 7346 183c 4bf8 c2bd
00000030: d422 64bc 51cc 243d 2793 8ebc 257d c4bd
00000040: 0fc9 8d3d cca9 0cbe e0cc 2ebb d542 b2bd
00000050: 6ebf 9cbd 5c0d d3bd 199d e3bd ccd0 2c3c
00000060: 9fad adbd d65a 5f3d 91b1 83bd 49dc babc
00000070: 8a74 003e 6d28 60bd fec3 983b 9aac 13bd
00000080: 7bce 973c 9947 42bc af9f 83bd 391f c6bd
00000090: ff0b 2dbe 6bae 94bd 8302 a5bd 7db7 acbc
000000a0: 0724 1ebe 487c cc3c 9353 09bd c41e 5fbc
000000b0: e9bc ebbc bf26 243d 9781 ab3b 3916 eb3c
000000c0: b898 30bd dc45 6abd a26c 2bbd 522b acbd
000000d0: 5ec0 a0bd b139 cebd 9237 c7bd b9e7 993d
000000e0: 6292 c6bd b937 0abe 3de7 1cbd eb17 11bd
000000f0: c1da 19bd 29fa 9e3c 7668 1cbd 283c 3bbe
00000100: ee42 a0bd 8f8e a5bc 14c1 77bc 3e30 a6bd
00000110: 8092 b7bc 77f5 34bb 7dab 14be abf0 96bb
00000120: e9da 38be ab9f 8ebd 8ce8 033b 33b4 c5ba
00000130: dd45 11bd aab0 b13d 474b 873a 9f9b 61bb
00000140: 208c aebc 9d1a 8dbd 77a9 a0bd a1b1 35be
00000150: 9e81 60bd d64a 84bd 5ac0 a5bd dc4a 80bd
00000160: 640c 10be 9540 9bbd c3de a6bc 6e45 35bd
00000170: 9534 88bd 7a87 17be 31af 0ebd 22c7 d6bc
00000180: a48b 83bc 1a35 503a 23f6 89bd e1e3 48bd
00000190: b15f 9ebd 37dc 223c fe9f 0ebd 2edf 25bd
000001a0: 1e3f a1bb cdd2 66bd 206e 1dbe bb1e 083d
000001b0: 04f9 eb3c ece5 2dbe 13e6 39bd 258a 96bd
000001c0: bbc1 a9bd 13ed 00bd 08b3 673d 6b1b 4abc
000001d0: bd0e 99bd 3bd3 c4bc 5a86 7c3d f07a d13c
000001e0: c816 a0bc 5231 35bd 644c 74bd 809b 50bd
000001f0: 2f98 debd cd22 adbd 724b 3f3c 5ab2 09be
-0.1060947 -0.1057199 0.021019904 0.029591538 0.106077105 -0.06818698 -0.12151804 -0.0737441
-0.107266165 -0.021807939 0.00929414 -0.095200144 -0.013924319 0.040233914 -0.017404152 -0.09594182
0.069231145 -0.13736647 -0.0026672408 -0.087041534 -0.076537 -0.103052825 -0.111139484 0.010547828
-0.08480381 0.054529987 -0.064303525 -0.022810118 0.12544456 -0.054726053 0.004662036 -0.036053278
0.018531075 -0.0118578905 -0.064269416 -0.09673924 -0.16899107 -0.0725983 -0.0805712 -0.021083588
-0.15443431 0.024961606 -0.03352697 -0.013618175 -0.028776603 0.040076014 0.005233954 0.02869712
-0.043114394 -0.05719553 -0.041851647 -0.084067 -0.07849191 -0.100695975 -0.09727396 0.07514901
-0.09695889 -0.13497819 -0.038306464 -0.0354232 -0.037562136 0.019406395 -0.03818556 -0.18284667
-0.07825266 -0.020209579 -0.015121717 -0.0811467 -0.022408724 -0.0027612129 -0.14518543 -0.0046063266
-0.18052258 -0.06964048 0.0020127622 -0.0015083611 -0.035467017 0.08676274 0.0010322117 -0.0034425033
-0.021307051 -0.06889842 -0.07844823 -0.17743541 -0.054811113 -0.06459586 -0.08093329 -0.06264278
-0.14067227 -0.075806774 -0.020369893 -0.044255666 -0.06650654 -0.14797774 -0.034835044 -0.026218
-0.016057797 0.0007942483 -0.067364 -0.049045447 -0.077330954 0.009940199 -0.03482055 -0.040496044
-0.0049208542 -0.05635338 -0.1537404 0.03323243 0.028805263 -0.1698224 -0.04538543 -0.07350568
-0.08288904 -0.03147609 0.056567222 -0.0123356385 -0.07473514 -0.024026504 0.061651565 0.025571316
-0.019542113 -0.04423649 -0.059643164 -0.050929546 -0.108688705 -0.08453903 0.011675702 -0.13446942

network_body._body_endoder.seq_layers.2.weight f4 [128, 128]
00000000: 6d9f f0bc 259e 52bd 0d62 e8bd 6909 883d
00000010: f98b 773e 3b61 303d 19e2 09be 4644 17be
00000020: fd19 37bd 3e57 cf3d da2e 61bd a2e3 933d
00000030: 80c1 73be 61f0 3a3e 9310 423c 65a9 a1bd
00000040: 6980 7e3e 15df 70bd 4562 4dbd 566d 97bd
00000050: 740b 97be 5fca 40be d9d3 1fbe f296 fa3d
00000060: eff0 15be 8675 c8bd e4f2 103d 92ea 93bc
00000070: 7d44 b5bc 79f2 b2bd b702 913d 6357 b2be
00000080: be89 2d3e f0de ba3e 6397 05be ffcf 3c3c
00000090: 96d5 de3c 2b55 8cbd 1386 02bc 4c70 d23d
000000a0: ffed 003e b974 773e efe2 4ebe 5e95 c13d
000000b0: 1bfb 1fbd 4d32 d0bd 250a 2f3c d138 46be
000000c0: 6869 023a 4124 233e f8d0 e83d d50a 453e
000000d0: 4b2d e33d fb1a f33d 1898 3abe 527d e03b
000000e0: af61 a7bd 12fe 1fbe bf54 febc 4387 85bd
000000f0: acaf d63d bf0f 273d 7649 153d 6dac 91bd
00000100: dbcc 3f3e b1d6 a9be 490d 07bd c635 0fbe
00000110: d5a2 3bbd 7f5d e33d e11b cabd ab23 d5bd
00000120: 63f7 28be de0b 613d 1dad 243e fbb1 ef3d
00000130: a723 d83c 2c6e fd3d 2443 8d3e 7e2d a6bd
00000140: 14e2 ccbd b529 973d e66b ccbc a995 5bbe
00000150: 9956 7f3c d2d8 aebd 5d9b 843d 21db c53b
00000160: ea9a 47bb 6f89 24be fb00 0e3e 185b 45bc
00000170: f2f7 f73d 034a e13c dba6 e13c 5272 163d
00000180: f6aa 12be 5007 b83d 8088 a33d 48fc f5bd
00000190: a848 05be d2a0 913c f52c 87bd 6638 62bd
000001a0: e5bd d13c 9e61 aa3d cc5f a33d a6fd 963d
000001b0: 1fec 86be ce90 50be aa42 cbbd cbed 94bd
000001c0: da8c ee3c d0cb 93bd 9451 433d 239c 603e
000001d0: 655e cc3d d750 e03d a2e8 e83d 846e 1dbe
000001e0: 606b 00bc a424 223c f15f 253d aee6 be3d
000001f0: 3ca7 f6bd 2d87 0ebd 6890 eb3d 8491 a83e
00000200: 8504 633d b7f8 db3d 5056 543e bd2f 093c
00000210: 047b b03d bc23 793c 2018 a9bd aecd 1f3e
00000220: e2de 0ebe bb32 ecbc 68c3 cebd 47e5 aebd
00000230: 4c56 43bd 678f 2fbe 9f1c 923c 29b9 193e
00000240: 3073 5f3e 164f 4cbd 4a6d 973d 6a42 83bd
00000250: d1bf 963d 0ed8 903b 0c39 0abe 6269 b43c
00000260: f0a6 2dbc 9ab8 95bc ee48 db3d 147a 913d
00000270: 918b 353d a4ac 653d 2596 ab3b 18bc d9bd
00000280: 0328 03bd d227 9d3d 368b cabc 748d c13d
00000290: 0ff9 42bd c906 2b3c 346b 74be 940f b7bd
000002a0: bfed f23d 9734 86bd 1860 0cbe 33d4 ed3d
000002b0: aa95 d6bd 9aa7 bebd e74f 31bd 3f43 de3d
000002c0: ebc5 98bd 136d f7bd e254 0b3d c028 b33d
000002d0: 5071 453e ecb0 07be d614 fc3d 3c43 863d
000002e0: 6c62 d53d 7b5c 6b3d 0d56 cc3b 09b1 af3d
000002f0: 175d 963d 7649 75bd 123e ac3d ee13 f03d
00000300: 33f8 c9bd aad2 7bbd a42f adbd aed1 10bd
00000310: 755c c6be 658b f7bc 4f62 e23c d914 673d
00000320: 6664 9e3d bcd7 5bbc 8438 cb3c 4ef9 b53c
00000330: 1f05 2cbe 3511 36be 1528 413c d89b 7bbc
00000340: e961 393a 0c7b 68be a473 0ebe 849b 693e
00000350: 87a7 183e a414 9abd 6b34 56bd ae68 323d
00000360: 5576 d6bc 370e 3abe e8a9 f93d 4db6 37bd
00000370: 49df 663e 8d38 f63d 3130 5c3e 4008 883b
00000380: 3744 853d 411b e2bc 0c10 1b3d f56c a23d
00000390: ab54 123e 81a6 21be e038 f73d 8b30 e3bc
000003a0: 81d2 26be adc9 a4bd da8d 25bd de70 eb3d
000003b0: f691 053e eb6e d4bc 0ba2 d6ba 4541 62bd
000003c0: e9f1 4fbd 249f 593d d799 8bbe dac2 11be
000003d0: fa91 17be 54ef 6dbe 6550 2dbd b0f5 d4bc
000003e0: f697 bc3d 5418 8b3d 118f 23bd 054f 063e
000003f0: 235b 753e 4bb4 75bb 59ba e4bd 291b 29bd
-0.029372895 -0.05142035 -0.11346827 0.0664242 0.24174489 0.043061476 -0.13465156 -0.14772138
-0.04470252 0.10124062 -0.05497632 0.07221152 -0.23804283 0.1825576 0.011844772 -0.078936376
0.24853672 -0.058806498 -0.050142545 -0.07393901 -0.29500926 -0.18827198 -0.15608157 0.12235822
-0.1464269 -0.09788041 0.03538789 -0.018056188 -0.022127384 -0.08737654 0.07080596 -0.34832296
0.16947076 0.36498213 -0.1304603 0.0115241995 0.027201455 -0.06852182 -0.007966536 0.10275325
0.12590788 0.2416562 -0.20203756 0.09452318 -0.039057832 -0.10165844 0.010683571 -0.19357611
0.0004974813 0.15931799 0.113679826 0.19242413 0.11092623 0.118703805 -0.18222082 0.006850877
-0.081729285 -0.15624264 -0.03104627 -0.0651994 0.104827255 0.0407865 0.03644701 -0.07112966
0.1873049 -0.3317161 -0.032971654 -0.13985357 -0.045809586 0.11101817 -0.09868599 -0.10407194
-0.1650062 0.054942958 0.16081662 0.11703869 0.026384188 0.12374529 0.27590287 -0.08114146
-0.100040585 0.07381002 -0.024953794 -0.2144381 0.015584611 -0.08537449 0.06474946 0.006038085
-0.0030457326 -0.16068052 0.13867562 -0.012045644 0.12107839 0.027501112 0.027545383 0.036730118
-0.14323029 0.0898577 0.0798502 -0.120110095 -0.13015997 0.01777688 -0.06600372 -0.055229567
0.025603244 0.083194 0.07977256 0.07372598 -0.2635202 -0.20367739 -0.099248245 -0.07271918
0.029119898 -0.072166085 0.04768522 0.21934561 0.09978942 0.10952919 0.11372496 -0.1537419
-0.0078381 0.009896431 0.0403747 0.093213424 -0.12043616 -0.034796882 0.11502153 0.3292352
0.055424232 0.10740798 0.2073605 0.008373198 0.08617213 0.015206274 -0.082565546 0.15605804
-0.1395221 -0.028832784 -0.100958645 -0.08539825 -0.04768972 -0.17144547 0.017835913 0.15012039
0.21821284 -0.04988011 0.07393892 -0.06409152 0.07360805 0.004420287 -0.13498324 0.022022907
-0.010598883 -0.018276501 0.107072696 0.07103363 0.044322554 0.056072846 0.0052364045 -0.10631579
-0.03202058 0.07673611 -0.024724584 0.09450808 -0.047600802 0.010438629 -0.2386902 -0.08938518
0.11861753 -0.065529995 -0.13708532 0.116127394 -0.10477765 -0.09309311 -0.04328909 0.1085267
-0.07459625 -0.12081351 0.034016497 0.08748007 0.19281507 -0.13251084 0.12308662 0.06555793
0.10419163 0.057461243 0.006235844 0.08578689 0.07341974 -0.05988451 0.084102765 0.11722551
-0.09861793 -0.0614802 -0.08456352 -0.035356216 -0.38742414 -0.030217836 0.027634768 0.056416366
0.07733993 -0.013418134 0.024807222 0.022213604 -0.16798829 -0.17780001 0.011789341 -0.01535698
0.00070717797 -0.22703189 -0.13911301 0.22813231 0.14907657 -0.07523468 -0.052296083 0.04355686
-0.026179472 -0.18169485 0.1219061 -0.04485159 0.22546114 0.12022505 0.21502759 0.004151374
0.065071516 -0.027600886 0.0378571 0.07930938 0.14290111 -0.15786172 0.12071395 -0.027733108
-0.16291238 -0.08046279 -0.040418483 0.11496137 0.13043961 -0.025931796 -0.0016375197 -0.055238027
-0.050767813 0.053130284 -0.27265808 -0.14234486 -0.1480178 -0.23235828 -0.042313 -0.02599606
0.09208672 0.067917496 -0.03993136 0.13116081 0.23960547 -0.0037491496 -0.111683555 -0.041285668

network_body._body_endoder.seq_layers.2.bias f4 [128]
00000000: 80a8 e5bd 69b2 a9bd f461 49bd 9e92 b5bd
00000010: 9916 b2bd 65fb e3bd ea34 f6bd 5ddb 20bd
00000020: 13c8 f1bd aa30 b7bd 1b58 3abd 63b9 8dbd
00000030: b45a 34bd fb58 0dbe 5cc0 1ebd 4c87 5abd
00000040: a280 423c 230f aebd f168 a93c c7c7 46bd
00000050: 996b abbd 5fb7 81bd 4854 cc3c 7fc9 62bd
00000060: 625b 06be 4a95 04bb 900b ad3b 944d 67bd
00000070: 8efe e5bd ea4c 8bbd 9512 90bd fee9 8abd
00000080: 04c0 8ebd 9d68 01bd 183f 8db9 b24f 13be
00000090: 3dc9 aebd a28c 10be 6be9 f3bd 6b0c c4bc
000000a0: 2874 0abe 684e 9cbd 2f1c 58bd a4f2 14be
000000b0: 52cc 18bd 2703 babd 7e83 7dbd 308f 113c
000000c0: c7b1 1bbd 5d88 25bd 8522 29bd b7f0 26bd
000000d0: 54c7 90bd c692 a2bd 3c53 dbbd 4a66 8abd
000000e0: c188 05be 844f 7cbd cfe2 3ebd 6169 b8bd
000000f0: 8792 75bd 0aa8 58bd 37c5 babd dff9 26bd
00000100: 37da 85bd 829c 0cbe 5a9c 3fbd 27bb 17be
00000110: f6f7 a1bd 5368 eebb 8936 6abd 9a5d e6bc
00000120: 6ee1 2a3d 3a9e b739 428d 803b 37e3 8cbd
00000130: 3072 1ebe 4ec5 77bd 6ce5 adbd a7b4 9abd
00000140: 094d fc3c d28b c6bd 7f6e d7bc 2dd4 193d
00000150: 5f8b 6dbd 6c06 23bd e2e9 26bd 9e1e 74bc
00000160: 332b 91bd b429 243d b739 18bd 7595 81ba
00000170: a176 74bc 86b6 70bd 253d 9cbd 8228 bdbd
00000180: 8b03 82bd cce3 9b3c 4b2f f0bc 4142 d0bd
00000190: be28 c6bd cba8 c1bd 6e21 1bbe fc57 72bd
000001a0: ffca 86bd 639a 76bc 6f60 7bbd b537 efbc
000001b0: 7ddc b1bd 90a7 d0bd 8138 12be 9c52 dcbc
000001c0: 2401 9cbd 8f3b 85bd c0be b5bd 2fc0 723b
000001d0: 1799 cfbd 35d0 05be 766a 03be 8642 cfbd
000001e0: 9f94 5fbd c59b 90bd 1f1f 9bbd 0866 a5bc
000001f0: cb90 eabc 8d49 b4bd 00dd 14be 0873 02be
-0.112137794 -0.08285982 -0.04916568 -0.08865856 -0.086957164 -0.11131934 -0.12021811 -0.0392717
-0.11805739 -0.08944829 -0.04549418 -0.06920125 -0.044031814 -0.13803475 -0.038757667 -0.053351685
0.011871489 -0.08498981 0.020679923 -0.048530366 -0.08370132 -0.063338034 0.024942532 -0.055367943
-0.13120797 -0.0020230585 0.0052809194 -0.05647047 -0.11230193 -0.068017796 -0.07034794 -0.06782912
-0.06970218 -0.031593908 -0.00026940624 -0.1438587 -0.08534477 -0.14116147 -0.11909755 -0.023931703
-0.13520873 -0.07632142 -0.052761253 -0.14545685 -0.03730423 -0.090826325 -0.06189298 0.008884236
-0.03801134 -0.04041325 -0.041292686 -0.040756907 -0.07069269 -0.07938151 -0.10709235 -0.06757791
-0.13040449 -0.06159927 -0.04660302 -0.090044744 -0.059954192 -0.05289463 -0.09119647 -0.04076564
-0.06535762 -0.13731578 -0.046779968 -0.14817487 -0.07908623 -0.00727562 -0.057180915 -0.028120805
0.041718893 0.00035022368 0.0039230892 -0.06879275 -0.15473247 -0.0604909 -0.084910244 -0.07553988
0.030798452 -0.09694637 -0.026297806 0.037555862 -0.057994243 -0.039801046 -0.04075039 -0.014899878
-0.07088318 0.040078834 -0.037164416 -0.0009886461 -0.014920861 -0.058767818 -0.0762885 -0.09236242
-0.06348332 0.01902952 -0.029319426 -0.10168887 -0.0967574 -0.09456023 -0.15149471 -0.05916594
-0.06581687 -0.015051457 -0.061371263 -0.029201368 -0.08684633 -0.1018821 -0.14279367 -0.02689486
-0.07617405 -0.065055005 -0.08874273 0.003704082 -0.101366214 -0.13067706 -0.1283358 -0.1012011
-0.054585095 -0.07060961 -0.07574295 -0.020190254 -0.028633496 -0.08803091 -0.1453743 -0.12739193

action_model._continuous_distribution.log_sigma f4 [1, 2]
00000000: 2436 7abf 5e7d 8abf
-0.9773886 -1.0819509

action_model._continuous_distribution.mu.weight f4 [2, 128]
00000000: 2d4a cdbd d8b3 933c ddaa 093c 6792 663b
00000010: ad63 773a 3c8c 7b3c 2c1d 05ba fa31 923a
00000020: 5e9d 8dbb 90ff 863b ad69 363c 4563 01ba
00000030: c2c3 5fbb 54ba 113d d3ea 8ebd b805 8e3c
00000040: 7518 1dba 48e1 81bb baa9 dc3b 7e03 41bc
00000050: 40ed 233d 3893 703a fea9 cfba 9e63 a63b
00000060: d1f9 bb3b 7b53 65bb abf2 3cbb 338b 25bb
00000070: 4125 223c 1151 aa3b 25bf 6dba 62f1 983c
00000080: 3bd6 77bb ef35 9c3b 17e4 943b 533e 9c3c
00000090: 35d0 623c a35e c13c 40e4 a93c 2293 f63a
000000a0: 0f21 913c b47a cfbb 6f03 75bb 782c 513c
000000b0: b94e 943c 6094 263b 8e87 0f3a f085 5ebc
000000c0: eba0 31bd cc36 8b3c d79f 763b 7238 623c
000000d0: 3c31 aebb caac 8d3c fdd0 f33a 82e4 64bc
000000e0: 22c2 dd3b 4e9f 883b 0d4f 083d e7db 2c3c
000000f0: 9c68 3abc 1fc8 48bc 1659 d0bb 4ec7 96bb
00000100: df9c babd 8540 153d f5ae eebb 4d5a 223d
00000110: 9087 afbb aa65 c4bb 1c74 c7ba 7dac 1137
00000120: ba2f 1fbc b127 803c 1c8e 73bb a093 a1bc
00000130: 6ff7 f03c aa81 6eb9 20cf df39 b85b 5a3c
00000140: e78a edbb d2c6 80bd fc08 283a 5ad6 673b
00000150: 57d5 48ba 7d33 58bc 1087 a03c bb2e d93c
00000160: 1f76 8a3c 98a9 7939 0f06 cbbb b7eb bd3b
00000170: 2159 5bbb b89a c53b f9df 6d3b fe98 db3c
00000180: aa77 223a 23c8 5abd 02a3 c2bc ee15 603c
00000190: eada 8a3c 8d57 0c39 cf26 0b3d e183 db3c
000001a0: 04f2 08bb 5e35 e9bb a13b 533c f5f3 50bd
000001b0: c011 a23b 207a a83c 9c54 9c3c 3aab 733b
000001c0: 8546 9d3a 2750 b53c 8bc5 5d3c 8620 dc3b
000001d0: daa2 2e3c d757 843c 552e 80bb 65be fd3b
000001e0: f3e5 833c 17a9 943b dd6d d0bb 13a4 7abc
000001f0: 8219 8b3b 1b0b 593c 8573 723d fef6 1a3c
00000200: 5038 3b3c ebef d6bc 6127 efbb eb6e 52bd
00000210: d2e3 b4bb ad13 7ebd 6edf 9c3b 7d57 e33a
00000220: 21b4 9939 8c79 f43a 16f2 9f3b 159a 8a3b
00000230: 4934 b73a 2dbb e3bc 1e22 9ebd c14d cdbc
00000240: aba3 fc3a 3e32 cd3c 89a4 66bb c606 d43c
00000250: 328e 89bc eba3 b73b e140 6bbb 278d 473c
00000260: da01 993b 74c7 d2bb 2e6e 17bb fb4e 50bb
00000270: 575c deba 6415 b0bb 638c 0cbc 7ecc a03c
00000280: 8fc7 17bc db7c 8b3b 0f75 12ba dc8d d5ba
00000290: 3594 d03b 3c4e 373b 3998 473c 3713 0b3c
000002a0: a1d5 71ba f0cf 4b3d 0577 a0ba 0507 c13c
000002b0: 150e 573c c713 903b a8f5 313c e0e8 1c3b
000002c0: 3433 1c3d 6f38 57bd 1627 a23b b642 1b3c
000002d0: c361 80bb db45 2e3b e5ec 69bb fc8b 273d
000002e0: ab36 993b 5cd7 cbbb 8921 da3a b0f4 1e3c
000002f0: 91f2 863d cd4e 1dbd 8fce 933b 00e6 2fbb
00000300: efd3 873c e960 3bbc d5db 69bb 4b2c f1bc
00000310: bf9b e3bb 57ca 653a c478 9039 147c 1abb
00000320: f0c0 fb3b ba7d 78bc dc9c 1a3b 41b4 9a3d
00000330: 637c 763d aec8 babb d38d d73d 16c3 8d3d
00000340: 2c7c 713b 2694 973a b1ae 9cbb 9a0f 40bb
00000350: d9de 51ba ed69 0e3d 3b6f 283c 98e7 3a3c
00000360: c6d7 a73c 92f5 b0ba 3492 773d b7df 6c3b
00000370: d8c8 bd3a 187d 613b 4179 5c3c 52f3 cd3c
00000380: a377 5bbc 439c a73c 3ff8 9c3c 07a0 2dbb
00000390: 5141 ad3b 580f 443c fbc4 20bd e561 103b
000003a0: 82c2 bcbb 3441 763b a958 2f3c cf5f f93c
000003b0: 9886 2b3b 4cde 663c 5662 903d 20ee 3f3c
000003c0: 42dd bdbb d039 bc3b ba2c aabb 5f13 e7ba
000003d0: 9571 98bc d720 95bd f5d6 bcbb dd12 c4bc
000003e0: 7228 d5bc b44d d2ba 1fff 953b ccba 063c
000003f0: 03c7 3f3c 5d3f 89bd 072c 103d b212 a9bb
-0.100239135 0.018030092 0.008402553 0.0035182477 0.0009437155 0.015353259 -0.00050778943 0.001115381
-0.004321738 0.004119821 0.0111335935 -0.0004935752 -0.003414378 0.035578087 -0.06978383 0.017336711
-0.0005992719 -0.003963623 0.0067341 -0.011780618 0.04002118 0.0009177211 -0.0015843508 0.0050777933
0.0057365675 -0.0034992385 -0.0028831165 -0.002525997 0.009896577 0.005197652 -0.0009069315 0.018669788
-0.00378169 0.0047671716 0.004543792 0.019072687 0.013843586 0.023604697 0.02073872 0.001881216
0.017715959 -0.006331766 -0.003738608 0.01276695 0.018103944 0.0025418028 0.00054752163 -0.013581738
-0.043366354 0.016993903 0.0037631893 0.013807403 -0.005315928 0.017294306 0.0018601712 -0.013970496
0.006767527 0.004169381 0.033278514 0.010550476 -0.01137748 -0.012254744 -0.006358276 -0.0046013957
-0.09111952 0.036438484 -0.00728404 0.0396369 -0.0053567365 -0.0059935646 -0.0015217098 8.682834e-06
-0.009715969 0.015643926 -0.0037163561 -0.019723713 0.02941486 -0.00022745752 0.00042688195 0.0133275315
-0.0072492245 -0.06287922 0.000641003 0.0035375566 -0.00076611846 -0.0131958695 0.019595653 0.02651154
0.016902028 0.00023809669 -0.0061957906 0.0057959217 -0.0033469873 0.006030407 0.0036296828 0.02680635
0.0006197641 -0.05341352 -0.023759369 0.013677103 0.01695009 0.00013384056 0.033972558 0.026796283
-0.0020896206 -0.0071169576 0.012892635 -0.051013906 0.0049459636 0.020566046 0.019083314 0.0037180916
0.0011999166 0.022132946 0.013535867 0.0067177443 0.010658944 0.016155167 -0.003911773 0.007743644
0.01610086 0.0045367586 -0.006360753 -0.015297907 0.004244984 0.013247277 0.0591922 0.009458302
0.011427 -0.026237449 -0.0072983955 -0.05137531 -0.0055203224 -0.062030483 0.004787377 0.0017344799
0.0002931664 0.0018651946 0.004881154 0.004229794 0.0013977374 -0.027799213 -0.07721351 -0.02506149
0.0019274851 0.025048371 -0.0035193285 0.025882136 -0.016791437 0.0056042573 -0.0035896825 0.012179649
0.00466941 -0.006432468 -0.0023106444 -0.0031785357 -0.0016964775 -0.0053736437 -0.008578393 0.01962876
-0.009263887 0.0042568273 -0.0005586901 -0.0016292888 0.006365324 0.0027970215 0.012182289 0.008488468
-0.00092252536 0.04975885 -0.0012242502 0.023562917 0.013125916 0.004396889 0.010861792 0.0023942515
0.03813477 -0.052544054 0.004948507 0.009476354 -0.003917904 0.002659193 -0.0035694179 0.040904984
0.0046757064 -0.006220741 0.0016642074 0.009701893 0.065892346 -0.03840523 0.0045107077 -0.0026839972
0.01658055 -0.011436679 -0.0035684009 -0.029440066 -0.0069460566 0.0008765808 0.00027555798 -0.0023572491
0.007682912 -0.015166694 0.002359203 0.07553912 0.06017722 -0.0057001924 0.10525098 0.06921975
0.0036847694 0.0011564537 -0.004781567 -0.0029306174 -0.0008005924 0.034768987 0.010280426 0.011407755
0.020488631 -0.001350092 0.060442165 0.0036144087 0.0014479412 0.0034406837 0.013456644 0.025140438
-0.013395223 0.020460254 0.019161342 -0.0026493089 0.0052873273 0.011966549 -0.039250355 0.0022031006
-0.005760492 0.0037575485 0.010702291 0.030441193 0.0026172753 0.014091086 0.07050006 0.011714488
-0.0057941983 0.0057441965 -0.00519332 -0.0017629674 -0.018608848 -0.07281654 -0.0057629296 -0.023934776
-0.026020262 -0.0016044886 0.004577532 0.008223247 0.011705163 -0.06701539 0.035198238 -0.0051596994

action_model._continuous_distribution.mu.bias f4 [2]
00000000: 6bdb abbc 0d5c 443a
-0.02097865 0.0007490523

exp_avg f4 [128, 56]
00000000: 507f afba 6b37 4a3a 15c5 083a 6f01 56b9
00000010: cf86 eab9 4b90 40ae 3beb 20ba 4b90 40ae
00000020: 0e0a 19ba 4b90 40ae 85e1 203a 4b90 40ae
00000030: e720 943a f4b5 3aae d790 a83a 4b90 40ae
00000040: cf53 5d3a 288f 40ae 3b19 f139 3c90 40ae
00000050: 6662 9f39 4b90 40ae 14a8 0f39 4b90 40ae
00000060: 45e4 f7b7 4b90 40ae 1cd6 93b9 4b90 40ae
00000070: 5e62 afba af2d 493a 4572 093a 9120 58b9
00000080: cf55 eab9 4b90 40ae fbfa 20ba 4b90 40ae
00000090: 3a46 19ba 4b90 40ae cc22 213a 4b90 40ae
000000a0: efc5 933a e157 3aae 3bb1 a83a 4b90 40ae
000000b0: 1a6c 5d3a 0490 40ae eb0e f139 2c90 40ae
000000c0: eccf 9f39 4b90 40ae 33ad 1039 4b90 40ae
000000d0: 777a eeb7 4b90 40ae 2446 93b9 4b90 40ae
000000e0: 4181 beb8 0701 6439 dd7e 8839 4867 b738
000000f0: b880 b0b9 8608 afad ee8f 0aba 8608 afad
00000100: 2497 0fba 8808 afad caec 3fb9 8508 afad
00000110: 970e 5f38 6142 abad 8b6c 9939 8608 afad
00000120: b578 aa39 f509 afad e097 c039 8808 afad
00000130: e3cb ad39 8608 afad 91b2 5739 8608 afad
00000140: 5cea a738 8608 afad 5a15 18b9 8608 afad
00000150: 2ee7 d4b8 e37c 6f39 9900 8939 fac2 b738
00000160: ad84 b0b9 8408 afad 9a9d 0aba 8408 afad
00000170: e9a5 0fba 8408 afad abc9 3fb9 8408 afad
00000180: 8a54 5b38 2f0e abad f07f 9939 8408 afad
00000190: e574 aa39 4c09 afad 5f80 c039 7d08 afad
000001a0: cad7 ad39 8408 afad bed5 5739 8408 afad
000001b0: a846 a838 8408 afad 85e5 17b9 8408 afad
000001c0: df6a b83a 4378 77ba a206 41ba b717 4339
000001d0: 5856 3a3a c431 802e b5cd 863a c431 802e
000001e0: 7dcb 863a c431 802e 187e e0b9 c431 802e
000001f0: 69ce 93ba 094f 792e 8f62 c2ba c431 802e
00000200: ae9a 8eba d030 802e c3c3 45ba b731 802e
00000210: 7638 12ba c431 802e a631 9ab9 c431 802e
00000220: 0290 03b8 c431 802e 7808 cf39 c431 802e
00000230: 1909 b83a dabf 7aba 1be1 41ba 8724 4539
00000240: 3140 3a3a c331 802e b5da 863a c331 802e
00000250: bdec 863a c331 802e 240e e1b9 c331 802e
00000260: 3751 93ba 76d5 782e ba85 c2ba c331 802e
00000270: 8fa5 8eba a231 802e 6ab5 45ba a731 802e
00000280: 6875 12ba c331 802e bfc1 9ab9 c331 802e
00000290: 6ab3 08b8 c331 802e a366 ce39 c331 802e
000002a0: 4345 fc3a 8459 24ba 413c ac38 208e ef39
000002b0: ba10 04ba f475 c52c 8ea2 7cba f475 c52c
000002c0: 644a 9aba f475 c52c f6dd 09bb ee75 c52c
000002d0: 3b00 0bbb c93b 8f2c 25b8 baba f475 c52c
000002e0: 42e3 b2b9 2444 c52c dc38 2e3a fc74 c52c
000002f0: 9051 453a f475 c52c 7244 153a f475 c52c
00000300: 492b ca39 f475 c52c c589 35b8 f475 c52c
00000310: f60c fa3a 830c 15ba 3630 a938 03b3 f139
00000320: 4342 04ba f875 c52c f2a9 7cba f875 c52c
00000330: e41a 9aba f875 c52c 96f1 09bb fb75 c52c
00000340: 24db 0abb ac67 8c2c 05e6 baba f875 c52c
00000350: 6c44 b3b9 ea63 c52c 6423 2e3a 8c74 c52c
00000360: 3617 453a f875 c52c fdf5 143a f875 c52c
00000370: 9f67 c939 f875 c52c da55 3bb8 f875 c52c
00000380: b427 473a 1187 afb9 7bf0 9cb8 080e 6f39
00000390: 7b70 b6b8 9666 fe2c 2f3d 57b9 9666 fe2c
000003a0: 2c3b 88b9 9666 fe2c 8214 3bba 9466 fe2c
000003b0: a630 4eba 2432 dd2c 79bf 22ba 9666 fe2c
000003c0: 3a2a 71b9 d83a fe2c 391d 0b39 6765 fe2c
000003d0: 038e 5439 9666 fe2c ee5c 3039 9666 fe2c
000003e0: 9236 0b39 9666 fe2c c38c 0638 9666 fe2c
000003f0: d717 403a 1b69 aeb9 b1a6 9eb8 80cd 7039
-0.0013389383 0.00077139464 0.0005217356 -0.00020409164 -0.00044732398 -4.3783904e-11 -0.00061385677 -4.3783904e-11
-0.0005837985 -4.3783904e-11 0.00061371207 -4.3783904e-11 0.001130131 -4.245311e-11 0.0012860548 -4.3783904e-11
0.00084429694 -4.3782894e-11 0.000459859 -4.378385e-11 0.00030400156 -4.3783904e-11 0.00013700157 -4.3783904e-11
-2.955099e-05 -4.3783904e-11 -0.0002819755 -4.3783904e-11 -0.0013380756 0.0007674349 0.0005243163 -0.00020611497
-0.0004469589 -4.3783904e-11 -0.00061409146 -4.3783904e-11 -0.00058469514 -4.3783904e-11 0.0006146848 -4.3783904e-11
0.0011274199 -4.2369556e-11 0.0012870202 -4.3783904e-11 0.00084465893 -4.3783657e-11 0.00045978217 -4.3783796e-11
0.00030481757 -4.3783904e-11 0.00013797432 -4.3783904e-11 -2.8428838e-05 -4.3783904e-11 -0.00028090284 -4.3783904e-11
-9.0839814e-05 0.00021744157 0.00026034462 8.7453576e-05 -0.0003366524 -1.9898982e-11 -0.00052857294 -1.9898982e-11
-0.0005477539 -1.9898985e-11 -0.0001830339 -1.989898e-11 5.318093e-05 -1.9469927e-11 0.00029263305 -1.9898982e-11
0.0003251486 -1.9899618e-11 0.0003673425 -1.9898985e-11 0.0003314904 -1.9898982e-11 0.00020570519 -1.9898982e-11
8.0068334e-05 -1.9898982e-11 -0.00014503804 -1.9898982e-11 -0.00010152008 0.0002283934 0.00026131122 8.762437e-05
-0.00033668187 -1.9898978e-11 -0.00052877667 -1.9898978e-11 -0.00054797396 -1.9898978e-11 -0.00018290307 -1.9898978e-11
5.2292402e-05 -1.9446748e-11 0.00029277755 -1.9898978e-11 0.0003251202 -1.9899325e-11 0.00036716738 -1.9898966e-11
0.00033157907 -1.9898978e-11 0.00020583623 -1.9898978e-11 8.024025e-05 -1.9898978e-11 -0.00014485985 -1.9898978e-11
0.0014069936 -0.00094402226 -0.0007363354 0.00018605484 0.0007108203 5.829606e-11 0.0010284694 5.829606e-11
0.0010284033 5.829606e-11 -0.00042818557 5.829606e-11 -0.0011276725 5.6686243e-11 -0.0014830398 5.829606e-11
-0.0010879838 5.829437e-11 -0.00075441244 5.829597e-11 -0.00055778713 5.829606e-11 -0.0002941016 5.829606e-11
-3.136695e-05 5.829606e-11 0.00039488426 5.829606e-11 0.0014040797 -0.0009565331 -0.0007395909 0.00018800992
0.0007104902 5.8296055e-11 0.0010288568 5.8296055e-11 0.0010293942 5.8296055e-11 -0.0004292588 5.8296055e-11
-0.0011239414 5.6578263e-11 -0.0014840879 5.8296055e-11 -0.001088308 5.8295826e-11 -0.00075419864 5.829586e-11
-0.0005586953 5.8296055e-11 -0.0002951752 5.8296055e-11 -3.259202e-05 5.8296055e-11 0.00039367852 5.8296055e-11
0.0019246716 -0.00062694424 8.212822e-05 0.00045691524 -0.0005037893 5.612172e-12 -0.00096372596 5.612172e-12
-0.0011771438 5.612172e-12 -0.002103684 5.6121696e-12 -0.0021209854 4.070942e-12 -0.0014245553 5.612172e-12
-0.00034120126 5.606642e-12 0.0006646046 5.6120646e-12 0.00075271074 5.612172e-12 0.0005694098 5.612172e-12
0.00038560692 5.612172e-12 -4.328207e-05 5.612172e-12 0.0019077349 -0.00056857633 8.067528e-05 0.00046100476
-0.0005045274 5.612174e-12 -0.0009638361 5.612174e-12 -0.0011757282 5.612174e-12 -0.0021048537 5.6121752e-12
-0.0021187747 3.990549e-12 -0.0014259225 5.612174e-12 -0.0003419252 5.6101694e-12 0.0006642847 5.612016e-12
0.00075184123 5.612174e-12 0.0005682407 5.612174e-12 0.0003841491 5.612174e-12 -4.466423e-05 5.612174e-12
0.0007597164 -0.00033479233 -7.483453e-05 0.00022798043 -8.6993874e-05 7.2305035e-12 -0.0002052679 7.2305035e-12
-0.00025984028 7.2305035e-12 -0.000713654 7.2305027e-12 -0.00078655255 6.2867645e-12 -0.0006208341 7.2305035e-12
-0.00022999282 7.225647e-12 0.0001326696 7.230372e-12 0.00020270799 7.2305035e-12 0.00016819287 7.2305035e-12
0.00013276402 7.2305035e-12 3.2079184e-05 7.2305035e-12 0.0007327771 -0.00033266176 -7.565076e-05 0.00022964738

exp_avg_sq f4 [128, 56]
00000000: 7556 7f37 f1c5 9137 ffb1 ee35 25f5 0436
00000010: 4d35 1a37 7b27 ad1e 39fa 4737 601b ac1e
00000020: fbd3 4f37 90a8 b01e 3dc3 3537 55df af1e
00000030: 6bac 4037 6ab7 af1e fd55 ef36 e836 ad1e
00000040: c39b 6d36 c69e af1e 5f50 b336 2dec af1e
00000050: e2cb d636 9c2d b11e 1f7a d836 6b1e b11e
00000060: 5ad1 da36 3d99 b11e 1c18 ee36 d7fa b11e
00000070: 239b 8037 a116 9237 b7ed ef35 0f86 0536
00000080: 6088 1a37 d72d af1e a448 4a37 3397 af1e
00000090: e5d9 5237 c062 b31e 87ed 3537 328e b11e
000000a0: 3ca2 4137 90a1 b11e f747 f436 7cc0 af1e
000000b0: f9db 7b36 cd5e b11e 1f80 c136 db5d b21e
000000c0: cd16 db36 934b b31e faec d936 a5ee b21e
000000d0: 5afb da36 dcad b31e 04f0 ec36 6ddc b31e
000000e0: 56d5 6736 e5e0 ab36 c23c d834 bccf 1935
000000f0: 2433 3d36 2a75 bd1d ee26 5236 c625 bc1d
00000100: 947f 2036 ddfa bb1d 2610 4136 f32a bd1d
00000110: b994 5d36 5a61 be1d 80cf 0b36 84db bb1d
00000120: d073 8b35 c4e3 be1d a06f b635 dc6a be1d
00000130: 1a2f c735 6625 bf1d 798e ca35 4744 bf1d
00000140: ae49 d735 0265 bf1d 576c eb35 5fa7 bd1d
00000150: 8e9b 6d36 fa16 ad36 cdb4 d934 c7c5 1a35
00000160: 11d4 3d36 69b1 c41d d526 5436 092f c41d
00000170: 6890 2236 a13b c41d 399b 5036 0295 c41d
00000180: 731a 7736 4e21 c61d c2c6 1e36 59da c21d
00000190: 3217 9935 4010 c61d 7452 c135 3e5c c51d
000001a0: 507a cb35 c14f c61d 5310 cd35 1261 c61d
000001b0: f133 d935 5c88 c61d af11 ec35 38c8 c41d
000001c0: 2c7c 1c38 6318 7938 31aa 8a36 138d c736
000001d0: 713b e937 dc83 891f 202c 1a38 336d 8a1f
000001e0: aa50 1f38 1321 8b1f 57c6 0738 32fd 8b1f
000001f0: cb43 fe37 4609 8c1f f862 8d37 6dc1 881f
00000200: dc87 2b37 4470 8b1f f0bf 9e37 0dc6 8b1f
00000210: 74ec bd37 9605 8d1f d9d0 cc37 ab04 8d1f
00000220: 1095 ca37 d60e 8d1f ce11 bf37 0d39 8d1f
00000230: 9270 1d38 4b6e 7938 bd69 8b36 9c7a c836
00000240: 556a ea37 7128 8b1f 9f65 1b38 f3bb 8c1f
00000250: 5d6a 2138 8763 8d1f b031 0938 5cb1 8d1f
00000260: 0f3b 0138 56a0 8d1f 433a 9337 1a0d 8b1f
00000270: ddaf 3237 a2fe 8c1f edc4 a437 679a 8d1f
00000280: 47e0 bf37 d8b3 8e1f 6ec7 cd37 307e 8e1f
00000290: e861 cb37 00b0 8e1f 76e6 be37 6cba 8e1f
000002a0: adce 7238 d09c ab38 f23d a436 e3a6 f836
000002b0: ca41 1c38 9c53 c51f 18b2 5338 6df7 c41f
000002c0: 9dba 5b38 3697 c61f 8cbe 4a38 0448 c71f
000002d0: 81f1 4c38 106e c71f 45c3 fc37 bd61 c71f
000002e0: 1eee 8b37 0a02 ca1f f2b3 da37 431d c81f
000002f0: b445 f737 5bcf ca1f d4b7 fb37 33ae ca1f
00000300: 4364 ff37 c771 ca1f 3e5b fd37 fc6c c91f
00000310: 7308 7838 d875 ab38 f531 a536 66da f936
00000320: 266e 1d38 549e cb1f ce35 5838 482b cd1f
00000330: 043c 6338 1010 ce1f 56f5 4d38 250b cd1f
00000340: 46b4 5038 4c00 ce1f 1d03 0338 f26d cd1f
00000350: 1cbf a237 b768 cf1f 118d 0438 2fff cd1f
00000360: 8304 0338 ff63 d11f ca80 0038 e028 d11f
00000370: 4e32 0038 2af8 d01f 75d6 fd37 7fcb cf1f
00000380: 88ee 0a38 c085 6438 a096 8f36 d091 bb36
00000390: 90cf ba37 ee37 891f 668e 0a38 3895 891f
000003a0: 7ef0 1c38 4080 8a1f f336 f337 5e55 8b1f
000003b0: c4fe d237 6024 8b1f 051d 6f37 1922 881f
000003c0: 3366 1637 b379 8a1f f61a 9f37 73f1 871f
000003d0: 7d78 dd37 38af 8c1f 7ac4 f037 b697 8c1f
000003e0: 04ea e537 3a4a 8c1f 1e73 a537 f05b 8b1f
000003f0: e295 0c38 9927 6438 2848 9036 aa4a bc36
1.5219314e-05 1.737752e-05 1.7784186e-06 1.9812226e-06 9.191525e-06 1.8333416e-20 1.1919584e-05 1.822253e-20
1.2387517e-05 1.870444e-20 1.0833898e-05 1.8621214e-20 1.1484236e-05 1.8604704e-20 7.1327654e-06 1.8339796e-20
3.5406417e-06 1.8594513e-20 5.343972e-06 1.8626526e-20 6.401432e-06 1.8759468e-20 6.4515184e-06 1.8753185e-20
6.521278e-06 1.8803982e-20 7.0957594e-06 1.8844349e-20 1.533103e-05 1.7415094e-05 1.7876072e-06 1.9896577e-06
9.210868e-06 1.8547805e-20 1.2057051e-05 1.859138e-20 1.2567708e-05 1.8993204e-20 1.0843744e-05 1.8799415e-20
1.154147e-05 1.8807425e-20 7.2801445e-06 1.8608455e-20 3.7529956e-06 1.8779813e-20 5.7667635e-06 1.88853e-20
6.529363e-06 1.8983619e-20 6.4946917e-06 1.8945184e-20 6.5261675e-06 1.9024269e-20 7.0612896e-06 1.9043528e-20
3.454586e-06 5.1223783e-06 4.0277342e-07 5.7299235e-07 2.8192962e-06 5.014903e-21 3.1315099e-06 4.9802242e-21
2.3916118e-06 4.9757874e-21 2.876864e-06 5.007229e-21 3.3018134e-06 5.039324e-21 2.0833395e-06 4.972546e-21
1.0390013e-06 5.0528085e-21 1.3592544e-06 5.040307e-21 1.4840364e-06 5.059595e-21 1.5091638e-06 5.0627876e-21
1.6040192e-06 5.066172e-21 1.7540395e-06 5.020094e-21 3.5406297e-06 5.1584766e-06 4.055095e-07 5.7657275e-07
2.8286634e-06 5.2064206e-21 3.1613065e-06 5.19294e-21 2.4223937e-06 5.1942423e-21 3.1084767e-06 5.203484e-21
3.6821264e-06 5.24446e-21 2.3659527e-06 5.157714e-21 1.1406139e-06 5.2426966e-21 1.4403618e-06 5.224084e-21
1.5160276e-06 5.2492627e-21 1.5278441e-06 5.251053e-21 1.6182877e-06 5.2551156e-21 1.7588517e-06 5.208779e-21
3.7308942e-05 5.9388938e-05 4.1325334e-06 5.9470854e-06 2.7803444e-05 5.82399e-20 3.6757556e-05 5.862593e-20
3.798368e-05 5.8923507e-20 3.2371227e-05 5.9287666e-20 3.0310728e-05 5.930765e-20 1.6854596e-05 5.7918237e-20
1.02240265e-05 5.905452e-20 1.8924446e-05 5.919644e-20 2.2640663e-05 5.9725064e-20 2.4415947e-05 5.9723545e-20
2.414969e-05 5.974037e-20 2.2777265e-05 5.9810205e-20 3.7536556e-05 5.9468945e-05 4.1548324e-06 5.974738e-06
2.7944488e-05 5.8935695e-20 3.704952e-05 5.960324e-20 3.848445e-05 5.988048e-20 3.270962e-05 6.000924e-20
3.0811e-05 5.9981076e-20 1.7550896e-05 5.8890465e-20 1.0650573e-05 5.971356e-20 1.9642024e-05 5.997126e-20
2.2873412e-05 6.0436866e-20 2.4530771e-05 6.03481e-20 2.4245077e-05 6.043051e-20 2.2757082e-05 6.044775e-20
5.7889778e-05 8.183124e-05 4.8947923e-06 7.410404e-06 3.725457e-05 8.3571065e-20 5.0472183e-05 8.341856e-20
5.2387466e-05 8.410642e-20 4.8338014e-05 8.439892e-20 4.8862308e-05 8.446186e-20 3.013167e-05 8.444147e-20
1.6680973e-05 8.55537e-20 2.6071419e-05 8.4751704e-20 2.9477153e-05 8.589337e-20 3.0007133e-05 8.5838516e-20
3.0445057e-05 8.5738556e-20 3.0202438e-05 8.530711e-20 5.9135677e-05 8.1758655e-05 4.923199e-06 7.446203e-06
3.75343e-05 8.6235776e-20 5.1548523e-05 8.689248e-20 5.417691e-05 8.7270967e-20 4.9104296e-05 8.6839314e-20
4.9758957e-05 8.7244885e-20 3.1235733e-05 8.7002766e-20 1.9400897e-05 8.7841146e-20 3.160263e-05 8.724304e-20
3.1237036e-05 8.868037e-20 3.0637522e-05 8.8582565e-20 3.0564428e-05 8.850198e-20 3.0259815e-05 8.8004566e-20
3.3123913e-05 5.4484e-05 4.279267e-06 5.590009e-06 2.2269582e-05 5.8114285e-20 3.3034383e-05 5.826862e-20
3.7417274e-05 5.8657445e-20 2.8993445e-05 5.901002e-20 2.5152585e-05 5.892897e-20 1.4252267e-05 5.765465e-20
8.964492e-06 5.864661e-20 1.8966832e-05 5.757417e-20 2.640136e-05 5.958218e-20 2.8701721e-05 5.954329e-20
2.74079e-05 5.9415104e-20 1.9723138e-05 5.902089e-20 3.351819e-05 5.4396314e-05 4.2999345e-06 5.6115286e-06

exp_avg f4 [128]
00000000: bb70 163b a8be 883a c34d 48bb 2844 9ab9
00000010: 1dc0 c6b9 b662 7d3b 467f 68bb 1a04 ef3a
00000020: fc50 143a 41ac 0639 da24 c4ba 668e f2ba
00000030: 2305 81ba 516c 453b 3eac a2ba 5fc3 05bb
00000040: 07e7 273b 5d08 f1b9 2676 983a 91fc 5d39
00000050: 2335 bb39 c1b4 243a 3a16 203a b128 db38
00000060: edd4 88b8 b5d7 0fbb a850 2abb cc75 90bb
00000070: 7f2d 82bb 2285 4b3b 21a7 a4ba 8cc1 443b
00000080: dbc0 2639 d6d5 7b3a 62d6 4d3a 3a4f 953a
00000090: 8629 f53a 2a3f 33b8 573e f3b9 6869 a2b9
000000a0: 3c44 d439 b1da 7939 27a9 13ba fbb9 4239
000000b0: bbf0 573b f23c a0ba 7281 b5b9 bb86 50bb
000000c0: a505 113a d748 703b 39d6 b03b 72b5 b33a
000000d0: f513 70bb b60f dd3a 01b3 f539 1067 043a
000000e0: 7b50 45ba d6b6 cdbb c9ca f2b9 0da2 d13a
000000f0: e98f 403b 0184 38ba cc7e d039 b64e b73a
00000100: 8e2f cf3a 2cc6 12ba 7733 9bba 6228 b0ba
00000110: 4710 6bba b36f 353b 319d 6dba ac84 e6b9
00000120: a60b 75b9 489a ab3b b283 483a fd54 b63a
00000130: de9b a93b dba1 da3a c801 4d3a e552 a73b
00000140: b6df 06b9 0bb4 823b 2459 62ba 7629 a6ba
00000150: e21a eeba b64b 2239 afb9 9e37 9832 c0ba
00000160: 9fb7 8fb9 00f0 6dba 46d2 acba d2ca 7e3b
00000170: b524 edb8 5ff2 4aba db14 07ba 3897 15ba
00000180: 6097 5939 cd9f 0f3b 3560 94ba 33b7 f9ba
00000190: c27b b139 52ec 883b 3bbb 8eba 900d 1c3b
000001a0: 5f49 283b cfb1 fe3b 3b53 2b3b f16a 19bb
000001b0: 5e21 ceba 3cde 99b8 c253 14ba d877 c8ba
000001c0: 16e1 573a 9706 90ba d7b6 873a 35c1 883b
000001d0: 8026 d9ba 4239 2e3b 80f1 f53b 0ccf 63ba
000001e0: f8d0 5bbb f962 99b9 089e 8739 cc79 52ba
000001f0: 1830 85bb 7f9f 3bbb 99a1 e63b 4533 e539
0.0022955376 0.0010432797 -0.0030563928 -0.0002942395 -0.00037908638 0.0038663573 -0.0035476252 0.0018235475
0.00056578196 0.00012843405 -0.0014964596 -0.0018505573 -0.000984345 0.0030124376 -0.0012410951 -0.002041064
0.002561988 -0.00045973333 0.0011631891 0.0002117029 0.0003570701 0.0006283038 0.00061068276 0.00010450313
-6.524646e-05 -0.002194864 -0.0025988016 -0.0044085737 -0.0039727087 0.0031054695 -0.0012562015 0.003002259
0.00015902838 0.0009606754 0.0007852075 0.0011391409 0.0018704392 -4.273575e-05 -0.0004639502 -0.00030977582
0.0004048663 0.0002382796 -0.00056328106 0.00018570565 0.0032949883 -0.0012225194 -0.00034619455 -0.0031818587
0.0005532152 0.003666451 0.005396631 0.0013710691 -0.003663299 0.0016865644 0.0004686341 0.0005050758
-0.0007526946 -0.0062778993 -0.00046308924 0.001599373 0.0029382652 -0.0007038713 0.00039767323 0.001398525
0.0015807019 -0.0005598988 -0.0011840899 -0.0013439769 -0.0008966964 0.0027684986 -0.0009064256 -0.00043967867
-0.0002336936 0.0052368976 0.00076490187 0.0013910827 0.0051760515 0.0016680317 0.0007820395 0.0051063173
-0.00012862575 0.003988748 -0.0008634499 -0.0012677151 -0.0018165971 0.00015477728 1.8921533e-05 -0.0014663516
-0.00027411894 -0.00090765953 -0.0013185225 0.0038878215 -0.00011307878 -0.00077418046 -0.0005152949 -0.0005706432
0.00020751124 0.0021915317 -0.0011320176 -0.001905179 0.00033852278 0.004178562 -0.0010889539 0.0023811795
0.0025678498 0.0077726613 0.0026142139 -0.002340969 -0.0015726497 -7.337003e-05 -0.0005658233 -0.0015294505
0.00082351395 -0.0010988292 0.0010354173 0.0041734227 -0.001656726 0.0026584421 0.0075055957 -0.0008690215
-0.0033541303 -0.00029256174 0.0002586695 -0.00080290134 -0.004064571 -0.0028629003 0.007038307 0.00043716482

exp_avg_sq f4 [128]
00000000: 773f 5c38 d98b 7237 8d24 2f39 a3f8 7f39
00000010: ea34 3039 b7af 2039 d6d3 eb38 9f56 f139
00000020: 11d8 4837 194a 8e37 5e1a ad38 70d6 cb38
00000030: 942b 2a39 2aa9 2239 be8e cd37 336a 6338
00000040: 702c 9839 6451 5738 5bf2 3438 d498 f737
00000050: a6e3 e937 3c96 d238 19b5 7138 ba53 0f38
00000060: 0e6b 3538 278e 9938 0563 7f39 5d20 083a
00000070: e05d c439 d386 a039 4e61 e738 b270 de39
00000080: 7e07 be38 ac35 5939 b8da 6639 a553 a837
00000090: 46c8 4a38 1850 8a38 083a 6739 4298 9338
000000a0: 21ee 8b37 d561 8c39 9e68 be38 bb6c 0e38
000000b0: 3e52 6439 cce1 f838 f235 1f38 b283 0539
000000c0: 55be e838 74a0 4d39 ef7d 123a 4912 fd37
000000d0: 7981 4139 f156 5438 a3a5 d938 df85 3138
000000e0: 12b2 e036 9393 9539 1d6d 7b36 5b21 8138
000000f0: 3cae e138 a800 be37 60a3 0137 f929 e938
00000100: 37e0 c737 afc9 f937 be59 6037 2edc 0d38
00000110: 1a11 ab38 f6c8 3639 b025 f536 227d e136
00000120: a387 6037 9a97 a839 c688 9939 1f00 2438
00000130: fe93 d639 e895 6d38 2190 5438 8313 623a
00000140: 9b16 7338 cf04 8139 7d6e fe36 652f 6337
00000150: aa07 6738 61e7 3338 6ad5 9837 1c0e 3c38
00000160: 8840 5038 6d1f 8f37 b725 7837 25f7 cd39
00000170: a16f ea37 e0f8 e936 8c85 2237 73a9 5a38
00000180: 658b 8a37 9cf9 1039 64aa 0238 e676 2638
00000190: ce66 df37 12dd 3139 eeb0 3a38 b4f2 ac38
000001a0: a2aa 0a39 9829 4c3a 2c11 2639 b671 ef39
000001b0: e8a9 1a39 ea38 5d38 3f25 f737 32b3 2138
000001c0: 9d7a ad37 7dcd 7e38 ab93 f836 eeb3 0c39
000001d0: 8c44 dd38 3d44 9739 0a88 1c3a e2ad 9437
000001e0: df70 3f39 c941 7d36 27c2 3237 6627 0138
000001f0: d2be 1f39 2dd7 2439 4a43 8c3a 4822 1b38
5.2511194e-05 1.4456885e-05 0.00016702917 0.0002441132 0.0001680438 0.00015324248 0.00011245131 0.0004603164
1.1971236e-05 1.6962224e-05 8.254194e-05 9.7197364e-05 0.00016228697 0.00015512542 2.4504374e-05 5.4219923e-05
0.00029024808 5.1335795e-05 4.3141055e-05 2.951586e-05 2.7881772e-05 0.00010041564 5.7627538e-05 3.4171833e-05
4.3253465e-05 7.3220865e-05 0.00024355583 0.0005192811 0.00037453976 0.0003061803 0.00011033063 0.00042427104
9.0613015e-05 0.00020714727 0.00022015988 2.006611e-05 4.8347072e-05 6.5952714e-05 0.00022051495 7.0378665e-05
1.6680979e-05 0.0002677577 9.0793925e-05 3.39567e-05 0.00021774412 0.000118676195 3.7958795e-05 0.00012732929
0.00011098074 0.00019610097 0.00055882236 3.0168465e-05 0.00018454147 5.062571e-05 0.000103782186 4.2324766e-05
6.6964503e-06 0.00028529446 3.7465427e-06 6.157412e-05 0.0001076129 2.265007e-05 7.727038e-06 0.00011118124
2.3827057e-05 2.977703e-05 1.3372335e-05 3.3822078e-05 8.157101e-05 0.00017431736 7.3059564e-06 6.72009e-06
1.3383021e-05 0.0003215641 0.00029284338 3.910076e-05 0.00040927524 5.6644814e-05 5.067897e-05 0.00086241233
5.7956768e-05 0.0002460838 7.5826524e-06 1.3541289e-05 5.508183e-05 4.2892414e-05 1.821919e-05 4.4835833e-05
4.9651164e-05 1.7061562e-05 1.4790733e-05 0.00039284784 2.7946955e-05 6.972914e-06 9.687046e-06 5.2133062e-05
1.6515793e-05 0.00013825897 3.1153104e-05 3.9688217e-05 2.6631544e-05 0.0001696239 4.4510634e-05 8.246806e-05
0.00013224271 0.00077881804 0.0001583739 0.00045670354 0.0001474988 5.274351e-05 2.9462039e-05 3.855228e-05
2.0680303e-05 6.0749695e-05 7.4081668e-06 0.0001341847 0.00010550869 0.00028851806 0.0005971199 1.7723945e-05
0.00018257227 3.773823e-06 1.0654831e-05 3.079269e-05 0.00015234508 0.00015720418 0.0010701206 3.6986807e-05
