results/inf_sensing/DroneAgent/DroneAgent-499978.onnx (onnx, 100664 bytes, 7 tensors)

network_body._body_endoder.seq_layers.0.weight f4 [128, 56]
000000 63 7c 11 bd a4 91 c1 bd a8 4f 3d 3e 87 25 ea 3d
       -0.035519015 -0.09451607 0.18487418 0.11432939
000010 f6 a2 2e bd 84 5f 39 3c 32 69 ef 3c 30 2c f5 3d
       -0.04263588 0.011314277 0.029224966 0.11971319
000020 a5 fb 5b be 77 12 1d be 31 a9 ac 3e c5 a5 d1 bb
       -0.21482714 -0.15339075 0.33722833 -0.006397935
000030 65 66 04 bd f8 dc bd bd a6 8d 2a 3e df 36 aa bd
       -0.032324214 -0.09270662 0.16655597 -0.08311247
000040 b2 bf 9d bd 01 af 7a 3d 41 cb ca bb 8c 3a 12 3e
       -0.077025786 0.061202053 -0.0061887805 0.14280146
000050 f3 50 03 3e e0 6e 74 3d d0 cc 10 3e 4e 0d 46 3e
       0.12823848 0.05967605 0.1414063 0.19341013
000060 7a 9c 0a bd fc cf dd bd 4c 6a a4 bd 76 4d 55 3d
       -0.033840634 -0.108306855 -0.08028087 0.052075826
000070 d6 b1 30 be 4c 65 a1 3d 32 bf 94 3e 10 ea b8 3d
       -0.17255339 0.07880649 0.2905212 0.09029019
000080 a3 18 17 3e f4 81 93 be c5 88 2b ba e4 be 6c bd
       0.14755492 -0.28810084 -0.00065435126 -0.057799235
000090 14 91 c3 bd ae d4 f8 bd 30 da a4 bc 02 a8 35 be
       -0.09549156 -0.121499404 -0.020123571 -0.17739871
0000a0 40 d4 12 bd 49 80 8c bd 94 4d e1 bc 54 67 42 3e
       -0.03584695 -0.06860406 -0.027502812 0.18984729
0000b0 5b c2 80 3d 6f 9d 74 3e 26 b2 15 3e 4a 65 8d 3d
       0.0628707 0.23888181 0.1461874 0.06904085
0000c0 36 51 63 be bf 40 ac bd c3 33 73 bd 56 d0 2a bd
       -0.22198948 -0.08410787 -0.059375536 -0.04170259
0000d0 f5 03 3a 3e 62 fb 6c bd dd b4 3f be 5b d1 a9 3b
       0.18165572 -0.057856925 -0.18721338 0.005182428
0000e0 f2 ce 6a 3d 14 2b 80 3d 56 59 3d 3d a1 43 6e 3e
       0.057326265 0.062582165 0.046227776 0.23267986
0000f0 de 2b 82 bd 53 8a 24 be d3 75 1a be 1b 6d 01 bd
       -0.06356023 -0.16068392 -0.15084009 -0.03159819
000100 5a ca af bd 05 07 03 be cc ca df 3c 13 1e 0c 3e
       -0.085835174 -0.12795646 0.02731838 0.13683347
000110 0a b5 98 be 83 21 71 be 9e 1f c7 3d f9 dd 1c be
       -0.29825622 -0.2354794 0.097228274 -0.15319051
000120 bb e3 e1 3c 4b 51 55 be 69 39 b6 3d 93 f9 d9 3c
       0.02757441 -0.20831792 0.08897669 0.026608264
000130 a3 03 5f be 2e 7f 16 be 95 76 11 bd 10 64 18 3d
       -0.21778731 -0.14696953 -0.03551348 0.037204802
000140 10 8f 4f 3e b6 52 15 3d 30 37 2b 3e 78 27 f8 bd
       0.20269418 0.036455832 0.16720271 -0.12116903
000150 a7 4a d5 bd d1 8b 2a be 7c da fe bd 4d 71 19 3e
       -0.104146294 -0.16654898 -0.12444016 0.14984627
000160 f4 ee 63 3c 3e b2 14 3d 1d f7 1d be 63 05 1c be
       0.013911951 0.036302797 -0.15426297 -0.1523643
000170 d6 de be bd 25 83 f2 3d 08 c0 ed 35 fd ef 59 be
       -0.09319846 0.1184142 1.7713764e-06 -0.21282955
000180 ab 9f a6 bd 7c 5d 08 bd ff b0 f2 3d f4 0d 28 3c
       -0.08135923 -0.03329228 0.118501656 0.010257233
000190 07 56 00 bd 0b eb 4b 3d b6 7b 87 3e fd 47 8b 3c
       -0.031332042 0.0497847 0.2646157 0.0170021
0001a0 99 48 92 be 04 b6 2a be b2 a8 db bd 79 23 b0 bc
       -0.28571013 -0.16670996 -0.107255355 -0.02150129
0001b0 13 4f 90 be 7d c1 fa bd dd d3 cf 3d d7 25 7f be
       -0.2818533 -0.12243936 0.101478316 -0.24916779
0001c0 19 48 7e bc 65 8c 70 be ab df 88 bd 72 af 82 bd
       -0.015520119 -0.23491056 -0.06683286 -0.0638112
0001d0 07 d4 b9 bd bf da 5a be 4b c1 22 3a 41 38 3e 3e
       -0.09073644 -0.21372508 0.00062086125 0.18576147
0001e0 74 51 63 3d b5 45 ff bd 40 e1 fc 3d d1 b6 ac 3c
       0.0554976 -0.124644674 0.123476505 0.021083267
0001f0 26 4b 58 3d 82 c7 4f 3d 06 01 8b 3e a0 9b cb bd
       0.052806042 0.050727375 0.27149218 -0.099417925
000200 3a ad 8d 3c 06 15 06 3e f7 e1 2e bd 37 9c 1c 3c
       0.017294515 0.13093957 -0.042695966 0.009558729
000210 bd ad 35 be ec 81 94 bd d5 90 31 bd 75 72 54 3d
       -0.17742057 -0.07251343 -0.043351013 0.051866967
000220 fa b9 45 3e 79 c3 d9 3c 20 4e 2d bd 14 24 ad bd
       0.19309226 0.026582466 -0.042310834 -0.08454147
000230 85 4f 8b 3e 83 70 b2 3c c0 8d d2 3b 72 62 43 be
       0.27209106 0.021782165 0.0064255893 -0.19080523
000240 41 73 3a bd 35 a1 95 bd ae 3d f4 bd 5b ce 08 3e
       -0.04552007 -0.073061384 -0.11925827 0.13359968
000250 97 ee e9 bd 59 12 73 be 6d 72 5a 3d e4 4e 39 3e
       -0.114224605 -0.23737468 0.05333178 0.180965
000260 16 bb cf bc e6 6e 13 3e ce d8 9c bd 0a 6c 05 be
       -0.025357764 0.14397773 -0.0765854 -0.13029495
000270 9c 10 51 be 31 f4 0a be 90 dd 07 be 88 d7 bc bc
       -0.20416492 -0.13569714 -0.13268113 -0.023051992
000280 59 df 27 be 3b 83 1b be f2 aa 4e 3d d3 e5 f7 bd
       -0.16393794 -0.15186779 0.050455995 -0.12104382
000290 81 67 64 be 05 7a c7 3d 26 33 24 3e 29 2c b4 be
       -0.22305109 0.0974007 0.16035137 -0.35189942
0002a0 8b 0e bd 3d d2 8e 0d be 7f 85 9b bd 6d 43 a5 bd
       0.092312895 -0.13824013 -0.07593822 -0.08069501
0002b0 24 45 84 3d d6 c7 55 be 2e bf 0b be 18 54 07 3e
       0.064585 -0.20877013 -0.13647148 0.13215673
0002c0 ac 35 1d be 27 fd 85 bd dd ed 54 3d b1 15 f1 bb
       -0.15352505 -0.065424256 0.051984657 -0.007357322
0002d0 72 48 b1 3d 67 80 ad bc a2 05 a7 3c c9 d1 88 bc
       0.08656396 -0.021179391 0.020388428 -0.016701596
0002e0 b0 ca 1c 3e f7 1d 15 3e 9e ab bd 3c 1e 64 aa 3d
       0.15311694 0.14562212 0.023153123 0.08319877
0002f0 95 05 f4 bc c6 91 b2 3e 11 31 0e be d9 1b 06 be
       -0.029787818 0.3487684 -0.13885905 -0.1309656
000300 e6 f0 8f 3d 47 03 6d be 1f 47 37 3e 0b 8f 7c be
       0.070283696 -0.23145781 0.17898224 -0.24663942
000310 0e 72 34 3d 9a 36 6b be ec 9c 8b be d4 5c 16 be
       0.044054084 -0.22970048 -0.2726816 -0.14683849
000320 ea 17 92 3a 1b d8 0a be e1 7b 5c 3d e3 a9 56 3d
       0.0011146043 -0.13559 0.053829078 0.05240811
000330 de 48 9e bd 7b c9 85 3e af 8c e9 3d e1 ad 86 bc
       -0.07728742 0.2613028 0.114037864 -0.016440334
000340 0f 13 8e 3d 56 9b 92 bd 06 1f 6e 3e 7e 3d bc 3b
       0.06937229 -0.07158534 0.23254022 0.005744635
000350 de 4e a5 bc 22 d8 ae 3c 71 89 a8 bc 3f d3 91 3d
       -0.020179208 0.021343295 -0.02057335 0.0712037
000360 d7 43 29 be 58 d4 82 3d 0f 92 15 be 9f c1 6e bc
       -0.16529785 0.063881576 -0.14606498 -0.01457253
000370 ac 66 d0 bd 8e a3 31 3e 3c 65 bb 3d d6 ed 18 bd
       -0.10175833 0.17347547 0.09150168 -0.037336193
000380 42 c6 7d 3e bc 81 c2 bd 21 d2 6c be 20 10 de 3d
       0.2478266 -0.09497401 -0.23127033 0.10842919
000390 12 83 a7 bd fd e3 48 3e ee 64 c4 bc 3c 97 24 bc
       -0.081792966 0.1961822 -0.023973908 -0.010045823
0003a0 1a af 1d be 80 6b 92 3d 17 c1 fc 3d f6 aa 16 3e
       -0.15398827 0.0714941 0.123415165 0.14713654
0003b0 aa ee 44 bd 09 91 b5 3d 47 92 35 bd a5 04 04 3d
       -0.04807917 0.08865554 -0.044328954 0.032230992
0003c0 6f 6f e0 3d af b6 30 be 6e a6 8b 3c 2d 2b 35 bd
       0.10958754 -0.17257188 0.017047133 -0.04423063
0003d0 81 6a 40 3e d7 0e 05 bd a3 3c 91 bd 36 c6 e6 bd
       0.18790628 -0.032484856 -0.07091644 -0.112682745
0003e0 72 35 82 bd a6 5f fd 3d 1e 26 21 be f8 96 e1 bd
       -0.0635785 0.12371759 -0.15737197 -0.11015123
0003f0 30 39 77 3d bb 80 12 3e 41 be a5 be 1c dc a5 be
       0.060357273 0.1430692 -0.32371715 -0.32394493

network_body._body_endoder.seq_layers.0.bias f4 [128]
000000 08 be 0b be af 86 ef bd b2 f1 08 3d ee 34 1d 3d
       -0.1364671 -0.11695611 0.033433624 0.038380556
000010 0e 93 d0 3d fc 85 c2 bd 05 c1 ca bd cb 7c 70 bd
       0.101842985 -0.09498212 -0.09900097 -0.05871276
000020 3b b4 99 bd e1 4a 2f 3c be c1 e1 3c 5b 6a e6 bd
       -0.07505079 0.010699005 0.027558204 -0.112507544
000030 2c f9 29 3d 67 85 ab 3d 86 8d 73 bc 8d e7 8a bd
       0.041497394 0.08375054 -0.014865285 -0.06782446
000040 90 65 a7 3d 24 b4 1b be de b0 46 bd 79 80 ed bd
       0.081736684 -0.15205437 -0.048508517 -0.1159677
000050 3a c4 eb bc c1 ff a3 bd 7f a7 c4 bd bc ee 9e 3d
       -0.028780092 -0.080077656 -0.0960226 0.07760379
000060 f8 98 0d be b8 d8 b1 3d d4 d6 18 bd 9a c5 35 bd
       -0.13827884 0.08683914 -0.03731425 -0.0443779
000070 18 f8 0f 3e e0 c1 8f 3c dc f9 a0 3b 83 28 13 ba
       0.14059484 0.017548501 0.004912598 -0.00056136417
000080 6b b3 85 3c da d3 81 bb 4a dc 91 bc f5 47 ee bd
       0.016320905 -0.0039620223 -0.017805237 -0.116348185
000090 37 6e 3a be c3 72 11 bd 6f 8c 9d bd 5c 60 04 3c
       -0.18206106 -0.035509836 -0.07692801 0.0080796145
0000a0 8e e7 0f be af 8c 58 bb 92 5d 71 3d 10 ae f1 bb
       -0.14053175 -0.0033042838 0.058927126 -0.007375486
0000b0 ee 01 26 bd 98 f2 ce 3d 3a 4a 69 bb ef d3 88 3d
       -0.040529184 0.10104865 -0.003559722 0.06681048
0000c0 b6 28 78 bd 8c fb c9 bd ae b6 2f bd e0 f9 16 bd
       -0.0605857 -0.09862432 -0.042898826 -0.036859393
0000d0 f2 b7 99 bd c4 bb 0a be 7c a4 3e bd 5a e0 cf 3d
       -0.07505788 -0.1354819 -0.046543583 0.101502135
0000e0 c9 63 62 bd da 33 f4 bd 20 d6 d4 3c 36 88 31 bd
       -0.055270944 -0.119239524 0.025981009 -0.04334279
0000f0 5a 3a 2c bd ba 74 6c 3d 70 84 0f bd 12 bd 46 be
       -0.042047836 0.057728507 -0.03503841 -0.19408062
000100 53 5f b4 bd 8e 06 f3 3b e5 e8 ac 3c 8d ad 10 bd
       -0.08807244 0.007416553 0.021107147 -0.03532176
000110 be 7c b9 bc 2e d0 5c bc 76 a2 02 be 01 0b 27 3d
       -0.02264249 -0.013477368 -0.12757286 0.04078198
000120 06 bf 4f be c4 10 95 bc f3 91 3f bc ed d8 a7 3c
       -0.20287713 -0.018196471 -0.011692512 0.02048918
000130 01 28 3f bd c9 c9 b2 3d 90 53 33 3c cf 5c fd 3c
       -0.04666901 0.08729894 0.010945216 0.030928044
000140 c6 f3 30 bd e2 37 9b bd 73 ac cb bd ca f8 18 be
       -0.04320123 -0.07579018 -0.099450015 -0.14938655
000150 50 48 21 bd 85 80 99 bd e3 2d 7f bc b2 14 b5 bd
       -0.039375603 -0.07495216 -0.015574905 -0.08841838
000160 ef 9f 22 be 37 b7 3c bd 4a 43 c8 ba ad 20 29 bd
       -0.15881322 -0.046073165 -0.0015278843 -0.041290928
000170 3e 21 11 bd 38 9e 43 be 1e 81 ca ba fd e1 7f bc
       -0.035432093 -0.19103324 -0.0015449857 -0.015617845
000180 68 26 72 3c 39 d7 28 bd 3e 0f 73 bd 64 a1 ce bc
       0.014779665 -0.041220877 -0.059340708 -0.025223441
000190 cf b8 a4 3c eb 8e e7 bc 20 bf cf bc 0c 22 84 bc
       0.020107655 -0.02826639 -0.02535969 -0.016129516
0001a0 8e 5a cb bb 0a b9 50 bd 17 bd 20 be e5 c3 12 3d
       -0.0062058633 -0.050957717 -0.15697132 0.03583135
0001b0 7c c7 80 3d 4b b5 1e be 36 ee fb bc 82 a0 bf bd
       0.062880486 -0.15498845 -0.030753236 -0.09356786
0001c0 0e 64 d0 bd 36 1a 02 bc dd 52 11 3d 85 e5 a6 ba
       -0.10175334 -0.0079408195 0.035479415 -0.0012733197
0001d0 e1 f6 99 bd 3f 77 81 bd 4a b1 3a 3d 1e 8f ae 3d
       -0.075177915 -0.063215725 0.045579232 0.08523391
0001e0 7e 5b da bc 17 08 68 bd 96 7e c2 bd 03 79 38 3d
       -0.026654955 -0.05664834 -0.094968006 0.04503728
0001f0 c3 33 fd bd 97 5b bc bd a1 1f 29 3b 40 61 f6 bd
       -0.123633884 -0.09197157 0.0025806206 -0.12030268

network_body._body_endoder.seq_layers.2.weight f4 [128, 128]
000000 19 2b 5f bd 45 2e 9f bd 12 9d cb bd 53 e2 c1 3c
       -0.05448446 -0.07772497 -0.09942068 0.02366749
000010 88 5e 2d 3e e4 6c 37 3c 5e ef df bd 4f 36 ed bd
       0.16930592 0.011195395 -0.109343275 -0.11582624
000020 b5 df e9 bc 23 25 b6 3d 2b a4 ad bd c3 0b d1 3d
       -0.028549055 0.08893802 -0.08478578 0.102073215
000030 12 bf 57 be 6e 7f 43 3e 7f ea d4 3b 77 ba 73 bd
       -0.21068981 0.1909158 0.0064976807 -0.059504
000040 c1 5c 80 3e 8b 5c 90 3a d9 2c 19 be ee 66 b1 bd
       0.25070766 0.0011013908 -0.14958514 -0.086622104
000050 7f 62 9c be 91 c2 06 be 0a cb 15 be ec 6a 32 3e
       -0.30543897 -0.13160159 -0.14628235 0.174236
000060 a2 a1 04 be b6 02 4d bd f9 d6 9c bc 12 68 05 bb
       -0.12952283 -0.050051413 -0.019145476 -0.002035622
000070 43 c5 01 bd d1 05 89 bd 46 7b be 3c e7 99 9d be
       -0.031682264 -0.066905625 0.02325214 -0.3078148
000080 5c 22 db 3d bb cb a7 3e dd 4e 98 bd 7a 0a aa bc
       0.10699913 0.32772622 -0.07436917 -0.020756949
000090 a5 4c d8 bc 15 4b 6f bd e5 73 65 bd af 1c c9 3d
       -0.026403734 -0.058421213 -0.05601873 0.09819924
0000a0 34 e0 e0 3d 9a 44 19 3e 52 dc 75 be e2 2a 72 3d
       0.10980263 0.14967576 -0.24009827 0.059122927
0000b0 42 5c a3 bd e9 7e bb bd 3e c2 6b bd c2 9e 14 be
       -0.07976581 -0.091550656 -0.05755829 -0.14513686
0000c0 57 e0 f1 bd 57 05 cb 3d af 1d 06 3e 7a c5 56 3e
       -0.118103676 0.09913128 0.13097261 0.20973769
0000d0 f3 1f b9 3d 05 68 77 3d d1 13 2f be e7 c3 dd 3c
       0.09039297 0.060401935 -0.17097403 0.027070953
0000e0 64 b5 6a bd 7b 40 dc bd 06 6a bb bc 03 8b d9 bd
       -0.057301894 -0.10754486 -0.022877704 -0.106222175
0000f0 1e a1 f5 3d cc 97 19 3d 29 17 8c 3c 42 a5 77 bd
       0.11993621 0.03749828 0.017100887 -0.060460337
000100 0f 96 44 3e eb f2 84 be 2b a9 38 bc ce ca 57 bd
       0.19197868 -0.25966582 -0.011270802 -0.052683644
000110 9f a4 dc bb 31 be 82 3d 05 ba a7 bd 61 06 c0 bd
       -0.0067334916 0.063839324 -0.08189777 -0.09376217
000120 09 e4 29 be 12 2e 56 3d a3 50 1a 3e e5 ad 8c 3d
       -0.16590895 0.05229003 0.15069823 0.06869105
000130 38 48 b1 bc f0 76 10 3e 5d 0b 85 3e 70 c6 b1 bd
       -0.021640882 0.14107871 0.25985232 -0.08680427
000140 54 93 2f be 79 a3 aa 3d 9e d0 d9 3c 89 c3 5d be
       -0.17146045 0.08331961 0.026588734 -0.21656622
000150 8f 4f a3 3d ec b8 40 be 2c 54 96 3d ef 87 36 bd
       0.07974159 -0.18820542 0.07340273 -0.04456323
000160 0e a1 20 bc a8 b9 5e be 85 23 c0 3d bc 47 fc 3a
       -0.009804023 -0.2175051 0.09381775 0.0019247453
000170 a2 06 0c 3e 73 a8 99 3c 3b 59 8d 36 9f 4a 1b 3c
       0.13674405 0.01875708 4.2125153e-06 0.00947824
000180 6b 04 3f be 4c 30 18 bd 75 95 ad 3d 9a 6b 0d be
       -0.18654029 -0.037155434 0.08475772 -0.13810578
000190 44 13 3d be d8 3c 83 b9 37 cb 4c 3c b2 44 cb bd
       -0.1846438 -0.000250316 0.012499622 -0.09925212
0001a0 d1 c2 17 3d 5c db 02 3e 47 d3 c5 3d f6 ec 92 3d
       0.037051026 0.12778991 0.096594386 0.07174103
0001b0 a7 04 35 be b2 03 2e be 00 2f 25 be 11 d1 e1 bd
       -0.17677556 -0.16993597 -0.1613121 -0.110262044
0001c0 37 4e 95 bc 6b d9 ce bd 1c 62 a3 3b d5 18 5c 3e
       -0.018225772 -0.10100063 0.004986061 0.21493848
0001d0 6d e3 3b 3d 3a 76 1e 3d 0f 46 e0 3d 36 ce c6 bd
       0.045871187 0.03868697 0.109508626 -0.097073
0001e0 98 cc 02 3d 78 ef 93 bb 4b 71 92 3c ad f3 f6 3d
       0.031933397 -0.004514631 0.017876288 0.12058196
0001f0 9e 26 d3 bd 06 61 1f bc 20 2c 0a 3e 6a 6b 98 3e
       -0.103101 -0.009727722 0.13493395 0.2976945
000200 24 49 98 3d c2 46 13 3e 01 5a 01 3e 6f 21 f7 3c
       0.074358255 0.1438246 0.1263199 0.03016731
000210 60 61 cc 3d 64 f6 9b 3d dd be 0f be bb 24 01 3e
       0.0997951 0.07615355 -0.14037652 0.12611668
000220 97 37 0d be ed c1 1b bc 2e 9f fb bd 66 a4 a8 bd
       -0.13790737 -0.009506685 -0.122862205 -0.082344815
000230 17 10 39 bd e4 9d 41 be f0 ef f4 bc 10 5c f0 3d
       -0.04518136 -0.18907887 -0.029899567 0.117363095
000240 bc 45 68 3e d6 dd 03 3c b1 87 e2 3d 1d db 28 bd
       0.22682852 0.008048495 0.11061037 -0.041224588
000250 c0 cd 85 3d 5b 2e f8 3c 4b e3 22 be f5 13 9b 3a
       0.06533384 0.030295542 -0.15907018 0.0011831509
000260 2a 84 55 bd 6a 91 8c bd 6b dd 99 3d 72 81 8d 3c
       -0.052127995 -0.06863673 0.07512935 0.017273638
000270 d1 56 1f 3c b1 96 84 3d c8 d0 96 bc 86 f5 ac bd
       0.0097252885 0.064740546 -0.018410102 -0.084452674
000280 04 6f 4c bd 4d 7b c3 3d 7e 4e 10 bd 3d 4b 19 3e
       -0.04991056 0.09545002 -0.035231106 0.14970107
000290 42 7d 7e 3b 89 f4 90 3c 86 6c 75 be 48 f9 09 be
       0.0038831984 0.017694728 -0.2396718 -0.13474
0002a0 0d 22 37 3e 8e 40 d1 bc f8 a8 e7 bd a6 83 da 3d
       0.17884083 -0.025543477 -0.11311525 0.10669641
0002b0 ac 73 66 bd 65 a6 0e be 5d 63 38 bd 49 f6 85 3d
       -0.056262657 -0.13930662 -0.045016635 0.06541116
0002c0 d4 e7 43 bc fd 29 58 bd 07 8f 98 3d d6 ce e4 3d
       -0.011957128 -0.05277442 0.07449155 0.11172263
0002d0 66 41 38 3e 27 89 3a bd d9 38 13 3e a0 1e 2f 3d
       0.17993698 -0.045540955 0.14377154 0.042753816
0002e0 8b c8 f8 3d ca d5 23 3c 75 47 4c bc c7 68 02 3e
       0.121476255 0.009999702 -0.012468209 0.12735282
0002f0 cd 72 ef 3d 14 cd f7 bc 22 12 86 3d fc c3 29 3e
       0.116918184 -0.030249156 0.06546427 0.16578668
000300 70 38 2a bd 0b 2f d3 bd e5 4c 76 bd c0 30 b3 bd
       -0.04155773 -0.10311707 -0.060131926 -0.08749533
000310 7a c9 cd be 77 36 a5 3c 99 8d 40 3d d6 b0 cd 3c
       -0.40192777 0.020167572 0.047010038 0.025108736
000320 aa 95 90 3d 76 7e 2a 3d 9d d4 2e 3d 50 6f 13 3d
       0.07059796 0.04162451 0.042683233 0.035994828
000330 a4 99 e4 bd f4 7e 66 be 42 0c 01 3d 82 af 2b 3d
       -0.11162117 -0.22509366 0.03150583 0.041915424
000340 12 72 1d bd f2 f2 4e be 00 a9 3c be 73 4a 4d 3e
       -0.038438864 -0.20209864 -0.18423843 0.20047931
000350 98 f0 d0 3d fc d4 c6 bd 9e 72 d5 bd 1b 22 aa 3d
       0.102021396 -0.09708592 -0.10422252 0.08307286
000360 b2 ef 4b bc 47 90 2b be 95 df 0b 3e c7 69 fe bc
       -0.012447285 -0.16754256 0.13659509 -0.031056298
000370 d6 67 71 3e a9 4e 3d 3e 29 d1 4a 3e 06 90 26 bd
       0.23574767 0.18487038 0.19806351 -0.040664695
000380 6e d1 b2 3d 10 e3 ee 3c bf 67 10 3c 09 c6 89 3d
       0.08731352 0.029161006 0.0088137975 0.06727225
000390 1f e2 32 3e 95 72 f9 bd 13 e9 a9 3c fd d9 02 3c
       0.17469071 -0.12180058 0.020741021 0.007986543
0003a0 2d 80 1c be 33 fa bb bc 75 9c a2 3c 2a f0 b7 3d
       -0.1528327 -0.022946453 0.019849995 0.089813545
0003b0 ef 53 58 3d bd 2c f9 39 5f 89 99 bc d3 47 09 bc
       0.05281442 0.00047526314 -0.018742261 -0.008378941
0003c0 2a ea 0e bd 0c 9b 32 3d 6b fb 6e be fd 53 d1 bd
       -0.034891285 0.043604895 -0.23338096 -0.102210976
0003d0 7a 67 1f be 27 b7 29 be 5d 90 38 3d 0f 0c e7 bd
       -0.15566817 -0.16573773 0.04505955 -0.11281597
0003e0 67 27 ee 3c c2 0a 3d 3d f5 c3 0f bc 5b e6 97 3d
       0.029071523 0.046152838 -0.008774747 0.07416984
0003f0 62 38 80 3e 3d a3 33 bd d6 31 ce bc ee 9b 0e bd
       0.25043017 -0.043856848 -0.025170248 -0.034816675

network_body._body_endoder.seq_layers.2.bias f4 [128]
000000 b0 12 dc bd d0 8c 32 bd 40 9d ca bc f0 af a9 bd
       -0.10745752 -0.04359132 -0.024733186 -0.082855105
000010 f2 2e 9c bd b9 0e d5 bd 05 8a 0d be ce 91 5f bd
       -0.076261416 -0.10403199 -0.13822182 -0.05458241
000020 4c dc 9f bd 00 aa 92 bd b9 72 9b bd 0e 2d a3 bd
       -0.0780569 -0.07161331 -0.07590241 -0.07967578
000030 48 97 45 3d a2 00 f9 bd 00 e1 2f bd 4a 71 ce bc
       0.048239976 -0.12158324 -0.042939186 -0.025200505
000040 f6 a2 05 3c c9 46 22 bd cf 4f 07 3d 4e e2 e8 bd
       0.008156529 -0.039618287 0.033035096 -0.11371289
000050 8b 0a 5c bd 79 b0 98 bc d7 a4 53 3c c2 1d 3a bd
       -0.053720992 -0.018638836 0.012917719 -0.045438536
000060 bd 66 26 be 0b 71 f0 bb 5f 96 4b 39 2b 7a 77 bd
       -0.16250129 -0.0073376945 0.00019415606 -0.060419243
000070 5a 82 de bd af bf 1c bc 89 4a d0 bd 1d 30 16 bd
       -0.10864706 -0.009567185 -0.101704665 -0.03666698
000080 60 16 52 bd cb c2 49 bc 38 b3 31 3b 90 ec 0a be
       -0.05129087 -0.012314509 0.002711488 -0.13566804
000090 18 12 ac bd 5e 9d f8 bd 8e 3d 95 bd 32 6d 87 bd
       -0.084018886 -0.121393904 -0.07287131 -0.06612624
0000a0 71 cd f1 bd b3 1e 9f bc cb 94 76 bd cb b4 a9 bd
       -0.11806763 -0.019423818 -0.060200494 -0.08286437
0000b0 b8 ca e9 bc 82 fb 83 bd 91 32 a3 bd f6 cc 39 bb
       -0.028539047 -0.06444456 -0.07968629 -0.0028350926
0000c0 fc 56 d8 bc bf 26 15 bd fd 40 85 bd e3 78 cf bc
       -0.026408665 -0.036413904 -0.06506536 -0.025326198
0000d0 c9 01 d7 bd 9d 73 ad bd 1f af 0d be 80 7d 82 bd
       -0.10498387 -0.08469317 -0.13836335 -0.063715935
0000e0 8c 47 b8 bd 31 37 23 bd ae 5c 41 bd 2f 78 9e bd
       -0.089980215 -0.039847557 -0.047207527 -0.07737767
0000f0 23 7c 7a bd 26 d4 55 bd f9 03 fe bd 72 57 6b 3b
       -0.061153542 -0.052204274 -0.124031015 0.0035910276
000100 88 84 90 bd cb 3f dc bd ce 5a b5 bd 0a 8a e1 bd
       -0.07056528 -0.10754355 -0.0885521 -0.11012657
000110 e7 46 96 bd 46 21 a5 bd d8 43 3d bd ed 08 5d bd
       -0.07337742 -0.08062987 -0.04620728 -0.05396359
000120 fd 32 77 3d 8a 4f 0f 3d 37 1a 04 3d d3 4a aa bd
       0.06035136 0.034987964 0.032251563 -0.08315053
000130 dd 6a c3 bd e2 13 be bd 2a c9 3a bd 03 df 6c bd
       -0.09541867 -0.09281136 -0.045602 -0.057829868
000140 c1 ae 3f 3d a3 3a 8c bd a7 7c 1e bd 87 29 d4 3c
       0.046797518 -0.068471216 -0.038693096 0.025898708
000150 e5 eb b9 bd 99 37 e7 bc 2b fb ed 3b 75 80 b2 bb
       -0.090781964 -0.028224753 0.0072626076 -0.005447442
000160 d7 76 11 bd 8b 0f 44 3d 40 15 11 bd 1f 4a 63 bc
       -0.035513725 0.047866385 -0.035420656 -0.013872652
000170 a9 da 3a bc 4e 45 11 bd 41 c7 dc bd be 5d b8 bc
       -0.011404672 -0.035466485 -0.10780192 -0.022505637
000180 44 64 29 bd d6 b2 d6 3c 32 e2 c5 ba cf d4 e1 bd
       -0.041355386 0.026208322 -0.0015097319 -0.11026918
000190 89 9e b2 bd bb b6 f2 bd e5 1f 03 be 3c 32 8c 3b
       -0.087216444 -0.11851259 -0.12805136 0.0042784493
0001a0 bb 35 64 bd f8 d5 0b bc e9 78 7e bd f8 5d 8e bc
       -0.055715304 -0.008534901 -0.062127028 -0.017378792
0001b0 9e f5 90 bd 27 00 93 bd 9b a2 d6 bd 61 37 c7 bc
       -0.07078098 -0.071777634 -0.10480233 -0.024318399
0001c0 bc be 92 bd fb bb 2e bd 60 a5 72 bd aa 88 09 3d
       -0.07165286 -0.04265974 -0.059239745 0.0335776
0001d0 25 7f 9a bd 0d 50 de bd 96 12 12 be ac 35 e8 bd
       -0.07543782 -0.10855112 -0.14264902 -0.11338362
0001e0 75 87 9b bb 5f b9 82 bd 2c 62 e2 bd 70 10 1b bd
       -0.0047463723 -0.06383013 -0.11053881 -0.037857473
0001f0 4b b6 4a bd 80 d6 bf bd 4a 51 bf bd 64 f3 00 be
       -0.049490254 -0.093670845 -0.093416765 -0.12592846

action_model._continuous_distribution.log_sigma f4 [1, 2]
000000 84 cd 48 bf b5 f2 71 bf
       -0.7843859 -0.94510967

action_model._continuous_distribution.mu.weight f4 [2, 128]
000000 0b 60 a9 bd ea 92 92 bc fc 65 cd bc 01 12 8d 3c
       -0.08270272 -0.01789232 -0.025073044 0.017220499
000010 3d 79 02 3c 01 e4 0e 3d 38 68 0a 3d d6 91 08 3c
       0.007963476 0.03488541 0.033790797 0.008335551
000020 84 56 04 bd d0 46 1d 3c e8 22 4e 3c bd 66 fa 3c
       -0.03230907 0.009599403 0.0125815645 0.030566568
000030 31 92 b7 3c 95 b3 13 3d 23 d3 37 bb 7d 05 eb 3c
       0.022408577 0.036059935 -0.0028049431 0.02868914
000040 54 be 84 3c f9 c7 43 bc 91 8e 2b 3c 77 2d 3e 3c
       0.016204037 -0.011949533 0.010471002 0.011607519
000050 a7 e1 7a 3d 04 24 46 bd fa 40 5a 3c 13 27 36 bb
       0.061250355 -0.04837419 0.013321156 -0.0027794286
000060 3f 8f c1 3c fb 7a da 3c d1 10 17 bc d3 88 db 3c
       0.023627875 0.02666997 -0.009220318 0.026798641
000070 30 e4 e3 3c db 13 5e bc a1 72 fe 3c 66 bb e2 3b
       0.02781877 -0.013554539 0.031060519 0.0069193123
000080 e4 19 23 bd ed c4 88 3b 99 74 01 3d f8 1f c1 3a
       -0.039819613 0.004173866 0.031605337 0.0014734259
000090 6f 4a a2 3c 2f e8 d9 3c d6 79 d2 3c df bc 00 3d
       0.019810883 0.026599972 0.025692862 0.03143012
0000a0 c2 75 d4 3c 0f 03 69 bc 00 d9 6b 3d 84 71 3b 3c
       0.025935058 -0.014221921 0.057579994 0.011440638
0000b0 83 c9 89 ba 70 a8 ae 3c f8 98 fb 3c 72 7f 73 3c
       -0.0010512326 0.021320552 0.03071259 0.014861928
0000c0 79 22 27 bd 37 47 c8 3c 69 c8 e3 3c 43 e0 10 bd
       -0.04080436 0.02444802 0.027805524 -0.035370123
0000d0 f8 c6 25 3c 45 23 41 3d ee 82 4d 3d 6a 96 60 bb
       0.010118239 0.047152776 0.050173692 -0.0034269341
0000e0 0a 60 ce 3c e4 11 1e bc e5 19 b4 3b df 71 a1 3c
       0.02519228 -0.00964782 0.005496251 0.019707618
0000f0 cc 1b d4 bb d6 71 d6 bc 8a 60 d9 3c 42 44 55 bc
       -0.00647304 -0.026177328 0.026535291 -0.013016762
000100 95 5f 62 bd 90 89 19 bb df a3 91 3c 97 98 a5 3d
       -0.055266935 -0.002342794 0.017778335 0.08085745
000110 7b f2 90 3b 99 b2 ac 3c 89 ff 4f 3c f3 e2 00 3b
       0.004423437 0.021081256 0.012695202 0.0019666522
000120 21 23 e0 bc 9d fe ae 3a ee c8 b4 bc 6d 7d 23 ba
       -0.0273605 0.0013351027 -0.022068467 -0.00062366464
000130 98 c1 47 3d 4c e1 af 3c 33 a8 10 3d 40 60 ac 3b
       0.04876861 0.021469735 0.035316657 0.0052604973
000140 4d 76 c2 3b 5c 95 8c bd 60 e9 08 3c de 0c fb 3c
       0.0059345127 -0.068644255 0.008356422 0.030645784
000150 b8 3d 7f 3c 3c 1c 8c bc 83 64 1b bd ed 8e 46 3b
       0.01557868 -0.017103307 -0.037937652 0.0030297593
000160 04 c5 56 bd 19 1e a1 ba 14 49 5f bc 54 de ce 3b
       -0.052433982 -0.0012292295 -0.013628263 0.0063131247
000170 fe e6 17 3d 3b a1 6f bc ad 27 29 bc 66 6f 0a 3d
       0.037085526 -0.014625843 -0.010324401 0.033797644
000180 f4 ab c9 3b f5 01 58 bd 66 70 22 bd 7f ea 04 3d
       0.0061545316 -0.05273624 -0.039657973 0.032450195
000190 86 50 c2 bb be 84 e6 3b fb 9e 1b 3d 38 c3 0c bd
       -0.0059300093 0.007034867 0.037993412 -0.034365863
0001a0 d9 cc 99 bc 2d 6d 5d bb ce 1a 13 3c 4d 88 28 bd
       -0.018774437 -0.0033786998 0.008978559 -0.04114561
0001b0 22 d0 e5 3b 63 da 03 3c 4e 8c 27 3d 2e e7 ba 3b
       0.0070133368 0.008047673 0.04090529 0.0057038283
0001c0 9c 4e 85 bc 85 1f ca 3b d3 ea 0c 3c 13 3b 48 bc
       -0.016272835 0.006168308 0.008600908 -0.012221116
0001d0 42 27 00 bb d7 40 7b 3d 88 41 74 3c 38 40 f9 bb
       -0.001955465 0.061341133 0.014908202 -0.0076065324
0001e0 f5 b5 3b bc 29 03 b3 3c df ac 0e 3d 31 ea 29 3b
       -0.011456956 0.021852093 0.03483283 0.0025926942
0001f0 75 e8 d5 3c 80 bd 86 3c c4 0d aa 3d a1 e0 e7 3c
       0.02611182 0.016447783 0.08303407 0.028305354
000200 5d 44 cd bc db 7f e9 3b c2 19 c3 3b 0a a1 75 bd
       -0.025057012 0.0071258373 0.0059539983 -0.059968032
000210 13 6d 62 3c 72 b6 51 bd 8a dc bf 3c 35 1d 75 bb
       0.013819951 -0.051199384 0.02342059 -0.0037401442
000220 38 bc 4a bc 94 bb 9f 3c c2 38 a5 bc 14 14 1b bd
       -0.012373976 0.019498624 -0.020168666 -0.037860945
000230 76 0c 76 3c 80 e4 66 bc 6d 05 ff bd 09 2a 87 bc
       0.015017619 -0.014092565 -0.12452207 -0.016499536
000240 61 2f 87 bb bf 0b cf 3c 21 d0 7f bc 46 94 1d bc
       -0.004125521 0.025274156 -0.015613587 -0.009617871
000250 b6 2f 2a 3c 5d 80 3a 3b 2c fc 92 bc 48 ce 70 bb
       0.010387352 0.0028457858 -0.01794251 -0.0036744047
000260 9f 99 b2 3c e1 69 b6 bc dc ea 43 bb 09 1f 49 3c
       0.021801768 -0.022267284 -0.0029894626 0.012275466
000270 d9 54 dd 3c e9 31 7f 3c c6 db 50 3b 22 70 18 3d
       0.027017998 0.015575864 0.0031869276 0.037216313
000280 99 06 65 3c ef 27 2c bc 67 45 47 bc 95 56 05 3d
       0.013978624 -0.010507568 -0.012162543 0.032553274
000290 d5 11 09 3d ba b9 ce 3c 3f a5 43 3d d0 3f 97 bc
       0.03346427 0.025235046 0.047765013 -0.018463045
0002a0 34 ce 8a 3c 42 d7 66 3d c8 65 09 3c e6 52 45 3d
       0.016944028 0.05635763 0.008386083 0.04817476
0002b0 2b 9f 6d 3c 09 5b 1d 3d e9 31 14 bc 5a f3 cc bc
       0.014503281 0.038416896 -0.009045103 -0.025018383
0002c0 f1 39 9a b9 39 d9 89 bb bf 0e 80 bc 46 31 03 bb
       -0.0002941634 -0.004206803 -0.015632031 -0.0020018383
0002d0 bc 2a d1 bb 6f 4b 37 3c b7 9b c5 3c 6d 16 ac bb
       -0.006383268 0.011187418 0.024122102 -0.005251697
0002e0 6a c8 e7 3c ea 22 f5 3c 7b df a0 3c bb c2 97 3c
       0.028293807 0.029923875 0.019637814 0.018525472
0002f0 e3 c0 27 3d 28 de 90 bc 1d 73 0c bc 05 bd fb 3a
       0.040955435 -0.017684057 -0.008572367 0.0019206112
000300 3a 64 f6 bc 99 86 bb 3c d7 6e 73 bb 1d c3 6a bd
       -0.030077089 0.02289133 -0.0037144923 -0.05731498
000310 96 fc 37 3d bf d6 4a 3b 24 27 22 bd a3 96 5a 3c
       0.04491862 0.0030950753 -0.03958811 0.013341579
000320 b1 7a c8 3b 71 15 5e 3c 6c 3c e7 3c 7e c4 35 3d
       0.0061181416 0.013554917 0.028227054 0.044376843
000330 4b 10 7c 3d 1b 81 01 ba 63 fb 8f 3d 44 5e 30 3d
       0.061538976 -0.00049401977 0.0703037 0.04305865
000340 2f 28 52 3b b4 d2 9d bc 34 8b 65 3c 34 ac 4c bc
       0.0032067408 -0.01926551 0.014010239 -0.012492228
000350 be ab a8 38 95 53 d7 3c f4 eb e5 3b b0 dd a6 bb
       8.042854e-05 0.026284972 0.007016653 -0.005092345
000360 5a 13 b8 3c f0 ee 67 ba 3b f7 d3 3c 0a 73 9c bc
       0.022470165 -0.0008847555 0.025874725 -0.019097824
000370 bf b4 17 bc 03 2f ee 3a 42 43 83 bc 1a 9e 81 3d
       -0.009259402 0.001817197 -0.016023282 0.063289836
000380 63 88 07 3c 36 a6 1f bc fc e4 c5 b9 84 8d 80 bc
       0.008272263 -0.009744218 -0.00037745375 -0.01569248
000390 a0 c8 7e 3c 8c 65 ea 3b 1d 8d a2 bc 3e 79 55 3c
       0.015550762 0.0071532186 -0.019842679 0.013029395
0003a0 17 15 d2 3c 0d 17 ca bc 94 d5 3e 3c b3 74 e4 3b
       0.025644822 -0.024669195 0.011647601 0.0069719194
0003b0 17 40 3d 3d 48 c7 3f 3c 72 ed 65 3d e0 26 0e bb
       0.0462037 0.011705227 0.05613465 -0.0021690652
0003c0 f5 12 7b 3c 10 e9 5c 3c 31 95 93 3c e5 70 cc 39
       0.015324344 0.013483301 0.018015476 0.00038994025
0003d0 e5 37 d8 3c 48 4d b3 bd 07 db 88 bc 83 f4 fd bc
       0.02639384 -0.087549746 -0.016706003 -0.031000381
0003e0 6c 1d bd 3c a9 93 23 bb 2c 22 c5 3c 65 a6 c6 3b
       0.023085319 -0.0024959838 0.024064146 0.0060623162
0003f0 af f1 50 bb 17 e8 81 bd a7 81 27 3d 52 e3 20 bb
       -0.0031882336 -0.06343096 0.04089513 -0.0024549556

action_model._continuous_distribution.mu.bias f4 [2]
000000 6f 23 81 3c 4b 68 a1 3c
       0.015763966 0.019703051
