results/updatedCode4/DroneAgent/DroneAgent-7122.onnx (onnx, 111929 bytes, 8 tensors)

network_body.observation_encoder.processors.0.normalizer.running_mean f4 [76]
0	0xbd04a161	-0.032380465
1	0x3d895cae	0.0670713
2	0x3db9b78a	0.090682104
3	0xbda48f2a	-0.08035119
4	0x3dc2eb7a	0.0951757
5	0xbdaeee4e	-0.08541547
6	0x3dbb1b18	0.09136027
7	0xbda93189	-0.08261401
8	0x3dba85cc	0.09107551
9	0xbd9cbcae	-0.07653175
10	0x3dbf303e	0.09335373
11	0xbda804cb	-0.08204039
12	0x3dbb8678	0.09156507
13	0xbda78ad2	-0.08180775
14	0x3d25a5a0	0.040441155
15	0xb29e8937	-1.8456019e-08
16	0x3d0c67fe	0.034278862
17	0xb29db043	-1.835736e-08
18	0x3d8824db	0.066476546
19	0xb29e1400	-1.8402716e-08
20	0x3d9f43e8	0.07776624
21	0xb29dbfe6	-1.836447e-08
22	0x3d60954f	0.05482989
23	0xb29cf348	-1.8271422e-08
24	0x3c5f210c	0.013618719
25	0xb2a01856	-1.8637518e-08
26	0xbcb6228b	-0.022233268
27	0xb29ef975	-1.850706e-08
28	0xbcc98517	-0.024599595
29	0xb29e357b	-1.8417941e-08
30	0x3c791164	0.0152019
31	0xb29f40ac	-1.8539446e-08
32	0x3cea38c8	0.028591529
33	0xb29def34	-1.8385983e-08
34	0x3d36d1ea	0.044633783
35	0xb29d7cbc	-1.8333928e-08
36	0x3d8627bc	0.065505475
37	0xb29fc78e	-1.8600783e-08
38	0xbd05c5c7	-0.03265932
39	0x3d895676	0.06705944
40	0x3dbad725	0.09123067
41	0xbda4d284	-0.08047965
42	0x3dc48174	0.09595004
43	0xbdafa615	-0.085765995
44	0x3dbc4807	0.091934256
45	0xbda99e6a	-0.08282168
46	0x3dbb9c8e	0.0916072
47	0xbd9d7a06	-0.0768929
48	0x3dbfbf07	0.093626074
49	0xbda87d71	-0.08227051
50	0x3dbc1da5	0.09185342
51	0xbda846b5	-0.08216611
52	0x3d2622c9	0.040560517
53	0xb29f3a3b	-1.8536516e-08
54	0x3d0c820d	0.034303714
55	0xb29e4f9d	-1.8429825e-08
56	0x3d8807b3	0.066420935
57	0xb29eb93c	-1.8477856e-08
58	0x3d9fd29a	0.07803841
59	0xb29e70eb	-1.844497e-08
60	0x3d61f1ca	0.05516223
61	0xb29da44c	-1.8351919e-08
62	0x3c63ed68	0.0139115825
63	0xb2a0c959	-1.8718014e-08
64	0xbcb48218	-0.02203469
65	0xb29faa79	-1.8587558e-08
66	0xbcc7c99f	-0.024388133
67	0xb29edaea	-1.8493171e-08
68	0x3c7d38bf	0.015455424
69	0xb29febce	-1.8617268e-08
70	0x3cec0b98	0.028814122
71	0xb29e9473	-1.8461128e-08
72	0x3d3809f4	0.044931367
73	0xb29e27df	-1.8411752e-08
74	0x3d86c709	0.06580932
75	0xb2a07891	-1.8681279e-08

network_body._body_endoder.seq_layers.0.weight f4 [128, 76]
0	0xbd2c7876	-0.042107068
1	0x3cbf800f	0.023376493
2	0xbde09200	-0.10965347
3	0xbe5e4b98	-0.21708524
4	0x3d245bee	0.040126733
5	0x394cd306	0.00019533568
6	0xbde9415f	-0.11389422
7	0xbe15c4d6	-0.14625868
8	0xbd9ebe5d	-0.07751153
9	0x3e2a2dd7	0.16619049
10	0xbc1cf1c9	-0.00957913
11	0xbc93e290	-0.01805237
12	0x3dfafc8e	0.12255202
13	0x3d5d6e8a	0.054060496
14	0x3d6640eb	0.056214254
15	0x3d41d4e1	0.047322158
16	0x3cf7b5b5	0.030238012
17	0x3c8ec100	0.017426014
18	0x3d20b74a	0.039237298
19	0x3db6b15b	0.089205466
20	0x3e24eb8b	0.16105478
21	0x3e0b13b6	0.13581738
22	0x3e50c224	0.20386559
23	0xbe01934b	-0.12653844
24	0xbca605a5	-0.020266363
25	0xbd499a6f	-0.049219545
26	0xbe32ff1f	-0.17480133
27	0xbcc783bf	-0.024354814
28	0xbe276867	-0.1634842
29	0x3d93b151	0.07211555
30	0x3d47ca1c	0.04877673
31	0xbdf17834	-0.11790505
32	0x3de0bba5	0.1097329
33	0xbd415698	-0.047201723
34	0x3e5558c7	0.20834647
35	0x3e19cae8	0.15018809
36	0x3d618f7b	0.055068474
37	0x3da68f5b	0.08132812
38	0xbe8e9bac	-0.27853143
39	0xbe270639	-0.16310968
40	0xbe6a97ff	-0.22909544
41	0x3d808fc8	0.06277424
42	0x3c0875b1	0.008328841
43	0x3db2ee2b	0.08736833
44	0xbde3001e	-0.11084007
45	0x3c91c9a1	0.01779634
46	0xbc25bf45	-0.010116403
47	0xbde1e8be	-0.1103072
48	0x3c80a031	0.015701385
49	0x3e177701	0.1479149
50	0x3d240250	0.040041268
51	0x3d4e48a9	0.050362263
52	0x3e27de4b	0.16393392
53	0x3c96f7a4	0.018428631
54	0xbd40318b	-0.046922248
55	0xbe03e4ca	-0.12880245
56	0xbddd6e87	-0.10812097
57	0xbcd9824b	-0.026551386
58	0xbccd8f93	-0.025092876
59	0xbe0b4d66	-0.13603744
60	0x3df09d4b	0.11748751
61	0xbd5d9365	-0.054095645
62	0x3d8fe6d7	0.07026451
63	0xbc5a1582	-0.013310792
64	0x3da074ad	0.07834754
65	0xbe6591a8	-0.22418845
66	0xbce26eb0	-0.02764067
67	0xbdd7cf30	-0.10537565
68	0x3e0c3512	0.1369212
69	0x3e39e267	0.18152772
70	0xbca6e72a	-0.0203739
71	0xbdabe3a4	-0.083930284
72	0x3d2c26ea	0.0420293
73	0xbe45818b	-0.19287698
74	0xbac6de77	-0.0015172501
75	0xbddc3f25	-0.10754231
76	0x3b86fdd5	0.0041196146
77	0xbe0cdf43	-0.13757043
78	0xbc49a2f9	-0.012306922
79	0xbdf687d6	-0.120376274
80	0x3e49a776	0.19692788
81	0xbdb73ad3	-0.08946767
82	0xbd02a515	-0.031895716
83	0xbbd39dbe	-0.0064580133
84	0x3ce273b7	0.027643068
85	0xbdc16697	-0.094433956
86	0x3dc03f79	0.093871064
87	0xbc6e549d	-0.014546541
88	0x3a5ef388	0.0008504917
89	0xbd9ea2c4	-0.07745889
90	0x3e48c0fb	0.19604866
91	0xbcf4725a	-0.029839683
92	0xbdfe02e3	-0.12402894
93	0xbdfce404	-0.12348178
94	0x3e37d7b6	0.17953381
95	0xbe7f7c34	-0.24949723
96	0x3dcbe0cf	0.09954988
97	0x3db8cb4d	0.090231515
98	0xbc065a7d	-0.008200285
99	0xbcab9bea	-0.020948369
100	0xbde47578	-0.11155218
101	0x3de09564	0.10965994
102	0xbdcd57ab	-0.10026487
103	0xbddab712	-0.10679449
104	0x3dcc4d70	0.099757075
105	0xbcf4c5d1	-0.029879482
106	0x3c89fb4e	0.016843464
107	0x3aac7edb	0.0013160364
108	0xbdc99ea7	-0.09844714
109	0x3d18e2d1	0.037325684
110	0x3d2a13a9	0.041522656
111	0xbc8ef2bb	-0.017449727
112	0xbdd0cbb7	-0.101951055
113	0x3e46c8d6	0.1941255
114	0x3d917f57	0.07104366
115	0xbe013184	-0.12616545
116	0xbd13d3eb	-0.036090773
117	0x3d422c57	0.047405567
118	0x3e2db9a9	0.16965355
119	0x3d9b2944	0.0757623
120	0x3daa668f	0.08320343
121	0xbd876ee2	-0.06612946
122	0x3d2dccc0	0.042431593
123	0x3b906f91	0.004407831
124	0xbcfc445f	-0.03079432
125	0xbbc66b23	-0.006055252
126	0xbda8ac57	-0.08235996
127	0x3d20a41a	0.039219
128	0xbc3f8133	-0.011688518
129	0x3dc84e10	0.09780514
130	0x3d0e7932	0.03478355
131	0x3e96d40c	0.29458654
132	0xbe2a2649	-0.16616167
133	0xbc88e68e	-0.0167115
134	0xbd6b1650	-0.057394326
135	0xbdbf6a83	-0.093464874
136	0xbdf40147	-0.11914306
137	0xbd962918	-0.07332057
138	0xbdbb51d5	-0.091464676
139	0xbce1a091	-0.027542384
140	0xbd53b677	-0.051687684
141	0x3cf6dc99	0.030134486
142	0x3e65ff83	0.22460751
143	0x3e1dfa13	0.15427427
144	0xbe80976e	-0.25115532
145	0xbe11eafa	-0.14249793
146	0xbcfafc07	-0.030637754
147	0x3e179613	0.14803343
148	0x3ee8329e	0.45351118
149	0xbd6b9f11	-0.057524744
150	0xbd77cf98	-0.06050071
151	0xbbf63a4d	-0.007514274
152	0xbd618902	-0.0550623
153	0x3d8c3eec	0.06847939
154	0x3dae10f5	0.08499328
155	0xbddc6803	-0.10762026
156	0x3da3b69f	0.079938166
157	0xbd5737d8	-0.05254349
158	0x3ddda2ca	0.10822065
159	0xbc014469	-0.007889845
160	0x3e07b515	0.13252671
161	0x3e4ae44d	0.19813652
162	0xbe31b1d3	-0.17352991
163	0xbc6789ae	-0.0141319465
164	0xbc0c2512	-0.00855376
165	0x3cc3f86a	0.023922164
166	0xbd0094cc	-0.031391904
167	0xbdcee7d6	-0.10102813
168	0x3e162b45	0.14664944
169	0x3daf0c95	0.08547322
170	0xbe1adcd6	-0.15123305
171	0xbd8af846	-0.06785636
172	0xbe3b2d43	-0.18278985
173	0x3de30738	0.11085361
174	0xbe2bebaa	-0.16789117
175	0x3e3b08f0	0.18265128
176	0xbd765c6c	-0.060146734
177	0x3d445434	0.047931865
178	0x3e278a9e	0.16361472
179	0x3e9fabc1	0.31185725
180	0xbd411fac	-0.047149345
181	0xbcb6d71f	-0.022319375
182	0x3cd5bdc0	0.026091456
183	0x3c8492ad	0.016183222
184	0xbe1f74df	-0.15571927
185	0xbdb54d4b	-0.08852633
186	0x3e314aef	0.17313741
187	0xbe1ce988	-0.1532346
188	0xbd114483	-0.03546573
189	0x3dab17a6	0.0835412
190	0xbd83a56d	-0.06428037
191	0x3d979c7f	0.07402896
192	0x3da08988	0.07838732
193	0xbd9daece	-0.07699357
194	0xbc042acf	-0.008066847
195	0x3e1cf525	0.1532789
196	0xbc2dbce4	-0.010604117
197	0xbe1153de	-0.14192149
198	0xbdbbe18f	-0.09173881
199	0x3c4a86fa	0.0123612825
200	0x3dd43636	0.103619024
201	0x3e5e0b3d	0.21683975
202	0x3cf7dad9	0.030255722
203	0xbb6903cf	-0.0035555249
204	0x3d217e45	0.03942706
205	0x3cc6300c	0.024192832
206	0x3db6feb1	0.08935297
207	0x3e138e63	0.14409785
208	0x3aa5d433	0.0012651741
209	0xbdce1978	-0.100634515
210	0xbdfbec15	-0.123008884
211	0x3e91480f	0.2837529
212	0xbe07b935	-0.13254245
213	0xbe0305b6	-0.12795147
214	0xbd407321	-0.046984795
215	0xbe239bca	-0.15977398
216	0xbe34716a	-0.17621389
217	0xbd05784f	-0.03258544
218	0x3d8ebcca	0.069696024
219	0x3e4847d5	0.19558652
220	0x3d554e2b	0.0520765
221	0x3d30fc92	0.04320962
222	0xbdc9c2cf	-0.0985161
223	0x3d80f309	0.06296355
224	0xbc09c64a	-0.008409092
225	0xbe8b362a	-0.2718976
226	0xbc641043	-0.013919893
227	0x3e44d687	0.1922246
228	0xbe79916f	-0.24371885
229	0x3df8fb5e	0.121573195
230	0xbdaa06d4	-0.083020836
231	0x3d0521bc	0.032502875
232	0xbd7be818	-0.06150064
233	0xbd9ab100	-0.07553291
234	0xbe107160	-0.14105749
235	0x3e05490e	0.1301615
236	0x3de9de05	0.114193
237	0xbe002229	-0.12513031
238	0xbd896579	-0.067088075
239	0xbdd256b8	-0.102704465
240	0x3c6ee96e	0.014582021
241	0x3e429b55	0.19004567
242	0x3e129163	0.14313273
243	0xbe53b17f	-0.20673178
244	0x3db74b99	0.08949966
245	0x3cf60893	0.030033385
246	0x3c64ae9a	0.013957644
247	0x3e978bd6	0.29598874
248	0xbe4c2109	-0.19934477
249	0xbd74639d	-0.05966531
250	0xbd7d9334	-0.061907962
251	0xbe07c74b	-0.13259618
252	0x3cd5674d	0.026050234
253	0x3e1c1336	0.15241703
254	0x3dc69356	0.09696071
255	0x3e46ea93	0.1942542

network_body._body_endoder.seq_layers.0.bias f4 [128]
0	0x00000000	0.0
1	0x00000000	0.0
2	0x00000000	0.0
3	0x00000000	0.0
4	0x00000000	0.0
5	0x00000000	0.0
6	0x00000000	0.0
7	0x00000000	0.0
8	0x00000000	0.0
9	0x00000000	0.0
10	0x00000000	0.0
11	0x00000000	0.0
12	0x00000000	0.0
13	0x00000000	0.0
14	0x00000000	0.0
15	0x00000000	0.0
16	0x00000000	0.0
17	0x00000000	0.0
18	0x00000000	0.0
19	0x00000000	0.0
20	0x00000000	0.0
21	0x00000000	0.0
22	0x00000000	0.0
23	0x00000000	0.0
24	0x00000000	0.0
25	0x00000000	0.0
26	0x00000000	0.0
27	0x00000000	0.0
28	0x00000000	0.0
29	0x00000000	0.0
30	0x00000000	0.0
31	0x00000000	0.0
32	0x00000000	0.0
33	0x00000000	0.0
34	0x00000000	0.0
35	0x00000000	0.0
36	0x00000000	0.0
37	0x00000000	0.0
38	0x00000000	0.0
39	0x00000000	0.0
40	0x00000000	0.0
41	0x00000000	0.0
42	0x00000000	0.0
43	0x00000000	0.0
44	0x00000000	0.0
45	0x00000000	0.0
46	0x00000000	0.0
47	0x00000000	0.0
48	0x00000000	0.0
49	0x00000000	0.0
50	0x00000000	0.0
51	0x00000000	0.0
52	0x00000000	0.0
53	0x00000000	0.0
54	0x00000000	0.0
55	0x00000000	0.0
56	0x00000000	0.0
57	0x00000000	0.0
58	0x00000000	0.0
59	0x00000000	0.0
60	0x00000000	0.0
61	0x00000000	0.0
62	0x00000000	0.0
63	0x00000000	0.0
64	0x00000000	0.0
65	0x00000000	0.0
66	0x00000000	0.0
67	0x00000000	0.0
68	0x00000000	0.0
69	0x00000000	0.0
70	0x00000000	0.0
71	0x00000000	0.0
72	0x00000000	0.0
73	0x00000000	0.0
74	0x00000000	0.0
75	0x00000000	0.0
76	0x00000000	0.0
77	0x00000000	0.0
78	0x00000000	0.0
79	0x00000000	0.0
80	0x00000000	0.0
81	0x00000000	0.0
82	0x00000000	0.0
83	0x00000000	0.0
84	0x00000000	0.0
85	0x00000000	0.0
86	0x00000000	0.0
87	0x00000000	0.0
88	0x00000000	0.0
89	0x00000000	0.0
90	0x00000000	0.0
91	0x00000000	0.0
92	0x00000000	0.0
93	0x00000000	0.0
94	0x00000000	0.0
95	0x00000000	0.0
96	0x00000000	0.0
97	0x00000000	0.0
98	0x00000000	0.0
99	0x00000000	0.0
100	0x00000000	0.0
101	0x00000000	0.0
102	0x00000000	0.0
103	0x00000000	0.0
104	0x00000000	0.0
105	0x00000000	0.0
106	0x00000000	0.0
107	0x00000000	0.0
108	0x00000000	0.0
109	0x00000000	0.0
110	0x00000000	0.0
111	0x00000000	0.0
112	0x00000000	0.0
113	0x00000000	0.0
114	0x00000000	0.0
115	0x00000000	0.0
116	0x00000000	0.0
117	0x00000000	0.0
118	0x00000000	0.0
119	0x00000000	0.0
120	0x00000000	0.0
121	0x00000000	0.0
122	0x00000000	0.0
123	0x00000000	0.0
124	0x00000000	0.0
125	0x00000000	0.0
126	0x00000000	0.0
127	0x00000000	0.0

network_body._body_endoder.seq_layers.2.weight f4 [128, 128]
0	0xbc57ca31	-0.013170765
1	0x3d77cf3e	0.060500376
2	0xbd034679	-0.03204963
3	0x3cf29722	0.029613081
4	0x3ccf8c49	0.025335448
5	0x3deda372	0.1160344
6	0x3d1ab1b4	0.037767127
7	0xbd4e52b2	-0.050371833
8	0xbc9ae8e5	-0.01890988
9	0xbc9a1f40	-0.01881373
10	0x3da42718	0.08015269
11	0x3ce3fc0f	0.027830152
12	0xbd801859	-0.06254644
13	0xbd01719f	-0.0316025
14	0xbddb4f6a	-0.107085064
15	0xbce7a45c	-0.028276615
16	0xbd2d281f	-0.04227459
17	0x3d43529c	0.047686204
18	0x3dd6c6d1	0.1048714
19	0xbe029e31	-0.12755658
20	0xbd8e9a48	-0.069630206
21	0x3c9e66f9	0.01933621
22	0x3cdc7f43	0.026916152
23	0xbd6b82d0	-0.0574978
24	0xbc909118	-0.017647311
25	0xbd8330fb	-0.06405827
26	0x3cf928fc	0.03041505
27	0xbcb4ba3c	-0.02206146
28	0xbd932168	-0.07184106
29	0x3e291786	0.1651288
30	0xbdbbff5f	-0.091795675
31	0xbde9e76d	-0.11421094
32	0x3c2e250d	0.010628951
33	0x3d4b7674	0.049673513
34	0xbd567b4d	-0.052363683
35	0xbd0758eb	-0.033043783
36	0xbd6ff20a	-0.058580436
37	0xbd34f124	-0.044175282
38	0xbe0bc21c	-0.13648266
39	0x3c45a157	0.012062392
40	0x3d8c46d7	0.06849449
41	0xbca96791	-0.020679267
42	0xbd727bd8	-0.059200138
43	0x3e3f9c46	0.18711957
44	0xbc3c5920	-0.011495858
45	0x3dc4ec36	0.09615366
46	0x3d5d2030	0.053985775
47	0x3ce40ff3	0.027839636
48	0xbc712555	-0.014718373
49	0xbe081031	-0.13287427
50	0xbdace997	-0.08442991
51	0xbd2dfffc	-0.042480454
52	0xbc826569	-0.015917497
53	0x3d4e4e37	0.05036756
54	0xbe08857d	-0.13332172
55	0xbd8a70db	-0.06759807
56	0x3c8e3e5a	0.017363716
57	0xbd07e741	-0.033179525
58	0x3d2751bb	0.04084943
59	0x3dcd2aa4	0.10017899
60	0x3d36aa16	0.0445958
61	0xbd174307	-0.036929157
62	0x3cb2da28	0.02183254
63	0xbcf87d59	-0.030333208
64	0xbcd603f8	-0.02612494
65	0xbe334622	-0.17507222
66	0x3df75461	0.12076641
67	0xbd0cfb46	-0.03441932
68	0xbcd0dfe4	-0.025497384
69	0xbdd61044	-0.10452321
70	0x3c27efff	0.010250091
71	0xbcc4de8b	-0.024031898
72	0xbe327f8d	-0.1743147
73	0x3e49b696	0.19698557
74	0x3ddd08e5	0.10792712
75	0x3db1ab87	0.08675294
76	0xbd0fa499	-0.035069082
77	0xbd46d524	-0.04854311
78	0x3bd1cb95	0.0064024427
79	0x3cd3b516	0.025843184
80	0x3d652ea5	0.055952687
81	0xbda42284	-0.08014396
82	0x3ca59688	0.02021338
83	0x3d3fe7b8	0.046851844
84	0xbc8b6f26	-0.017020773
85	0x3b1e1b08	0.0024124999
86	0xbd86e922	-0.06587435
87	0x3d3cb96f	0.04607528
88	0xbcf2f3c6	-0.029657256
89	0x3d30efda	0.04319749
90	0xbd068ccc	-0.032849118
91	0x3c82590d	0.015911603
92	0xbdad64be	-0.08466481
93	0xbe2b8def	-0.16753362
94	0x3bb2b943	0.005454214
95	0x3de3ea07	0.111286215
96	0x3e1c486a	0.15261999
97	0xbce483cb	-0.027894875
98	0xbbf9d599	-0.00762434
99	0xbd619cff	-0.055081364
100	0x3ccca3d0	0.024980456
101	0xbd803942	-0.06260921
102	0xbc4ff503	-0.012692693
103	0x3ca4fcf4	0.020140149
104	0xbdddc990	-0.108294606
105	0x3d33ced3	0.043898415
106	0xbdf09a33	-0.11748161
107	0xbd326985	-0.043557663
108	0xbda78819	-0.081802554
109	0xbd77f027	-0.06053176
110	0x3e204e53	0.15654878
111	0x3b9f499c	0.00486107
112	0xbdf979ef	-0.1218146
113	0xbdc2ff9a	-0.095214084
114	0x3d72720e	0.059190802
115	0xbe0757cf	-0.1321709
116	0x3e03b459	0.12861766
117	0x3da0da30	0.07854116
118	0x3d54558c	0.051839396
119	0xbd2711f7	-0.040788617
120	0x3df8c75f	0.12147402
121	0x3dc8e4c5	0.09809259
122	0xbe4cb442	-0.19990638
123	0xbd6771d7	-0.05650505
124	0x3e00b1d0	0.1256783
125	0xbe1a3bb6	-0.1506184
126	0x3de0510d	0.10952959
127	0xbcf465cf	-0.029833702
128	0xbd0ff6b7	-0.035147395
129	0x3e0dd9b8	0.13852584
130	0x3e48413b	0.19556133
131	0x3d0b72ad	0.03404491
132	0x3c86b60c	0.016444229
133	0x3db8e58a	0.09028156
134	0xbd80c779	-0.062880464
135	0x3c564224	0.013077293
136	0x3e2e08f0	0.16995597
137	0xbce36402	-0.027757648
138	0xbd492796	-0.049110018
139	0xbde607a7	-0.11231928
140	0xbe09ae83	-0.13445477
141	0x3e1f32e6	0.1554676
142	0xbd81040c	-0.062996
143	0xbcac8131	-0.021057697
144	0xbe2fffe0	-0.17187452
145	0xbd79c920	-0.060982823
146	0x3b8e20d5	0.00433741
147	0x3b651c87	0.003495963
148	0x3dcbfd9f	0.09960484
149	0xbd5177bb	-0.051139574
150	0xbd1ff1ca	-0.039048947
151	0x3d97a69e	0.074048266
152	0x3dc72376	0.097235605
153	0x3cb2ee0c	0.021842025
154	0xbdd728da	-0.10505839
155	0x3d382bae	0.04496353
156	0x3cf62927	0.03004892
157	0xbdab0aa5	-0.0835164
158	0x38eb79c9	0.000112283575
159	0x3d75ac5a	0.05997882
160	0xbc8d1790	-0.01722315
161	0x3cb243b5	0.0217608
162	0xbdb38e4f	-0.087673776
163	0xbd56e6c3	-0.052466165
164	0x3d34f07f	0.044174667
165	0xbd046322	-0.032321103
166	0x3d5b7e4d	0.053587247
167	0xbaf1a607	-0.0018436321
168	0xbd336b22	-0.04380334
169	0xbd320c9e	-0.043469064
170	0x3da9b008	0.082855284
171	0x3c9bf4da	0.019037653
172	0xbd5fd456	-0.05464586
173	0x3bc41deb	0.005985012
174	0x3d6fe895	0.058571417
175	0xbd5686b9	-0.052374575
176	0x3e1924e6	0.14955482
177	0xbdd51837	-0.10405009
178	0xbcb56bd7	-0.022146149
179	0x3e7369a8	0.23770773
180	0xbcffeffd	-0.031242365
181	0xbd998b33	-0.07497253
182	0xbd90b664	-0.07066038
183	0x3d623d33	0.055234145
184	0x3cc9aef7	0.024619563
185	0xbe15fbb3	-0.14646797
186	0xbaf506e6	-0.0018694072
187	0xbd5918c6	-0.05300214
188	0xbe4ee76b	-0.20205466
189	0x3ce9b44c	0.028528355
190	0x3d86232f	0.065496795
191	0xbcb2b411	-0.021814378
192	0x3d6f27f3	0.058387708
193	0xbdea5412	-0.114418164
194	0x3e006a43	0.12540536
195	0x3de21ad9	0.11040277
196	0x3d53c4a9	0.05170122
197	0xbc4339d9	-0.011915647
198	0xbdac5f18	-0.08416575
199	0x3d7392c6	0.059466146
200	0x3e0630c9	0.13104548
201	0x3d29ed9a	0.04148636
202	0xbe3affe4	-0.18261677
203	0x3e22b770	0.15890288
204	0x3d9ba8da	0.07600565
205	0xbe0558d5	-0.13022168
206	0xbc46f226	-0.012142694
207	0x3c9518ce	0.018200304
208	0xbd4156e6	-0.047202013
209	0xbe2ccb76	-0.16874489
210	0x3d15e902	0.036599167
211	0xbad4e3f5	-0.0016242253
212	0xbd06c688	-0.032904178
213	0xbd539686	-0.051657222
214	0x3dba3f99	0.090941615
215	0xbced5d03	-0.028975016
216	0x3d71c09c	0.059021577
217	0xbdc097d8	-0.09403962
218	0x3ddea2a8	0.10870868
219	0xbd453986	-0.04815056
220	0xbda49856	-0.08036868
221	0xbc002197	-0.007820508
222	0x3ccd1d23	0.025038308
223	0xbd4e213f	-0.050324675
224	0xbda6c68b	-0.08143338
225	0x3cd1c99b	0.025608828
226	0x3cce0318	0.02514796
227	0x3d13eaf6	0.036112748
228	0xbd34c71d	-0.0441352
229	0xbdc10dd7	-0.09426468
230	0x3ccebd6b	0.025236806
231	0x3c60e58b	0.013726602
232	0x3d52397a	0.051324345
233	0xbda6c3b0	-0.08142793
234	0x3dd0a334	0.101873785
235	0x3ddb5fce	0.10711633
236	0x3e0d562c	0.13802403
237	0xbcb84eb9	-0.022498475
238	0xbdb85236	-0.090000555
239	0xbb694424	-0.0035593593
240	0xbca2d012	-0.019874606
241	0x3ba95d92	0.005168625
242	0xbd0b89b4	-0.03406687
243	0x3d00ae6a	0.031416334
244	0xbd8aeaa9	-0.06783039
245	0xbd91d38a	-0.07120426
246	0x3d2b2b26	0.041789196
247	0xbdb98701	-0.09058953
248	0xbc1d4bcb	-0.00960059
249	0xbe33e9d2	-0.17569664
250	0x3cc100c0	0.023559928
251	0xbdb9d458	-0.090737045
252	0xbda90376	-0.08252613
253	0xbcec1443	-0.028818255
254	0xbd9d54cb	-0.076821886
255	0xbc9d87e2	-0.019229833

action_model._continuous_distribution.log_sigma f4 [1, 2]
0	0x00000000	0.0
1	0x00000000	0.0

action_model._continuous_distribution.mu.weight f4 [2, 128]
0	0xb9f6979d	-0.00047033737
1	0x3c76d72b	0.0150659485
2	0x3d28e385	0.041232605
3	0x3c9cf9b4	0.019162036
4	0xbc236a44	-0.009974066
5	0xbc4e491f	-0.012590676
6	0x3c9e4d78	0.01932405
7	0xbbbafbc2	-0.0057062814
8	0x3a8afd0d	0.001060398
9	0xb9139425	-0.000140742
10	0x3c958cae	0.018255558
11	0x3c696bb0	0.014246866
12	0xbcc39a43	-0.023877269
13	0x3bcdbab2	0.0062783593
14	0x3cc76c89	0.024343746
15	0xbbdb244f	-0.006687678
16	0x38161017	3.577777e-05
17	0xbcdcb65f	-0.02694243
18	0xbd0c0011	-0.03417975
19	0x3b59928d	0.0033198923
20	0xbcc33e67	-0.023833467
21	0xbca09c99	-0.019605922
22	0x3ceca9e7	0.02888961
23	0xbb184505	-0.0023234498
24	0xbb9627df	-0.0045823897
25	0x3c3831db	0.011242355
26	0xbd0dcfe9	-0.034622107
27	0xbcac7bdb	-0.021055153
28	0xbb9e248a	-0.004826133
29	0xbb9c9f58	-0.0047797374
30	0xbbcdaa92	-0.006276437
31	0x3c0c6a54	0.0085702725
32	0xbc8050cb	-0.015663525
33	0xbc581918	-0.013189577
34	0xbb7c7932	-0.0038524386
35	0x3916fff0	0.00014400459
36	0xbd06124b	-0.03273229
37	0xbbc19b55	-0.0059084096
38	0x3cc6cfdd	0.024269039
39	0x3c3402b7	0.010986975
40	0x3cc2057e	0.02368426
41	0xbc3956e3	-0.011312219
42	0x3b6ed10f	0.0036440527
43	0xbc325852	-0.010885315
44	0x3d08c20b	0.03338818
45	0x3c461c27	0.012091673
46	0xbcb0dc25	-0.021589348
47	0xbc61e5a8	-0.0137876645
48	0xbc4e063a	-0.012574727
49	0x3c10a6d5	0.008828838
50	0x3ba0f11c	0.004911555
51	0xbc30c475	-0.0107890265
52	0x3bf7c842	0.0075617144
53	0xbb3e8245	-0.0029069346
54	0xbd0d9c45	-0.03457286
55	0xbb83e64e	-0.004025257
56	0xbb7aee6f	-0.003828909
57	0x3d1692e9	0.0367612
58	0xb9a265a8	-0.00030974788
59	0x3ba648f3	0.005074614
60	0xbcb59351	-0.022164972
61	0xbcc8909b	-0.024483016
62	0xbbe6c492	-0.007042476
63	0x3c7efdc7	0.015563435
64	0xbc318edf	-0.010837286
65	0x3b5267a0	0.0032105222
66	0x3c7f3713	0.015577096
67	0xbd340375	-0.04394861
68	0x3ca093bf	0.0196017
69	0xbbc41aa4	-0.005984621
70	0xbd2a9036	-0.041641437
71	0xbc7002a0	-0.014649063
72	0x3c01ba81	0.007918001
73	0x3c14fd7b	0.009093638
74	0xbb91ada3	-0.004445748
75	0x3b072e79	0.0020627065
76	0x3c8033eb	0.015649756
77	0xbb1b4113	-0.002368991
78	0xbcb22b9f	-0.021749316
79	0xba092f9d	-0.000523323
80	0x3cdeb45b	0.02718561
81	0x3b8e17dc	0.0043363404
82	0x3d0d9cb2	0.034573264
83	0x3c7b861d	0.015351799
84	0x3cdececb	0.027198216
85	0xbcea85e3	-0.028628295
86	0x3ce14210	0.027497321
87	0xbc1505e4	-0.009095643
88	0x3cab91da	0.02094357
89	0x3cd61cc7	0.026136769
90	0xbbcf6b33	-0.006329918
91	0x3c0c00e4	0.008545134
92	0xbc855530	-0.016275972
93	0x3bc5db37	0.0060380953
94	0xbc64abb0	-0.013956949
95	0xbc8b053a	-0.016970266
96	0xbc070403	-0.008240703
97	0x3c525197	0.012836835
98	0xbc3d6c45	-0.011561458
99	0x3cb51e8d	0.022109294
100	0xbc6199ed	-0.013769609
101	0xbca16477	-0.019701226
102	0x3d171c7b	0.036892395
103	0x3c6fa7fa	0.014627451
104	0x3b52ccf5	0.003216562
105	0x3b91be8c	0.004447764
106	0xbb5a5a78	-0.0033318084
107	0xbb37383b	-0.00279571
108	0xbcba58c9	-0.022747414
109	0xbb85c794	-0.0040826295
110	0x3b9b5135	0.0047399052
111	0x3b191ada	0.0023361952
112	0xbcbcb0c4	-0.023033507
113	0xbc320302	-0.010864975
114	0x3c12ec87	0.008967525
115	0x3ce0fccf	0.027464299
116	0x3ba3025f	0.004974648
117	0x3c89137d	0.016732926
118	0xbba30a2f	-0.004975579
119	0x3ce0b5ad	0.02743038
120	0xbca6f339	-0.02037965
121	0xbc1b473b	-0.009477432
122	0x3cf2a37a	0.029618967
123	0xbbe6745f	-0.0070329155
124	0xbc27cb04	-0.010241274
125	0x3d0bb56c	0.034108564
126	0x3ce23ad5	0.027615944
127	0xbcbac7bc	-0.022800319
128	0xbc8608b3	-0.01636157
129	0xbb413b88	-0.0029484946
130	0x3bd07668	0.0063617714
131	0xbb208b0a	-0.0024496936
132	0x3c858abb	0.016301503
133	0xbc5bb00d	-0.013408673
134	0x3ba474fb	0.005018828
135	0xbc11a1a8	-0.0088886395
136	0x3cc57675	0.024104336
137	0xbc8228a3	-0.015888518
138	0x3d0b92e6	0.03407564
139	0xbc473465	-0.012158488
140	0x3cc2d943	0.02378524
141	0xbc46f538	-0.012143426
142	0x3c33c298	0.010971688
143	0x3a9b454e	0.0011846216
144	0x3cb34c14	0.021886863
145	0xbb8e727e	-0.0043471446
146	0x3ab97e43	0.0014152009
147	0xbc965303	-0.01835013
148	0xbc6a1317	-0.014286778
149	0xbc291737	-0.010320476
150	0x3c9e3347	0.01931156
151	0xbac4b5d1	-0.0015007799
152	0xbd1b8257	-0.0379661
153	0x3c665870	0.014059171
154	0x3c246f42	0.010036292
155	0x3c9cf83e	0.01916134
156	0x3aa8e5cc	0.0012885868
157	0xbce22d1f	-0.027609406
158	0x3aa90a23	0.0012896698
159	0x3ba929e9	0.005162467
160	0x3bcd1ec3	0.0062597706
161	0xbc2cc247	-0.010544366
162	0x3c1f6900	0.009729624
163	0x3aec97f7	0.001805066
164	0xbcf70318	-0.030152842
165	0xbceb30da	-0.028709818
166	0x3ca2b860	0.019863307
167	0x3cc42e25	0.023947785
168	0xbc809da3	-0.015700167
169	0x3c2ec8db	0.010668005
170	0x3cb517e3	0.022106117
171	0x3c73c310	0.0148780495
172	0xbc0480b1	-0.008087323
173	0x3c47594f	0.012167289
174	0xbc93cafe	-0.01804113
175	0xbc915920	-0.017742693
176	0x3c834126	0.016022276
177	0xb83d8076	-4.518075e-05
178	0x3ba70543	0.005097063
179	0x3988068b	0.00025944816
180	0x3c8d2c10	0.017232925
181	0xbbd1a8a5	-0.006398278
182	0x3c0358dc	0.008016791
183	0x3ca8a9cf	0.020588784
184	0x3c6dac87	0.014506466
185	0xbcb35613	-0.02189163
186	0xbcb5008b	-0.022094985
187	0x3c36c125	0.011154448
188	0x3cd4021f	0.025879918
189	0x3c03b4de	0.008038728
190	0xbbfd44fa	-0.00772917
191	0x3c9151b5	0.017739156
192	0x3c0afe38	0.008483462
193	0xbd0de06d	-0.034637857
194	0xbc3183e2	-0.010834666
195	0x39b8b799	0.00035232006
196	0x3ae7d97a	0.0017688714
197	0xbb9736f6	-0.004614706
198	0xbc3e0847	-0.011598653
199	0x3c7bc59f	0.015366941
200	0x3c72a132	0.01480894
201	0xbcd5fc02	-0.026121143
202	0xbbff9e6d	-0.0078008682
203	0xbc2ebd4b	-0.010665248
204	0x3bb75a5f	0.00559549
205	0x3be43b30	0.0069650635
206	0x3ca37951	0.01995531
207	0x3c6232c2	0.013806047
208	0x3c862094	0.016372956
209	0xbc1974a8	-0.009366192
210	0xbc1a12bb	-0.00940388
211	0x3c5d9857	0.01352509
212	0x3c36017b	0.011108751
213	0xbb110815	-0.0022130061
214	0xbc5eac9d	-0.013590959
215	0xbcfa3d08	-0.03054668
216	0xbd385305	-0.04500105
217	0xbc829fb4	-0.015945293
218	0xbb8b6e73	-0.00425511
219	0xbcc1311f	-0.023582993
220	0x3c3e5ef8	0.011619322
221	0x3a9e17b7	0.0012061511
222	0xbbef1583	-0.0072962656
223	0x3bea30e7	0.007146943
224	0x3c3c582b	0.01149563
225	0xbc61dcaf	-0.013785525
226	0x3c4390a7	0.011936343
227	0xbc0e724b	-0.008694242
228	0x3b622b7d	0.0034510784
229	0xbc0a3a75	-0.008436789
230	0xbb91a140	-0.0044442713
231	0xbc2833f4	-0.010266293
232	0x3c6c4b95	0.014422317
233	0x3cd29bb0	0.025709003
234	0x3c434ac7	0.011919684
235	0x3ca1bc58	0.01974313
236	0xbca5e6c2	-0.020251635
237	0x3b9363cf	0.004497982
238	0x3c46c3fe	0.012131689
239	0xbc272c0d	-0.010203374
240	0xbc5cf792	-0.01348676
241	0x3b6ee577	0.003645269
242	0x3bac3ad8	0.005256038
243	0x3b9507ce	0.0045480495
244	0x3cbf0816	0.023319285
245	0x3b3613b5	0.0027782742
246	0xbb2a9f74	-0.0026034983
247	0x3b75a055	0.0037479599
248	0xbbe5d307	-0.007013682
249	0xbbab5848	-0.00522903
250	0x3bde18fb	0.0067778802
251	0xbc2ddde8	-0.010611989
252	0xbc3c79f4	-0.011503685
253	0x39dfea3f	0.000427084
254	0x3c7a00d3	0.015258986
255	0xbbfcd91d	-0.0077163116

action_model._continuous_distribution.mu.bias f4 [2]
0	0x00000000	0.0
1	0x00000000	0.0

onnx::Div_51 f4 [76]
0	0x3f0bcdcd	0.546109
1	0x3f0f9bee	0.56097305
2	0x3e88cc7f	0.26718518
3	0x3e81e4c8	0.2536986
4	0x3e87bbd6	0.26510495
5	0x3e81b2a5	0.25331607
6	0x3e86d0e0	0.26331234
7	0x3e817bbd	0.25289717
8	0x3e8650b2	0.2623344
9	0x3e8166f5	0.25273862
10	0x3e875664	0.26433098
11	0x3e80d3c2	0.25161558
12	0x3e870a5c	0.2637509
13	0x3e800ece	0.25011295
14	0x3eb51663	0.35368642
15	0x3c4220cd	0.011848641
16	0x3ec9f976	0.39448136
17	0x3c4220cd	0.011848641
18	0x3edbc6a5	0.4292499
19	0x3c4220cd	0.011848641
20	0x3edd9c58	0.43283343
21	0x3c4220cd	0.011848641
22	0x3efba737	0.49151012
23	0x3c4220cd	0.011848641
24	0x3ee543db	0.44778332
25	0x3c4220cd	0.011848641
26	0x3ec49d12	0.38401085
27	0x3c4220cd	0.011848641
28	0x3ea59611	0.32341054
29	0x3c4220cd	0.011848641
30	0x3ea5280b	0.32257113
31	0x3c4220cd	0.011848641
32	0x3eab6b6b	0.3348039
33	0x3c4220cd	0.011848641
34	0x3ec4c47f	0.38431165
35	0x3c4220cd	0.011848641
36	0x3ec167b3	0.3777443
37	0x3c4220cd	0.011848641
38	0x3f0c0fe8	0.5471177
39	0x3f0fed0a	0.5622107
40	0x3e89295f	0.26789376
41	0x3e823224	0.2542888
42	0x3e8811e5	0.26576152
43	0x3e81f5a8	0.25382733
44	0x3e876b42	0.2644902
45	0x3e81e229	0.2536786
46	0x3e86a8e4	0.26300728
47	0x3e81b1a1	0.25330833
48	0x3e87b0f1	0.26502183
49	0x3e814c85	0.25253692
50	0x3e8757b0	0.26434088
51	0x3e804abf	0.25057027
52	0x3eb57963	0.35444173
53	0x3c4220cd	0.011848641
54	0x3eca502b	0.39514288
55	0x3c4220cd	0.011848641
56	0x3edc2cde	0.4300298
57	0x3c4220cd	0.011848641
58	0x3ede25c1	0.4338818
59	0x3c4220cd	0.011848641
60	0x3efc3ccb	0.4926513
61	0x3c4220cd	0.011848641
62	0x3ee5c974	0.4488026
63	0x3c4220cd	0.011848641
64	0x3ec522a7	0.38503
65	0x3c4220cd	0.011848641
66	0x3ea5f082	0.32410055
67	0x3c4220cd	0.011848641
68	0x3ea5780a	0.32318145
69	0x3c4220cd	0.011848641
70	0x3eabb3d3	0.33535632
71	0x3c4220cd	0.011848641
72	0x3ec52724	0.38506424
73	0x3c4220cd	0.011848641
74	0x3ec1d0c1	0.3785458
75	0x3c4220cd	0.011848641
