results/random_orientation/DroneAgent/DroneAgent-10877.pt (torch, 550108 bytes, 36 tensors)

network_body._body_endoder.seq_layers.0.weight f4 [128, 41]
000000 cb 0d 1f be 2d 7d b1 3c 63 87 d4 bd cc 86 96 3e
       -0.15532605 0.021666134 -0.103773855 0.29399717
000010 d6 bc 4a bd 45 05 11 be 05 56 5c bd 61 82 01 bf
       -0.049496494 -0.14162166 -0.053792972 -0.5058957
000020 2f b1 17 be e8 c4 82 3d 3e 0b 16 3e 4a 98 10 bd
       -0.14813684 0.06385213 0.14652726 -0.035301484
000030 74 ad 0f bc d7 ac da bd fb 20 22 3d d8 fd 8a be
       -0.008769382 -0.10677498 0.039582234 -0.27146792
000040 4a 94 90 3c 98 f0 71 be 8a 12 88 be f5 22 81 bd
       0.017648835 -0.23626935 -0.26576644 -0.06305496
000050 15 d5 32 be 89 29 ff bd f0 8d 72 3b df 4b 16 3e
       -0.17464097 -0.12459094 0.003701087 0.1467738
000060 39 6d c6 3d 2b 01 8d be b1 f4 8a be 23 0a a9 3d
       0.09688801 -0.27539954 -0.2713981 0.082538866
000070 32 0c 92 bd 9a 42 69 be a6 b4 4c 3e a9 35 96 3d
       -0.07131232 -0.22779313 0.19990787 0.073344536
000080 03 91 82 3d 01 eb 98 3d 67 16 fb 3d 6c 05 43 be
       0.06375315 0.074666984 0.12260132 -0.19045037
000090 bd ed 0b be 2c 91 ab bc 3e 3c b7 3e d0 88 19 bb
       -0.13664909 -0.020943247 0.3578815 -0.0023427494
0000a0 6c db 56 3e bf 10 95 3e 1b 10 b8 bd 5e e2 48 bc
       0.2098214 0.2911434 -0.08987447 -0.012261001
0000b0 ff 3d 80 be bd a3 ed 3c 7d 6a d4 3d 6a 24 be 3e
       -0.250473 0.02900874 0.103718735 0.37137157
0000c0 53 22 0b be d5 c9 cf 3e 1e 0c f9 3d fa 2c f6 3d
       -0.13587312 0.40583673 0.12160514 0.12020297
0000d0 35 77 9e bc 87 a5 1e be 5a 3f f6 3d 72 0e 17 be
       -0.019343952 -0.15492831 0.12023802 -0.14751604
0000e0 28 3b 5c bd e5 08 35 bc 68 de 12 3e 97 09 08 3d
       -0.053767353 -0.011049484 0.14342654 0.03321227
0000f0 05 ed 23 bd 22 09 69 bc 6b bc bf be 21 4c 10 3d
       -0.04002096 -0.014223369 -0.3744844 0.035228852
000100 e6 4b 71 3e 12 6c ff 3d 03 42 c9 bc 0b 41 29 be
       0.23564109 0.12471785 -0.02456761 -0.16528718
000110 1f 91 0a bd 52 08 96 3c 88 3d af 3d 0d ab cd bd
       -0.033829805 0.018314514 0.08556658 -0.10042391
000120 db 8d 03 be 06 37 1a 3e c8 e0 be bc 52 f7 a6 3c
       -0.12847082 0.15060052 -0.023300543 0.020381603
000130 96 2c 8b 3e df 65 1c be 0d 22 d1 3c 30 ec 6a 3c
       0.27182454 -0.15273236 0.025528932 0.014338538
000140 cd 3e 20 be 4c 19 ab ba 71 f8 bd bc bc 2e c9 bd
       -0.15648957 -0.0013053804 -0.023189755 -0.09823367
000150 33 85 60 3e 1c 25 a1 3d a3 71 e1 bd d3 e6 74 be
       0.21925811 0.07868406 -0.110080026 -0.23916177
000160 eb 40 fe bd b3 23 39 bd 24 5b b4 bd 97 ef de bc
       -0.12414726 -0.04520006 -0.08806446 -0.027213855
000170 de f3 6f bd 2c ac 00 3e fb ca 14 be 90 87 97 3e
       -0.05858218 0.12565678 -0.14530556 0.29595613
000180 f2 96 45 3d 22 47 7e 3e c3 f3 17 bd 38 e3 87 bd
       0.048239656 0.24831823 -0.037097704 -0.066351354
000190 59 12 6a 3e c2 7e 75 3e 67 6f 50 bc a7 b6 b8 be
       0.22858562 0.23974136 -0.012721873 -0.36076853
0001a0 8f c8 8b 3e 82 44 bc 3d a2 1a e8 bc 37 e9 ef 3d
       0.27301452 0.09192754 -0.028333012 0.11714404
0001b0 0d 40 15 bd c3 eb 32 be 68 03 21 3e e4 4c 05 3e
       -0.036438037 -0.17472748 0.15723956 0.13017613
0001c0 2d c5 d9 bd 1a 56 9c 3e 0b a6 36 bd 74 c5 88 3e
       -0.106333114 0.3053444 -0.044591945 0.26713145
0001d0 41 d1 3a bd 05 0b 27 be 91 96 86 bc 1d ae ae 3d
       -0.045609716 -0.16312797 -0.016429218 0.08529303
0001e0 19 84 98 be 6c 42 4c 3e 9d c4 a2 3c f6 9a 71 3e
       -0.29788283 0.19947213 0.019869143 0.23594269
0001f0 a3 e0 14 3c 06 d0 8e be e0 9d 73 be 98 2a 87 3e
       0.009086761 -0.27893084 -0.23790693 0.26399684
000200 8b 23 4c 3e 68 77 0f be 48 f2 20 be b1 87 3a bd
       0.19935434 -0.14010394 -0.15717423 -0.04553956
000210 e2 16 5c be d8 cd 38 3d ad 3e 82 3d 7b c7 1e 3e
       -0.21493104 0.045118183 0.06359611 0.15505783
000220 67 12 c2 bd fe 87 41 be 2d 90 12 be 44 2e d8 3b
       -0.09476166 -0.18899533 -0.14312811 0.006597312
000230 93 44 3d 3e 1a 53 67 be 59 18 71 bd a3 25 97 bd
       0.1848319 -0.22590294 -0.05886111 -0.073802255
000240 39 06 e1 bd 61 1c bb bd 8f 01 ca bc d7 a9 d3 3d
       -0.10987515 -0.09136272 -0.024658946 0.10335129
000250 d3 f6 04 3e c7 ab af 3d 93 e4 c4 3c 3c 90 d8 bd
       0.12984781 0.08577686 0.024034774 -0.105743855
000260 bf 79 a2 3c 73 aa 2e 3e 25 b0 f7 bc 6e a5 fd bd
       0.019833444 0.17057209 -0.03023536 -0.12385069
000270 bc 7f 51 be 37 c2 f6 bc 77 c2 34 3e 67 01 9f bd
       -0.20458883 -0.030121906 0.17652307 -0.07763939
000280 2e c8 cc bd 1b 16 c0 bd 6b f1 96 3d 05 60 17 3e
       -0.09999119 -0.09379216 0.073702656 0.14782722
000290 0a c7 ba bd 28 a5 b0 3e 80 da 51 3e c4 0c d7 bd
       -0.09119995 0.34501004 0.20493507 -0.10500482
0002a0 cb 31 97 be 90 17 a0 bd 46 89 03 bd f2 ec 6c 3e
       -0.29530177 -0.07816994 -0.032113336 0.23137262
0002b0 43 08 10 3e c8 b2 90 bd fa 05 a6 3e 4a be b3 bd
       0.14065652 -0.0706535 0.32426435 -0.08776529
0002c0 b5 a9 f3 bd 01 40 36 3e 8b 14 5b 3d 60 15 47 be
       -0.118976034 0.17797853 0.05348639 -0.19441748
0002d0 39 91 05 3e 04 f0 75 3e 5c 9f 94 bd fd de 54 be
       0.1304368 0.2401734 -0.07256958 -0.20788188
0002e0 84 d4 ea bd 4f 44 b9 3c c1 53 5f be 15 a1 01 3e
       -0.114663154 0.02261558 -0.21809293 0.12659104
0002f0 0d 89 58 be 8f 77 90 3e 2b 9b 28 3c b0 37 43 be
       -0.2114603 0.28216216 0.010290901 -0.19064212
000300 42 25 0f 3e ae 41 dd 3d bd dd a5 3d 41 61 30 bd
       0.13979056 0.10803543 0.08098934 -0.0430615
000310 76 b4 06 3e 9f 10 4a 3d ea 19 1f be 3a 1e 5f be
       0.13154778 0.049332257 -0.15537229 -0.21788874
000320 ac cf 48 3c 4b 5d 32 3e 5a 00 ef 3d 2b a4 6f bd
       0.012256544 0.17418401 0.11669989 -0.058506172
000330 c6 27 f0 3d 5b 39 8e bd f1 27 db bb 8f 73 1e 3e
       0.11726336 -0.069445334 -0.006688111 0.1547377
000340 27 6b 8d 3c 0a 3d ae 3b dc ab 09 be e7 cd 04 3e
       0.017263008 0.005317335 -0.13444465 0.1296917
000350 c9 15 d6 bc 27 ed 66 3d 65 6e df bd f6 d9 57 3e
       -0.026133435 0.05637851 -0.10909728 0.21079239
000360 be 5a 39 bc cb 99 e8 be 61 b1 32 bd 1b 53 9f 3d
       -0.0113131385 -0.45429835 -0.043626193 0.07779523
000370 63 e2 1b bd 5e 3e 48 be 14 02 20 3e 85 94 0a 3e
       -0.038057696 -0.19555041 0.15625793 0.13533218
000380 d2 56 82 be 5b 58 b7 3c cb 86 a7 bc 8a 67 f7 bc
       -0.25456864 0.022380998 -0.020450016 -0.030200738
000390 97 04 81 3d 7a 39 28 bd 2b 58 8c be 2f 42 65 be
       0.062997036 -0.04107044 -0.27411017 -0.22388528
0003a0 43 55 cd 3c ce bc 2d bc 39 51 85 3d 8d c2 bd bd
       0.02506507 -0.010604097 0.065096326 -0.09265623
0003b0 75 e1 34 3e e5 ea a3 3d 4c ca 28 bd 1e 03 50 3d
       0.1766413 0.08003787 -0.04120855 0.050784223
0003c0 d0 67 b4 bd d7 94 7a 3e 56 6f 59 bd b6 c0 6a 3d
       -0.08808863 0.2447084 -0.053084694 0.05731269
0003d0 da e5 e6 3d 99 35 b7 bd 80 5b 2e be e0 27 0e 3e
       0.112743095 -0.0894577 -0.17027092 0.13882399
0003e0 5e 49 d3 3d 68 03 70 3e 06 f6 2c be b4 23 4e be
       0.10316728 0.234388 -0.16890725 -0.20130807
0003f0 49 4e bf 3d 43 ab 9c bc 09 b2 1f bd f5 0d 33 bd
       0.093411036 -0.019124633 -0.038988147 -0.043714482

network_body._body_endoder.seq_layers.0.bias f4 [128]
000000 a2 f1 a2 bc 8b ef 11 3c d6 0f 38 3b 3e 55 37 bc
       -0.01989061 0.008907209 0.002808561 -0.011189757
000010 cb e8 06 3c e6 88 7f bc a9 e0 9e 3b 7b 47 21 3b
       0.008234213 -0.015596604 0.004848559 0.0024609256
000020 3f ea ae bb 21 24 c3 ba 9f b9 05 bc 11 01 83 bc
       -0.005337983 -0.0014888087 -0.008161931 -0.01599172
000030 5f 25 1e b9 ba 6b ab bb ff 3c 33 3c c1 c3 58 3c
       -0.00015081976 -0.005231348 0.010939836 0.013230265
000040 4a 2a a9 bb be fd f7 bb 14 e2 53 bc 02 0a e9 39
       -0.005162512 -0.00756809 -0.012932319 0.0004444868
000050 89 d3 c9 bc a0 f8 19 bc 96 95 82 bb 3e bd 9b bc
       -0.024637 -0.009397656 -0.003985117 -0.019011136
000060 db ab 61 3b a4 a0 dc bb 5c fe 1f bb 8c a7 41 bc
       0.003443471 -0.006733017 -0.0024413085 -0.011819731
000070 50 7d 0d bc 53 07 a7 bc 2e ae 82 bc a9 ff 9e bc
       -0.008635834 -0.020389235 -0.015952196 -0.019409018
000080 df 65 2b bc c0 01 b0 bc 64 12 03 ba 72 06 43 3c
       -0.0104613 -0.02148521 -0.0004999994 0.011903392
000090 62 de 9b ba 24 f3 d3 3b 61 30 27 3b a4 56 3d bc
       -0.0011891837 0.0064681936 0.0025511014 -0.011556301
0000a0 cb cc 0e 3c ec c7 b4 bc 58 9b b2 3c 2d 7d 65 bc
       0.008715819 -0.022067986 0.02180259 -0.014006895
0000b0 7a c4 e5 bc b2 2b 4f ba d3 10 cb bc b6 6b 76 bc
       -0.028047789 -0.00079029344 -0.024788296 -0.015040329
0000c0 75 b5 1e b9 c2 3c 58 ba 66 86 44 3c 9e 89 41 bc
       -0.00015135652 -0.00082488 0.011994934 -0.011812596
0000d0 a0 56 18 3c a3 fc a5 3b 73 1c 8a bc 01 de 4f bc
       0.009297997 0.005065517 -0.016859269 -0.012687207
0000e0 81 cb 55 3b 7c bb 83 3b 09 a7 fd ba 97 87 94 bb
       0.0032622518 0.0040201526 -0.0019352149 -0.004532765
0000f0 63 86 81 3b bf 18 3f bc 71 0f 1d bc f0 f2 89 3b
       0.0039527877 -0.011663615 -0.009586201 0.0042098686
000100 a6 1c db bc 14 3f 57 bb 76 0c be bc 84 f2 31 bc
       -0.02674706 -0.0032843994 -0.023199301 -0.010861043
000110 e1 62 e4 3b 17 dd ad bc e2 28 9f bc e0 1a 6a bc
       0.006969795 -0.021223588 -0.019428674 -0.014288634
000120 26 9d 35 bc 76 4f 35 3b 0e a3 95 3c 90 33 f0 bb
       -0.01108483 0.002766577 0.018266227 -0.0073303655
000130 2f 6b dc bc 2e 1a 28 3c 7d 20 e0 3b ea 3d e0 bb
       -0.026906578 0.010260148 0.0068398104 -0.006843318
000140 f5 78 1c bc f6 46 f1 3b 67 1a 4c bc f6 2f 9b bc
       -0.009550323 0.0073631955 -0.012457467 -0.018943768
000150 bd 21 79 bc e0 af af bc 19 4a d2 bb e0 d6 0b 3c
       -0.015205798 -0.021446168 -0.0064175245 0.008535117
000160 31 b9 de 3b a3 fd c0 bc cd 13 36 bc 0f 6c b9 bc
       0.006796979 -0.023558443 -0.011113119 -0.022634534
000170 6c 5b 4c bd b3 91 84 bc 25 40 d2 bc 3f 4d 6a bc
       -0.049891874 -0.016182756 -0.025665352 -0.0143006435
000180 9e cd b7 bc 65 fe cd 3b f9 6a 44 3c d8 b6 35 bb
       -0.022436913 0.0062864297 0.011988395 -0.0027727392
000190 ad ee dc 3a 6c 7b 72 bc fa c8 aa bb 73 e3 f6 3a
       0.0016855799 -0.014799934 -0.0052119466 0.0018836096
0001a0 3d 47 8b bc 5d 3f 87 bb 3e 2e 02 3b 1d 4b 72 ba
       -0.017001742 -0.0041274265 0.0019863988 -0.000924276
0001b0 f7 a3 c6 bc 76 32 c4 b9 6c df 87 bc 39 da 38 bc
       -0.024248106 -0.0003742163 -0.016586028 -0.011282497
0001c0 99 8c b6 bc 3c 26 69 bc c8 2c b8 bc e4 27 28 bc
       -0.022283839 -0.014230307 -0.02248229 -0.010263417
0001d0 54 52 c1 3b 85 e7 60 3d b6 bd 9b bc ee 0b 84 bb
       0.005899707 0.054908294 -0.01901136 -0.0040297424
0001e0 17 0f 30 3b 57 1e 10 bd 16 c7 5d bc 54 b8 09 bc
       0.0026864463 -0.035185184 -0.013536235 -0.008405764
0001f0 d6 47 b3 3c 6f 86 cf bb 6b 69 28 3d 74 33 4b 3a
       0.02188484 -0.0063331644 0.04111616 0.00077515026

network_body._body_endoder.seq_layers.2.weight f4 [128, 128]
000000 a5 c6 bf bd dc f9 cf bc 7a c9 07 3d 17 9a f3 3b
       -0.0936406 -0.025387697 0.033151127 0.0074341404
000010 62 29 97 bd 70 df a4 bc 30 d3 e6 bb 36 09 76 bd
       -0.0738094 -0.020126075 -0.0070442185 -0.060067378
000020 ce dc 23 bd 15 17 7c bd 05 be 9a bd 35 99 f9 3c
       -0.040005498 -0.06154545 -0.075557746 0.030468563
000030 c3 0f 57 3c 8c de 47 bd 82 d5 98 bd a0 b7 49 3d
       0.0131263165 -0.04879622 -0.074625984 0.049247384
000040 f0 19 3d 3e f4 f0 e9 bc 41 f6 3a be d7 d1 bb 3c
       0.18466926 -0.028557278 -0.18258001 0.022927208
000050 0d 9d 16 bd d2 de d6 3d 7a 6f 68 bd fc bf bc 3c
       -0.03677087 0.10491718 -0.056746937 0.023040764
000060 68 f0 e3 bc 3a ed e6 3b 59 c6 fa 3d d7 ea af 3d
       -0.027824596 0.0070473226 0.12244863 0.08589714
000070 91 0e 3e 3d dc f3 4c be e4 88 22 3d ac a6 00 39
       0.04640061 -0.200149 0.03968133 0.00012269121
000080 4a 77 f2 3b 29 87 b5 bd 9d da 23 3c 6a 68 bf 3d
       0.0073994743 -0.088636704 0.010000852 0.09346087
000090 da 5d 2c be d0 5a 83 3e 93 00 f4 bd 34 8e fc 3d
       -0.16832677 0.25655222 -0.11914172 0.123318106
0000a0 57 82 dc 3c d0 df 8b bd 5b b1 a1 3c b3 c8 65 3d
       0.02691762 -0.06829798 0.01973789 0.056099605
0000b0 d6 48 43 3c ac 23 92 bb d6 5c c6 bd ac 9d e0 bc
       0.011919221 -0.004459819 -0.09685676 -0.027418934
0000c0 2e c7 e8 bd 91 77 aa bb f5 b5 a1 bd da 7b ad 3c
       -0.113661155 -0.0052022417 -0.07896034 0.021177221
0000d0 6e 73 22 3d 3f 6f 9a bd b5 03 df bd 0b a1 2f 3d
       0.039660864 -0.0754075 -0.10889379 0.042878192
0000e0 6b d0 5a 3d ef 3f 9c 3d 77 1f 3c bc f5 8b 36 be
       0.05342142 0.07629382 -0.011482111 -0.17826827
0000f0 1e 3c 33 be 82 d0 b4 bc e1 4f 24 be 5c ef ea 3c
       -0.17503402 -0.02207208 -0.16046096 0.028678589
000100 5b ed 7a be 08 56 fe bd 7a 9b e2 bd 62 f1 cf bd
       -0.24504606 -0.12418753 -0.11064811 -0.10153462
000110 f7 9e fd 3d 2f 40 97 3b cd 51 81 3b 58 61 85 3d
       0.12383836 0.0046158056 0.003946519 0.065127075
000120 52 8b 9a bd 00 64 87 3e c1 11 42 3d 51 c3 92 bd
       -0.075461045 0.2644348 0.047380213 -0.0716616
000130 18 74 b2 bc ad 33 ff bd 97 36 0e 3e ef 7e 10 bd
       -0.021783873 -0.12461028 0.13888012 -0.035277303
000140 1c a9 b7 bd a5 8d 03 be 53 12 65 3d 8b b9 d6 3b
       -0.08967802 -0.12847002 0.05592568 0.00655288
000150 0a 12 9e 3c c1 26 a9 3c 91 9c 0e be 58 2b 35 3e
       0.019295711 0.020648362 -0.13926913 0.17692316
000160 0f 7a 83 3d dd 90 29 bd a9 84 1c bd b8 a8 62 bc
       0.06419765 -0.041397918 -0.038212452 -0.013834171
000170 98 4f 47 3d d1 88 e0 3d 08 65 39 bd 1f a2 68 bd
       0.04865989 0.10963596 -0.045262367 -0.056795236
000180 59 8b 99 bd 5a 01 6d bd 62 49 04 3e fc ac 54 3d
       -0.074972816 -0.057862617 0.12918618 0.051922783
000190 14 d1 2b be 13 71 6d bc 01 64 10 3e 68 3e d0 bd
       -0.16778976 -0.014492291 0.14100648 -0.10168153
0001a0 b6 ef 07 be be 98 94 bc bb 32 6d 3d 94 d3 68 bd
       -0.13275036 -0.01813924 0.05790971 -0.0568424
0001b0 52 b1 3e 3b 77 41 bb bd a5 64 00 be eb 71 5f 3c
       0.002909739 -0.09143346 -0.12538393 0.013638
0001c0 c4 e0 b0 bd 62 94 3c 3d b1 9b 04 bd 13 06 f6 3b
       -0.08636621 0.046039946 -0.03237504 0.0075080483
0001d0 08 f9 87 be 61 3b 8d 3d 12 03 bc bd f3 5b b5 3c
       -0.26557183 0.06896091 -0.09180273 0.022138571
0001e0 b5 50 67 bd 4e 48 a3 3d 74 2e 88 3d e0 23 db bb
       -0.056473453 0.079727754 0.06649485 -0.0066876262
0001f0 e3 ae e2 bc a5 e7 20 3d 43 1e eb 3d d8 d5 ad bd
       -0.027671283 0.039283413 0.11480381 -0.08488053
000200 0c 4b 17 bd b6 c9 09 3e 81 de a3 3d 95 c2 9a bb
       -0.036936805 0.13455853 0.080014236 -0.004722903
000210 9b 15 a8 bd bd 40 b4 bd bd 86 c3 bd 94 7a cf bc
       -0.08207246 -0.0880141 -0.09547184 -0.025327004
000220 5f 6e 96 3d 37 09 f5 bd 33 e8 02 bd 15 29 40 bb
       0.0734527 -0.11964648 -0.031959724 -0.0029321362
000230 68 64 11 3d 5f 13 48 bc 96 e7 23 3e 7f 4f 62 3d
       0.035496145 -0.01221165 0.16006312 0.055251595
000240 6b fe ce 3d 2e 9b e1 bb c4 6a 30 bd 2c 6c 16 3e
       0.1010712 -0.006884954 -0.04307057 0.14689702
000250 ff 60 54 3d e8 65 57 be 0b bf 58 bd 2f 17 1f 3d
       0.051850315 -0.21034968 -0.052916568 0.03884047
000260 da 10 f5 bd 57 91 c9 ba 2a 6c 89 bc a9 08 15 be
       -0.11966105 -0.0015378398 -0.01677521 -0.14554085
000270 e2 f4 36 be 20 49 0f be 0e 55 fc 3d 5a 0b a8 bc
       -0.17866853 -0.13992739 0.123209104 -0.020513225
000280 f3 82 af bd 4c 31 dd 3d 8f dd 0d 3e 31 7b 46 3d
       -0.085698985 0.10800418 0.13854049 0.04845733
000290 ca 33 40 3d 4d 11 ba 3d 01 7c 32 be 66 f2 18 bd
       0.04692439 0.09085331 -0.17430116 -0.037340544
0002a0 f1 74 1e 3d 59 de 26 3e 2f 65 30 3d 70 f8 77 be
       0.038685743 0.16295756 0.043065246 -0.24215865
0002b0 96 31 7e bd a9 76 a0 3d e7 81 a6 3c 97 29 ea bd
       -0.062059008 0.07835133 0.020325614 -0.11433714
0002c0 3f 09 e8 3d a9 5a 88 3c 81 91 d6 bd 9b e1 0d bd
       0.113298886 0.016644793 -0.104769714 -0.034638982
0002d0 57 51 21 bc 81 fb b7 3d c4 9b d6 bb 38 2e ab bd
       -0.009846053 0.089835174 -0.0065493304 -0.08358425
0002e0 7a 58 61 3e 85 a8 cf 3c 3c 12 af bd e1 d1 25 3d
       0.22006407 0.025348911 -0.085484 0.04048336
0002f0 6b d6 5e 3e 83 6e 87 3d 47 42 62 bd 5a 8f c4 3d
       0.21761481 0.06612875 -0.05523899 0.09597655
000300 6d ea 43 3c c2 5b 3f be 47 32 3a 3d fa d6 02 be
       0.011957747 -0.18687347 0.045458104 -0.1277732
000310 a8 31 22 bd 3e 88 33 be 17 22 31 be d1 43 ae bb
       -0.039598137 -0.17532441 -0.1729816 -0.005318143
000320 2f fb b2 3d 96 cf 8e bc 06 f8 84 3c 9e e8 e0 3d
       0.08739316 -0.017432969 0.016231548 0.10981868
000330 42 9f 12 3d 54 88 03 be c5 f6 33 3d a3 48 92 3d
       0.03579641 -0.12844974 0.04393651 0.071427606
000340 5d 71 01 3d 51 a2 08 be db 1a a1 3c d5 e8 2d 3e
       0.031602252 -0.13343169 0.019666126 0.1698335
000350 05 3b 1f bc 72 05 03 be 7b f9 fe bd 0b 6a ea bd
       -0.009718661 -0.12795046 -0.124499284 -0.11446007
000360 10 04 34 be 27 ee 0e be 4f 27 4b 3d 55 28 74 bd
       -0.17579675 -0.13958035 0.049598034 -0.059608776
000370 d7 99 a3 bd e3 f2 df 3d 2b 62 78 3a 54 04 0c bd
       -0.07988327 0.10934999 0.00094750774 -0.034183815
000380 fe ff 22 be d8 3c 20 3e 5a 1c 41 3e 93 5d 78 bd
       -0.15917966 0.1564821 0.18858472 -0.060636114
000390 55 25 9e bd 2f 97 59 bd 54 cb bd 3c bc fb 4b be
       -0.07721964 -0.053122696 0.023168243 -0.19920248
0003a0 52 de 85 3d f5 59 5d bd b8 99 ec bd db cb bf bd
       0.06536545 -0.054040868 -0.11552757 -0.09365054
0003b0 8a 4a b9 bd b7 42 dd bc 47 5c 5a bd 89 5e 4b 3d
       -0.0904742 -0.027009351 -0.05331066 0.049650703
0003c0 f8 66 19 3c ae d0 04 be 67 38 c5 3d b3 9b b5 3c
       0.009362929 -0.1297023 0.096298985 0.02216897
0003d0 6c 9d c9 bd 54 37 22 be c9 b0 a0 bd f6 15 2e bc
       -0.09844479 -0.15841419 -0.07846219 -0.010625353
0003e0 be 54 07 be e7 cc bb ba c1 40 8a 3d c8 18 d3 3b
       -0.1321592 -0.0014328033 0.06750632 0.006442163
0003f0 3c 08 45 be d3 09 af 3c e1 a3 e3 bc 6a 2b f4 3b
       -0.19241422 0.02136699 -0.027788104 0.0074514644

network_body._body_endoder.seq_layers.2.bias f4 [128]
000000 01 7d b2 3c 3d d6 83 3c 2d 6e 0e 3c 5e ee 5b bc
       0.021788122 0.016093368 0.00869326 -0.01342353
000010 a6 a3 0a bd 30 cc 69 3c d2 32 ab bb 9b 6e 96 bc
       -0.033847474 0.0142698735 -0.005224564 -0.018363288
000020 8f 3f 21 bc cf 0b fe bc a5 dc b8 3a 0d c8 45 bc
       -0.009841814 -0.03101149 0.0014103843 -0.012071622
000030 ab c3 9e 3c 1f c1 b7 3b 68 c6 c4 bc 45 1b 20 bc
       0.019380411 0.0056077386 -0.024020389 -0.009772127
000040 3b 51 a1 bc dc 52 3d bc 62 bd 07 bc 14 b4 7d bc
       -0.019692054 -0.0115554 -0.0082848985 -0.0154848285
000050 ad 0c a8 3c 5d 7c c5 3b 04 4a e4 3b 07 b7 d5 b7
       0.020513857 0.006026788 0.006966831 -2.5476807e-05
000060 27 30 86 39 a2 4f 86 3c 25 1c 7d 3c 96 72 56 ba
       0.00025594348 0.016395394 0.015448605 -0.0008180527
000070 9f 4d 85 bb 6d c0 b8 bc 08 21 1e bc 04 6e 3e 3c
       -0.004068091 -0.022552693 -0.00965143 0.011622909
000080 0f 30 ca 3a 74 01 25 bb f4 f6 ae 3c 0d 82 dd 3a
       0.00154257 -0.0025177868 0.02135799 0.001689972
000090 a4 0c 17 bc 42 58 8a bb e8 ee 26 bc a1 63 58 bb
       -0.009219322 -0.004221947 -0.010188796 -0.0033018368
0000a0 91 2a bd 3c 08 60 b0 bb ae bf fb bb 24 b3 02 3c
       0.023091586 -0.0053825416 -0.007682762 0.007977281
0000b0 6f 41 51 3c 3a a2 ee b9 d5 ea 0f bc 2b 46 9a bc
       0.012771948 -0.00045515766 -0.008784016 -0.018832287
0000c0 60 b7 bf bb d4 56 ee bc 02 64 b2 bc 79 e1 a2 3b
       -0.0058507174 -0.029094137 -0.021776203 0.004970726
0000d0 f0 c6 0d 3c 3e ce bd 3b 09 0b e5 bb 7c af 25 bc
       0.008653387 0.0057924083 -0.006989841 -0.0101126395
0000e0 8c fe 0e 3a 9a 67 41 bb 7d c4 26 bc 2a f1 0d bc
       0.00054548006 -0.0029511214 -0.010178682 -0.008663455
0000f0 5f 68 35 3c a1 d8 a3 bb 84 f4 99 3c 33 3b 16 bb
       0.011072247 -0.0050001894 0.018793352 -0.002292347
000100 00 8b ab bc d8 db 64 bc 5f 64 7b bb e9 24 d1 bb
       -0.020940304 -0.01396843 -0.0038359386 -0.006382574
000110 11 a5 8a bb 4c f2 01 bc 6e 22 26 b9 c7 4e ad bb
       -0.004231103 -0.007931303 -0.0001584382 -0.005288932
000120 3b b6 e8 bb 8b b0 46 bc 44 bd 0f bc 19 45 7e bb
       -0.0071018017 -0.012127052 -0.008773152 -0.003879851
000130 d1 67 2c 3d 0d b5 ca bb cc 9d a3 3b e0 df b8 bb
       0.042091195 -0.0061861337 0.004993176 -0.0056419224
000140 06 e8 71 bc 58 43 df bc ea 92 3c bc 45 f3 ec b7
       -0.014764791 -0.027253792 -0.011509636 -2.8246674e-05
000150 8d 0a 85 3a a2 57 9f bc 00 d8 17 3d c7 57 01 bc
       0.0010150239 -0.019450966 0.037071228 -0.007894463
000160 33 ae 70 bc b7 17 a8 3c 5d f9 eb b9 26 66 d4 bb
       -0.01468997 0.02051912 -0.00045008483 -0.0064819036
000170 82 95 d4 bb 84 b7 9d bb 49 dd b5 bb af 8e 0a 3b
       -0.0064875493 -0.0048131365 -0.005550061 0.0021142175
000180 c4 b4 15 3c b0 58 2c bb 60 3c 2a bc 72 9c 23 bc
       0.009137336 -0.002629798 -0.010390371 -0.00998603
000190 04 df 0a 3b b6 c9 e6 39 2e d9 c2 bb d9 8c 36 bc
       0.0021190057 0.00044019305 -0.0059463 -0.011141979
0001a0 e1 f2 0e bc e4 e1 41 bb 4c e3 ec 3c ce 67 c6 bb
       -0.008724899 -0.0029584104 0.028916977 -0.006054855
0001b0 3c c4 0b 3c 79 06 89 bb 73 c1 cb bc d7 48 0b 3c
       0.008530673 -0.00418168 -0.024872517 0.008501253
0001c0 0e ac be bb 46 5d 13 3d 0c ee ba 3c c6 57 d3 3a
       -0.0058188504 0.035977624 0.022818588 0.0016124181
0001d0 f8 12 3c 3b 48 11 2d bc f8 45 a1 3c 22 cc 1a bb
       0.002869783 -0.010563202 0.019686684 -0.0023620208
0001e0 49 d2 b5 bb 0b 00 ca bb c1 a9 6c bc ee 64 5c bc
       -0.0055487496 -0.006164556 -0.014444769 -0.013451798
0001f0 68 ae d1 bb a9 35 3b bc cf 2b 34 3c 22 ee a2 bb
       -0.0063989647 -0.011426368 0.010996773 -0.0049722353

action_model._continuous_distribution.log_sigma f4 [1, 2]
000000 83 6b 11 bd 01 3a 3a 3c
       -0.03550292 0.011366368

action_model._continuous_distribution.mu.weight f4 [2, 128]
000000 f3 97 16 3d a5 03 23 bc 45 70 03 3b 01 3a a0 bc
       0.036766004 -0.009949599 0.0020055932 -0.019558908
000010 45 22 32 bc a7 59 07 3d e2 5c 46 bd 32 f2 5d bb
       -0.010872428 0.033044484 -0.048428424 -0.0033866283
000020 fb 2e d6 bc 9a fa 1c 3c 23 2e 34 3c f6 f2 b9 bc
       -0.026145449 0.009581232 0.010997328 -0.02269886
000030 42 a8 80 3c 58 a5 94 3c 39 21 e1 bb 18 f7 90 bc
       0.015705232 0.018145248 -0.0068704155 -0.017695948
000040 d0 cb de bc 1e bb b5 bb c6 f9 20 bc 86 c4 6f 3c
       -0.027196795 -0.0055459877 -0.009825176 0.014634257
000050 36 05 60 bc 2c 81 b6 3c be b5 c0 3a d1 a8 b9 3c
       -0.013673117 0.02227839 0.0014702601 0.022663506
000060 9e 01 d1 37 75 20 41 3c e6 42 57 3c 4b e6 64 3c
       2.4915495e-05 0.0117875235 0.013138508 0.013970922
000070 fe 14 6e bc da ca 07 bd 61 bb e8 bc c6 d3 77 3c
       -0.014531372 -0.03315244 -0.028409662 0.015126174
000080 5d 20 ad 3c a2 81 71 3a 8a 95 ba 3a 9e 0e 83 3b
       0.021133596 0.0009212737 0.001423524 0.0039995452
000090 4f dd ab bc f4 05 94 bc 3f 2c b1 ba 14 2c f3 b8
       -0.020979552 -0.018069245 -0.0013517215 -0.00011595353
0000a0 67 ca 18 3d ab b6 a5 3b 5a de d2 3a fb 5b 79 3c
       0.0373024 0.005057176 0.0016087994 0.015219684
0000b0 92 c5 62 3c 9a 94 cb ba 7d 0b bb bc 63 88 e5 bc
       0.01384105 -0.0015531958 -0.022832626 -0.028019136
0000c0 d4 c8 31 3c ef 70 02 bd 6b 4a 7b bc 2e b0 9a 3c
       0.010851104 -0.031845983 -0.015337567 0.018882837
0000d0 7a 00 87 3b 86 07 3f bd 54 72 7b bc e3 f9 ee bb
       0.00411993 -0.046638034 -0.015347082 -0.0072929724
0000e0 7c 15 fb 3c 04 b4 38 bd 3f b1 28 bd 9c 44 9b 3b
       0.030649893 -0.04509355 -0.04118466 0.0047384035
0000f0 c1 b0 b1 3c c1 28 49 3c e1 7c e6 3c 33 d3 e6 bb
       0.021690728 0.012277783 0.028135719 -0.00704422
000100 90 d0 5e 3b 76 cd 11 bc 31 01 b3 bc d9 72 83 3c
       0.0033998825 -0.008899083 -0.021851154 0.016045975
000110 54 64 9b 3a d0 14 8e bc 5d 08 e2 bc c7 41 a9 bc
       0.0011855462 -0.017343909 -0.027591879 -0.020661248
000120 9f 7f 78 bb 3e 50 1d 3c 79 cf 6d 3c 16 3f 86 39
       -0.0037917865 0.009601651 0.014514797 0.00025605474
000130 25 63 3b ba 27 a8 89 bc 5b 26 b2 3c 28 c4 de 39
       -0.00071482576 -0.016803814 0.021746805 0.00042489287
000140 7c 50 06 bc d7 0b 1d bd 4c 23 97 3b 6e 4a 85 bc
       -0.0081979 -0.03834137 0.004612362 -0.016270842
000150 37 40 d1 3c 06 3b 92 bb d2 f0 1f bb e7 58 70 bc
       0.025543315 -0.0044626025 -0.0024405015 -0.0146696335
000160 e5 b9 8d bc 81 a9 14 3d 4c 3d 67 3c 20 0c 3a 3a
       -0.017300555 0.036294464 0.014113735 0.00070971437
000170 01 da 66 ba 28 f6 de 3b 95 dc 45 bc d5 6e 7d 3c
       -0.0008806289 0.0068042465 -0.012076517 0.015468319
000180 f6 50 ba 3c a7 d2 35 bd b9 94 11 bd 76 d1 fe bb
       0.022743683 -0.044390347 -0.035542224 -0.0077764345
000190 33 37 62 3c 5b ac 14 bb fe a3 7a 3c f3 b3 30 bc
       0.013807106 -0.002268574 0.015297888 -0.010785091
0001a0 bc 6a 68 bb e4 29 14 bd 76 43 c0 3c f6 6d 5d bc
       -0.003546401 -0.036172763 0.023469668 -0.013514986
0001b0 90 bc 57 bc 30 ef 07 bc ea 91 b2 bb 2f ca 0e 3c
       -0.013167515 -0.008296773 -0.005449523 0.0087151965
0001c0 20 f0 cb 3a e5 b6 31 3c 6e d1 98 3c c7 f2 b7 bb
       0.0015559234 0.010846828 0.018654551 -0.005613658
0001d0 2a c5 ec 3b 5e 0f c5 39 cc 92 47 3c b2 37 a4 bb
       0.007225652 0.00037586218 0.012180995 -0.005011522
0001e0 a1 7e a3 3a ec 3c 1e bd 8f 31 66 bc b4 f8 bb bc
       0.0012473651 -0.03863232 -0.014049902 -0.02294574
0001f0 f5 31 d1 bc de c8 9c bc 62 29 ba bc 06 4e 96 3c
       -0.025536517 -0.01913875 -0.022724811 0.018347751
000200 e9 30 ad 3c 5f 7f bf 3c cc 3f 0b 3d 9c ff 40 3c
       0.021141486 0.023376165 0.03399639 0.011779692
000210 6d 54 29 bc de 5b f6 3b 04 80 98 38 a5 38 c7 bc
       -0.01033507 0.0075182756 7.2717696e-05 -0.024319002
000220 47 79 d8 3c 30 f7 30 bc eb bf 9b bc a6 34 c3 bb
       0.026425017 -0.010801122 -0.019012412 -0.005957204
000230 b1 8a 19 3b c8 f9 9c bc 09 fc 23 bb 72 ce f4 ba
       0.0023428614 -0.019162074 -0.002502205 -0.0018677248
000240 61 ea 70 3b 0a 40 28 bc ff 02 83 bc e7 49 f3 3c
       0.0036760794 -0.010269174 -0.01599264 0.029698325
000250 74 29 ba 3c 6d 69 2e 3d e7 03 f6 3b ba 00 f9 bc
       0.022724845 0.04258101 0.0075077894 -0.030395854
000260 ea 64 4a 3b 8d ab 09 3c 76 20 0d ba 8f 81 af bc
       0.0030882903 0.008402717 -0.000538356 -0.021424083
000270 a1 1c ce bc 79 70 77 3c 03 1c cc bb 60 23 9c 3c
       -0.025160136 0.015102499 -0.006228925 0.019059837
000280 ec b8 c8 bc 86 c1 2b 3c b5 e3 70 3c 73 ec fa bc
       -0.02450224 0.010483151 0.014702727 -0.030630326
000290 ec db 1c bb 6c 3c db bc d0 4f 3c bc a1 87 f4 3b
       -0.0023934795 -0.02676221 -0.011493638 0.0074624573
0002a0 0a bc 67 3c ec 02 84 39 55 21 64 bc fa ad 0a 3d
       0.014143953 0.0002517918 -0.013923963 0.033857323
0002b0 df d7 dd 3b 73 4f 78 3c b5 5d 82 bc ca eb a3 ba
       0.0067701186 0.015155661 -0.015913824 -0.0012506184
0002c0 42 74 96 bc e4 56 4d bb 7e b1 08 3b db b0 87 bc
       -0.018365983 -0.0031332308 0.0020857747 -0.016563823
0002d0 f5 0a a2 3c 45 3f b7 3b 58 11 9a 3c a0 98 c7 bb
       0.019780615 0.005592259 0.018807098 -0.0060911924
0002e0 1d 42 77 3b 0b ca f5 3c 89 ee 17 3d 21 7c 59 ba
       0.0037728616 0.030003568 0.03709272 -0.000829639
0002f0 1c 17 57 3b db 27 55 3c cc c5 b5 bb 7e bb 83 3c
       0.003282017 0.013009991 -0.005547261 0.016080614
000300 0d 74 3e bc 1d 01 85 bc 59 a1 3c bd e4 99 09 bc
       -0.011624348 -0.016235882 -0.04605231 -0.008398507
000310 e9 f8 45 ba 8f 28 d6 ba e6 14 f3 3a da ec c3 bc
       -0.0007552044 -0.0016338992 0.0018545657 -0.02391665
000320 36 b8 53 3a 9d df c1 3b 98 1f 03 3c d8 0d 02 3d
       0.0008076461 0.0059165494 0.008003138 0.031751484
000330 aa 0d df 3c 1f 7e cb bc 5c 47 41 3b 32 16 15 bc
       0.027228195 -0.024840413 0.0029491996 -0.00909953
000340 a9 58 e9 bb 03 8a b0 bb b2 26 87 bb a9 57 37 bb
       -0.007121165 -0.005387546 -0.004124486 -0.0027975834
000350 40 4a e7 bc 8b d9 3a 39 aa 67 e3 3c 9f b6 91 bc
       -0.028233647 0.00017819383 0.027759392 -0.017787276
000360 cc d7 07 3c 2e 52 2d 3d 5f e3 a3 bc 62 ea f5 bb
       0.008291196 0.0423147 -0.02000588 -0.0075047472
000370 a5 e9 aa bc 3a c0 02 3b f6 64 20 3d dd 48 11 3c
       -0.020863364 0.0019951002 0.039158784 0.00886747
000380 bd 05 93 ba db cb 18 bc f4 a1 5b bc c0 b9 6a bb
       -0.001121692 -0.009325947 -0.013405312 -0.0035816282
000390 be 6b cc 3c d1 71 4b 3c f0 37 07 bc b6 1f f2 bb
       0.02495372 0.012417273 -0.008253083 -0.007389034
0003a0 d5 08 2e bc 89 f6 c2 bc 76 c7 7c 3c 6b 21 c9 bc
       -0.010622223 -0.023799198 0.015428415 -0.024552068
0003b0 1e 45 d2 3c e2 fe 89 3c b1 04 28 bb 43 dc 1a 3c
       0.025667723 0.01684517 -0.0025637562 0.009451929
0003c0 c4 5b f4 39 75 c2 34 3d c7 b1 6e 3b cc 18 98 3b
       0.00046607677 0.04413076 0.0036421882 0.004641628
0003d0 ea c2 c1 3c d2 26 c3 3c d1 e6 23 3c 7d 85 e5 bc
       0.023652513 0.023822222 0.010003761 -0.028017754
0003e0 f8 1b 88 bc de 7d 82 bc f2 ed 33 3c e2 5e 6d 3b
       -0.016614899 -0.015929159 0.010982024 0.0036219885
0003f0 f7 fa a0 bc ce b8 61 3b f7 bf e5 3c f7 7c b8 bc
       -0.01965092 0.0034442428 0.028045638 -0.022520525

action_model._continuous_distribution.mu.bias f4 [2]
000000 30 3f c3 3b b9 4d 8c bb
       0.0059584603 -0.004281726

exp_avg f4 [128, 41]
000000 6d 6f 48 ba 9c b1 fe ba 29 98 8a 38 6a f5 18 3a
       -0.0007645998 -0.0019431594 6.608695e-05 0.00058349094
000010 ac 15 fa b9 ca 68 dd b8 ce 3f 37 39 4f 9a bd b8
       -0.00047699863 -0.0001055762 0.00017476009 -9.0409645e-05
000020 c9 31 cb 39 ef 72 85 39 d1 cd a2 39 0a fb 58 39
       0.0003875627 0.0002545337 0.00031052393 0.00020692885
000030 fd be 2c 3a ea c3 0b ba 5f d3 45 b8 29 4e 5b 38
       0.0006589739 -0.00053316227 -4.7165315e-05 5.228646e-05
000040 b7 b8 ab b8 15 d6 8f 39 c2 eb 45 b8 11 23 50 39
       -8.188321e-05 0.0002743459 -4.7188027e-05 0.00019849489
000050 ba 56 f6 38 c5 56 f6 2c f0 55 d5 38 ba 56 76 b8
       0.00011746348 7.001374e-12 0.000101726386 -5.873174e-05
000060 ba 56 76 38 f0 55 d5 b8 0c 9b 34 ad ba 56 f6 b8
       5.873174e-05 -0.000101726386 -1.0266243e-11 -0.00011746348
000070 9d 22 50 b9 e6 17 4a 38 a1 cb 2c b9 96 20 01 38
       -0.0001984932 4.818281e-05 -0.00016479056 3.0786345e-05
000080 d0 b4 39 b9 0b 11 a8 38 eb cb 2c b9 63 c9 07 39
       -0.00017710333 8.014039e-05 -0.00016479164 0.00012949626
000090 86 e1 7b b9 ac d3 8f 39 2c ec de 3a c0 ff de 3a
       -0.0002402124 0.00027432793 0.001700764 0.0017013475
0000a0 07 ea 21 3b 36 2c 98 ba df 21 d2 b8 31 99 3b 39
       0.0024706142 -0.0011609856 -0.00010019889 0.00017890778
0000b0 b7 a2 60 b9 59 26 25 3a db e5 27 b8 81 f3 d1 b8
       -0.0002142292 0.0006299965 -4.0029972e-05 -0.00010011253
0000c0 67 8d 1b b9 69 0b c5 38 c6 d9 80 b8 ae 43 d5 38
       -0.00014834628 9.395817e-05 -6.144079e-05 0.00010169238
0000d0 1b d3 5e 39 f3 66 a4 b8 39 01 9d b8 7a 0b 78 bb
       0.00021250213 -7.839305e-05 -7.486571e-05 -0.0037848637
0000e0 3d 5a 8d 3b 17 ff 63 bb 65 9f 8f 3b 89 c7 0c bb
       0.0043137358 -0.0034789497 0.004383015 -0.0021481237
0000f0 69 8a 69 3b 2e e5 9a 3a 30 e5 9a 2e a8 24 86 3a
       0.0035635477 0.0011817568 7.043821e-11 0.0010234313
000100 30 e5 1a ba 30 e5 1a 3a a8 24 86 ba 31 30 e3 ae
       -0.00059087854 0.00059087854 -0.0010234313 -1.03313254e-10
000110 2e e5 9a ba 59 8a 69 bb 92 e8 0f 3b da 5c 83 bb
       -0.0011817568 -0.003563544 0.002195869 -0.0040088715
000120 79 dd 4f 3b 1c 3d 83 bb be 03 62 3b de 5c 83 bb
       0.0031717701 -0.0040050875 0.0034487094 -0.0040088734
000130 12 2a 74 3b 7f 0b 87 bb 6d 9f 8f 3b 91 ca 1a 3b
       0.0037256521 -0.0041212435 0.0043830187 0.0023619274
000140 40 8e 14 3b e1 22 8f 3b 52 c6 e8 37 5b 64 ed b9
       0.0022667795 0.0043681716 2.7748905e-05 -0.00045278933
000150 f0 b8 ba b8 6a 20 13 39 49 26 93 b8 b8 c1 54 38
       -8.9036184e-05 0.00014031088 -7.0166374e-05 5.0725153e-05
000160 a1 bd f6 38 fe 06 57 37 0f 6a c6 38 a5 41 6b b8
       0.00011765515 1.2816627e-05 9.461131e-05 -5.6089502e-05
000170 cf 87 43 b7 aa d5 19 b8 19 11 0e 38 86 84 b8 38
       -1.1654526e-05 -3.6677033e-05 3.387136e-05 8.798488e-05
000180 85 ea a8 b9 ad df 0b 3a e1 0f 24 b9 e3 75 c2 39
       -0.00032218188 0.00053357595 -0.00015646174 0.00037090396
000190 d7 66 a6 b9 a0 63 27 3a 95 22 88 39 96 22 88 2d
       -0.0003173861 0.000638539 0.00025965707 1.547677e-11
0001a0 fa ca 6b 39 97 22 08 b9 97 22 08 39 fa ca 6b b9
       0.00022486961 -0.00012982856 0.00012982856 -0.00022486961
0001b0 04 aa c7 ad 95 22 88 b9 bb 63 27 ba 3f aa a9 39
       -2.2699183e-11 -0.00025965707 -0.00063854054 0.00032361035
0001c0 59 73 07 ba b1 b6 88 39 73 6a 0c ba 15 ab b9 39
       -0.00051670294 0.00026076057 -0.00053564383 0.00035413416
0001d0 48 73 07 ba 41 9f ea 39 b8 50 b3 b9 04 76 c2 39
       -0.00051670196 0.0004475061 -0.0003420168 0.00037090492
0001e0 6b 2d 39 3a 88 eb 39 3a c9 1c 99 3a 89 c2 58 b9
       0.0007063958 0.0007092287 0.0011681552 -0.00020671835
0001f0 40 23 15 3a 4d 2e 69 b6 81 e8 1a b8 ea 1c 55 38
       0.00056891516 -3.4746656e-06 -3.6932997e-05 5.0810086e-05
000200 13 cc 16 b8 25 d2 25 b7 dc f8 9a b8 6c 45 a3 b8
       -3.5952846e-05 -9.8836945e-06 -7.389646e-05 -7.7853765e-05
000210 7b c0 34 38 5c ac 61 38 b2 2b d8 38 50 34 12 38
       4.3094606e-05 5.3804702e-05 0.000103078215 3.4857832e-05
000220 af 45 38 b9 d6 ae e4 38 04 46 be b9 3b 51 7a b8
       -0.00017573567 0.00010904453 -0.0003629179 -5.9680297e-05
000230 28 79 3d b9 73 01 d7 37 0c 18 a7 b9 bd c1 6a b9
       -0.00018069579 2.5630672e-05 -0.00031870638 -0.00022388152
000240 c2 c1 6a ad 2f 4e 4b b9 c1 c1 ea 38 c1 c1 ea b8
       -1.3344383e-11 -0.00019388714 0.00011194079 -0.00011194079
000250 2f 4e 4b 39 78 27 ac 2d bd c1 6a 39 48 18 a7 39
       0.00019388714 1.9571664e-11 0.00022388152 0.00031870813
000260 0d 24 bc b7 7e dc 8f 39 a0 2c fc b5 8a 4b 9d 39
       -2.2428134e-05 0.00027439365 -1.8788451e-06 0.00030001655
000270 a0 6d dc b8 57 dc 8f 39 c3 74 5a b9 20 c0 ed 38
       -0.00010510837 0.0002743925 -0.00020833597 0.00011336827
000280 b0 79 3d b9 2c 97 44 ba f8 a8 5c ba 41 72 83 ba
       -0.00018069777 -0.0007499333 -0.0008417512 -0.0010028557
000290 d4 43 0e b9 20 1c 1b 39 ce 17 0d 39 55 67 51 b8
       -0.00013567443 0.0001479243 0.00013455676 -4.992572e-05
0002a0 81 d4 0e 39 8e 27 8b b8 d8 80 9c b8 1a 1f 2d b6
       0.00013621339 -6.635404e-05 -7.462659e-05 -2.5797112e-06
0002b0 f0 30 60 b8 78 3d 49 38 c4 58 03 39 a5 45 4a 38
       -5.345134e-05 4.797938e-05 0.00012526201 4.8225415e-05
0002c0 63 af 02 38 3b 1f 9f 32 8c 76 00 b8 2f 6e c2 b8
       3.1157757e-05 1.8524238e-08 -3.0627984e-05 -9.271164e-05
0002d0 e8 bd b3 b8 7a de 84 b7 fc 6a 11 b8 46 c8 d3 b7
       -8.570758e-05 -1.5839225e-05 -3.467033e-05 -2.524642e-05
0002e0 d5 5c 38 b8 d4 5c 38 ac 99 a9 1f b8 d3 5c b8 37
       -4.3955475e-05 -2.6199503e-12 -3.8066504e-05 2.1977734e-05
0002f0 d3 5c b8 b7 99 a9 1f 38 49 31 87 2c d5 5c 38 38
       -2.1977734e-05 3.8066504e-05 3.8424025e-12 4.3955475e-05
000300 1d c8 d3 37 60 d0 0a 38 34 4f 9f b8 55 98 23 39
       2.5246345e-05 3.309583e-05 -7.5964635e-05 0.0001560164
000310 5b f9 85 b8 ac 02 03 39 2c 4f 9f b8 05 da c4 38
       -6.38838e-05 0.00012494129 -7.596458e-05 9.3866176e-05
000320 8d 78 2f b8 a3 ea 84 b7 cc 8c 2f b8 45 6a e7 b7
       -4.1835523e-05 -1.5844887e-05 -4.185438e-05 -2.7586831e-05
000330 46 85 69 b8 07 7d 2e b8 cb 70 a0 b9 45 70 ce 38
       -5.567565e-05 -4.1601274e-05 -0.00030601615 9.843757e-05
000340 d7 67 79 39 13 a1 3e b9 e1 02 20 b8 b1 d8 de 37
       0.00023785174 -0.00018179817 -3.8149654e-05 2.6565367e-05
000350 8c 01 97 37 ad ef aa 38 67 46 9d 38 c2 7d a3 39
       1.8001323e-05 8.150875e-05 7.499457e-05 0.0003118348
000360 4e 63 b5 38 11 b5 8f 39 64 3c bf b7 99 a3 cf 39
       8.6492495e-05 0.0002740999 -2.2797096e-05 0.00039604006
000370 47 5a 11 ba fe 4e be 39 b3 57 04 ba df e3 74 b7
       -0.00055447634 0.00036298478 -0.00050484686 -1.4596589e-05
000380 35 b8 00 b8 db b4 0d b8 df b4 0d ac 4f 71 f5 b7
       -3.0689134e-05 -3.3785454e-05 -2.0137709e-12 -2.925904e-05
000390 d2 b4 8d 37 d2 b4 8d b7 4f 71 f5 37 12 d8 4f 2c
       1.689271e-05 -1.689271e-05 2.925904e-05 2.9536412e-12
0003a0 db b4 0d 38 e7 b7 00 38 5a e0 6c 37 6f b1 b7 38
       3.3785454e-05 3.068885e-05 1.4118932e-05 8.7591696e-05
0003b0 fc 4f 47 b8 01 8b ba 38 e9 31 82 b8 8b b1 b7 38
       -4.751979e-05 8.895063e-05 -6.2081795e-05 8.75919e-05
0003c0 ee bb a0 b8 86 df be 39 de 57 04 ba e8 55 a4 39
       -7.664399e-05 0.00036406162 -0.00050484936 0.00031344523
0003d0 be ad a3 39 47 92 01 3a d6 1b ac b8 14 ff 33 ba
       0.0003121923 0.00049427565 -8.206784e-05 -0.00068663177
0003e0 cd 81 a4 38 d5 05 0c 39 c9 04 15 b8 48 ba 70 b7
       7.844307e-05 0.00013353613 -3.5528825e-05 -1.4348487e-05
0003f0 e1 09 a4 38 99 ff 76 37 33 09 94 38 49 9b 3d 38
       7.8219695e-05 1.4722254e-05 7.0589034e-05 4.5205732e-05

exp_avg_sq f4 [128, 41]
000000 16 0b 75 37 d9 29 4e 39 c5 4e 36 36 93 a6 24 36
       1.4605719e-05 0.0001966128 2.7165963e-06 2.4534863e-06
000010 a4 a8 41 36 90 c9 2e 36 3b 2f 14 36 e4 94 17 36
       2.8857403e-06 2.6045345e-06 2.208121e-06 2.258742e-06
000020 d2 12 39 36 20 aa 28 36 82 b3 52 36 0c 27 1c 36
       2.7578103e-06 2.5132977e-06 3.1396926e-06 2.326854e-06
000030 7e 2a 17 36 4e d6 32 36 66 f3 59 37 0b 02 4b 38
       2.2525487e-06 2.6648809e-06 1.29908785e-05 4.8400874e-05
000040 71 16 d9 36 f6 9f b7 37 d4 0d 63 37 18 3a 13 37
       6.4697165e-06 2.1889788e-05 1.3533474e-05 8.775409e-06
000050 0c 9b 8e 37 0f 9b 8e 1f b7 43 80 37 6a de 4a 38
       1.6999918e-05 6.039586e-20 1.5290321e-05 4.8367692e-05
000060 61 0e 19 37 f4 10 ab 38 21 94 fe 36 45 64 c9 38
       9.1228585e-06 8.157073e-05 7.5870344e-06 9.6031035e-05
000070 c7 1c 17 37 b6 77 ab 38 89 6f 8d 37 7a 70 4d 38
       9.007002e-06 8.176213e-05 1.6860447e-05 4.898056e-05
000080 7e e2 a8 37 02 01 07 36 85 f8 8c 37 c1 f0 21 37
       2.013263e-05 2.0117154e-06 1.6805026e-05 9.652403e-06
000090 d4 a0 9a 37 b7 c0 22 38 80 ba b4 39 cd 78 a6 39
       1.8433122e-05 3.880329e-05 0.0003447123 0.0003175199
0000a0 a8 d8 eb 39 0f 44 80 36 38 08 01 38 58 7f 21 35
       0.00044984114 3.8226203e-06 3.076365e-05 6.0162483e-07
0000b0 63 69 de 34 07 10 15 35 06 82 eb 34 b3 d4 df 34
       4.14274e-07 5.553015e-07 4.3866766e-07 4.1691746e-07
0000c0 b3 f8 c2 34 6c a2 09 35 4b cd e1 34 0e a3 17 35
       3.6316268e-07 5.127283e-07 4.2058886e-07 5.648916e-07
0000d0 a7 57 dc 34 33 71 14 35 04 bb f6 34 e4 41 1d 37
       4.104197e-07 5.5299023e-07 4.5957142e-07 9.373271e-06
0000e0 fb 1a 94 37 20 9c 03 37 17 46 81 37 1b 3e ba 36
       1.7655539e-05 7.844559e-06 1.5410636e-05 5.550462e-06
0000f0 14 58 12 37 64 9e 82 36 68 9e 82 1e 53 ca 4f 36
       8.722785e-06 3.892741e-06 1.38298e-20 3.0963172e-06
000100 20 a2 61 36 c5 73 c4 35 47 cc f2 36 0d dd 0d 36
       3.3621982e-06 1.4636831e-06 7.235943e-06 2.1139306e-06
000110 eb cd 67 37 92 59 e2 36 6a c4 1b 37 4f 7f 82 37
       1.3816617e-05 6.745752e-06 9.284451e-06 1.555649e-05
000120 78 1f 38 37 f4 e3 87 37 bb cd 1e 37 1e 11 7e 37
       1.09745815e-05 1.6199403e-05 9.465434e-06 1.5143565e-05
000130 d8 ae 4e 37 15 8e 4f 37 db 82 8e 37 17 ac 64 38
       1.2319266e-05 1.23712425e-05 1.6988653e-05 5.4519707e-05
000140 43 a9 2e 38 76 c6 b5 38 5c 2b aa 36 5d a1 4b 38
       4.164247e-05 8.667719e-05 5.0714425e-06 4.8549253e-05
000150 29 ab 17 35 11 e2 16 35 53 dc 18 35 fb cf 12 35
       5.6500954e-07 5.6208324e-07 5.6945026e-07 5.469189e-07
000160 3a 51 0b 35 dd 22 05 35 30 fb 11 35 53 a0 30 35
       5.1899735e-07 4.9597094e-07 5.4382235e-07 6.579841e-07
000170 e2 00 06 35 a9 8f 38 35 7c b3 06 35 c5 75 25 35
       4.9920175e-07 6.8754395e-07 5.0180074e-07 6.1638667e-07
000180 d9 1e 5a 36 e9 1f 47 37 5e ef 35 36 85 44 ec 36
       3.2502487e-06 1.1868754e-05 2.7110432e-06 7.041325e-06
000190 f6 d3 83 36 31 bd 34 36 aa 4a 9d 36 ab 4a 9d 1e
       3.9287797e-06 2.6932214e-06 4.6876567e-06 1.6653904e-20
0001a0 60 c4 77 36 89 5c 1b 36 e3 03 da 35 62 71 1f 37
       3.6920173e-06 2.3150662e-06 1.6243397e-06 9.5035375e-06
0001b0 f5 b6 d1 35 64 6e 8d 37 12 28 f8 35 ef 93 25 37
       1.5624961e-06 1.6859914e-05 1.8489102e-06 9.86921e-06
0001c0 9d 5c df 36 f1 6a 8a 36 85 e3 03 37 f0 54 18 36
       6.6566995e-06 4.12517e-06 7.861182e-06 2.2699205e-06
0001d0 e2 dc e6 36 68 8c 92 36 0c 05 a8 36 dd 25 1d 37
       6.8802483e-06 4.3674845e-06 5.0073777e-06 9.366745e-06
0001e0 1d e3 a1 38 f7 9f 9a 38 de 84 00 39 88 5d 2c 36
       7.7193814e-05 7.373088e-05 0.00012256528 2.568444e-06
0001f0 07 a4 ef 37 41 f9 df 34 f5 c6 b2 34 4c d5 e1 34
       2.8567401e-05 4.1718343e-07 3.3299844e-07 4.206471e-07
000200 1d 80 b5 34 b8 30 b5 34 44 3b ac 34 57 6e d1 34
       3.3807092e-07 3.3749325e-07 3.2080618e-07 3.9009566e-07
000210 77 b3 b0 34 0f 72 c9 34 16 73 a7 34 e2 62 b4 34
       3.2913132e-07 3.7522156e-07 3.118991e-07 3.359956e-07
000220 4a 35 ae 34 55 66 57 36 52 06 0e 37 05 66 45 36
       3.2448798e-07 3.2097062e-06 8.465331e-06 2.941467e-06
000230 f6 fc e1 36 9a 40 59 36 29 f7 91 36 3b bb 42 36
       6.734971e-06 3.2373123e-06 4.35011e-06 2.9017235e-06
000240 42 bb 42 1e 67 f7 1b 36 a8 a7 3e 36 3c 75 92 35
       1.03089985e-20 2.3240807e-06 2.8409795e-06 1.0911967e-06
000250 27 16 d4 36 4d f8 68 35 3b 1d 35 37 26 0b 66 36
       6.320671e-06 8.678806e-07 1.0795246e-05 3.427916e-06
000260 fa 59 f2 36 b9 0e b9 36 32 35 a1 36 3d 30 dc 36
       7.2226367e-06 5.5151436e-06 4.8043667e-06 6.5621266e-06
000270 4e 1d 3a 36 62 fd c0 36 0d 7a 9b 36 37 fe 91 36
       2.7733217e-06 5.7515435e-06 4.6335686e-06 4.3509312e-06
000280 e7 71 f4 36 33 17 4c 38 d4 60 3c 38 58 4f 9e 38
       7.2850266e-06 4.8658996e-05 4.491287e-05 7.548806e-05
000290 a0 b0 97 34 5c bb a9 35 94 8e 17 34 c7 6a d5 33
       2.8254453e-07 1.264601e-06 1.411484e-07 9.938008e-08
0002a0 06 7e ea 33 f4 aa d2 33 b3 f7 81 33 7b 1f 87 33
       1.0919398e-07 9.809983e-08 6.052087e-08 6.2921536e-08
0002b0 a4 6d f7 33 0c ae 93 33 7f 2e 36 34 7b 1c 68 33
       1.1521777e-07 6.87688e-08 1.6966986e-07 5.4042612e-08
0002c0 9b 67 da 33 fd 97 8d 33 71 7b c6 35 a2 34 6a 36
       1.0170262e-07 6.593471e-08 1.4788076e-06 3.4899354e-06
0002d0 a4 21 fd 34 e3 e2 92 35 47 13 00 35 52 e9 7f 34
       4.71494e-07 1.094388e-06 4.771177e-07 2.3833607e-07
0002e0 09 a0 1f 35 0b a0 1f 1d d9 82 f2 34 06 5e 9c 34
       5.9465e-07 2.1126215e-21 4.5171217e-07 2.9125675e-07
0002f0 31 03 2e 34 ec 82 5e 35 9a 56 39 34 72 d3 dc 35
       1.6206174e-07 8.289196e-07 1.7260973e-07 1.6452816e-06
000300 ea 01 50 34 d4 6a 61 35 7d 92 a5 35 fb cb 44 35
       1.9372206e-07 8.3974487e-07 1.2336092e-06 7.331252e-07
000310 a0 86 b7 35 ca b1 0f 35 3a 50 a7 35 58 1a 54 35
       1.3673744e-06 5.353037e-07 1.2465819e-06 7.901449e-07
000320 59 cc 0b 36 54 9c 61 36 73 76 58 37 d6 7b f4 36
       2.083156e-06 3.3618608e-06 1.2902182e-05 7.286183e-06
000330 bb 2f 6f 37 11 03 29 36 67 e4 09 38 f8 af d2 34
       1.4256623e-05 2.5184747e-06 3.287606e-05 3.9243582e-07
000340 21 e8 be 34 0d 06 ff 34 7f 43 b8 34 a4 5d c9 34
       3.5559154e-07 4.7501854e-07 3.432178e-07 3.75073e-07
000350 38 af c9 34 aa 2f ca 34 41 73 ef 34 f8 10 e2 34
       3.7566656e-07 3.7660112e-07 4.4601077e-07 4.2108127e-07
000360 46 17 d7 34 00 93 bc 34 42 a7 dc 34 40 fc 56 35
       4.0063804e-07 3.5124685e-07 4.109989e-07 8.0088284e-07
000370 9a c1 92 36 d5 2b 86 35 a9 2e 4e 36 0b ab 00 36
       4.3736773e-06 9.996535e-07 3.0723552e-06 1.9173046e-06
000380 95 ef 32 35 01 a5 2a 36 04 a5 2a 1e 89 a3 0f 36
       6.6658805e-07 2.542802e-06 9.0338495e-21 2.140385e-06
000390 2f 5b a6 36 2f 8f d6 35 d7 cc 87 37 99 77 01 36
       4.9578007e-06 1.5985914e-06 1.618864e-05 1.9292113e-06
0003a0 43 9e a3 37 8d d4 15 36 fe b5 8f 37 12 65 60 36
       1.950481e-05 2.232645e-06 1.7131675e-05 3.3437432e-06
0003b0 7f 77 b1 36 8c 07 63 36 d8 ed 16 35 1f b2 35 36
       5.2889222e-06 3.3830029e-06 5.622546e-07 2.7074782e-06
0003c0 94 62 a0 35 6e d1 c4 35 f6 6a 5c 36 db 7d 74 38
       1.1949619e-06 1.466409e-06 3.2844814e-06 5.8291345e-05
0003d0 cb c1 6c 38 28 69 91 38 78 7f 99 36 59 f7 40 38
       5.644727e-05 6.933726e-05 4.5745946e-06 4.6006728e-05
0003e0 2a 6c e6 34 80 d7 e2 34 1d 9e 17 35 76 88 f3 34
       4.2919538e-07 4.2252577e-07 5.648197e-07 4.5361566e-07
0003f0 49 78 d2 34 cd bc f4 34 d6 c8 e5 34 f2 d3 2a 35
       3.9203067e-07 4.5585912e-07 4.28007e-07 6.3638356e-07

exp_avg f4 [128]
000000 d0 56 f6 38 2e e5 9a 3a 95 22 88 39 c0 c1 6a b9
       0.00011746364 0.0011817568 0.00025965707 -0.00022388157
000010 cd 5c 38 b8 dc b4 0d b8 f3 d1 5f 39 88 d5 d5 38
       -4.3955446e-05 -3.3785458e-05 0.0002134515 0.00010196405
000020 0c fd 10 ba 95 a1 2c b8 fb 7e 98 3a ae f3 ac 37
       -0.0005530871 -4.115848e-05 0.0011634523 2.061747e-05
000030 84 44 37 39 cf 9f 9e 38 f7 7a 6e 3a 70 22 a0 39
       0.00017477764 7.563794e-05 0.00090973027 0.00030543236
000040 4d d1 0e 39 22 50 1d 39 25 e4 61 b8 04 38 b6 3a
       0.00013620146 0.00015002539 -5.3856656e-05 0.0013902192
000050 c7 72 43 b9 39 91 84 ba 1f 33 e9 b8 c2 e3 cc 37
       -0.00018639407 -0.001011408 -0.00011119828 2.4424753e-05
000060 b8 a3 3b b9 d6 93 ec b9 0d 86 a9 b7 fc 4f 92 3a
       -0.000178947 -0.00045123574 -2.0208792e-05 0.0011162753
000070 03 70 24 38 db b2 49 b8 4f 1e 8d b9 81 36 62 3a
       3.9204966e-05 -4.8088707e-05 -0.00026916197 0.00086293375
000080 9c 8c 49 39 4f 7e 74 b9 6a 67 12 3a 3f f9 14 b9
       0.00019221235 -0.00023316707 0.0005584868 -0.00014207231
000090 f9 9e 8b 39 45 e8 6a 39 2b dc d3 b9 93 21 01 ba
       0.0002663059 0.00022402506 -0.00040409094 -0.00049259624
0000a0 0b 19 50 39 30 a9 27 3a e5 6a 52 37 5a 81 03 b8
       0.00019845755 0.00063957553 1.2541864e-05 -3.1353302e-05
0000b0 3d 16 27 3a 0a 98 fe 35 a6 2e af b6 aa 33 cd 38
       0.0006373858 1.8968724e-06 -5.220837e-06 9.784785e-05
0000c0 1b 71 06 ba cc 1d 72 b9 42 52 d3 38 ff fd 39 b9
       -0.00051285484 -0.00023090019 0.00010076586 -0.00017737596
0000d0 14 47 2b 39 0f 46 9d 38 5d 79 d0 b8 2a 44 4d b9
       0.0001633431 7.499393e-05 -9.9408186e-05 -0.00019575717
0000e0 4c 26 c7 b8 24 4d 0a 3a df 80 9a 38 4d ed 70 39
       -9.496193e-05 0.0005275777 7.367296e-05 0.00022976585
0000f0 10 93 26 3b bb 7d 9c 39 6c 53 38 39 6d b6 33 39
       0.0025417246 0.00029848315 0.00017578684 0.00017138729
000100 7f 30 c4 b9 c5 26 b8 b7 82 13 8b b8 fc 0b 3d 38
       -0.00037420166 -2.1952563e-05 -6.63167e-05 4.5072273e-05
000110 85 9d b0 b9 d6 15 d0 39 39 5e af 3a 2a 60 a4 b9
       -0.00033686697 0.0003968912 0.0013379521 -0.00031352165
000120 5a a8 b2 39 ca 7e 1d 3a 17 99 26 3a 1c b8 c4 b9
       0.00034076237 0.0006007968 0.00063552096 -0.00037521205
000130 ad 0e 93 b9 dd 3a aa 36 20 e5 c5 38 f3 e9 57 3a
       -0.0002804896 5.0732474e-06 9.43637e-05 0.000823646
000140 96 ac a3 3a 24 ae 61 38 52 7c 2d 3a 54 3c 3d 3a
       0.0012487348 5.380636e-05 0.00066179514 0.00072187674
000150 7a 3c 67 3a 27 e1 d3 b9 cf 70 30 b8 49 43 81 ba
       0.00088209624 -0.00040412808 -4.206673e-05 -0.0009861971
000160 f1 e7 0f 37 f0 83 98 39 8f bd 1b 3a b6 34 ec 38
       8.577467e-06 0.0002909 0.0005941027 0.00011263175
000170 04 1a 88 3a 3f dc 75 b9 bf 9c ed b9 9f 07 40 39
       0.001038373 -0.00023447069 -0.00045320948 0.00018313386
000180 2e 38 65 38 58 79 8b 3a 00 d3 18 3b 74 3d e9 38
       5.4650176e-05 0.0010641022 0.0023319125 0.00011121752
000190 c4 c4 51 b8 a0 84 d4 b8 d6 72 a5 39 97 28 85 b9
       -5.0012735e-05 -0.00010133651 0.00031556812 -0.0002539798
0001a0 db b5 cc 37 81 72 8f b7 c7 e4 4c 3a b4 f4 a2 b7
       2.4403378e-05 -1.7100248e-05 0.0007816073 -1.9425854e-05
0001b0 91 38 06 39 4a b5 87 b9 17 46 85 39 22 73 98 b8
       0.00012800308 -0.00025884277 0.00025419958 -7.26937e-05
0001c0 2c 98 76 39 53 da 00 38 38 6c ca 3a 57 92 46 36
       0.00023517077 3.072091e-05 0.0015443629 2.958948e-06
0001d0 1a 3e 8f 3a 76 35 0d 39 3b 5f ac 39 66 7e 90 b9
       0.0010928542 0.00013466724 0.0003287735 -0.00027559994
0001e0 0c 2f a2 39 14 1e b7 b7 b9 4f 31 ba cd 3b a8 ba
       0.000309341 -2.1829306e-05 -0.0006763894 -0.0012835205
0001f0 e9 cc ca b8 37 22 0a 3a a2 61 eb 39 c3 30 30 39
       -9.670278e-05 0.00052693806 0.00044895435 0.00016802833
