results/Changed_Codes_4/DroneAgent/DroneAgent-10499979.onnx (onnx, 115502 bytes, 9 tensors)

network_body.observation_encoder.processors.0.normalizer.running_mean f4 [82]
00000000: c3e4 a8bb f675 d53c c92d 183c 6468 8abc
00000010: 0912 173c c3c3 89bc a01d 183c fb57 8abc
00000020: ec8d 173c 3797 89bc 3221 183c 45d4 89bc
00000030: 29b5 163c fb22 8abc cce7 3a3b 887a 9cb2
00000040: 9990 28bb 4332 9cb2 a924 93bb 2c05 9cb2
00000050: 915d d73a 75f1 9bb2 838c 4abb 5cf7 9bb2
00000060: b139 173b a40c 9bb2 8ea1 c53b 299b 99b2
00000070: 5aa0 413b 8eb3 9ab2 e2ca 373c 21d8 9bb2
00000080: 40a8 953b 6cf6 9bb2 506c 1b3c cb45 9cb2
00000090: 56f5 033c fa59 9cb2 d6bd bd40 fcd7 be40
000000a0: fcd7 be40 da30 a8bb 497b d63c 9d5a 183c
000000b0: b318 8bbc 0b55 173c d569 8abc 3083 183c
000000c0: f604 8bbc eacc 173c 9042 8abc c257 183c
000000d0: 1c6b 8abc bae3 163c fdc6 8abc 9f9c 3b3b
000000e0: c665 9db2 7145 29bb a51e 9db2 04d5 93bb
000000f0: 43f2 9cb2 7387 d53a edde 9cb2 7ecc 4cbb
00000100: eae4 9cb2 9883 163b fbf8 9bb2 d3e0 c63b
00000110: 9a84 9ab2 91c8 413b 809f 9bb2 e52c 383c
00000120: 66c5 9cb2 0c50 953b e4e3 9cb2 d83c 1c3c
00000130: 2b33 9db2 9182 043c 4c46 9db2 fcd7 be40
00000140: 68ff bf40 68ff bf40
-0.0051542236 0.026057225 0.00928826 -0.01689548 0.0092206085 -0.01681698 0.009284407 -0.016887655
0.009250145 -0.016795738 0.009285258 -0.01682485 0.009198465 -0.016862383 0.002851951 -1.8216511e-08
-0.0025720953 -1.8183647e-08 -0.004490454 -1.8163142e-08 0.0016431083 -1.8154177e-08 -0.0030906505 -1.8156861e-08
0.0023075158 -1.8050123e-08 0.0060312217 -1.7882103e-08 0.002954504 -1.8009612e-08 0.011217805 -1.8142659e-08
0.004567176 -1.8156435e-08 0.009486273 -1.8192528e-08 0.008054098 -1.8201707e-08 5.9294233 5.9638653
5.9638653 -0.0051327767 0.026181834 0.009298948 -0.016979551 0.009236584 -0.016896168 0.009308621
-0.016970139 0.009265164 -0.016877443 0.009298267 -0.016896777 0.009209568 -0.016940588 0.002862729
-1.8323487e-08 -0.0025828744 -1.8291141e-08 -0.0045114774 -1.8270958e-08 0.0016290977 -1.8262165e-08 -0.0031249817
-1.8264888e-08 0.002296662 -1.8157598e-08 0.0060692816 -1.798826e-08 0.002956901 -1.8116907e-08 0.011241172
-1.8250557e-08 0.0045566615 -1.8264423e-08 0.009535991 -1.8300474e-08 0.00808777 -1.8309173e-08 5.9638653
5.9999275 5.9999275

network_body._body_endoder.seq_layers.0.weight f4 [128, 82]
00000000: 1119 12bd 6126 66bd 77d2 28bd 7177 643c
00000010: 2db0 d3bd 27d4 0dbd de5b 273e d9bf 10be
00000020: a398 5f3d 7648 e53c 0e8d 1d3d 830c ecbd
00000030: 3f1c ddbc cb7e 7dbd 3580 4ebd 77fa 0ebe
00000040: 4266 81bd f652 5fbc b0b8 893d 0dc1 06bd
00000050: 4c65 993d 3625 893b 3351 23bc ca3e 993b
00000060: 12df 64bd b09f e0bd b801 0c3c 98a0 38be
00000070: 2261 3fbe 3ca4 e9bc fdd5 afbd a167 13bc
00000080: 5d91 023d 069b b0ba 729d 4a3e 0f7c 463d
00000090: fa82 6cbd 6a4d 5c3d 5ce7 99bd c257 353c
000000a0: 9803 7f3e e962 bfbc 59b6 1e3d 306b 8d3b
000000b0: 4a45 03bd 71f8 213d e209 88bd e033 ab3d
000000c0: cd12 183c 6543 8d3d 08e1 2eb9 fecf a33d
000000d0: 7c0b 473e 3734 6abd 6c21 8cbd a049 c63d
000000e0: 0da9 ddbc 76a8 6cbb e895 a0bd e135 b03d
000000f0: a330 21be 8c51 1b3e d6be f1bd 42d6 0cb9
00000100: 211c e23d 04c9 ef3d 2366 fbbd d761 24be
00000110: 270e 133e 0d11 443b c839 8bba 5f5b abbc
00000120: a5d7 24bc c036 823e 1583 a03e 70f3 06bd
00000130: f68d d73c 333b 71be 94b4 58be 71e8 edbd
00000140: c1ab 763d 5152 b5bc 395e 51bb 6d1a 39bc
00000150: 92f4 0e3e b3a7 2a3e 159e 113e 07ee 1d3e
00000160: 8aaf 923e 1a48 7abe 7de2 563d 3a71 ae3d
00000170: 6a5f 0c3d 5ab4 d4bd a65d b33e d489 f5bd
00000180: f90a a03d 8f72 5d3c 5f2d 7fbd d70d d13d
00000190: 228d ef3c 9c15 95bd cb3e 00be 7294 063e
000001a0: e026 253e 5258 f0bd 23e0 df3d 2de2 ba3d
000001b0: 359b a23e f890 dcbd f74f 413e ef4e 7fb9
000001c0: 55ff 533e 3646 96bd 203e 363d 7d6d f0bd
000001d0: 1ee1 c33c d7ec c8bd ff00 90bc 9ed4 e43b
000001e0: 19a1 a73d b53a 87bd edf0 21be 2279 0bbd
000001f0: 51ea 323b 60f1 11be f8c9 e2bd 4e4c 973e
00000200: 6e02 af3d 308b a13d cfad cabd 15dc f93a
00000210: ae6d b9bd 93e7 253e bdcf 883d 7657 b23d
00000220: dff5 63be 2075 8c3e be41 443c ea93 8a3d
00000230: d40c 59bd dcb2 163b ab90 7bbd cd16 403e
00000240: e477 133d 2a16 2b3d 1bc2 2c3d 5fed d1bb
00000250: f8ef cdbc df75 103e dd0e 36be e4da cc3d
00000260: 9042 11be 29df e4bd fe2d 0dbd dd18 02bd
00000270: 9f6f 263d 707c 503d 5540 a5bd ecc8 96bd
00000280: 9029 2abe f685 a43d 35a0 6cbd fcd0 e4bd
00000290: dd1e 28be 57bc b0b9 c3ea 923e ccff 773d
000002a0: c4b7 93b9 fbf9 c2bd 5a0d 003e 4659 4cbd
000002b0: ac69 373d 7e5d 463e e97a 003d ed31 ed3d
000002c0: 94dc 803d b51d 0a3e 2ea6 6cbe 3426 c53d
000002d0: d0fa 1bb9 9b97 d6bc 6fad ad3d f19b f93d
000002e0: d05a 693d da8f 33be bdd3 bdbc 2e8f 7e3d
000002f0: 6c8c c5bd 0086 b13c d6b0 b73d 3923 193e
00000300: 2683 02bd 3add 60bd bd39 4a3e a52e 8c3d
00000310: c080 04be 2480 9bbd 22d1 86bd 9ca3 e0bb
00000320: 88ce c33d 409b d3bd 9a3c d1bc 5edb 36be
00000330: 7ec2 25be e444 e23d e220 b9bd 1c90 9abc
00000340: 0682 7bbd 46e3 e43d 2463 c83c 3832 233e
00000350: 607e 4c3c 39a9 be3e 3844 bc3d cdf5 04bd
00000360: cf8b 273e 22ff 643a 1f3a e6bb 3ba5 333c
00000370: a1ca ac3d 5006 2fbe c9fb 03bd 1a5b 133e
00000380: 3972 2bbc fafd 393e eef4 a9bd 265b 763e
00000390: 3391 a0bd 9184 e83d 32ea 5abe 2a8a 133e
000003a0: 1e0c 2cbc ebf2 983e 9e45 513d 10ac 93bd
000003b0: 9bd3 d339 9cfc 3c3e fd2c c23d d1f9 9ebc
000003c0: 4bae f53d 1e1e 023d 5d54 8abd 6a4f 423d
000003d0: 8f26 b4bd 976b 80bd 2037 08be 814b 2a3e
000003e0: 02e5 003e 6d03 893d 2f55 dd3d f8bc b93d
000003f0: 1308 13be 9e6a 30bd d014 6b3d bc0a d53d
-0.035668436 -0.056188945 -0.04121634 0.013944493 -0.10336337 -0.034626152 0.16343638 -0.14135684
0.054588925 0.027988654 0.0384646 -0.11525824 -0.026991008 -0.061888497 -0.050415237 -0.13962732
-0.06318332 -0.013630619 0.067246795 -0.03289895 0.07490024 0.004185344 -0.00996809 0.0046766745
-0.0558768 -0.10967958 0.008545332 -0.18030012 -0.18689397 -0.028520696 -0.08585737 -0.008996875
0.03187691 -0.0013473935 0.19786623 0.048458155 -0.057742096 0.053784765 -0.075148314 0.011068286
0.24903715 -0.023362594 0.03874812 0.0043157563 -0.0320485 0.039543573 -0.0664251 0.08359504
0.009281826 0.0689762 -0.00016677764 0.07998656 0.19437975 -0.057178702 -0.06842312 0.096820116
-0.027058149 -0.0036111153 -0.07841092 0.086040266 -0.1574121 0.15167826 -0.11803977 -0.00013431258
0.110405214 0.117082626 -0.122753404 -0.16052948 0.14360867 0.002991739 -0.0010622079 -0.020917593
-0.010061179 0.25432396 0.31350008 -0.032947004 0.02631281 -0.23557739 -0.21162635 -0.116166
0.06022239 -0.022133978 -0.003194703 -0.011297804 0.13960484 0.16665535 0.1422046 0.15422831
0.2864955 -0.24441567 0.05246209 0.0851769 0.03427068 -0.10385962 0.35032386 -0.11989179
0.07814593 0.013516082 -0.06229913 0.10207718 0.029242102 -0.07279512 -0.12523954 0.13142565
0.16128111 -0.11735596 0.109314226 0.09125171 0.3175904 -0.10769838 0.1887816 -0.000243481
0.2070287 -0.073376104 0.04449284 -0.11739633 0.023911055 -0.098107986 -0.0175786 0.0069833538
0.08185024 -0.06602994 -0.15814562 -0.034051068 0.0027300308 -0.14252234 -0.11073679 0.29550403
0.08545385 0.07887876 -0.098964326 0.0019062782 -0.09054123 0.1620162 0.06680248 0.08708088
-0.22261761 0.2743311 0.011978565 0.067664936 -0.05299075 0.0022994792 -0.061417263 0.18758698
0.03600301 0.041769184 0.0421773 -0.0064064707 -0.02513884 0.14107464 -0.17779107 0.100026876
-0.14185548 -0.11175377 -0.03446769 -0.031761993 0.040633794 0.050899923 -0.08068911 -0.073625416
-0.16617417 0.080333635 -0.057769973 -0.11172673 -0.16418023 -0.0003370966 0.28694734 0.06054668
-0.0002817494 -0.09520336 0.12505093 -0.049889825 0.04477851 0.19371602 0.031367216 0.11581788
0.06292072 0.13487895 -0.23110268 0.09626427 -0.00014875387 -0.026195338 0.084803455 0.121879466
0.05697137 -0.17535344 -0.023172254 0.062148266 -0.09645924 0.021670341 0.08969276 0.14954843
-0.031863354 -0.054898478 0.19748588 0.06844834 -0.12939739 -0.075928 -0.06582858 -0.0068554413
0.09560877 -0.10332346 -0.025541592 -0.1785712 -0.16187474 0.11048296 -0.09039475 -0.018867545
-0.061403297 0.111761615 0.024461336 0.15937126 0.012481302 0.37238482 0.09192699 -0.032460976
0.16361926 0.00087355275 -0.0070259715 0.010964687 0.08437086 -0.17092252 -0.032222543 0.14390221
-0.0104642445 0.1816329 -0.0829867 0.24058208 -0.078401946 0.1135341 -0.21378401 0.14408174
-0.010500936 0.29872832 0.051091783 -0.07210553 0.00040402715 0.18455738 0.09481237 -0.019406231
0.11996134 0.031767003 -0.06754372 0.047439016 -0.08796417 -0.06270521 -0.13302279 0.16630365
0.1258736 0.066901065 0.10807263 0.09069246 -0.14358549 -0.043070428 0.057392895 0.10402438

network_body._body_endoder.seq_layers.0.bias f4 [128]
00000000: d0c0 c4bc 1364 17bd 5b6d 8dbd b50f 0fbc
00000010: 65f3 acbc 9e6b eb3c d2aa 253c 2c96 3d3d
00000020: ddb6 ce3c 283d 0f3c 7293 0ebd d125 1f3d
00000030: 6b45 773c c3c3 eebc eef1 663c 2b0c 2c3c
00000040: 1630 013d f80f babc 00de ad3d ec54 883c
00000050: cc40 0d3c 274f e5bc 1e04 2dbc 4699 39bc
00000060: 1d51 50bc 2a1c 04bd 2c98 2d3c c628 023c
00000070: 4b34 30bb 0a8b c8bc 1059 ae3c 1262 0a3d
00000080: 86bd 69bc d09b ccbb 9338 433c 9a25 84bc
00000090: d51d 413d 2777 263c ac2d 0b3d 63e0 b4bc
000000a0: ebd8 98bb cfae 9cba c8e6 3bbc 972b a33c
000000b0: 70a3 6abc bb01 d53b cb45 d1bc c6fc ddbb
000000c0: 3ade 173d c34a ef3c ec34 083d e445 52bd
000000d0: f007 bbbc 5567 ec3b 1ffa 0ebc 6f82 3abd
000000e0: a650 5bbc 79d9 863d 519d 93bb e962 e2bb
000000f0: 4a92 a1bc 6be2 5d3d 7c21 1bbd aea1 79bc
00000100: ba1d 4e3c 9634 0cbd 1567 29bd caf5 edba
00000110: 5206 ea3c 04e7 9b3b f9cd 6e3b 0755 04bd
00000120: c86d 2ebd 4a59 233a cf8b 063d 2606 e63c
00000130: a489 d7bc 04d8 21bc cd6d cebc ffe6 b83b
00000140: bef9 02bd eb0d 863d 2b27 213d 358d b73c
00000150: 5af3 d93c e34b da3c 0a98 cd3c ce9a a5bb
00000160: 37f0 af3c f642 abbc 4a05 ef3c 593c 0e3d
00000170: 612e 373c d61b c43c 475f 033d a1e2 ca3c
00000180: b22b 07bc 2436 8e3c 3500 fc3c bc7c e03c
00000190: 8002 863d 7f58 c6bb 3350 b2bc 7537 793d
000001a0: 6a05 323c d763 1abc de77 1b3d 5cd2 a33c
000001b0: a6f0 993c 3e0a 58bc ee57 863d 4ee6 6d3c
000001c0: 347c 3d3c 59c8 babc c927 91bc 5963 2fbc
000001d0: 229e 42ba e054 92bb 4e48 c53b 90ba caba
000001e0: b23e 86bc aaf9 81bd b3f6 56bd 1f6e 343c
000001f0: 6b83 5dba 8f18 953d 5102 353c 78f9 a6bd
-0.024017721 -0.036960673 -0.069056235 -0.008731772 -0.021112153 0.02873784 0.0101115275 0.046285793
0.02523368 0.008742608 -0.034808584 0.038854424 0.015092234 -0.02914608 0.0140957665 0.010500948
0.03154 -0.022712693 0.08489609 0.016642056 0.008621406 -0.027991844 -0.010560064 -0.011328047
-0.012714651 -0.03225342 0.010595363 0.007944291 -0.0026886638 -0.024480361 0.021282703 0.033784933
-0.014266377 -0.0062441602 0.011915344 -0.016131211 0.04714759 0.010160244 0.033979103 -0.022079652
-0.0046645305 -0.0011953952 -0.011468597 0.019918246 -0.014321193 0.0065004504 -0.025545975 -0.0067745177
0.037077166 0.029210454 0.033253595 -0.051336184 -0.022830933 0.0072144666 -0.008726626 -0.045534547
-0.013385927 0.06584448 -0.0045048376 -0.0069087637 -0.019723076 0.054171007 -0.03787373 -0.015236301
0.01258033 -0.034229837 -0.041358072 -0.0018154916 0.028567467 0.004757764 0.0036438687 -0.03230765
-0.042585164 0.00062312617 0.032848176 0.028079104 -0.02631075 -0.009878162 -0.025198841 0.0056427713
-0.031976454 0.065456234 0.039343994 0.0224062 0.026605297 0.026647514 0.025096912 -0.0050538545
0.021476848 -0.020905953 0.029177327 0.03472552 0.011180491 0.023939054 0.032073285 0.024766268
-0.008250164 0.0173598 0.030761817 0.027403228 0.065434456 -0.00605303 -0.021766758 0.060843904
0.010865549 -0.009423218 0.03795611 0.019997768 0.018791508 -0.013186036 0.0655974 0.014520241
0.011565257 -0.022800611 -0.017719166 -0.010704839 -0.00074240763 -0.0044656843 0.0060205823 -0.0015466977
-0.016387317 -0.06346448 -0.052481364 0.011012583 -0.0008450064 0.07280075 0.011047916 -0.08153051

network_body._body_endoder.seq_layers.2.weight f4 [128, 128]
00000000: 6bae c23d e7ac 1f3e 3d11 c9bd 5c2d 52bd
00000010: a20d 173d 0580 173d 5567 bc3c aad9 433e
00000020: d0dc 0c3d 1bac c53d 4b0f dc3c a7fe 1dbe
00000030: 80c2 abbd f074 cd3c 85e7 b33d 3c09 f7bc
00000040: 3626 233a 2970 25be d849 c03d f2f5 13be
00000050: 5bd5 c7bd 9b76 44be 9b0c d93c e292 823d
00000060: 2272 7d3d c38b c93d 9652 3a3e 46d0 c5bd
00000070: 6b2d eebc ae06 b73a 6430 dfbd b1d2 a33d
00000080: 5a21 333c 6b18 aabd d9f4 e5bc 9ca1 273e
00000090: 908a 8e3d c065 d43c c86f 3abd 231c 1fbd
000000a0: 3358 f3bd 7c76 0bbd 941a 0c3e e36a 2dbd
000000b0: 3d8c 863c 7ca4 7b3e 6e33 a73d bb31 f53d
000000c0: 2769 693d 1f8d 1dbe f139 10bd 8621 003d
000000d0: 2e37 293e 5265 033e b3f9 07bd 7489 953d
000000e0: b98c 783d fdce 0f3d 5ce5 473e b686 a4b8
000000f0: efcf c6bc e90f e23d 0104 f2bd 5b31 c23d
00000100: e547 dcbd 37a7 a03c 1f11 9cbd af45 c63d
00000110: e14a 5c3d 0df5 203d 7108 8f3d c390 603d
00000120: 2f54 763d fc66 32be de24 5ebd c5f3 45be
00000130: 699e 9ebd 96a9 9dbd b41e cabc 85df 273e
00000140: 41ac d03d cde7 6f3d 7a0f 34bd 23e7 11be
00000150: 4c88 dcbd 857f c0bd 79b3 d8bc ebe5 b93d
00000160: 1127 50bd bc93 9b3c 8471 243d b1e1 c13b
00000170: 9b92 363e aabd a8bd 4d12 f1bc 10b7 12bd
00000180: c35e 823c cdd8 d53d 493f f4bd 6625 27be
00000190: 54a6 bebd e0d4 833d 9fa7 14be 925f c43d
000001a0: 661d 77bd f6e8 94bd 3f28 1e3d 2ab1 313d
000001b0: 8d96 16bc 9d9c 03be ad78 adb9 6cef 5e3d
000001c0: c631 f5bd bddd 953d e47c a43d 40df c73d
000001d0: ed5b 41bc a746 ce3c b108 52bd 4aeb 65be
000001e0: d1a4 133e 6e9d 1f3d be2e 3f3e f93e 2f3d
000001f0: aac5 c23c 1397 67be aef7 093e f15f f1bd
00000200: eb78 17be 136d 003e e00b bfbd db71 4abd
00000210: fb8b c53d 343e 773c ee94 49be 2868 06be
00000220: 6118 803d 105a 863d 9f2f 14bd b563 af3d
00000230: 26d3 123e 7584 b0bd 3d0c 153a ab31 fdbd
00000240: 651a 993d 24de f9bd 6904 61be e6e9 ba3d
00000250: 06b4 bf3d 9e99 e03c 908a 9abd d2cd 01bb
00000260: 8d3f 1cbe e16f a3bd 6b0d a3bc 0233 2d3e
00000270: 8bba 963c fe48 a73d 9c9e 2fbe f982 acbc
00000280: 47af a8bc 25ec d0bc 2821 ecbc e9f7 8dbd
00000290: fe51 123d c9e9 15bd 965f c4bd b1f6 bf3d
000002a0: 61fc b2bd 30de 203e 86b1 edbd 20b2 6fbe
000002b0: 40dc 123e e32e a63a 3f1d 06be 13f1 853d
000002c0: 5c81 25be 4b76 4b3b 0ef8 db3b ffba 083c
000002d0: 58d1 d2bd 7a2b cbbd af0c be3d 47c7 403d
000002e0: 2a7c 943d 404e e9bd 52e9 563c f5b7 c03c
000002f0: c1c2 0dbc 97e1 15be ad6c efbd b5a7 41bd
00000300: fbc9 943c bd54 c23b c5c1 ed3c 1ec6 493c
00000310: e8fd 643b c850 8d3d 541f 0cbe 3b8a 803c
00000320: 94ea 693c ae90 50bd 7b2e 603d 2633 ac3d
00000330: 44d3 ac3c 722b 513d cc81 863b 88e9 563d
00000340: c2be 76bd 592d fdbd 28cb 4bbd a8b3 a8bc
00000350: c1a0 07be 0c62 a0bd e4fb 08bd dbe7 03be
00000360: 6910 ea3c a881 4ebe 01bf ab3d 8380 3f3d
00000370: 1412 fbbc 9c4d 253d 51d6 0b3e 4260 fdbc
00000380: d93e 6fbe 8608 ddbb 5d91 943d 5a04 fd3d
00000390: 763b 8ebd 1359 13bd eed8 a5bd 5324 1bbe
000003a0: 1926 ffbc eade ad3d 855a c43d e067 4e3d
000003b0: 3e36 9a3c e221 b23d 88b9 503d 4251 193d
000003c0: 7faa 643d 6326 a6bd e2dd 84be a3eb 5fbd
000003d0: c9a4 863c 1887 22be 4496 2abd 001c bd3b
000003e0: c4b8 9fbd 3931 84bd cc93 623e 2f92 16be
000003f0: 6c49 82bd 3730 443d 1534 f53c 4fd9 7fbd
0.09505924 0.15593301 -0.09817741 -0.05131279 0.036878236 0.036987323 0.022998491 0.19126001
0.03439027 0.09651967 0.026862761 -0.15429173 -0.08386707 0.025080174 0.08784393 -0.03015577
0.00062236504 -0.16156067 0.093890846 -0.1444929 -0.09757491 -0.1918587 0.026495269 0.06375672
0.061876424 0.098411106 0.18195567 -0.09658866 -0.029074391 0.0013963783 -0.10897902 0.079991706
0.010933245 -0.083054386 -0.028070854 0.16370243 0.069600224 0.025927424 -0.04551676 -0.038845193
-0.11882057 -0.034048542 0.13682014 -0.042338263 0.016424293 0.24574465 0.08164106 0.11972376
0.056985047 -0.15385865 -0.035211507 0.03128197 0.16524956 0.1283162 -0.033197116 0.07301608
0.06068108 0.03510951 0.19521087 -7.845221e-05 -0.024269072 0.11038191 -0.1181717 0.0948207
-0.107559 0.019610984 -0.07620453 0.0968126 0.053782348 0.0392962 0.06984032 0.054825556
0.060138877 -0.17422098 -0.054234378 -0.19331272 -0.07745058 -0.076983616 -0.024672844 0.1639386
0.10189105 0.05857067 -0.043960072 -0.14248328 -0.10768184 -0.093993224 -0.026452767 0.090770565
-0.050818507 0.018991344 0.04014732 0.005916797 0.17829363 -0.082393005 -0.029427672 -0.035819113
0.015914327 0.10441742 -0.11926133 -0.1632286 -0.09309068 0.06437087 -0.14517067 0.09588541
-0.06033077 -0.07270996 0.0386126 0.043381847 -0.009191168 -0.12852712 -0.00033087042 0.05442755
-0.11972384 0.07317684 0.080316335 0.097593784 -0.011801702 0.025180174 -0.05127782 -0.22453037
0.14418341 0.038968496 0.18670174 0.042784665 0.023775894 -0.22616224 0.13473389 -0.117858775
-0.1479222 0.12541609 -0.09328437 -0.049424987 0.0964584 0.015090514 -0.19685718 -0.1312567
0.0625465 0.06560147 -0.036178228 0.085639395 0.14338359 -0.08619014 0.00056857226 -0.12362989
0.074757375 -0.12200573 -0.21974339 0.09126644 0.093605086 0.027417 -0.0754596 -0.0019806516
-0.15258618 -0.079803236 -0.01990386 0.16913989 0.018399497 0.08168219 -0.17150348 -0.021058546
-0.020591391 -0.025503227 -0.028824404 -0.06932051 0.035722725 -0.036599908 -0.09588544 0.093732245
-0.08739544 0.15709758 -0.116061255 -0.23407793 0.14341831 0.0012678768 -0.13097094 0.06540122
-0.16162628 0.003104585 0.00671292 0.008345365 -0.102938354 -0.09920402 0.09279763 0.047065046
0.07250245 -0.11391878 0.013117151 0.023525218 -0.00865239 -0.14636837 -0.1169065 -0.04727908
0.018162718 0.0059305117 0.02902306 0.012315301 0.003494138 0.069001734 -0.13683826 0.015690913
0.014277119 -0.050919227 0.054731827 0.08408193 0.021096833 0.051066823 0.0041048285 0.052468807
-0.060240515 -0.12362165 -0.04975429 -0.02059348 -0.13244916 -0.07831201 -0.033443347 -0.12881415
0.028572278 -0.20166647 0.083860405 0.046753418 -0.030648269 0.040357217 0.13655974 -0.030929688
-0.23363818 -0.006745401 0.07254288 0.123543456 -0.06944935 -0.03597362 -0.08098017 -0.15150575
-0.031146096 0.08489783 0.09587578 0.05039203 0.018824693 0.08697869 0.050958186 0.03743101
0.05582666 -0.081127904 -0.25950533 -0.05466808 0.016435998 -0.15871847 -0.04164721 0.00577116
-0.07798913 -0.06454701 0.22126693 -0.14704202 -0.0636166 0.047897544 0.029932061 -0.0624631

network_body._body_endoder.seq_layers.2.bias f4 [128]
00000000: be1c ae3c cd9a 5d3d c1b1 4e3c b577 54bc
00000010: 0d99 b13b a140 a03b 0697 4a3b 53c1 8ebc
00000020: 2397 de3c 29ac 6f3c 6249 103c 95b8 a43b
00000030: e6a8 373c 1b7d 1c3c fd2e 833b a003 403d
00000040: a6be 5abc 019a d03c 5155 da3c 0307 f5bb
00000050: 6c5f 623b bcfa 2b3d f628 453d d645 10ba
00000060: 9ec7 333c e684 ba3c 7c90 863c 994e e33c
00000070: 80b9 0b3d 8bfd f13b fd53 6a3c c2ca 113d
00000080: d6b5 a8bc d96d f13c a39e 8e3b 5293 bfbc
00000090: 59d5 633d 9570 9e3c 8351 923b e25c 8fbc
000000a0: f3e3 9b3c bdd5 473b 3848 553d 0da9 87bc
000000b0: d546 7fbc 9519 57bb f594 5b3c b791 91bc
000000c0: 859e 073c e2be b9bb df48 2b3c 902b 073d
000000d0: 4421 bb3c 1d40 a03c 111c f1bc f641 44bc
000000e0: 0701 ff3c 33bb 363c d455 e23c 5ca4 d03c
000000f0: 8d81 e03b 994a 0f3d d3be 55bc 3a17 57ba
00000100: a79c 093d de60 b53b a253 c33c d754 83bc
00000110: 3c45 483d 6aaa 973c 8520 163c 2ca6 33bc
00000120: 665c 453b b119 25bd a1f2 833c 058f 84bb
00000130: c3ba d2bc 928a 86bc 719a 123d f309 383d
00000140: 5191 8abb 9286 88bc 77ee 8e3c 57c9 ec3c
00000150: e4ea 57b9 12b1 923c d052 bd3c da3f 223c
00000160: 8e30 303c 23b0 063a f9d3 8d3c c4c3 9c3c
00000170: 9d9e 863c 3063 203d 902d 093c 595c 353c
00000180: 77b2 103d 7245 213d 62e0 843b 61e3 a73c
00000190: 08f9 2d3c 960f 25bc c13a 943c 1b97 1bbc
000001a0: 8c92 4d3c c678 463d 459a ee3b 0720 9b3b
000001b0: 7590 af3c ba8c 013c 1dd8 303d 2648 4f3c
000001c0: 5b08 a5bc 38d9 b8bc 5d33 a7bb e9aa c63a
000001d0: dd7c 873c b428 d63c 43f8 163c b079 853c
000001e0: 0217 33bc 5c41 3b3d 1905 f63c 1897 1bba
000001f0: e789 303d 1023 62bd 06f3 503b 5ed1 2bbb
0.02125394 0.054102708 0.012615622 -0.0129679935 0.0054198564 0.004890517 0.003091277 -0.017426169
0.027171677 0.0146284485 0.008806558 0.0050268867 0.011209702 0.009551312 0.004003404 0.046878457
-0.013351118 0.02546406 0.02665201 -0.0074776425 0.003454174 0.041987166 0.048134767 -0.00055035704
0.010972885 0.022768449 0.016426317 0.02774744 0.034112453 0.007384961 0.014302251 0.035593756
-0.020594519 0.029471325 0.004352407 -0.023385677 0.055623386 0.019340793 0.0044652834 -0.017500345
0.019029593 0.0030492388 0.052070826 -0.016560102 -0.0155808525 -0.0032821645 0.013402213 -0.017769678
0.00827754 -0.005668507 0.010454386 0.03300053 0.02284301 0.019561822 -0.029432328 -0.011978617
0.03112842 0.01115303 0.027628817 0.025468998 0.006851381 0.03498325 -0.013045984 -0.000820506
0.03359666 0.005535229 0.02384359 -0.016031666 0.048894152 0.018513877 0.009163027 -0.010964911
0.0030114888 -0.040307704 0.016106905 -0.0040453696 -0.02572382 -0.016423497 0.035791818 0.044931363
-0.004228749 -0.01666573 0.017447693 0.0289046 -0.00020591501 0.0179067 0.023110777 0.009902919
0.010753764 0.0005137941 0.01731299 0.019136317 0.016433055 0.039157093 0.008372679 0.011069381
0.035326447 0.03937287 0.004055069 0.020494165 0.010618456 -0.010074517 0.018094422 -0.009496476
0.0125471465 0.048455022 0.007281574 0.0047340426 0.021431187 0.007907087 0.04317485 0.012651479
-0.020145586 -0.022564515 -0.0051025585 0.0015157136 0.016539032 0.026142456 0.009214464 0.016293377
-0.010930778 0.04571663 0.030031728 -0.00059352955 0.043100264 -0.05520922 0.0031883135 -0.0026217322

action_model._continuous_distribution.log_sigma f4 [1, 2]
00000000: dbd5 393e f4f6 583e
0.18147986 0.21187955

action_model._continuous_distribution.mu.weight f4 [2, 128]
00000000: b5cf 4c3d 2fc6 a7bd 1ba5 20bd 65fb 233d
00000010: 2f12 b83b a841 c4bc 925f 82bb 9513 a73c
00000020: 0607 84bd 5be1 56bd 7f0d 633d 57c1 433d
00000030: d0cb 57bd a9a9 0abd 0382 46bd e111 c4bd
00000040: 8b1f 113d 1e68 e63c d949 f73c f3d3 a23d
00000050: cc72 973d 2d6c f63d 3f3c 6abd cf62 f838
00000060: 8cd3 8cbd 7e84 253d 5c26 22bc 7ff7 c1bc
00000070: 36dc 9bbd f4ee 583d e297 7abc 3a54 47bd
00000080: 9895 9c3c df55 a03d dee3 f8bc cbf9 33bb
00000090: c080 eebd efb1 e23c 51b4 553d c60c d33c
000000a0: 321e 40bd 9624 66bd f9b4 5abd b235 5abc
000000b0: b913 653a 2d90 333d 992c 92bd 125a f33c
000000c0: 9816 3fbc e6be 97bc 079b 7eba 4e39 f4bc
000000d0: 0b3e c7bd 5414 59bd 61d9 b93c b45b 7f3b
000000e0: 58eb 28bd df6b 96bc c0f5 9bbc f940 07bd
000000f0: 91de 773d 1eba 93bd c577 4e3b a188 bb3d
00000100: 7977 abbd 08bd 70bd 5594 263d fdcc df3c
00000110: b3dd 68bd db3f d53c 92ba 63bd 7530 463c
00000120: 6a19 7a3d a8da 4e3c 3da5 51bd cda4 3d3d
00000130: 1fe1 9d3b 628e 143d 33ef af3c 4104 7e3c
00000140: a5b0 043d 98a2 8c3d 682c de3c 20ed 84bd
00000150: 857c eb3c 04fa 9c3c c60a 8bbd f452 6cbd
00000160: 4a52 fb3c 380b 9abc c521 fa3c a42d 98bd
00000170: b6a9 183d 6130 e13b 12d9 20bc b6a5 123c
00000180: e65b 1f3d 54b6 44bd cb5f 1c3d 11f2 3a3d
00000190: d832 8dbc 84f7 523d 1317 533d ca34 9cbc
000001a0: c3d3 a0bd 766b 7bbd fe02 3c3c e999 8ebd
000001b0: e321 84bd ed1e 21bb e57c 9b3c 7485 8f3d
000001c0: c0f4 81bc 4f47 533d 23dd 34bc ce9c 8ebb
000001d0: 271c cb3d 977c abbc d26c 80bd fc9d 9abc
000001e0: a1ea 903c 2784 93bd c3d9 6e3d f0da 0a3d
000001f0: d240 70bd 500b 2a3c c2bc 423b fe33 553d
00000200: ec2b 2e3d 03ca c8bc 0fd5 81bd 355b 08bc
00000210: 975c 85bd 55ee 893c a84f 1b3d f480 f73a
00000220: 7745 153d 2c3d 5abd f363 fcbc 058d 4abd
00000230: c0a9 64bd da13 1dbd 943c b4bc f5ca 6a3d
00000240: 5bf1 e6bb 08a1 85bd b9de 8e3d cc9b ce3c
00000250: 07e7 ea3c 0688 40bd b809 983d f197 69bd
00000260: b765 efbc 2821 b5bd 43b6 3dbd 1522 7b3d
00000270: cd15 edbc 488a f1bc 7631 71bd 9382 3d3d
00000280: 255a f8bc c00b 863d 7faa 1d3d 85db 55bc
00000290: f6b5 cdbc 22ab 8d3d 9ac4 6abc 9161 6f3c
000002a0: da6b c5bb 5fb6 e3bc 6545 d33d 848f 05bb
000002b0: 0913 473b 445c 17bc 2db5 36bc 343f d3bc
000002c0: 3aff 8fbd 3de1 bbbc 87e0 933d 9765 f2bd
000002d0: bb57 a73c 2687 9cbd 66f9 763c 4fb0 21bd
000002e0: 58b1 9a3d d0ac 193d 3016 95bd 1bb8 aebd
000002f0: da7f 103d bc65 a33d 9945 80bd d1f0 e9bc
00000300: 5b15 8bbc a906 ebbc 5d9b 133d fc0b fc3c
00000310: dde0 963d 247f 8c3d 9245 813d 8c63 18bd
00000320: 5f14 1a3d ac45 8cbc ebf4 893c 98dd 30bc
00000330: 00a5 30bd 88b5 8ebd f81c 8b3d c5a1 033e
00000340: affa 4bbd b053 8ebc ccf0 96bd 37dc afbd
00000350: 016f a23c ed85 a0bd 8b59 a0bd 8b6d 9ebc
00000360: c058 5c3d afcd 3dbd 3a6b 393d be66 b1bc
00000370: d7bd a13d af72 02be c701 8a3d 3a12 7cbd
00000380: 4630 afbd 5117 5f3d f866 bc3c 15aa 53bd
00000390: 7ba7 49bd f698 64bc bf30 b83c bf45 a23c
000003a0: 5292 35bc 16d5 443d 503c 0b3d 2a98 e5bc
000003b0: 2f27 65bc a99b 81bd 44bb af3d ca94 1fbd
000003c0: ffad ef3b 6fdd 33bd bde8 153d 52a7 2cbd
000003d0: ddf6 253d 74be 89bd c82b 443c 621d 563d
000003e0: 0052 0bbd 1741 4cbc a552 d53c bf04 67bd
000003f0: aea0 763d 14cd 9d3b 293e 5dbd 6da9 76bc
0.050002772 -0.081920974 -0.039219957 0.04003467 0.005617402 -0.023957089 -0.003978678 0.02039508
-0.06446652 -0.05246101 0.055432793 0.047791805 -0.052684605 -0.033853207 -0.048463833 -0.09573723
0.035430472 0.028125819 0.03018658 0.07950582 0.07394943 0.12032352 -0.05718636 0.00011843966
-0.06876287 0.040409558 -0.009896841 -0.023677586 -0.07610361 0.05296226 -0.015295001 -0.04866431
0.0191143 0.078288786 -0.030382093 -0.002746212 -0.11645651 0.027672736 0.052173916 0.025762927
-0.046903796 -0.056187235 -0.053395245 -0.013318466 0.00087385956 0.04383867 -0.071374126 0.029706035
-0.011663102 -0.018523645 -0.0009712432 -0.029812481 -0.09728631 -0.052997902 0.022686662 0.0038964571
-0.041240066 -0.018361984 -0.019038081 -0.033020947 0.06051499 -0.072132334 0.0031504494 0.09156919
-0.08372397 -0.058774024 0.040668804 0.027319426 -0.056852054 0.026031425 -0.05559785 0.012096514
0.061059393 0.012625374 -0.051182974 0.046299744 0.0048180963 0.0362686 0.021476364 0.015503944
0.032395024 0.0686695 0.027120784 -0.064905405 0.028745899 0.019162185 -0.06789164 -0.057696298
0.030678887 -0.018804178 0.03053368 -0.0743058 0.037271224 0.0068722223 -0.009817379 0.008950641
0.038906 -0.048025444 0.038177293 0.04564101 -0.017236158 0.05150558 0.051535677 -0.01906814
-0.0785289 -0.06138178 0.011475323 -0.0696295 -0.06451776 -0.0024585084 0.018980453 0.07007876
-0.015863776 0.051581677 -0.011039051 -0.0043521887 0.09917479 -0.020933433 -0.06270756 -0.018874161
0.017690005 -0.072029404 0.058313143 0.0339002 -0.058655567 0.010378674 0.002971456 0.052051537
0.042522356 -0.02451039 -0.06339466 -0.008322527 -0.06511801 0.016837278 0.037917763 0.0018883036
0.0364432 -0.053280994 -0.030809378 -0.049450893 -0.05582595 -0.03834901 -0.022001542 0.05732246
-0.007047815 -0.06524855 0.06976075 0.025220774 0.028674616 -0.047004722 0.07423729 -0.05702967
-0.029223306 -0.08844215 -0.046316396 0.0613118 -0.02894106 -0.029484883 -0.05888506 0.046267103
-0.030316422 0.0654521 0.038492676 -0.013052826 -0.02511118 0.069174066 -0.0143291 0.014610664
-0.00602482 -0.027796922 0.1031597 -0.0020379731 0.0030376336 -0.009238306 -0.011151594 -0.025786974
-0.070311025 -0.02293455 0.072205596 -0.11835783 0.020427575 -0.07642965 0.01507411 -0.03947478
0.07553357 0.037518322 -0.072796226 -0.08531209 0.03527818 0.07978389 -0.06263275 -0.028557213
-0.016977957 -0.0286897 0.036036838 0.030767433 0.07367108 0.06860188 0.063120976 -0.03720431
0.037617084 -0.017123066 0.016840419 -0.01079502 -0.043126106 -0.06968218 0.06792635 0.12854679
-0.049799617 -0.01737389 -0.07370147 -0.085869245 0.019828321 -0.07838044 -0.07829579 -0.019339344
0.053795576 -0.046338733 0.045268275 -0.021655437 0.07897537 -0.12739061 0.0673862 -0.06154082
-0.08554129 0.054465596 0.022998318 -0.051675875 -0.049231987 -0.013952484 0.022484181 0.019808648
-0.011082249 0.048054777 0.033993065 -0.028026659 -0.013986393 -0.06328518 0.0858064 -0.038960256
0.007314443 -0.043912347 0.03659891 -0.042151757 0.04051863 -0.06725779 0.011973329 0.052274115
-0.03401375 -0.0124666905 0.026040385 -0.05640101 0.06021183 0.004815707 -0.05401436 -0.015055043

action_model._continuous_distribution.mu.bias f4 [2]
00000000: a3ef 1cbc 5a47 c43b
-0.009578618 0.005989951

onnx::Div_51 f4 [82]
00000000: aef5 253f 987c 263f d7c9 303e 28a9 353e
00000010: 7dd9 303e 2cab 353e bddd 303e a598 353e
00000020: 8bd9 303e ec9a 353e ebc9 303e 409a 353e
00000030: 64d2 303e d494 353e 424a 823e 88cc a139
00000040: 1884 923e 88cc a139 079a af3e 88cc a139
00000050: 8418 b13e 88cc a139 4cee cd3e 88cc a139
00000060: 15b7 053f 88cc a139 8624 f23e 88cc a139
00000070: b0e1 053f 88cc a139 b367 d23e 88cc a139
00000080: 88ed b63e 88cc a139 b1e6 ae3e 88cc a139
00000090: 8d51 913e 88cc a139 a6a3 253f fcec ed3e
000000a0: fcec ed3e 676b 263f 44f5 263f 856c 313e
000000b0: 2e48 363e 9b79 313e dc4b 363e bb7f 313e
000000c0: 1738 363e e879 313e a53c 363e e869 313e
000000d0: fd3b 363e 5e72 313e 1435 363e 3693 823e
000000e0: 88cc a139 45d7 923e 88cc a139 1307 b03e
000000f0: 88cc a139 63a8 b13e 88cc a139 0d93 ce3e
00000100: 88cc a139 fd2a 063f 88cc a139 ea00 f33e
00000110: 88cc a139 6a50 063f 88cc a139 8f02 d33e
00000120: 88cc a139 1876 b73e 88cc a139 f550 af3e
00000130: 88cc a139 03a4 913e 88cc a139 fcec ed3e
00000140: 5e0b f63a 5e0b f63a
0.64828 0.65033865 0.17264496 0.17740309 0.17270465 0.17741078 0.17272086 0.1773401
0.17270486 0.1773488 0.17264526 0.17734623 0.17267758 0.17732555 0.2544728 0.000308607
0.28616405 0.000308607 0.342972 0.000308607 0.34589016 0.000308607 0.4022087 0.000308607
0.52232486 0.000308607 0.4729349 0.000308607 0.52297497 0.000308607 0.4109474 0.000308607
0.35728097 0.000308607 0.3416038 0.000308607 0.2838253 0.000308607 0.6470283 0.46469867
0.46469867 0.6500763 0.65217996 0.17326553 0.17800972 0.17331545 0.17802376 0.17333882
0.17794834 0.1733166 0.17796572 0.17325556 0.17796321 0.17328784 0.17793685 0.25502938
0.000308607 0.28679863 0.000308607 0.34380397 0.000308607 0.3469878 0.000308607 0.40346566
0.000308607 0.52409345 0.000308607 0.47461635 0.000308607 0.5246645 0.000308607 0.4121289
0.000308607 0.35832286 0.000308607 0.34241453 0.000308607 0.28445444 0.000308607 0.46469867
0.0018771698 0.0018771698
