results/Changed_Codes_4/DroneAgent/DroneAgent-10999821.pt (torch, 680783 bytes, 44 tensors)

network_body.observation_encoder.processors.0.normalizer.running_mean f4 [82]
0	0xbbbf8d52	-0.005845704
1	0x3cd3c5a4	0.025851078
2	0x3c254d80	0.010089278
3	0xbc92a16d	-0.01789924
4	0x3c242bc3	0.010020199
5	0xbc91f4ca	-0.01781692
6	0x3c250ff9	0.010074609
7	0xbc9285f1	-0.017886134
8	0x3c248c44	0.010043208
9	0xbc91cf34	-0.017798997
10	0x3c252861	0.010080428
11	0xbc9204e3	-0.017824596
12	0x3c240d52	0.010012941
13	0xbc924f01	-0.017859938
14	0x3b4903d0	0.0030672438
15	0xb29c782d	-1.821544e-08
16	0xbb384cc5	-0.002812193
17	0xb29c23e3	-1.817711e-08
18	0xbb9cc32d	-0.004784009
19	0xb29bfb42	-1.8158634e-08
20	0x3af4947c	0.0018659974
21	0xb29befc2	-1.8153404e-08
22	0xbb4387c6	-0.0029835566
23	0xb29bf029	-1.8153587e-08
24	0x3b590a19	0.003311759
25	0xb29afa9b	-1.8041922e-08
26	0x3bd6437b	0.006538806
27	0xb2998e67	-1.7876301e-08
28	0x3b53b5d1	0.0032304416
29	0xb29aa178	-1.8001387e-08
30	0x3c417307	0.01180721
31	0xb29bd174	-1.8139623e-08
32	0x3ba17bf5	0.004928107
33	0xb29bf63a	-1.8156346e-08
34	0x3c1d1b54	0.009589035
35	0xb29c4837	-1.819363e-08
36	0x3c0f52a4	0.00874773
37	0xb29c5ad4	-1.8202094e-08
38	0x40bdcba2	5.9311075
39	0x40bee0a0	5.96492
40	0x40bee0a0	5.96492
41	0xbbbf1c29	-0.0058322144
42	0x3cd4c377	0.025972111
43	0x3c2584da	0.010102475
44	0xbc93531d	-0.017983967
45	0x3c2476ea	0.010038117
46	0xbc929d7a	-0.017897356
47	0x3c2577de	0.010099379
48	0xbc93356c	-0.01796981
49	0x3c24d444	0.010060374
50	0xbc927b9e	-0.01788121
51	0x3c2567e5	0.010095571
52	0xbc929ed0	-0.017897993
53	0x3c24463c	0.010026511
54	0xbc92f4b2	-0.017938945
55	0x3b49ca82	0.003079087
56	0xb29d5ce5	-1.8319449e-08
57	0xbb38f53d	-0.0028222345
58	0xb29d0ad4	-1.828213e-08
59	0xbb9d6c79	-0.0048041907
60	0xb29ce3ef	-1.8264442e-08
61	0x3af2fee6	0.00185391
62	0xb29cd8b8	-1.8259342e-08
63	0xbb45ab83	-0.0030162043
64	0xb29cd933	-1.8259561e-08
65	0x3b586d8c	0.003302428
66	0xb29bdf73	-1.8145988e-08
67	0x3bd778f3	0.0065756976
68	0xb29a72a8	-1.79801e-08
69	0x3b53d6b7	0.0032324025
70	0xb29b888a	-1.8106466e-08
71	0x3c41d575	0.011830677
72	0xb29cb819	-1.8244508e-08
73	0x3ba12acb	0.0049184314
74	0xb29cdf4d	-1.8262336e-08
75	0x3c1de3fb	0.009636874
76	0xb29d2dd5	-1.8298048e-08
77	0x3c0fe494	0.008782525
78	0xb29d3ee4	-1.8305805e-08
79	0x40bee0a0	5.96492
80	0x40bfff68	5.9999275
81	0x40bfff68	5.9999275

network_body.observation_encoder.processors.0.normalizer.running_variance f4 [82]
0	0x4a8c512b	4.5979095e+06
1	0x4a8d0dfe	4.622079e+06
2	0x489ca611	320816.53
3	0x48a58962	339019.06
4	0x489cbd84	321004.12
5	0x48a58b69	339035.28
6	0x489cc772	321083.56
7	0x48a56a5e	338770.94
8	0x489cc1c0	321038.0
9	0x48a56ee6	338807.2
10	0x489ca6ab	320821.34
11	0x48a56e6e	338803.44
12	0x489cb63e	320945.94
13	0x48a567ba	338749.8
14	0x492e1461	713030.06
15	0x3f800000	1.0
16	0x495b8c33	899267.2
17	0x3f800000	1.0
18	0x499ea462	1.2995962e+06
19	0x3f800000	1.0
20	0x49a0e9ad	1.3181976e+06
21	0x3f800000	1.0
22	0x49dac543	1.7921684e+06
23	0x3f800000	1.0
24	0x4a373081	3.0013762e+06
25	0x3f800000	1.0
26	0x4a156a35	2.4480132e+06
27	0x3f800000	1.0
28	0x4a37209a	3.0003585e+06
29	0x3f800000	1.0
30	0x49e2038f	1.8515059e+06
31	0x3f800000	1.0
32	0x49aab5bb	1.3984554e+06
33	0x3f800000	1.0
34	0x499d2790	1.28741e+06
35	0x3f800000	1.0
36	0x49591d75	889303.3
37	0x3f800000	1.0
38	0x4a891da6	4.493011e+06
39	0x4a0d73fe	2.3175675e+06
40	0x4a0d73fe	2.3175675e+06
41	0x4a8d141a	4.622861e+06
42	0x4a8dd660	4.647728e+06
43	0x489dc24c	323090.38
44	0x48a6a6bd	341301.9
45	0x489dd549	323242.28
46	0x48a6abaf	341341.47
47	0x489de275	323347.66
48	0x48a6887f	341059.97
49	0x489dd9f3	323279.6
50	0x48a690f5	341127.66
51	0x489dbe3a	323057.8
52	0x48a690a9	341125.28
53	0x489dcd99	323180.78
54	0x48a686fc	341047.88
55	0x492ed424	716098.25
56	0x3f800000	1.0
57	0x495c8155	903189.3
58	0x3f800000	1.0
59	0x499f6551	1.3057701e+06
60	0x3f800000	1.0
61	0x49a1e897	1.3263549e+06
62	0x3f800000	1.0
63	0x49dc1973	1.8030544e+06
64	0x3f800000	1.0
65	0x4a3865b2	3.0211645e+06
66	0x3f800000	1.0
67	0x4a167389	2.4649942e+06
68	0x3f800000	1.0
69	0x4a384859	3.0192862e+06
70	0x3f800000	1.0
71	0x49e34903	1.8619204e+06
72	0x3f800000	1.0
73	0x49abaf6f	1.4064459e+06
74	0x3f800000	1.0
75	0x499de305	1.2934086e+06
76	0x3f800000	1.0
77	0x495a0f8f	893176.94
78	0x3f800000	1.0
79	0x4a0d73fe	2.3175675e+06
80	0x4213ff77	36.999477
81	0x4213ff77	36.999477

network_body.processors.0.normalizer.running_mean f4 [82]
0	0xbbbf8d52	-0.005845704
1	0x3cd3c5a4	0.025851078
2	0x3c254d80	0.010089278
3	0xbc92a16d	-0.01789924
4	0x3c242bc3	0.010020199
5	0xbc91f4ca	-0.01781692
6	0x3c250ff9	0.010074609
7	0xbc9285f1	-0.017886134
8	0x3c248c44	0.010043208
9	0xbc91cf34	-0.017798997
10	0x3c252861	0.010080428
11	0xbc9204e3	-0.017824596
12	0x3c240d52	0.010012941
13	0xbc924f01	-0.017859938
14	0x3b4903d0	0.0030672438
15	0xb29c782d	-1.821544e-08
16	0xbb384cc5	-0.002812193
17	0xb29c23e3	-1.817711e-08
18	0xbb9cc32d	-0.004784009
19	0xb29bfb42	-1.8158634e-08
20	0x3af4947c	0.0018659974
21	0xb29befc2	-1.8153404e-08
22	0xbb4387c6	-0.0029835566
23	0xb29bf029	-1.8153587e-08
24	0x3b590a19	0.003311759
25	0xb29afa9b	-1.8041922e-08
26	0x3bd6437b	0.006538806
27	0xb2998e67	-1.7876301e-08
28	0x3b53b5d1	0.0032304416
29	0xb29aa178	-1.8001387e-08
30	0x3c417307	0.01180721
31	0xb29bd174	-1.8139623e-08
32	0x3ba17bf5	0.004928107
33	0xb29bf63a	-1.8156346e-08
34	0x3c1d1b54	0.009589035
35	0xb29c4837	-1.819363e-08
36	0x3c0f52a4	0.00874773
37	0xb29c5ad4	-1.8202094e-08
38	0x40bdcba2	5.9311075
39	0x40bee0a0	5.96492
40	0x40bee0a0	5.96492
41	0xbbbf1c29	-0.0058322144
42	0x3cd4c377	0.025972111
43	0x3c2584da	0.010102475
44	0xbc93531d	-0.017983967
45	0x3c2476ea	0.010038117
46	0xbc929d7a	-0.017897356
47	0x3c2577de	0.010099379
48	0xbc93356c	-0.01796981
49	0x3c24d444	0.010060374
50	0xbc927b9e	-0.01788121
51	0x3c2567e5	0.010095571
52	0xbc929ed0	-0.017897993
53	0x3c24463c	0.010026511
54	0xbc92f4b2	-0.017938945
55	0x3b49ca82	0.003079087
56	0xb29d5ce5	-1.8319449e-08
57	0xbb38f53d	-0.0028222345
58	0xb29d0ad4	-1.828213e-08
59	0xbb9d6c79	-0.0048041907
60	0xb29ce3ef	-1.8264442e-08
61	0x3af2fee6	0.00185391
62	0xb29cd8b8	-1.8259342e-08
63	0xbb45ab83	-0.0030162043
64	0xb29cd933	-1.8259561e-08
65	0x3b586d8c	0.003302428
66	0xb29bdf73	-1.8145988e-08
67	0x3bd778f3	0.0065756976
68	0xb29a72a8	-1.79801e-08
69	0x3b53d6b7	0.0032324025
70	0xb29b888a	-1.8106466e-08
71	0x3c41d575	0.011830677
72	0xb29cb819	-1.8244508e-08
73	0x3ba12acb	0.0049184314
74	0xb29cdf4d	-1.8262336e-08
75	0x3c1de3fb	0.009636874
76	0xb29d2dd5	-1.8298048e-08
77	0x3c0fe494	0.008782525
78	0xb29d3ee4	-1.8305805e-08
79	0x40bee0a0	5.96492
80	0x40bfff68	5.9999275
81	0x40bfff68	5.9999275

network_body.processors.0.normalizer.running_variance f4 [82]
0	0x4a8c512b	4.5979095e+06
1	0x4a8d0dfe	4.622079e+06
2	0x489ca611	320816.53
3	0x48a58962	339019.06
4	0x489cbd84	321004.12
5	0x48a58b69	339035.28
6	0x489cc772	321083.56
7	0x48a56a5e	338770.94
8	0x489cc1c0	321038.0
9	0x48a56ee6	338807.2
10	0x489ca6ab	320821.34
11	0x48a56e6e	338803.44
12	0x489cb63e	320945.94
13	0x48a567ba	338749.8
14	0x492e1461	713030.06
15	0x3f800000	1.0
16	0x495b8c33	899267.2
17	0x3f800000	1.0
18	0x499ea462	1.2995962e+06
19	0x3f800000	1.0
20	0x49a0e9ad	1.3181976e+06
21	0x3f800000	1.0
22	0x49dac543	1.7921684e+06
23	0x3f800000	1.0
24	0x4a373081	3.0013762e+06
25	0x3f800000	1.0
26	0x4a156a35	2.4480132e+06
27	0x3f800000	1.0
28	0x4a37209a	3.0003585e+06
29	0x3f800000	1.0
30	0x49e2038f	1.8515059e+06
31	0x3f800000	1.0
32	0x49aab5bb	1.3984554e+06
33	0x3f800000	1.0
34	0x499d2790	1.28741e+06
35	0x3f800000	1.0
36	0x49591d75	889303.3
37	0x3f800000	1.0
38	0x4a891da6	4.493011e+06
39	0x4a0d73fe	2.3175675e+06
40	0x4a0d73fe	2.3175675e+06
41	0x4a8d141a	4.622861e+06
42	0x4a8dd660	4.647728e+06
43	0x489dc24c	323090.38
44	0x48a6a6bd	341301.9
45	0x489dd549	323242.28
46	0x48a6abaf	341341.47
47	0x489de275	323347.66
48	0x48a6887f	341059.97
49	0x489dd9f3	323279.6
50	0x48a690f5	341127.66
51	0x489dbe3a	323057.8
52	0x48a690a9	341125.28
53	0x489dcd99	323180.78
54	0x48a686fc	341047.88
55	0x492ed424	716098.25
56	0x3f800000	1.0
57	0x495c8155	903189.3
58	0x3f800000	1.0
59	0x499f6551	1.3057701e+06
60	0x3f800000	1.0
61	0x49a1e897	1.3263549e+06
62	0x3f800000	1.0
63	0x49dc1973	1.8030544e+06
64	0x3f800000	1.0
65	0x4a3865b2	3.0211645e+06
66	0x3f800000	1.0
67	0x4a167389	2.4649942e+06
68	0x3f800000	1.0
69	0x4a384859	3.0192862e+06
70	0x3f800000	1.0
71	0x49e34903	1.8619204e+06
72	0x3f800000	1.0
73	0x49abaf6f	1.4064459e+06
74	0x3f800000	1.0
75	0x499de305	1.2934086e+06
76	0x3f800000	1.0
77	0x495a0f8f	893176.94
78	0x3f800000	1.0
79	0x4a0d73fe	2.3175675e+06
80	0x4213ff77	36.999477
81	0x4213ff77	36.999477

network_body._body_endoder.seq_layers.0.weight f4 [128, 82]
0	0xbd17de7c	-0.037077412
1	0xbd862d2c	-0.065515846
2	0xbd190c81	-0.03736544
3	0x3c7bceaa	0.015369097
4	0xbdc8ef09	-0.09811217
5	0xbd0e1ec1	-0.034697298
6	0x3e2c3966	0.16818771
7	0xbe17822f	-0.14795755
8	0x3d62a249	0.05533055
9	0x3c9abebb	0.018889775
10	0x3d09b4f3	0.033619832
11	0xbdee5a44	-0.116383106
12	0xbcc54794	-0.024081983
13	0xbd7b7c04	-0.061397567
14	0xbd48ca57	-0.04902109
15	0xbe12b1fa	-0.14325705
16	0xbd734e14	-0.059400633
17	0xbc3e77e1	-0.011625261
18	0x3d936a9d	0.07198069
19	0xbd101b9c	-0.03518258
20	0x3d9d636e	0.0768498
21	0x3c37dc78	0.011221997
22	0xbc01cd2a	-0.00792245
23	0x3bce13cd	0.0062889815
24	0xbd6717fc	-0.056419358
25	0xbdd5e005	-0.10443119
26	0x3bbc2680	0.0057418942
27	0xbe2ea1a7	-0.17053853
28	0xbe45b289	-0.19306387
29	0xbd17878e	-0.03699451
30	0xbdb4afed	-0.08822618
31	0xbbccfb8c	-0.0062555727
32	0x3d009b4c	0.031398103
33	0x3c018d01	0.007907153
34	0x3e49b7bf	0.19699
35	0x3d5c473c	0.053778872
36	0xbd6c2b94	-0.057658747
37	0x3d600db0	0.054700553
38	0xbd8c1a7f	-0.06840991
39	0x3c992171	0.018692704
40	0x3e83692e	0.25666183
41	0xbcb2ecb4	-0.021841384
42	0x3ceb9765	0.028758714
43	0x3b554e44	0.003254787
44	0xbcfe0fb0	-0.03101334
45	0x3d454a72	0.0481667
46	0xbd86e791	-0.065871365
47	0x3da761df	0.08172964
48	0x3b38544e	0.0028126421
49	0x3d85da8f	0.06535827
50	0x39b110b7	0.00033772524
51	0x3db9b315	0.0906736
52	0x3e3eefb6	0.1864613
53	0xbd85d1a9	-0.0653413
54	0xbd91dc71	-0.07122124
55	0x3dc94a95	0.098286785
56	0xbceacf0b	-0.028663179
57	0xb93cad14	-0.00017993554
58	0xbd99c99e	-0.075091586
59	0x3db60e1e	0.088894114
60	0xbe1c7fa8	-0.15283072
61	0x3e1ce4c2	0.15321639
62	0xbde01c1c	-0.109428614
63	0x3b3ae322	0.002851673
64	0x3dee6bc4	0.116416484
65	0x3df34737	0.118788175
66	0xbde7a4b1	-0.11310709
67	0xbe24bcc8	-0.1608764
68	0x3e1de518	0.15419424
69	0x39fd09b2	0.00048263144
70	0xbc2b1b9b	-0.010443593
71	0xbcba50be	-0.022743579
72	0xbbe8768f	-0.0070942114
73	0x3e823c1e	0.2543649
74	0x3ea65fbe	0.3249492
75	0xbd02a669	-0.031896982
76	0x3d0770cc	0.033066556
77	0xbe740249	-0.23828997
78	0xbe51e800	-0.20498657
79	0xbdde4b0c	-0.10854158
80	0x3d820228	0.063480675
81	0xbc9aa137	-0.018875701
82	0x3a8daf5a	0.0010809705
83	0xbc2511a3	-0.010075006
84	0x3e0d4736	0.13796696
85	0x3e305c43	0.17222695
86	0x3e1bddf8	0.15221393
87	0x3e173e5e	0.14769885
88	0x3e974b81	0.29549792
89	0xbe766795	-0.24062951
90	0x3d3f5224	0.046709195
91	0x3da4ea5b	0.08052512
92	0x3d2f2fe0	0.042770267
93	0xbdc713ce	-0.09720574
94	0x3eb15d7a	0.3464163
95	0xbdf92d9b	-0.12166902
96	0x3da26caf	0.07930886
97	0x3ca2fb2c	0.019895159
98	0xbd8023aa	-0.062568024
99	0x3dd758a3	0.10514953
100	0x3cf70992	0.03015593
101	0xbd872fd5	-0.0660092
102	0xbdfce9a9	-0.12349255
103	0x3e064eb6	0.13115963
104	0x3e248b2d	0.16068716
105	0xbdedb5da	-0.11606951
106	0x3debbede	0.115110144
107	0x3daa5aa8	0.083180726
108	0x3ea379a9	0.31928757
109	0xbde68d6e	-0.11257444
110	0x3e4096bf	0.18807505
111	0x3b951093	0.004549095
112	0x3e53d86c	0.20688027
113	0xbd98038c	-0.074225515
114	0x3d31ba82	0.04339076
115	0xbdf963c1	-0.1217723
116	0x3cb207df	0.021732269
117	0xbdcd56e7	-0.10026341
118	0xbc8c8b07	-0.017156137
119	0x3c025ce7	0.00795672
120	0x3d9cd6ee	0.07658182
121	0xbd92ee82	-0.07174398
122	0xbe27caca	-0.16385952
123	0xbcee48eb	-0.029087504
124	0x3bbafbb3	0.0057062744
125	0xbe1468f2	-0.14493158
126	0xbde270c4	-0.110566646
127	0x3e95cc9f	0.29257676
128	0x3db1207f	0.08648776
129	0x3da4501e	0.08023094
130	0xbdd2ae0f	-0.10287105
131	0x3bf0868e	0.007340259
132	0xbdc4c1a2	-0.09607245
133	0x3e2d6dbd	0.16936393
134	0x3da75b39	0.08171696
135	0x3dce7ae2	0.10082032
136	0xbe667564	-0.22505718
137	0x3e8e37c7	0.2777693
138	0x3c7d03c3	0.015442791
139	0x3d8e4b5d	0.06947968
140	0xbd4adae7	-0.049525168
141	0x3ba24fc5	0.004953357
142	0xbd6eb170	-0.058274686
143	0x3e426db4	0.18987161
144	0x3d009fbf	0.031402346
145	0x3d24b410	0.040210783
146	0x3d2e0482	0.042484768
147	0xbb6b549b	-0.0035908583
148	0xbd042078	-0.032257527
149	0x3e12691c	0.14297909
150	0xbe3ffbf0	-0.1874845
151	0x3dc0cb25	0.09413747
152	0xbe0a6180	-0.13513756
153	0xbde73b43	-0.112906
154	0xbd1608a9	-0.036629353
155	0xbd01dc20	-0.03170407
156	0x3d16a624	0.036779538
157	0x3d45b03b	0.04826377
158	0xbdae1dd2	-0.085017815
159	0xbd92e118	-0.071718395
160	0xbe2df326	-0.16987285
161	0x3d98d229	0.0746196
162	0xbd6ce5e6	-0.057836436
163	0xbde4f3d7	-0.11179321
164	0xbe27cba5	-0.16386278
165	0x3b855256	0.004068653
166	0x3e93a769	0.2883866
167	0x3d59c496	0.053165995
168	0x3abdfdbb	0.0014495173
169	0xbdb9be5a	-0.0906951
170	0x3e05d680	0.13070107
171	0xbd568f36	-0.05238267
172	0x3d3c5642	0.0459807
173	0x3e3afa31	0.18259503
174	0x3cf90346	0.030397069
175	0x3dfd79bd	0.12376735
176	0x3d4fd729	0.050742302
177	0x3e057e68	0.13036501
178	0xbe6534ad	-0.22383375
179	0x3dced64b	0.10099467
180	0x3c1c8d0c	0.009555113
181	0xbcb473ce	-0.022027876
182	0x3dc39754	0.09550348
183	0x3e003f5e	0.12524173
184	0x3d827411	0.06369794
185	0xbe300d01	-0.1719246
186	0xbcb4110e	-0.021980789
187	0x3d83c2c3	0.06433632
188	0xbdc938c1	-0.09825278
189	0x3cbf18f1	0.023327323
190	0x3da61960	0.08110309
191	0x3e1a2178	0.1505183
192	0xbd3dd9ad	-0.04635017
193	0xbd6165fc	-0.0550289
194	0x3e42d6cb	0.1902725
195	0x3d95b582	0.073100105
196	0xbe0b6758	-0.13613641
197	0xbd9048ab	-0.0704511
198	0xbd8c801e	-0.06860374
199	0xbbe5790f	-0.0070029567
200	0x3dcaec26	0.09908323
201	0xbdd6029a	-0.10449715
202	0xbcedba0f	-0.029019384
203	0xbe38db5c	-0.18052429
204	0xbe27c27c	-0.16382784
205	0x3de75305	0.112951316
206	0xbdb8856f	-0.090098254
207	0xbc56e6f2	-0.013116585
208	0xbd831432	-0.06400336
209	0x3dde41df	0.10852408
210	0x3c9e1e18	0.01930146
211	0x3e206deb	0.1566693
212	0x3c31fc98	0.010863446
213	0x3ebe2a06	0.37141436
214	0x3daad6d7	0.08341759
215	0xbc76a74a	-0.015054533
216	0x3e3461be	0.1761541
217	0xbc1a717f	-0.009426474
218	0xba75ef7b	-0.00093816937
219	0x3cb27144	0.021782525
220	0x3dbbc06c	0.09167561
221	0xbe22d8cb	-0.15903012
222	0xbce5a1a2	-0.028031174
223	0x3e2050ea	0.15655866
224	0xbb051981	-0.002030939
225	0x3e442604	0.19155127
226	0xbdaa5dc0	-0.08318663
227	0x3e7711e0	0.24127913
228	0xbd9b11ae	-0.075717315
229	0x3de90886	0.11378579
230	0xbe5c40a8	-0.2150904
231	0x3e0ce11b	0.13757746
232	0xbc86f0bc	-0.016472213
233	0x3e909646	0.2823965
234	0x3d46466a	0.048406996
235	0xbda85a7a	-0.08220382
236	0x3b82511e	0.003976955
237	0x3e35fcc0	0.17772198
238	0x3dc97c4d	0.098381616
239	0xbca141d9	-0.019684719
240	0x3df434e2	0.11924149
241	0x3d192ffc	0.037399277
242	0xbd8d1702	-0.06889154
243	0x3d3a4f75	0.045485932
244	0xbdb0f7f3	-0.086410426
245	0xbd7a7a03	-0.061151516
246	0xbe0c7362	-0.1371589
247	0x3e31c812	0.17361477
248	0x3e060aee	0.13090107
249	0x3d91348c	0.07090101
250	0x3de53f6d	0.11193738
251	0x3db14af8	0.08656877
252	0xbe131a62	-0.14365533
253	0xbd221f99	-0.039580915
254	0x3d73a6f4	0.05948539
255	0x3dd50628	0.10401565

network_body._body_endoder.seq_layers.0.bias f4 [128]
0	0xbcaad117	-0.020851655
1	0xbd17a985	-0.0370269
2	0xbd8a59b4	-0.06755391
3	0xbb650101	-0.0034943225
4	0xbcbfbbc9	-0.023404973
5	0x3cfd6b6e	0.030935016
6	0x3c573e62	0.013137432
7	0x3d505749	0.05086449
8	0x3c9ba69c	0.019000344
9	0x3bb9b673	0.0056675016
10	0xbd0bb1f3	-0.034105252
11	0x3d1a8293	0.03772218
12	0x3c4b8f4d	0.012424302
13	0xbcf55850	-0.029949337
14	0x3c7b5b2d	0.015341562
15	0x3c3da1b0	0.011574194
16	0x3ce2128e	0.027596738
17	0xbcb96131	-0.022629352
18	0x3db725b9	0.08942742
19	0x3c87f70a	0.01659729
20	0x3bc736c7	0.006079528
21	0xbcedb7a6	-0.029018234
22	0xbbc940f1	-0.006141775
23	0xbbdb477b	-0.0066918707
24	0xbc526154	-0.012840588
25	0xbd0a19ae	-0.033715896
26	0x3c5f32d2	0.013622956
27	0x3bec3f4a	0.007209693
28	0xba84c9d2	-0.0010130948
29	0xbcce5256	-0.025185745
30	0x3c8d120b	0.017220518
31	0x3d0b727f	0.03404474
32	0xbc75e0d3	-0.015007216
33	0xbbad7448	-0.005293403
34	0x3c485e51	0.012229518
35	0xbc3e6b12	-0.011622207
36	0x3d44e3f0	0.04806894
37	0x3c226b66	0.009913301
38	0x3cef6b26	0.029225897
39	0xbcce0cae	-0.02515253
40	0xbba1f646	-0.004942688
41	0xbb8202ee	-0.0039676344
42	0xbbf66e81	-0.0075204973
43	0x3ca58452	0.020204697
44	0xbc89becd	-0.016814614
45	0x3bc2db6d	0.0059465677
46	0xbcd6d948	-0.026226655
47	0xbc0622dc	-0.008187022
48	0x3d252d66	0.0403265
49	0x3ce21c26	0.027601313
50	0x3d009cec	0.031399652
51	0xbd65da9b	-0.05611668
52	0xbca99cc1	-0.020704629
53	0x3bfbe68b	0.007687395
54	0xbc16606b	-0.009178261
55	0xbd50cc1a	-0.050975896
56	0xbc3b7f36	-0.011443904
57	0x3d8923ca	0.06696279
58	0xb9dec9ad	-0.000424934
59	0xbbe3f9ea	-0.0069572823
60	0xbca1ab39	-0.019734966
61	0x3d67cba9	0.05659071
62	0xbd2f013b	-0.042725783
63	0xbc85c448	-0.016328946
64	0x3c21e73f	0.0098817935
65	0xbd07e794	-0.033179834
66	0xbd3f7f22	-0.046752103
67	0xba8e08c7	-0.0010836356
68	0x3cf85e60	0.030318439
69	0x3bd0ffcd	0.00637815
70	0x3b2647c4	0.0025372365
71	0xbd06438e	-0.03277927
72	0xbd2274f2	-0.03966231
73	0x3a4af00b	0.00077414577
74	0x3cf9640e	0.030443218
75	0x3ce023ae	0.027360763
76	0xbcec58a8	-0.028850868
77	0xbc4a957b	-0.0123647405
78	0xbcbf2410	-0.023332626
79	0x3bec2a05	0.0072071576
80	0xbcf057a7	-0.02933867
81	0x3d889836	0.06669657
82	0x3d1c6d82	0.038190372
83	0x3cb40be0	0.021978319
84	0x3ccda614	0.025103606
85	0x3ce4536d	0.027871812
86	0x3cc3f07d	0.023918385
87	0xb91e20af	-0.0001508023
88	0x3c981a3d	0.018567199
89	0xbc997440	-0.01873219
90	0x3d031903	0.032006275
91	0x3cf25d7e	0.029585596
92	0x3c3e5908	0.011617906
93	0x3ca1f9c9	0.019772427
94	0x3cf24e93	0.029578483
95	0x3d03e755	0.032203037
96	0xbc0a5f9b	-0.008445646
97	0x3c910f91	0.017707618
98	0x3ce6cd5e	0.028174099
99	0x3cc5b518	0.024134204
100	0x3d88a542	0.066721454
101	0xbc0ba7ae	-0.008523865
102	0xbcb8c7ee	-0.022556271
103	0x3d7c3b70	0.06158012
104	0x3c20a250	0.009804323
105	0xbc110135	-0.008850385
106	0x3d316037	0.04330465
107	0x3cb3621c	0.021897368
108	0x3c83af4b	0.016074797
109	0xbc8fd779	-0.0175588
110	0x3d83b44f	0.064308755
111	0x3c8fdd20	0.017561495
112	0x3c196809	0.009363183
113	0xbca3a679	-0.019976841
114	0xbc532d55	-0.012889226
115	0xbc1d48af	-0.009599849
116	0xbb137dc4	-0.0022505382
117	0xbb308e89	-0.0026940426
118	0x3bca1020	0.006166473
119	0xbb24816b	-0.0025101553
120	0xbc7f2baa	-0.015574375
121	0xbd7d1f78	-0.06179759
122	0xbd606369	-0.054782305
123	0x3c1d95dc	0.009618249
124	0x38e613a1	0.00010970911
125	0x3d942575	0.07233707
126	0x3c68eb50	0.014216259
127	0xbda71c61	-0.0815971

network_body._body_endoder.seq_layers.2.weight f4 [128, 128]
0	0x3dcbb9c8	0.09947544
1	0x3e1d6ba1	0.15373088
2	0xbdc510c6	-0.0962234
3	0xbd4beb01	-0.049784664
4	0x3d1148c3	0.03546978
5	0x3cff1c14	0.031141318
6	0x3cda2a21	0.026631417
7	0x3e4a4a5b	0.19754927
8	0x3d17b0f8	0.037034005
9	0x3dc7a2e6	0.09747867
10	0x3cc91f64	0.024551101
11	0xbe200f3d	-0.15630813
12	0xbdaf0915	-0.08546654
13	0x3cd5e45f	0.026109872
14	0x3da59336	0.08084719
15	0xbceab11d	-0.028648907
16	0xbb68375a	-0.0035433383
17	0xbe24aead	-0.16082259
18	0x3dbae720	0.09126115
19	0xbe1b0bb0	-0.15141177
20	0xbdc87c66	-0.09789352
21	0xbe4777de	-0.1947932
22	0x3d161477	0.03664061
23	0x3d86555c	0.0655925
24	0x3d6e93c4	0.05824639
25	0x3dcba083	0.099427246
26	0x3e3baa08	0.1832658
27	0xbdc1a899	-0.094559856
28	0xbcfb1fa7	-0.030654741
29	0x3b525119	0.0032091795
30	0xbdd3790c	-0.10325822
31	0x3d99c5db	0.07508441
32	0x3c2267c7	0.009912438
33	0xbdac501e	-0.08413719
34	0xbce159d4	-0.027508654
35	0x3e29d7f8	0.16586292
36	0x3d92e08c	0.07171735
37	0x3ccb7eb9	0.0248407
38	0xbd34d222	-0.04414571
39	0xbd1fd23d	-0.03901886
40	0xbdf80c96	-0.121117756
41	0xbd2483a9	-0.040164623
42	0x3e09fd33	0.13475494
43	0xbd283f68	-0.041076094
44	0x3c9c0cdb	0.019049099
45	0x3e7d7f9a	0.24755707
46	0x3da07b2f	0.078359954
47	0x3df65f3e	0.12029885
48	0x3d75cd1b	0.060010057
49	0xbe1c3468	-0.15254366
50	0xbd171a4d	-0.036890317
51	0x3ce077a0	0.027400792
52	0x3e2b4a2b	0.16727512
53	0x3e0cd462	0.13752893
54	0xbd1c89ad	-0.038217235
55	0x3d918eed	0.07107339
56	0x3d711800	0.05886078
57	0x3d0b764a	0.034048356
58	0x3e4c6475	0.19960196
59	0xb922e703	-0.00015535582
60	0xbcda5b2d	-0.026654804
61	0x3de6a569	0.11262018
62	0xbded5f14	-0.115904
63	0x3dbccaf7	0.092184
64	0xbdd95d16	-0.10613458
65	0x3caac676	0.020846587
66	0xbd98f0a8	-0.074677765
67	0x3dc165cb	0.094432436
68	0x3d487708	0.048941642
69	0x3d2642ce	0.040591054
70	0x3d92e127	0.07171851
71	0x3d58b8d1	0.05291063
72	0x3d6d3b1a	0.05791769
73	0xbe378a8d	-0.17923947
74	0xbd61242a	-0.05496613
75	0xbe49a1a4	-0.19690567
76	0xbda1ce3d	-0.07900665
77	0xbd9a4dbf	-0.0753436
78	0xbce61323	-0.028085297
79	0x3e250325	0.16114481
80	0x3dd24f79	0.102690645
81	0x3d6ca639	0.05777571
82	0xbd45f546	-0.048329614
83	0xbe10d5e3	-0.14144091
84	0xbdd9cd43	-0.10634854
85	0xbdbc807d	-0.09204195
86	0xbcc8d868	-0.024517253
87	0x3dc0b34a	0.09409197
88	0xbd49b2e3	-0.049242865
89	0x3c9b7144	0.018974908
90	0x3d29941d	0.041401017
91	0x3c2aaa40	0.010416567
92	0x3e389a63	0.18027644
93	0xbda82469	-0.0821007
94	0xbcf80539	-0.030275928
95	0xbcf5a69f	-0.029986678
96	0x3c8121d0	0.015763193
97	0x3dcf6e89	0.10128505
98	0xbdf9c586	-0.12195878
99	0xbe2a1463	-0.1660934
100	0xbdbbab73	-0.09163561
101	0x3d81a7bb	0.0633082
102	0xbe186564	-0.14882427
103	0x3dbc5c05	0.09197239
104	0xbd8c0978	-0.068377435
105	0xbd957727	-0.07298117
106	0x3d3759cb	0.044763368
107	0x3d2481c5	0.04016282
108	0xbbefdbff	-0.0073199267
109	0xbe033e9b	-0.12816851
110	0xbb8205f3	-0.0039679944
111	0x3d64827d	0.055788506
112	0xbdf5c0d9	-0.119996734
113	0x3d9c9f31	0.07647551
114	0x3daa80a1	0.08325315
115	0x3dc606e9	0.09669287
116	0xbc63c372	-0.013901578
117	0x3cce31d4	0.025170244
118	0xbd51a553	-0.051183056
119	0xbe615c77	-0.22007929
120	0x3e110175	0.14160712
121	0x3d22f55b	0.03978477
122	0x3e4524a2	0.19252256
123	0x3d3703ec	0.044681475
124	0x3ccd704c	0.025077961
125	0xbe6b9ff6	-0.23010239
126	0x3e0a3e85	0.13500412
127	0xbde9e341	-0.11420298
128	0xbe196fce	-0.14984056
129	0x3e04de4b	0.12975423
130	0xbdbc6a80	-0.09200001
131	0xbd740623	-0.059576165
132	0x3dc56683	0.09638693
133	0x3c7ad666	0.015309906
134	0xbe4c6bd0	-0.19963002
135	0xbe06ee0f	-0.1317675
136	0x3d805d8a	0.06267841
137	0x3d8d851e	0.06910156
138	0xbd0654b3	-0.03279562
139	0x3db1cec7	0.08682018
140	0x3e1ae8b7	0.15127836
141	0xbdaecb60	-0.085348845
142	0x3b27c0b0	0.0025597028
143	0xbe069380	-0.13142204
144	0x3d939dee	0.07207857
145	0xbe05a1e5	-0.13050039
146	0xbe6052ce	-0.21906587
147	0x3da5d3ef	0.08097064
148	0x3db5ee89	0.088833876
149	0x3cadafa9	0.021201925
150	0xbd9db727	-0.07700949
151	0xbbbf490b	-0.005837565
152	0xbe1774aa	-0.14790598
153	0xbdb4b90d	-0.08824358
154	0xbc975256	-0.018471878
155	0x3e2c67e2	0.16836503
156	0x3c8bdb03	0.017072206
157	0x3dad15d8	0.08451432
158	0xbe2fc3e7	-0.17164575
159	0xbc9cd0c2	-0.019142512
160	0xbc9abe43	-0.018889552
161	0xbcd07779	-0.025447594
162	0xbce94616	-0.028475802
163	0xbda4980e	-0.08036815
164	0x3d1e2f3c	0.038619265
165	0xbcdaca9f	-0.026707945
166	0xbdbeab88	-0.09310061
167	0x3dbda61a	0.09260197
168	0xbdadd359	-0.08487577
169	0x3e1e4e8d	0.15459652
170	0xbdeccca2	-0.11562468
171	0xbe72363a	-0.23653498
172	0x3e0f0626	0.13967189
173	0x3b355031	0.0027666206
174	0xbe020586	-0.1269742
175	0x3d8d9578	0.069132745
176	0xbe2ce956	-0.16885886
177	0xbb7fbadd	-0.0039021291
178	0x3be50d27	0.0069900933
179	0x3c36e1f8	0.011162274
180	0xbddc2ec6	-0.10751109
181	0xbdce07d9	-0.100600906
182	0x3dc3745a	0.09543677
183	0x3d3ee421	0.04660428
184	0x3d8ff1af	0.07028519
185	0xbded5111	-0.11587728
186	0x3c56f36d	0.013119561
187	0x3ce73a4b	0.028226038
188	0xbc7ba585	-0.015359287
189	0xbe15b3c3	-0.14619355
190	0xbe04b169	-0.12958302
191	0xbd399045	-0.0453036
192	0x3cac49fd	0.021031374
193	0x3be4a1de	0.006977304
194	0x3ce91e04	0.028456695
195	0x3c6e518c	0.0145458095
196	0x3b5f5ea4	0.003408351
197	0x3d8c35c4	0.068461925
198	0xbe0baf36	-0.13641056
199	0x3cf0d124	0.029396601
200	0x3c1c8ab3	0.009554553
201	0xbd6ee951	-0.058327977
202	0x3d4d2327	0.050082352
203	0x3db032b6	0.08603422
204	0x3c888e7b	0.016669502
205	0x3d59087e	0.052986614
206	0x398b8e3f	0.00026618128
207	0x3d585cd9	0.05282292
208	0xbd601179	-0.054704163
209	0xbe0257e8	-0.12728846
210	0xbd4db10a	-0.050217666
211	0xbcb9f802	-0.022701267
212	0xbe0ca51b	-0.13734858
213	0xbda430ae	-0.080170974
214	0xbd1b0d0c	-0.03785424
215	0xbe0a884a	-0.13528553
216	0x3cdb8fab	0.026801905
217	0xbe4cdbc2	-0.20005706
218	0x3da2cad2	0.07948841
219	0x3d448ac0	0.047983885
220	0xbccba055	-0.024856726
221	0x3d19f2db	0.03758512
222	0x3e0cd04b	0.13751332
223	0xbd0c0b33	-0.034190368
224	0xbe6c23bf	-0.23060511
225	0xbbb95aef	-0.005656592
226	0x3da19d93	0.07891383
227	0x3e039f27	0.1285368
228	0xbd8772d1	-0.06613696
229	0xbd323f5e	-0.043517463
230	0xbd9d46cd	-0.0767952
231	0xbe239ac6	-0.1597701
232	0xbd0d16b3	-0.034445476
233	0x3db44106	0.08801465
234	0x3dbf1757	0.093306236
235	0x3d4b0c45	0.049572248
236	0x3ccad24b	0.024758479
237	0x3dafff47	0.08593612
238	0x3d613d05	0.054989833
239	0x3d19cb27	0.037547257
240	0x3d69a85d	0.05704533
241	0xbda90257	-0.082523994
242	0xbe878a99	-0.2647293
243	0xbd566cc0	-0.052349806
244	0x3c89eed5	0.016837517
245	0xbe201792	-0.15633991
246	0xbd14e253	-0.036348652
247	0x3c0263f9	0.007958406
248	0xbdab0539	-0.083506055
249	0xbd92dd34	-0.071710974
250	0x3e57e078	0.21081722
251	0xbe145a96	-0.14487681
252	0xbd7a16a5	-0.06105675
253	0x3d3240bb	0.043518763
254	0x3cab576f	0.020915715
255	0xbd70722d	-0.058702637

network_body._body_endoder.seq_layers.2.bias f4 [128]
0	0x3cc1aa3a	0.02364074
1	0x3d4ff2f0	0.050768793
2	0x3c265341	0.010151685
3	0xbc338a63	-0.010958287
4	0x3b08d15c	0.002087674
5	0x3b46128e	0.0030223462
6	0x3bacae3f	0.005269795
7	0xbc7f7cdf	-0.015593736
8	0x3cdc3cfd	0.02688455
9	0x3c4941b6	0.012283733
10	0x3c17f596	0.009274861
11	0x3bb226a7	0.0054367366
12	0x3c2e281a	0.010629678
13	0x3bc5250a	0.0060163783
14	0x3b7a48ab	0.0038190286
15	0x3d35d60a	0.044393577
16	0xbc4ab93e	-0.012373267
17	0x3cd15355	0.025552431
18	0x3cedcbe6	0.02902789
19	0xbbc4a7f4	-0.006001467
20	0x3bd3ef8e	0.006467766
21	0x3d333f08	0.043761283
22	0x3d45ec5e	0.04832112
23	0xbb931a6e	-0.0044892346
24	0x3c0fcd2f	0.008776947
25	0x3cabf628	0.0209914
26	0x3c2e514f	0.010639503
27	0x3ceb98c9	0.028759377
28	0x3d09b88f	0.033623274
29	0x3c03aa41	0.008036197
30	0x3c3e8522	0.011628421
31	0x3d0af0ff	0.033921238
32	0xbcad616c	-0.021164618
33	0x3cfbc13c	0.03073179
34	0x3b784bce	0.003788698
35	0xbcd46cb7	-0.025930746
36	0x3d5fa2ca	0.054598607
37	0x3caa8a60	0.020817935
38	0x3bc42091	0.0059853275
39	0xbc799ed6	-0.015235623
40	0x3c777aba	0.015104944
41	0x3addaa8b	0.0016911788
42	0x3d568659	0.052374218
43	0xbca4d4de	-0.020121034
44	0xbc8d06fd	-0.017215246
45	0xbaa8322b	-0.0012832334
46	0x3c46aeb9	0.012126618
47	0xbc94b0cf	-0.018150715
48	0x3b9a58c3	0.0047102883
49	0xbc07c855	-0.008287509
50	0x3c37f9b5	0.011228968
51	0x3d00ec0c	0.03147511
52	0x3cab48bf	0.020908711
53	0x3c8edb50	0.01743856
54	0xbcd44644	-0.025912412
55	0xbc83aace	-0.016072657
56	0x3d070bdf	0.032970306
57	0x3c37c8cd	0.011217308
58	0x3cc47883	0.023983246
59	0x3ca9ff3a	0.020751584
60	0x3c11113f	0.008854209
61	0x3d04cb4b	0.032420438
62	0xbc53b61f	-0.012921839
63	0x3b1a5f20	0.0023555234
64	0x3cf351a5	0.029702017
65	0x3b64cb05	0.0034911048
66	0x3ce25e50	0.027632862
67	0xbc5cc25d	-0.013474074
68	0x3d49ad3a	0.049237467
69	0x3ca19923	0.019726342
70	0x3bd5474d	0.006508744
71	0xbc57be36	-0.013167908
72	0x3be90194	0.007110784
73	0xbd2983ea	-0.04138557
74	0x3c5a100a	0.013309488
75	0xba35353a	-0.00069125334
76	0xbcf2cf73	-0.029639935
77	0xbc954560	-0.018221557
78	0x3d23c1c2	0.039979704
79	0x3d3d643f	0.04623818
80	0xbbe5391e	-0.0069953343
81	0xbc70ee2d	-0.014705223
82	0x3c84e741	0.016223552
83	0x3cdb7ca3	0.02679283
84	0x3b25b547	0.0025285052
85	0x3c5de5d1	0.013543562
86	0x3ca41785	0.020030746
87	0x3bf299eb	0.0074036024
88	0x3c4a94d0	0.012364581
89	0xbb51a000	-0.0031986237
90	0x3c9e47ea	0.0193214
91	0x3c77a531	0.015115068
92	0x3caa5128	0.020790651
93	0x3d1e8a15	0.038705904
94	0x3c085c81	0.008322836
95	0x3c14b0ab	0.009075324
96	0x3d008ce7	0.031384375
97	0x3d1e941f	0.038715478
98	0x3c0c7398	0.008572482
99	0x3ca8bda3	0.020598238
100	0x3c0e75fe	0.008695124
101	0xbbe8856b	-0.007095983
102	0x3ca89022	0.02057654
103	0xbc4f5eed	-0.012656909
104	0x3c2bb248	0.010479517
105	0x3d414c13	0.04719169
106	0x3c12baa8	0.008955635
107	0x3b5a18b6	0.003327889
108	0x3cab07e1	0.02087778
109	0x3b346f37	0.002753211
110	0x3d3caa2b	0.046060722
111	0x3c5b6aa0	0.013392121
112	0xbcc378dd	-0.023861343
113	0xbcb80c0c	-0.022466682
114	0xbbb6cb76	-0.0055784537
115	0xbb019b5a	-0.0019776435
116	0x3cac0700	0.020999432
117	0x3cbcf807	0.023067487
118	0x3bdc8c17	0.006730567
119	0x3c7c571f	0.015401631
120	0xbc479653	-0.012181836
121	0x3d347132	0.044053264
122	0x3d0dabd9	0.034587715
123	0xbb1762ed	-0.0023099736
124	0x3d2f9d81	0.042874817
125	0xbd5eed62	-0.054425605
126	0xba134e62	-0.0005619285
127	0xba0f78e9	-0.0005473034

action_model._continuous_distribution.log_sigma f4 [1, 2]
0	0x3e3fe099	0.18738021
1	0x3e57fabc	0.21091741

action_model._continuous_distribution.mu.weight f4 [2, 128]
0	0x3d591b51	0.053004567
1	0xbda80118	-0.082033336
2	0xbd15598c	-0.03646235
3	0x3d193484	0.0374036
4	0x3b6b8aa5	0.0035940793
5	0xbcdf31b4	-0.02724538
6	0x39f00657	0.0004578109
7	0x3c8c75ff	0.017146109
8	0xbd8ca64a	-0.068676546
9	0xbd5f78b4	-0.05455847
10	0x3d5d4bd4	0.054027393
11	0x3d6a4ff3	0.05720515
12	0xbd5d68dd	-0.054055084
13	0xbd18040f	-0.037113246
14	0xbd5d9c00	-0.05410385
15	0xbdbe05d5	-0.09278456
16	0x3cfff5e5	0.031245181
17	0x3cfa51c9	0.030556576
18	0x3d07361b	0.033010583
19	0x3da54e42	0.08071567
20	0x3d97d304	0.07413295
21	0x3df7e1a1	0.12103582
22	0xbd76ec1b	-0.06028376
23	0xbbb4096d	-0.0054942877
24	0xbd8f6aed	-0.07002816
25	0x3d22fb74	0.039790586
26	0xbbef842a	-0.0073094564
27	0xbcb0414a	-0.021515507
28	0xbda38039	-0.07983441
29	0x3d4c5c68	0.049892813
30	0xbc8c28d4	-0.017109312
31	0xbd3f4cb7	-0.04670402
32	0x3ca228ce	0.019794848
33	0x3da3b687	0.07993799
34	0xbd06f45c	-0.032947883
35	0xbba1628b	-0.0049250773
36	0xbdf80c07	-0.12111669
37	0x3ce5fc09	0.028074281
38	0x3d606057	0.054779377
39	0x3cb73237	0.022362811
40	0xbd2638d8	-0.040581554
41	0xbd6b17a8	-0.057395607
42	0xbd4734b3	-0.048634242
43	0xbc11156d	-0.008855206
44	0xbb014e33	-0.0019730448
45	0x3d3836e2	0.044974215
46	0xbd9d02fa	-0.07666583
47	0x3cd7e99b	0.026356509
48	0xbc4810bf	-0.012211024
49	0xbcb25ae1	-0.02177185
50	0x3a8f11f0	0.001091538
51	0xbcfc4ceb	-0.030798396
52	0xbdca4314	-0.098760754
53	0xbd654444	-0.055973306
54	0x3cd2ad9e	0.025717553
55	0x3a6f51dc	0.00091293245
56	0xbd3c8f7c	-0.046035275
57	0xbca32860	-0.019916713
58	0xbca0ac1c	-0.019613318
59	0xbd1af1b7	-0.037828173
60	0x3d748ce0	0.05970466
61	0xbd9384f2	-0.07203092
62	0xbb2d0746	-0.002640204
63	0x3dc9b991	0.09849847
64	0xbdb1a2e1	-0.08673645
65	0xbd86a972	-0.06575288
66	0x3d335d18	0.043789953
67	0x3ccfb579	0.025355088
68	0xbd723235	-0.059129912
69	0x3cf32ddf	0.029684959
70	0xbd696d6c	-0.05698912
71	0x3c3cd036	0.011524251
72	0x3d87d920	0.0663321
73	0x3c24d6e1	0.010060997
74	0xbd4faca2	-0.050701745
75	0x3d41472f	0.047187027
76	0xbacb92d9	-0.0015531435
77	0x3d17a73f	0.037024733
78	0x3cc618ce	0.02418175
79	0x3ca1addf	0.019736229
80	0x3cf13bbc	0.029447429
81	0x3d951eca	0.07281263
82	0x3cdbba61	0.02682227
83	0xbd905359	-0.07047147
84	0x3cc9476d	0.024570191
85	0x3c8ed983	0.017437702
86	0xbd89836f	-0.06714522
87	0xbd69b838	-0.05706045
88	0x3d136fc1	0.03599525
89	0xbca33827	-0.019924236
90	0x3d0ac955	0.03388341
91	0xbd95c15e	-0.073122725
92	0x3d277bca	0.04088954
93	0x3a65c88e	0.0008765542
94	0xbc21701b	-0.009853388
95	0x3bdea6ca	0.006794785
96	0x3d3181c7	0.043336656
97	0xbd494cab	-0.049145382
98	0x3d27389f	0.040825482
99	0x3d37fca6	0.04491868
100	0xbcbf1e4a	-0.023329873
101	0x3d673088	0.056442767
102	0x3d580019	0.052734468
103	0xbca18d0d	-0.019720579
104	0xbd9debba	-0.07710977
105	0xbd7049e3	-0.058664214
106	0x3c5795c9	0.01315827
107	0xbd96cb2f	-0.07362973
108	0xbd90c61a	-0.07069035
109	0xba861a48	-0.0010231221
110	0x3caec6ea	0.021335084
111	0x3d9093af	0.070594184
112	0xbc8988db	-0.01678889
113	0x3d46c860	0.048530936
114	0xbc341933	-0.010992336
115	0xbc050ed1	-0.008121208
116	0x3dd1578f	0.102217786
117	0xbcbdd13e	-0.023171064
118	0xbd841704	-0.064497024
119	0xbca08490	-0.01959446
120	0x3c9c7842	0.019100312
121	0xbd9799c4	-0.07402375
122	0x3d70dc74	0.05880399
123	0x3cfef857	0.031124277
124	0xbd6dd4df	-0.058064338
125	0x3bc4f117	0.0060101855
126	0xbb0d6f2a	-0.0021581152
127	0x3d604d3b	0.054761153
128	0x3d1ea2b6	0.038729392
129	0xbcecc343	-0.028901702
130	0xbd876a08	-0.06612021
131	0xbc0a9622	-0.008458646
132	0xbd80cb23	-0.06288745
133	0x3c6ece8a	0.01457561
134	0x3d1f7f3f	0.03893971
135	0x3b1e55a2	0.0024159928
136	0x3d0e85d3	0.034795593
137	0xbd606033	-0.054779243
138	0xbcea07b8	-0.028568134
139	0xbd47cac0	-0.04877734
140	0xbd6d563d	-0.05794357
141	0xbd18d3f3	-0.037311506
142	0xbc9003fd	-0.017580027
143	0x3d6d21e3	0.057893645
144	0xbbe3f585	-0.0069567584
145	0xbd89a985	-0.067217864
146	0x3d8aeeb6	0.06783812
147	0x3cab2204	0.020890243
148	0x3ce29ca4	0.027662583
149	0xbd392008	-0.045196563
150	0x3d96daf3	0.0736598
151	0xbd57efb2	-0.052718826
152	0xbd14d61e	-0.03633701
153	0xbdb0bc35	-0.08629648
154	0xbd32c510	-0.043644965
155	0x3d7363e7	0.059421446
156	0xbce63e4c	-0.028105877
157	0xbcd67366	-0.026178073
158	0xbd644296	-0.055727564
159	0x3d35e528	0.044407994
160	0xbce65e58	-0.028121158
161	0x3d7cbecd	0.0617054
162	0x3d085195	0.033280928
163	0xbc26a285	-0.010170584
164	0xbcf35013	-0.029701268
165	0x3d82e30c	0.06390962
166	0xbc8b3c5e	-0.016996559
167	0x3c8e83a5	0.017396757
168	0xbbde41b8	-0.0067827366
169	0xbcdfcaf5	-0.027318457
170	0x3dcc1067	0.09964066
171	0xbc2b4341	-0.010453046
172	0x3aa91027	0.001289849
173	0xbbde3778	-0.0067815147
174	0xbc435bb6	-0.011923721
175	0xbcb57161	-0.02214879
176	0xbd93dfe4	-0.07220438
177	0xbcb85cac	-0.022505127
178	0x3d8f0e7b	0.06985184
179	0xbdf04be9	-0.11733229
180	0x3c8ab2e0	0.016930997
181	0xbda456fc	-0.080244035
182	0x3c3ca3b5	0.01151364
183	0xbd1b86d8	-0.037970394
184	0x3d990214	0.074710995
185	0x3d131afd	0.03591441
186	0xbd8f499d	-0.069964625
187	0xbda6fbbd	-0.08153484
188	0x3d171fbb	0.036895495
189	0x3d9dfca9	0.07714207
190	0xbd8347f0	-0.06410205
191	0xbcc83498	-0.024439141
192	0xbc9f5a28	-0.01945217
193	0xbce15de8	-0.027510598
194	0x3d099ea5	0.03359856
195	0x3d074c3f	0.0330317
196	0x3d97d6dd	0.07414029
197	0x3d8506df	0.06495451
198	0x3d7128eb	0.058876913
199	0xbd137c6a	-0.036007322
200	0x3d0bdf74	0.03414865
201	0xbc7db727	-0.015485561
202	0x3c61710a	0.013759861
203	0xbc9051a9	-0.017617064
204	0xbd20f5fb	-0.039297085
205	0xbd8dfe45	-0.06933264
206	0x3d81b4d5	0.06333319
207	0x3dff8ea1	0.12478376
208	0xbd440c44	-0.04786326
209	0xbca35475	-0.019937733
210	0xbd9a0805	-0.07521061
211	0xbda88758	-0.0822894
212	0x3cc5034e	0.024049427
213	0xbd93afc9	-0.07211263
214	0xbda514a2	-0.08060576
215	0xbcbd1717	-0.0230823
216	0x3d4be4f3	0.04977889
217	0xbd3dafbb	-0.046310168
218	0x3d2f176b	0.042746942
219	0xbccb7d71	-0.024840089
220	0x3da331de	0.07968496
221	0xbe01decb	-0.12682645
222	0x3d8091fa	0.06277843
223	0xbd80af8a	-0.062834814
224	0xbda6237b	-0.08112236
225	0x3d62e1b9	0.055391047
226	0x3ca893ee	0.02057835
227	0xbd5809ac	-0.0527436
228	0xbd4548a2	-0.04816497
229	0xbb827477	-0.003981169
230	0x3c8efb9d	0.017453963
231	0x3c4631be	0.01209682
232	0xbc65980c	-0.014013302
233	0x3d3af498	0.04564342
234	0x3cf29f38	0.029616937
235	0xbd117eae	-0.0355212
236	0xbca905c9	-0.020632641
237	0xbd7515fc	-0.05983542
238	0x3dac014a	0.08398683
239	0xbd10176b	-0.035178583
240	0x3a954b38	0.0011390215
241	0xbd25c099	-0.04046688
242	0x3d0761d0	0.033052266
243	0xbd278a75	-0.040903527
244	0x3d313e1d	0.043272126
245	0xbd84769d	-0.06467936
246	0x3bb9bec0	0.005668491
247	0x3d571486	0.052509807
248	0xbcfe4362	-0.03103799
249	0xbc93a8ab	-0.018024763
250	0x3ce31a24	0.027722426
251	0xbd5afc46	-0.053463243
252	0x3d703a57	0.058649387
253	0x3ac2e973	0.0014870599
254	0xbd515f6f	-0.051116403
255	0xbc66c584	-0.014085177

action_model._continuous_distribution.mu.bias f4 [2]
0	0xbbdda28f	-0.0067637633
1	0x3c099eff	0.008399724

exp_avg f4 [128, 82]
0	0x3885ce86	6.380402e-05
1	0x3857307d	5.1305153e-05
2	0xb71de358	-9.410862e-06
3	0xb8819703	-6.1793275e-05
4	0x37b33b31	2.1366026e-05
5	0xb8300239	-4.196374e-05
6	0xb893e0af	-7.051357e-05
7	0xb92aa639	-0.00016274386
8	0xb8767ec9	-5.876905e-05
9	0x37c8f6d2	2.3956793e-05
10	0xb8720aec	-5.7707468e-05
11	0xb8fdc112	-0.00012099942
12	0xb7c73172	-2.3745673e-05
13	0xb876b523	-5.8819667e-05
14	0x38f16b7b	0.00011511795
15	0x3116b4b7	2.1930597e-09
16	0x38f024cb	0.00011450945
17	0x315f5e8b	3.2504512e-09
18	0x3961f97d	0.00021550614
19	0xb131ab36	-2.5854212e-09
20	0x3959badf	0.00020764348
21	0xb1169adc	-2.19159e-09
22	0x388f2112	6.824931e-05
23	0x316be405	3.4326615e-09
24	0x374b40e2	1.211485e-05
25	0xb111903b	-2.1182263e-09
26	0xb8c46de4	-9.366477e-05
27	0x3107f7f7	1.9786037e-09
28	0xb93ab973	-0.00017807428
29	0xb142726a	-2.8295752e-09
30	0xb948d941	-0.0001915442
31	0xaf81f503	-2.3639055e-10
32	0xb9524e5c	-0.00020056352
33	0x30b1f7d1	1.2948879e-09
34	0xb8deb0f2	-0.000106187435
35	0x310596fb	1.943987e-09
36	0x37845e52	1.5779548e-05
37	0xb14c6b66	-2.9746956e-09
38	0xb882fd57	-6.246071e-05
39	0xb803048e	-3.1237076e-05
40	0xb803048e	-3.1237076e-05
41	0x37b15760	2.1140731e-05
42	0xb6bc4ca7	-5.61176e-06
43	0x37451117	1.1746094e-05
44	0x3717e9a4	9.0547e-06
45	0xb898cb1a	-7.2857554e-05
46	0xb8b084f7	-8.4171006e-05
47	0xb8be6b2f	-9.0798705e-05
48	0x38255a4f	3.9423172e-05
49	0xb86d9622	-5.6645025e-05
50	0xb900381d	-0.00012227935
51	0xb7d02566	-2.4812947e-05
52	0xb8fe8ea8	-0.000121382356
53	0x381c8d16	3.7324695e-05
54	0xb9207ba0	-0.00015304843
55	0x38c647f7	9.45478e-05
56	0x313d8169	2.757668e-09
57	0x38ddc6e7	0.0001057515
58	0x3036386d	6.62914e-10
59	0x3974199c	0.00023279194
60	0xb181fdb7	-3.783238e-09
61	0x3956669c	0.00020446855
62	0x3006fa7c	4.9104876e-10
63	0x389f2340	7.588277e-05
64	0x2f98c6cc	2.7789893e-10
65	0x370f6fbf	8.549482e-06
66	0x30d1ebf8	1.5273818e-09
67	0xb8a32835	-7.779935e-05
68	0xb0f33592	-1.7695803e-09
69	0xb95df26f	-0.00021166516
70	0xb0afe5bc	-1.279822e-09
71	0xb94d89e6	-0.00019601695
72	0xaf49907c	-1.8332175e-10
73	0xb95656b4	-0.0002044093
74	0x2f856e6a	2.4271013e-10
75	0xb91b2b4a	-0.00014798078
76	0x3009b64a	5.009936e-10
77	0xb64f8689	-3.0923713e-06
78	0xb1785c34	-3.6141161e-09
79	0xb803048e	-3.1237076e-05
80	0x35b58044	1.3522881e-06
81	0x35b58044	1.3522881e-06
82	0xb7a215e7	-1.9322104e-05
83	0xb7cc1cf7	-2.4332183e-05
84	0x37945bd7	1.7685741e-05
85	0x37ad6ffe	2.0675358e-05
86	0xb938731e	-0.00017590492
87	0xb7960b9a	-1.7886796e-05
88	0x37cc9f47	2.4392864e-05
89	0x38d82f12	0.0001030845
90	0x3868030c	5.5315948e-05
91	0xb8c3ff80	-9.345915e-05
92	0xb8c04b45	-9.1692935e-05
93	0xb82b0779	-4.0776536e-05
94	0xb6d5f8a1	-6.376839e-06
95	0xb85919df	-5.1760926e-05
96	0x381fee2d	3.8130373e-05
97	0xb1d0cf09	-6.077134e-09
98	0x3833a310	4.282879e-05
99	0xb0fbe73f	-1.8328378e-09
100	0x37f5f57a	2.9320585e-05
101	0xaf90c310	-2.6332048e-10
102	0xb8269772	-3.971853e-05
103	0xb00fe8da	-5.2354e-10
104	0xb7933b53	-1.755139e-05
105	0xb05b9006	-7.9876405e-10
106	0xb875117a	-5.842883e-05
107	0x312543ea	2.4049265e-09
108	0xb81d7729	-3.7542693e-05
109	0x2a6c7407	2.1001266e-13
110	0xb82d7533	-4.1355564e-05
111	0x30b70c04	1.3318417e-09
112	0x377b845b	1.4991582e-05
113	0xafea8ebc	-4.266577e-10
114	0x38895912	6.54926e-05
115	0xb174a089	-3.5597927e-09
116	0xb70b2521	-8.29369e-06
117	0xb1572e29	-3.1312857e-09
118	0x384fe0a9	4.9561877e-05
119	0x30358603	6.603786e-10
120	0x388d34e1	6.7332534e-05
121	0x3879dfa1	5.9574497e-05
122	0x3879dfa1	5.9574497e-05
123	0x387bb6e7	6.0013404e-05
124	0x378b8f17	1.6636723e-05
125	0xb8ae69b2	-8.316654e-05
126	0xb90637bf	-0.00012800003
127	0x37cb2fb2	2.4221696e-05
128	0x36538fe1	3.1525199e-06
129	0xb68139fc	-3.85125e-06
130	0xb8c6d681	-9.48133e-05
131	0x381a3161	3.676245e-05
132	0x378404e3	1.5737902e-05
133	0xb89ff8f7	-7.628084e-05
134	0x37bc4aea	2.2446231e-05
135	0xb8ce8987	-9.848462e-05
136	0x3922a876	0.0001551228
137	0x384ca389	4.8789694e-05
138	0xb143999c	-2.8463552e-09
139	0x389f96bc	7.609787e-05
140	0x305b6b8d	7.9824575e-10
141	0xb76f3403	-1.425762e-05
142	0x30159e0f	5.44305e-10
143	0xb742b8fc	-1.1606371e-05
144	0xafe1906f	-4.1029888e-10
145	0xb827c1eb	-3.9996503e-05
146	0x30e71b1d	1.6815168e-09
147	0xb82a9ca9	-4.067706e-05
148	0xb0dcdf4f	-1.6070575e-09
149	0xb89cba41	-7.473352e-05
150	0x31774bbe	3.5986285e-09
151	0xb71686a1	-8.972042e-06
152	0xb1143f6a	-2.1572881e-09
153	0x38ac7889	8.2240505e-05
154	0xb10a9059	-2.0163695e-09
155	0x3775d1ac	1.4651956e-05
156	0x308c1134	1.019123e-09
157	0x3597a7fb	1.1299265e-06
158	0xb1023e01	-1.8952735e-09
159	0x384b4e93	4.847215e-05
160	0x31483d4d	2.9138676e-09
161	0x3879dfa1	5.9574497e-05
162	0xb6373996	-2.7302644e-06
163	0xb6373996	-2.7302644e-06
164	0xb8a3c18f	-7.808499e-05
165	0x39209018	0.00015312468
166	0xb882e414	-6.241366e-05
167	0xb6679e21	-3.4513725e-06
168	0xb8cfc372	-9.906934e-05
169	0x37695839	1.3908423e-05
170	0xb85825a7	-5.153348e-05
171	0xb9011d7b	-0.00012313381
172	0xb8c4072c	-9.347344e-05
173	0xb80e5f0a	-3.394395e-05
174	0xb915f3f2	-0.00014300624
175	0xb8a17588	-7.69897e-05
176	0xb890031f	-6.8670364e-05
177	0xb880c7aa	-6.140706e-05
178	0x3823cbbf	3.905198e-05
179	0xb1391810	-2.6934721e-09
180	0x3847266e	4.7481088e-05
181	0xaf8fce7e	-2.615827e-10
182	0x39364a0e	0.0001738446
183	0xb11a0d33	-2.2417452e-09
184	0x3903602c	0.0001252896
185	0xb09c4d98	-1.1372547e-09
186	0x38b123e3	8.446702e-05
187	0xb108ea35	-1.9923736e-09
188	0x3816ff15	3.600035e-05
189	0xb0523721	-7.64759e-10
190	0xb8a66606	-7.9345e-05
191	0x3040fd94	7.020955e-10
192	0xb8e8a4d3	-0.00011093323
193	0xb100042b	-1.862882e-09
194	0xb9255aa2	-0.0001576939
195	0xb0a965d6	-1.2325312e-09
196	0xb90d260b	-0.0001346098
197	0xb1097185	-2.0000652e-09
198	0xb905b1b2	-0.00012750065
199	0x2e94ff03	6.77556e-11
200	0xb80a3de2	-3.2959397e-05
201	0xb0f5194b	-1.7833285e-09
202	0x384a7546	4.8269772e-05
203	0x385ee0ee	5.3138407e-05
204	0x385ee0ee	5.3138407e-05
205	0xb8cee3dc	-9.8652876e-05
206	0x3865f483	5.4825574e-05
207	0xb89ec779	-7.571182e-05
208	0xb7ad7c16	-2.068099e-05
209	0xb7cc317a	-2.4341734e-05
210	0xb903eae2	-0.00012580634
211	0xb8e748ea	-0.0001102852
212	0xb7d9db1b	-2.5970445e-05
213	0xb7c10572	-2.3009929e-05
214	0xb8bee9b6	-9.103438e-05
215	0xb8f3eaac	-0.00011630854
216	0xb81a70be	-3.682146e-05
217	0xb90583ce	-0.0001273297
218	0xb6bda439	-5.651757e-06
219	0x3845195f	4.699209e-05
220	0x3005b044	4.8635607e-10
221	0x386ea59e	5.6897865e-05
222	0xb0583fd2	-7.8671036e-10
223	0x39295658	0.00016149262
224	0xae976cca	-6.88601e-11
225	0x38f32a47	0.00011595018
226	0x306a93bb	8.533864e-10
227	0x3889e844	6.575932e-05
228	0xb000ec90	-4.6902304e-10
229	0x37861340	1.5983009e-05
230	0x30d5dc3f	1.5560387e-09
231	0xb885b8c5	-6.37635e-05
232	0x300cafea	5.118169e-10
233	0xb900aa84	-0.00012270553
234	0xb1303896	-2.5643536e-09
235	0xb8c9f75c	-9.630501e-05
236	0xb141aa33	-2.8181943e-09
237	0xb9323c6b	-0.0001699791
238	0x300fd4b6	5.232538e-10
239	0xb90dcf16	-0.00013523953
240	0xafcde13e	-3.7449327e-10
241	0xb83fb818	-4.57094e-05
242	0xb10524f7	-1.937506e-09
243	0x385ee0ee	5.3138407e-05
244	0xb6c7209e	-5.9344593e-06
245	0xb6c7209e	-5.9344593e-06
246	0x39cfa93a	0.000396082
247	0x386a21d7	5.5821463e-05
248	0x37ab608d	2.0429748e-05
249	0xb8897515	-6.554477e-05
250	0x38371c7b	4.3657124e-05
251	0x3548f5e4	7.4863624e-07
252	0xb87ab232	-5.9770602e-05
253	0xb982e0d8	-0.00024963054
254	0xb881b5c7	-6.185058e-05
255	0xb8999de5	-7.325019e-05
