results/one_hot/DroneAgent/DroneAgent-499976.onnx (onnx, 517434 bytes, 7 tensors)

network_body._body_endoder.seq_layers.0.weight f4 [128, 870]
00000000: 0a1c 5f3d dde3 423d 2cf4 13be df0f b7bd
00000010: 972e 2dbe 91ce 35be 256b 98bd 3352 18be
00000020: fb56 31be 0a84 3cbe 3f56 8ebd 784d dc3c
00000030: 2a56 c4bd 2588 09be 3c04 4abe 2642 07be
00000040: 52c5 64be 34f2 c4bd 4f13 36be d657 30be
00000050: 82dc 1abe 8e72 50be b37d f9bd f10b eabd
00000060: b47a a3bd 4125 07be 90f2 9fbd ad86 32be
00000070: 3bd3 24be 1d42 0bbe fcb3 0bbe 91c8 7c3c
00000080: dd46 69bd 5f42 90bd dd59 d7bc 3b37 54bc
00000090: 302c c6bb 86a9 89bd 3a61 0bbb 4ccf 913d
000000a0: c565 0e3d 92a6 22bd d977 c23b 4050 223d
000000b0: c8ec 25bd 4718 babc 7149 ec3b 2b03 c33c
000000c0: 1772 3f3d 7bef d4bb f4a3 a4bc 5880 e63c
000000d0: e86a a7bc 6a8b 3c3c d59d d5bc a94d ed3b
000000e0: 0ed0 233d a933 453d 97da 52bc 63d9 133d
000000f0: 980b 843c 5a16 c53b 5e87 afbd b029 723c
00000100: 0230 59bc 3293 a7bc ee33 1fbd a42b e0bb
00000110: ea4a 42bd 1469 943c 21d4 803d af9f 0fbd
00000120: c5ac 363d 5d45 a93b 2ee5 993c 450a 1bbd
00000130: c4c6 b43c 496c 3f3d f40b b8bc 1eea 3b3c
00000140: f8b7 943a 9633 fe3c 6aae 27bd dc3d 003d
00000150: c48a f13b f911 013d 6099 8e3c 303a 7f3c
00000160: bb43 fa3c 15d7 a7bc 11f9 c9bc 92a0 8b3c
00000170: 7647 653b 9765 2b3d 47bc 20ba b875 41bc
00000180: c707 2abc fc47 69bc b915 61bc 4fbe 033d
00000190: dbaa 4abc ec30 603d ac33 533d feba cbbb
000001a0: c4b7 f23c 61fc 2f3c 8c7a 443d 5295 223c
000001b0: c8b1 58bd b149 b73c a714 11ba 6eb3 6d3d
000001c0: 8ea3 33bd 1630 84bc b4dd 193c 5eb9 69bd
000001d0: b3c2 44bd e24b 06bd 4784 ea3a d8cb 5dbc
000001e0: 3c9d a9bd 2e95 ed3a 454a 83bc 08b9 82bc
000001f0: f602 8cbc 89f8 a43c cbe1 0bbb 8609 e839
00000200: 9272 623c 372f 4f3d 2e85 503c 6491 f8ba
00000210: a963 013d 2ffe 323b 0595 8fbd 6ce0 1b3d
00000220: e987 91bb cc54 303c 0014 6c3d bbfa 5d3d
00000230: 5e5d ab3c f7a8 173d e998 373c 2dee 37bd
00000240: f4c1 bebc a7b8 66bd 446e a93b 7cdf 853c
00000250: cd7c 2ebd 69c3 f93b 5ec6 ba3b cee7 8c3d
00000260: 5254 183d 85b4 87bd b010 2dbd e4c6 6f3d
00000270: 7287 ee3c a125 143d d476 0ebc 5ca2 11bd
00000280: b0ae 573d 09ff ad3c c84f 243d dbc8 863d
00000290: 0451 003d 5f72 2cbc f5df 20bd 1ee3 ba3c
000002a0: 5b62 863b 1ca7 bd3d b513 063a 846c 51bc
000002b0: 68f8 5cbd db52 36bc c619 323e bdec 093d
000002c0: 15bb 0cbe cbcb 0fbd b2af 00be 1f54 07be
000002d0: 2c4f 0cbe eb11 02be aa0c e4bd 2d0f 22be
000002e0: 06a5 2fbe c7e5 6f3d 7805 57bd 518d 3d3d
000002f0: 5388 2abe dde2 c2bd a37c fdbd f455 03be
00000300: 6644 02be 80a6 1ebe 3720 27be baec f9bd
00000310: 0bb5 17be 559b 9dbd 730d e6bd a65e 8abd
00000320: a780 d8bd f437 bfbd a0ef 1bbe 9b45 f1bd
00000330: b457 06be 9407 913b e3ee acbb 1f2d 8dbc
00000340: adf7 b53c 8dd1 65bd dd83 bb3b e195 4f3b
00000350: 5d5d 063c 82e0 f1ba e50a 73bd 6366 2d3d
00000360: 1a7e a93b 1e05 bc3d 222b 163d 9397 25bd
00000370: 3e65 78bd 0acf d4bc 929c 9d3c 9677 1bbd
00000380: 825e e13c 0c57 76bb b39d aa3d f4da 3a3d
00000390: e45b 2abd d640 18bd dbc4 babc 382d ff3c
000003a0: bfd9 9f3c 23c9 5c3d ed58 20bc 439f cbb9
000003b0: 67ef eebc dff6 04bc c170 3fbd fe35 c53b
000003c0: 0052 40bd 3c1e 493c cf0f 62bc 2683 8abc
000003d0: 2669 77bc 5ff8 f43c 7aab 15bc 725b 1dbd
000003e0: 10fb 45bd 12b8 d13b c1da 56bd aec4 2a3d
000003f0: a45c 343c 716a d53b 3c62 923c ca64 753c
0.0544701 0.04758059 -0.14448613 -0.08938574 -0.16912304 -0.1775458 -0.07442311 -0.14875107
-0.17318337 -0.18409744 -0.06950044 0.026892409 -0.09586747 -0.13430841 -0.19728178 -0.13208827
-0.22340897 -0.09616509 -0.17780803 -0.17221007 -0.1512318 -0.20356199 -0.12182178 -0.11428059
-0.07982388 -0.13197805 -0.07809937 -0.17434187 -0.16096203 -0.13599439 -0.13642877 0.015428678
-0.056952346 -0.07043909 -0.026287967 -0.012952621 -0.006047748 -0.06721787 -0.0021267668 0.07119617
0.034765024 -0.039709635 0.005934697 0.039627314 -0.040509015 -0.022716654 0.0072109033 0.023805222
0.046739664 -0.006498275 -0.02009771 0.028137371 -0.020436719 0.011507848 -0.026076237 0.007241924
0.03999334 0.04814497 -0.012869499 0.036095988 0.01611881 0.0060146274 -0.08570741 0.014780447
-0.013256075 -0.02045593 -0.038867883 -0.00684114 -0.047434725 0.018116511 0.062904604 -0.035064396
0.04459836 0.0051657395 0.01878604 -0.03785159 0.022067435 0.04673413 -0.022466637 0.011469392
0.0011346331 0.031030457 -0.04093782 0.031308994 0.0073712785 0.03151128 0.01740712 0.015577838
0.030549875 -0.020488301 -0.024654897 0.01704434 0.003498522 0.04184493 -0.0006131571 -0.0118078515
-0.010377831 -0.014238354 -0.013738089 0.032163914 -0.012369837 0.054734156 0.05156295 -0.0062173596
0.029628642 0.010741324 0.047968432 0.009923296 -0.05290392 0.022374006 -0.00055343885 0.058032446
-0.04385715 -0.01613621 0.009391237 -0.057061546 -0.048037242 -0.03278721 0.0017892205 -0.01353737
-0.08281943 0.0018126124 -0.016026625 -0.01595737 -0.017091256 0.020138042 -0.00213443 0.00044257584
0.013821261 0.050582137 0.012727065 -0.0018964228 0.031589184 0.002731215 -0.07010845 0.038055822
-0.0044412506 0.010762405 0.05763626 0.054194193 0.020918544 0.03702637 0.01120589 -0.044904877
-0.023285843 -0.056328442 0.0051706154 0.016341917 -0.042599488 0.0076221717 0.0056999167 0.06880151
0.03718979 -0.06626228 -0.042252243 0.058539286 0.02911732 0.0361687 -0.008695323 -0.03555523
0.05265683 0.021239774 0.040115148 0.06581279 0.031327263 -0.010525315 -0.039276082 0.022813376
0.0041010804 0.09260389 0.0005114631 -0.01278222 -0.053947836 -0.011128153 0.17392644 0.033673037
-0.13743241 -0.03510646 -0.12567022 -0.13215683 -0.13702077 -0.12702148 -0.11135228 -0.15826102
-0.17152795 0.058568742 -0.05249545 0.046277348 -0.16653566 -0.09515927 -0.12377288 -0.12825757
-0.12721404 -0.15493202 -0.16320883 -0.12203355 -0.14815156 -0.07695643 -0.11233034 -0.06756334
-0.105714135 -0.09336844 -0.15228128 -0.11780854 -0.13119394 0.004425952 -0.005277501 -0.01723343
0.022212828 -0.056108046 0.0057225064 0.0031675028 0.0082009705 -0.0018453749 -0.05933656 0.04233397
0.005172503 0.091806635 0.03666223 -0.040427756 -0.060643427 -0.02597763 0.019239698 -0.037955843
0.027510885 -0.0037588505 0.0833086 0.045618966 -0.04159154 -0.037171207 -0.022798946 0.031149492
0.01951301 0.053902756 -0.009786827 -0.00038837836 -0.02916689 -0.008115499 -0.04673839 0.0060183993
-0.0469532 0.012275275 -0.013797714 -0.01690824 -0.015100753 0.029903589 -0.0091351215 -0.038417287
-0.048335135 0.0064001167 -0.052454714 0.041691475 0.011008415 0.006512933 0.017869107 0.014977643

network_body._body_endoder.seq_layers.0.bias f4 [128]
00000000: 8bcc 05be ff0f f5bd 8bdb d1bd a66b 35be
00000010: cfa7 4cbe 04b5 b9bc aca6 0dbe 3e58 803d
00000020: cb85 1bbe 1194 07be d484 93bd 5d1a fdbd
00000030: b918 bebd 2c06 bcbd c554 77bd 103b 19bd
00000040: 284d 31be 52f4 1cbe a9e3 423d 9681 23be
00000050: d09c 9dbd 608e a3bd 8d95 30be f63f 40be
00000060: c9a9 69bd 8c6f 23bd ec3a fbbd 1556 00bd
00000070: ad15 b6bd 56c7 f6bd 6afe f0bd ca79 0bbe
00000080: c422 043d ef67 183d 3c9b 343d 92b6 4bbd
00000090: 18ca 96bd 2079 5abe aa4e 1fbe 9eb0 20be
000000a0: 6020 1abe a282 7ebd e02c bbbd 4249 69bd
000000b0: d8c9 bbbd 8768 65bd cb3e 83bd 044f 99bc
000000c0: 5d9d 86bd cc3b 37bc 0e99 06be f531 82bd
000000d0: cb26 7d3d cdb8 213c 143d d0bd feff 90bd
000000e0: 5cf6 fbbd ac6d 053e 5519 603c ed7f 2dbd
000000f0: 9160 e53d bd20 40be 8352 4bbd 1e1a 0ebe
00000100: 7a82 8b3d b13a 9ebc 8052 a1bd 08e4 11be
00000110: 1621 18ba 6a70 22be 81e6 28be 9779 40be
00000120: 6f04 54bd 68bb cdbd a358 23bd 3376 06be
00000130: 6396 02bd 6ca6 b0bc 9511 ddbc 8fb0 013d
00000140: e013 b4bb 7c0b 78ba a3e4 e5bd a568 25be
00000150: 5f71 dfbd 1269 d6bd 0695 f7bd 9b58 f8bd
00000160: 0f79 b8bd 4578 30be 32b6 99bd 8edc 0bbe
00000170: d9f7 8dbd 50a1 8fbd 9a95 2d3d 0a04 ffbd
00000180: 6e56 66bd 8e17 b23d 0b54 f8bc 6cd8 6ebd
00000190: 46cf 14be 2f4e 01be 764e f1bd 30ed 9cbd
000001a0: 4e3f d3bd 43e1 a2bd efef a4bd 227d 84bd
000001b0: 09fa e1bd afca 7abd 2c6a dabd 6bfb b5bc
000001c0: a259 25be adb6 0fbe 9767 85bd f0de 64bd
000001d0: 5bfc 05be ae5e c3bd 57aa 7ebd fa2b a3bb
000001e0: 5f20 0dbe b6db e0bd 05d0 73bd 43ce 87bc
000001f0: a3b1 e7bd 1ba2 eebd 0080 22be 7f73 96bd
-0.13066308 -0.11965942 -0.102469526 -0.17716846 -0.19985889 -0.022669323 -0.13833112 0.06266831
-0.15187757 -0.13240077 -0.07203069 -0.12358544 -0.09282059 -0.09180865 -0.060383577 -0.037409842
-0.17314589 -0.15327576 0.047580395 -0.15967402 -0.07695925 -0.0798614 -0.17244549 -0.18774399
-0.057046685 -0.0399013 -0.12267098 -0.031332094 -0.08890853 -0.12049739 -0.11767276 -0.13620678
0.032259718 0.037208494 0.044093356 -0.04973466 -0.07362765 -0.21335268 -0.15557352 -0.15692374
-0.15051413 -0.0621363 -0.091394186 -0.05695463 -0.09169358 -0.05600789 -0.06408461 -0.018714435
-0.065729834 -0.01118369 -0.13144323 -0.06357185 0.061804574 0.00987072 -0.101679 -0.07080077
-0.12302849 0.13030118 0.013677915 -0.042358328 0.11200059 -0.18762489 -0.049639236 -0.1387715
0.06811996 -0.019315096 -0.07877064 -0.14247143 -0.000580327 -0.15863195 -0.1649418 -0.18796383
-0.05176204 -0.100455105 -0.039879452 -0.13131027 -0.0318817 -0.021563731 -0.026985923 0.03166252
-0.0054955333 -0.00094621605 -0.112252496 -0.161532 -0.10910296 -0.10469259 -0.12088971 -0.12126275
-0.09007465 -0.17233379 -0.07505454 -0.13658354 -0.06932039 -0.0701319 0.042379 -0.12451942
-0.05623477 0.08695899 -0.030313512 -0.058311865 -0.14532194 -0.12627481 -0.11782543 -0.076624274
-0.10314809 -0.079531215 -0.08053576 -0.0646918 -0.110340185 -0.06122845 -0.10664782 -0.022214612
-0.16147473 -0.14034529 -0.06513899 -0.055876672 -0.13084547 -0.09539543 -0.062174167 -0.0049796076
-0.1378188 -0.109794065 -0.059524555 -0.016577845 -0.113131784 -0.11652013 -0.1586914 -0.07346248

network_body._body_endoder.seq_layers.2.weight f4 [128, 128]
00000000: e528 a639 0e0e 103e 52f1 20bd c0db 483e
00000010: 7889 34bd 70f9 57bd 3ddb 0ebc 2fed 303e
00000020: 86ac 31bd 648f ce3d ce82 93bc 390a ccbc
00000030: eb4c 2e3e 3c1d 7ebe 5b8d 113e bfe4 233b
00000040: 7ffc 6fbe 7b59 bbbd d2f6 323c 3d73 a0bd
00000050: 4b4f 0d3e 7633 563e 6126 103e 7dc6 30be
00000060: ae63 0f3e c197 463d e306 c0bc d49a 4e3d
00000070: 40e4 b33d d89c 093d 3896 893d 2e0d 873d
00000080: aca7 033e 9142 13be 2c36 e0bd b145 8abd
00000090: 2d6a 45be a688 28bd 53da 15be bd8f dabd
000000a0: f366 593d 2c63 30bc b3a3 4c3e a443 58bd
000000b0: dafd dabd 4603 20be f938 f23c 005f b3bd
000000c0: 392b 303e 63f4 c03d 4ed1 63be 9a20 5bbd
000000d0: 156d 13bd d8d9 22bd b986 49bd 4386 78be
000000e0: 840f c5bc 9426 863e de3a 733d 7bab f63d
000000f0: 3c01 72bd 52c6 11bd f5f8 16be 6023 ffbd
00000100: ec5f f0bc c915 9d3d 7c1c f13c 9d38 363d
00000110: f1be 513c 54f5 10be c137 18be 573c 943d
00000120: 9c97 153e 12d3 ebbd baed 7a3b cf8c 173d
00000130: b591 233e 385b 83bc 73da be3d 79f3 4cbe
00000140: a995 0abd f309 623e 70cc 9fbc 68e4 6dbd
00000150: f70d d3bd 650f ebbd 548b b7bb cc34 573e
00000160: 1407 acbd 50a4 08be 9b8e 1dbc d52a 8cbc
00000170: 0065 d1bd 911a 0ebe e260 9cbd 1477 9f3e
00000180: f947 143e ceb8 f13d 44b7 c1bd ac5a b0bb
00000190: 18f9 8f3d 1292 443d 0316 8a3c 0295 e7bd
000001a0: e26a 923c 5bf1 18be 3d7c af3d 10bc e63d
000001b0: 0035 cb3d 4b7c 1fbe 0300 36bd efc3 d23d
000001c0: 97d3 12be 432b c93d a61e 87bd 767d 003e
000001d0: 2a07 ee3d b07b 26bc 54b8 c63b d26d ec3b
000001e0: b776 32bd 562c a63d 5c9c 6e3d b2ce 2ebc
000001f0: 9516 4f3d 3cff 8b3d 0ad3 48bd 5789 83be
00000200: d934 7fbe 0949 13bb 75a6 4dbe 124e 37bd
00000210: fe56 f73c c07f 5d3c 89b2 00bd 731c 00be
00000220: 565b 98be 9c82 88bd 5faa 96bc f2ab 48bd
00000230: a9f3 69bd fa8b 9b3d 2a83 7bbe 030d a23d
00000240: 02fe 08bc 8694 743d ca61 25be fda4 45bd
00000250: f495 9ebe 04b0 a5ba 0d07 1b3d 4be8 d83d
00000260: fead e4bd 1f26 883e 0e87 e1bc ddf8 8dbe
00000270: b2f2 ebbd 86d9 97bc 4516 f23d abf0 153d
00000280: ca33 3abe a195 e1bd 7393 6a3e 5d88 62bd
00000290: 562c ba3d 6f7d 83bc bcae 873d 1e7e 4d3c
000002a0: 2d7c 783d 386a f33d 2dd3 133d b360 713b
000002b0: d6a8 5c3c 3334 b6bd b734 e43d 95b4 8fbd
000002c0: 216c 95bd 7ca0 c33d 9a1d 5b3e d776 f8bb
000002d0: 20f4 b6bc 133b 833d 7009 d1bd 9a22 08bd
000002e0: 6b8f 16be 5ebb 2bbd 48e0 7ebd a633 1b3e
000002f0: ae70 583c 6064 3abd 103b 843d 83c0 303e
00000300: 49ea e4bc 7307 d7bd 124c 883d 357a f13d
00000310: 1696 d1bd 8dcb 753d f107 35bd 1ee7 c6bc
00000320: bab0 babd d9c0 80bd 1617 e2bc 7b1d 50be
00000330: e043 823d ccdf 213e a9e7 90bd 5dde 6d3e
00000340: 56c7 1f3e 4975 083e 8074 8abd 2685 ebbd
00000350: 2822 593c f727 4b3d c85b 77bd 629e 9cbd
00000360: 96b6 36be 9b55 01be c084 62bd 5e68 9d3d
00000370: c6a1 5bbd f9a4 683c 48e8 e73c 0567 d8bd
00000380: 26ed 69bd 41d5 9a3d 79a7 35be 60cd 53bd
00000390: b43b 3dbd c9bb c3bc f0d7 8dbc f286 593d
000003a0: b08a 3ebe f6f5 10be 6844 f0bd 37a7 c43c
000003b0: e0a5 bf3d 9a10 b1b9 f145 173c 04cb f7bd
000003c0: 9ff7 26be 98c1 ebbd 1e0b 933d ea69 0c3e
000003d0: 13c8 27be 1f10 d8bc 78a7 2dbd a55c 4a3d
000003e0: ea71 383c 305e e33d 5c7b 43be 0604 c9be
000003f0: 219f 723e 4d33 b13c 110d 5e3d 3181 083d
0.00031692456 0.14067861 -0.03929264 0.19615078 -0.044076413 -0.052728117 -0.008719263 0.17277978
-0.04337742 0.10085943 -0.018006708 -0.024907218 0.1702153 -0.2481584 0.14214079 0.002500817
-0.23436163 -0.091479264 0.010923104 -0.0783448 0.13799779 0.20918068 0.1407714 -0.17263217
0.14002869 0.048484568 -0.023440784 0.050440624 0.087837696 0.033596843 0.06718105 0.06594311
0.1285693 -0.14380862 -0.109478325 -0.06751574 -0.19278784 -0.041145943 -0.14634065 -0.10671947
0.053076696 -0.010765832 0.19984321 -0.052798882 -0.106929496 -0.15626249 0.029568182 -0.08758354
0.17203988 0.09421613 -0.22247812 -0.05349789 -0.0359927 -0.039758533 -0.049200747 -0.24269967
-0.02405525 0.26201308 0.059382312 0.12044426 -0.05908321 -0.035589524 -0.14743407 -0.12457919
-0.029342614 0.07670171 0.029432528 0.044487584 0.012801872 -0.14156085 -0.14865018 0.072380714
0.14608616 -0.11514868 0.0038288669 0.03699952 0.15973552 -0.016034707 0.0931901 -0.20014752
-0.033834133 0.22074108 -0.019506663 -0.058079153 -0.10305398 -0.11477546 -0.005601326 0.21016234
-0.083997875 -0.1334393 -0.009616519 -0.017110268 -0.10224342 -0.13877322 -0.076356664 0.31145537
0.1448058 0.11802827 -0.09458783 -0.0053819027 0.07029933 0.047990866 0.0168562 -0.11307718
0.017873231 -0.1493582 0.085686184 0.11266339 0.09922218 -0.15574758 -0.044433605 0.102912776
-0.14338528 0.09822705 -0.065976426 0.1254786 0.1162246 -0.010161325 0.006064454 0.00721524
-0.043570247 0.08113925 0.058254585 -0.010669397 0.050558645 0.068357915 -0.049029388 -0.2569072
-0.24922504 -0.0022473952 -0.2008303 -0.044752188 0.030192848 0.0135192275 -0.031420264 -0.12510853
-0.29757184 -0.06665537 -0.018391786 -0.048992105 -0.057117138 0.07595058 -0.24561754 0.07912638
-0.008361341 0.059711955 -0.16150585 -0.04825305 -0.3097378 -0.0012640958 0.03784852 0.10591181
-0.11165999 0.26591584 -0.02753022 -0.2772893 -0.115209 -0.01853634 0.11820654 0.036606472
-0.18183818 -0.110148676 0.2290781 -0.055305827 0.09090488 -0.016051022 0.06625125 0.012542276
0.0606653 0.11885494 0.036090065 0.003683132 0.013467988 -0.08896675 0.11142867 -0.07016865
-0.072960146 0.09552094 0.21398011 -0.007582526 -0.022333205 0.06407752 -0.10206878 -0.033236124
-0.14703147 -0.041926734 -0.06222561 0.15156421 0.013210459 -0.04550588 0.06456578 0.17260937
-0.027943747 -0.10499468 0.06655134 0.11790887 -0.10233705 0.060008574 -0.044197027 -0.024280127
-0.09115739 -0.06286783 -0.027598899 -0.20323746 0.063606024 0.15808028 -0.07075436 0.23229356
0.15603384 0.1332599 -0.06760502 -0.115000054 0.013252772 0.04959866 -0.060390264 -0.076473966
-0.17843089 -0.12630312 -0.05530238 0.07685922 -0.053621076 0.014199489 0.028309003 -0.105665244
-0.057110928 0.07560206 -0.17739667 -0.051709533 -0.046199515 -0.023893254 -0.017314881 0.05310721
-0.18607593 -0.14156327 -0.117317975 0.024005516 0.0935781 -0.0003377244 0.009232984 -0.12099269
-0.16305397 -0.115115345 0.07179855 0.13712278 -0.16384916 -0.026374875 -0.04239604 0.04940476
0.011257628 0.11101949 -0.19090027 -0.39260882 0.23693515 0.021630907 0.05421168 0.03332633

network_body._body_endoder.seq_layers.2.bias f4 [128]
00000000: 1d6f 33bc 034f e8bc 235f 753c 14fe ffbd
00000010: f3c4 53bd 870a 14be d124 c23b 2256 08be
00000020: 7554 cbbd fdf4 c03c c22c 91bd 32ac ec3c
00000030: 089c 5fbd 5ff6 9ebb b75f 6bbc 2206 14be
00000040: 4be0 7bbc f51d 64bd 56ac 033d 9765 89bd
00000050: 6615 de3c 18eb 9fbd db03 2ebd 77af acbc
00000060: 6f1f 39be 625f dfbd 0781 07be 5e0c ba3c
00000070: 6b47 ad3a 7e58 87bd 9ddc 7abd 6016 203d
00000080: 9dad 29be b87a 44be 8734 b4bc dca8 80be
00000090: 72f2 34bd b568 f3bd d666 debd ed1f 2fbd
000000a0: d047 13bc 0f33 22be b4e7 6dbe 1536 63bd
000000b0: 3633 bbbd fb5e 81bd 3402 8dbd b744 22be
000000c0: e046 933d 273e 85bc 9af9 a1bd 99e1 79bb
000000d0: 8c15 59be 0f5f 31be 49f6 1abe b21a bb3d
000000e0: 20a5 b6bd 538b 3abd 0784 edbd 0b30 33bd
000000f0: c953 08be ca04 24be adcf 2abe a0c5 dcbd
00000100: 8e6c 2abd 30f8 3bbd bd54 efbd dd38 77be
00000110: 080d 6cbd 67d8 fcbb 0a3f c5bd 8e5a 2abe
00000120: b804 56bd 0bf8 56bd 2cae 4bbe 12d1 113e
00000130: a6c5 b9bc f34b 82bc 5b46 93bd 08a4 0abe
00000140: 40be 44bb 2819 40be 0bff 213d a402 b1bd
00000150: dd6f 29be 5b00 493c 5dee 5fbc d07d 1dbe
00000160: f110 29bd c0f4 07be 3436 65bd b427 0bbe
00000170: f0c7 b8bd 5768 dcbd 36f3 bdbd 4615 1b3d
00000180: cc5d 25be c881 64bc 9403 fcbc 9ecd babd
00000190: 179f acbd 130e abbd 3f05 a0bc c8c1 393d
000001a0: 8464 ac3c ba82 aabd b0d0 573d 814c af3c
000001b0: 18af 34be 0e58 75bd 7c92 3abd 749b 03bd
000001c0: 4234 e3bd aef8 c0bd afb1 1fbe 5d03 21be
000001d0: 39fd 23be 1b79 04be 2fa5 59bd 6fb2 15bd
000001e0: 1327 12be 62ec 05bd ca29 dabc 5769 f93d
000001f0: 7d00 c53c ed82 11be 19f1 e5bd 06cd babd
-0.010951784 -0.028357988 0.014976296 -0.124996334 -0.051701497 -0.14457141 0.005924799 -0.13314107
-0.09928218 0.02355432 -0.07088615 0.028890703 -0.054592162 -0.004851147 -0.014366082 -0.14455464
-0.0153733 -0.05569263 0.032146774 -0.0670883 0.027109813 -0.078085124 -0.042484146 -0.021079762
-0.18078397 -0.10906865 -0.13232814 0.022710975 0.0013220137 -0.066086754 -0.06124555 0.03908384
-0.16570134 -0.19187438 -0.021997703 -0.2512883 -0.044176526 -0.11885206 -0.10859458 -0.042755056
-0.008989289 -0.1583979 -0.23232919 -0.0554715 -0.09140627 -0.06316944 -0.06885186 -0.15846525
0.07191253 -0.016264988 -0.07908936 -0.0038128851 -0.21199626 -0.17321418 -0.15133013 0.09135951
-0.08918214 -0.045543026 -0.11597448 -0.04374699 -0.13313212 -0.16017452 -0.16680785 -0.107798815
-0.041607432 -0.045890987 -0.116860844 -0.24142785 -0.057629615 -0.007716227 -0.09631164 -0.16636106
-0.052250594 -0.052482646 -0.1989066 0.1423991 -0.022677254 -0.015905356 -0.071911536 -0.13539135
-0.0030020624 -0.18759596 0.03954987 -0.08643082 -0.16546579 0.012268151 -0.01366767 -0.15380025
-0.041275922 -0.13276958 -0.055959895 -0.13589364 -0.0902251 -0.10762089 -0.092749044 0.037862085
-0.16149062 -0.013946958 -0.030763425 -0.091212496 -0.084287815 -0.08352294 -0.019533752 0.04535082
0.021044023 -0.08325715 0.052689254 0.021398785 -0.17644918 -0.05989843 -0.045549855 -0.032130674
-0.11093952 -0.09422432 -0.15595125 -0.15723939 -0.16014566 -0.12936823 -0.053136047 -0.03654712
-0.14272718 -0.032696135 -0.026631255 0.12178295 0.024048084 -0.142101 -0.11227626 -0.09121136

action_model._continuous_distribution.log_sigma f4 [1, 2]
00000000: 9b74 bb3e af09 283f
0.366124 0.65639776

action_model._continuous_distribution.mu.weight f4 [2, 128]
00000000: f956 f53d 3449 353e 2d8d 3d3a 995f 8d3d
00000010: c5a6 843d a61e 783d 8363 523d 762b 9f3c
00000020: 6dee 8e3d beed ec3d e24f dc3d 77c7 f5bd
00000030: 79ef ac3c 79c8 433d 4006 b53b ce37 db3c
00000040: 5ee5 ff3d d2a6 2b3c 9788 933d c0c6 e23c
00000050: c98d 883c ee04 fcba 1094 c53b 2916 7e3d
00000060: fe61 6e3d 067c 24bd c15d 60bd ecdd 0d3e
00000070: 367f e83d ec65 1abd f967 fb3c db69 c53c
00000080: 66b0 85bd 891e 6c3d c1b1 083d 65f1 6bbc
00000090: f1fd 4b3c 9959 b23d 3907 0e3d 54d4 813d
000000a0: 46f2 c9bb 56d3 433d da46 943c 5608 cf3d
000000b0: cd5f 5c3c 061b e63c 5907 683d 2a68 263c
000000c0: dc14 2cbb 170c cc3d 5eb0 3e3c ed6f 283d
000000d0: 439a 203c 8fd2 843b 97d7 a7bc 84b7 723d
000000e0: fcac 603d 4812 bc3d 5c57 1d3d 32da 14bc
000000f0: e184 fc3c e2d8 ec3c 1ced 29bb 898d 4ebc
00000100: 388e 0c3d 4e44 b43d 21ed cf3d 989a 5a3d
00000110: 8d91 9cbd b557 aa3c c27e 963c 58b8 903b
00000120: c085 e23d 3878 6a3d 8d14 0ebd 49d4 6fbd
00000130: b25c 8d3d 2de0 c23d 56c5 a13d 2de3 163d
00000140: 2971 a93d 0732 383c 8d34 013e 8463 bf3d
00000150: 6f2b 16bc 3939 cc3a 4504 aebd f86c d5bb
00000160: d8d2 033e 5e26 fb3c b96b f63d c78a 803d
00000170: 6c24 0f3e 687f 9f3d 1e08 933d c1d2 14bd
00000180: f594 303e 2a29 e23c 15ee c9bc 7b50 d6bc
00000190: 2cf9 eb3d 397a c03d 3b70 e93d 6b3b ff3c
000001a0: 528d f23d 2573 55bd 2790 283d ce26 a1bc
000001b0: d906 a93d b255 183d 56e0 6b3d cc82 00bd
000001c0: 93d6 1d3e 66c0 293d 4c98 1f3c baac 85bd
000001d0: 0912 383c 9398 0d3c 9a6f 0f3e a64d 02bd
000001e0: de8d 13bc dee8 6a3d 3998 51bb b252 1fbc
000001f0: bdc1 ac3d 5616 dc3d 9d8f 883c 5859 6b3d
00000200: 338d 7ebd 54f8 13bb 7882 83bd 31e0 84bc
00000210: 6000 893d 61b7 f9bc 1d56 85bd 8ab0 2d3d
00000220: 8b5e 3b3d bef0 c4bd 8bbc 143a 2ff3 cc3d
00000230: fb27 9e3c e0b0 6dbd 24cd 903d c518 6c3d
00000240: d847 dfbd b354 10bd c20a 9abc 5d01 c7bc
00000250: e4c5 3cbc cc52 d3bd 8572 193d 7c3e a9bc
00000260: 2da0 643c a538 db3c 2a91 4c3c 4c7d f9bd
00000270: 5713 87bd cb52 f13c 91b5 aebd c427 223b
00000280: dea3 783d 908a 293a 176a c5bc c399 6b3c
00000290: 9b7a 82bd 972d 8bbd 6d95 74bd f995 9f3c
000002a0: 6492 5bbd 5939 5b3d 778b 6bbc 0758 94bc
000002b0: 4158 cc3d 5476 bdbd a75a 4e3d ce9e cf3c
000002c0: 0c4f dbba 0e60 01be d17a 6bbd 4c28 dfbd
000002d0: 4113 b13c 011b ed3c 0083 0cbd 3245 f6bd
000002e0: 3619 4abc ce92 f2b9 ac83 083d 01ac e5bd
000002f0: 99c9 23bd 3b1e d7bc 9548 62bd ac4b 15bd
00000300: 6aa6 f5bc 8e77 24be 0ab7 a4bd 808e 93bc
00000310: 908f d03b 6532 413d 9c32 873c 928f 313c
00000320: e720 aabc b619 3a3c 87b4 e0bc 8a98 33bd
00000330: fc70 f8bd 52ef 903d ab97 12be 12df cc3c
00000340: 29bd b5bb 0630 793d 9384 3fbe fa95 74bd
00000350: d51a 4b3d 404f f9bc e3e8 123d 539f 91bb
00000360: bf9d 97bd f29c 403d 3aad 243c 5d8e fc3b
00000370: 5001 8bbd cf5e 2e3d cff8 1cbd 06f5 6bbd
00000380: a030 d4bb f15f 01bd 4cea c13d e18d 6fbc
00000390: ecc9 63bd 67c0 8dbd 2d5b f5bd 5cc3 60bd
000003a0: 9ea7 2cbe 2cc5 603d a41b c5bd 0da2 9d3c
000003b0: 5ee1 773d e6ac 9ebb c9c0 96bd a18f 3e3d
000003c0: 8540 cbbc cf08 e3ba a45e 403d 7868 5e3d
000003d0: 8a1d 203d a100 15bd 4d10 9dbc 97e6 0ebd
000003e0: 8f2c 2eba be88 91bd ddc2 1e3d 2413 313d
000003f0: ef5e 13be 1e93 e1bd 87ba 9b3c 1107 c53c
0.11979479 0.17703706 0.00072308147 0.069029994 0.06477121 0.060576104 0.051364433 0.019429903
0.0697907 0.11568783 0.10757424 -0.120009355 0.021110283 0.047798607 0.0055244267 0.026760008
0.1249492 0.010476785 0.07203787 0.027682662 0.01666917 -0.0019227543 0.0060296133 0.062032852
0.05819892 -0.04015734 -0.05477691 0.13854188 0.113523886 -0.037694857 0.030689226 0.024098327
-0.06527786 0.057646308 0.033372644 -0.014400815 0.012450681 0.08708496 0.034674857 0.063393265
-0.0061629144 0.047808968 0.01810019 0.10109012 0.013450575 0.028089058 0.056647632 0.010156671
-0.002625755 0.099632435 0.011638729 0.041122366 0.009802404 0.004053421 -0.020488543 0.059257045
0.05485247 0.09183174 0.03841339 -0.009085225 0.03082508 0.028912012 -0.0025928682 -0.012606987
0.034315318 0.088020906 0.101526506 0.05337009 -0.07644949 0.020793775 0.01837099 0.0044165067
0.11060667 0.057243556 -0.034687568 -0.05855206 0.06902446 0.095154144 0.07898967 0.036837745
0.08273537 0.011242396 0.12617703 0.09345153 -0.009165629 0.0015581019 -0.08496908 -0.006513234
0.128734 0.030657943 0.12032265 0.0627647 0.13978738 0.07787973 0.071792826 -0.036333803
0.17244323 0.02760752 -0.02464966 -0.026161423 0.11522135 0.09398312 0.113983594 0.031156262
0.11843361 -0.052111764 0.0411531 -0.019671824 0.08253259 0.0371911 0.05758699 -0.031374738
0.15413885 0.04144325 0.0097409 -0.065270856 0.011234769 0.008642334 0.14007416 -0.031812333
-0.009005992 0.057350986 -0.00319816 -0.009724306 0.0843539 0.10746448 0.016670043 0.05745825
-0.062146377 -0.0022578435 -0.06421369 -0.016220184 0.06689525 -0.03048295 -0.065105654 0.04240469
0.04574446 -0.096162304 0.0005673847 0.10007321 0.019306174 -0.05803001 0.070703775 0.05764081
-0.10902375 -0.035237025 -0.018803958 -0.024292642 -0.01152179 -0.103185266 0.03746273 -0.020659678
0.0139542045 0.026760409 0.012485782 -0.121821016 -0.06595486 0.029458424 -0.08530725 0.002474294
0.06070315 0.0006467486 -0.02409844 0.014379921 -0.063710414 -0.06795805 -0.059712816 0.019480692
-0.053606406 0.053521488 -0.014376513 -0.018108381 0.099777706 -0.09251085 0.05037942 0.025344279
-0.0016731932 -0.12634298 -0.057490174 -0.10896358 0.021615626 0.02894354 -0.03430462 -0.12024917
-0.012335112 -0.00046267215 0.033328697 -0.11214448 -0.03998718 -0.026259532 -0.055245 -0.03644912
-0.029986579 -0.16061231 -0.080427244 -0.018012285 0.0063647702 0.0471672 0.016503625 0.0108374525
-0.020767642 0.011358669 -0.027429832 -0.043846644 -0.12130925 0.07076897 -0.14315669 0.025008712
-0.0055462313 0.060836814 -0.18702917 -0.05971334 0.049586136 -0.030433297 0.03586663 -0.0044440418
-0.074031346 0.047024675 0.010051066 0.0077074007 -0.0678736 0.042570885 -0.03832322 -0.05760672
-0.006475523 -0.031585637 0.09468517 -0.014621229 -0.05561249 -0.069214635 -0.11980281 -0.05487381
-0.16860816 0.054875538 -0.09624413 0.01924231 0.06051766 -0.0048423884 -0.073609896 0.046523694
-0.024811039 -0.0017321351 0.046965256 0.054298848 0.03909067 -0.036377553 -0.019172812 -0.034887876
-0.0006644213 -0.071061596 0.038760055 0.043231145 -0.14391683 -0.110143885 0.019009842 0.024051221

action_model._continuous_distribution.mu.bias f4 [2]
00000000: e372 bebd 5d59 ecbd
-0.09299257 -0.11540482
