results/physicomimetics_changed_controls/DroneAgent/checkpoint.pt (torch, 976738 bytes, 36 tensors)

network_body._body_endoder.seq_layers.0.weight f4 [128, 180]
00000000: 82c5 c3bd e6c4 a33d 6754 edbc d676 853c
00000010: 18e3 5bbd bb5c 05bd 839d f0bc ec0f e7bd
00000020: 0501 28bd b29d 203e eef6 09bd e920 c53d
00000030: 9c2f 3b3d 8d1e 243d 9f80 34be 3907 70bd
00000040: 5992 3a3d 3ed7 9b3d 2cbc 983c b290 ac3d
00000050: c300 b6bd ef8e 303d e0b0 793d 59e8 3cbe
00000060: a85c b2bd c07e 983c 770c 05be 8193 7a3e
00000070: 946b 27be 00e2 ad3d 432d 15be b217 b83d
00000080: 9412 87bd d0d3 79bd 94ed 823d 54e2 003d
00000090: 2e39 8ebe 1636 11bb 5f8a 20be 390d c4bd
000000a0: 2eda 96bd 3c27 de3d c035 b13d fb19 1cbe
000000b0: 47f9 953c 7e90 a33d 3fea bfbd 3fb7 8dbd
000000c0: 463f c43c 5908 47bd 6428 9fbd fd79 ffbd
000000d0: 5b16 263d 9dbf c03c f960 f1bc e182 b8bd
000000e0: e197 2ebb 7f06 973d 4abf aa3c 822a 393e
000000f0: 186a 84bd 5d40 45bd 91e7 43be 19fd 503e
00000100: e6fb 57be 8283 323e 148b 19bd 5c16 bd3d
00000110: c7a4 79ba c3f9 20bd f81d 15be 0efd 11bd
00000120: 2471 79be b4bc 0f3e bea0 18be 7e41 81bb
00000130: d061 90bc 5c1a cb3d 4ead 1abe 9833 0fbe
00000140: ac04 ca3c a6b9 81bc 23ae 213b 9cc8 38bd
00000150: a6d2 643d 9060 acbd 17f7 1d3e 4418 a9bc
00000160: 033a 21be b8d1 093d 4815 98bc 2868 39be
00000170: 9bcf f2bd 4f94 02be 1668 973a 2cce f3bd
00000180: fdce 88bd a0b7 1b3e 628c 85bb bfcb 273d
00000190: 11cc 893c cb75 6dbd 0a3e ebbc 061f a13a
000001a0: 07e0 c6bd d196 543d 15ca 20be 8440 bc3c
000001b0: 6200 84be ef6f 44bc ae4c e63b e0cd fbbd
000001c0: fd23 15be 2450 7c3c f5e1 e3bd 6721 86be
000001d0: cdcd c0bd a178 5b3e a25f fbbd fff6 073d
000001e0: a9a6 81bd cb37 993d 0e3c 73bd c257 883d
000001f0: d5ef bd3d 1ff1 023d 9da0 0dbc 228f 4abc
00000200: 3a60 dabd 96e3 19be 59de c2bd 3fc0 37bd
00000210: 2221 0ebd 6a8a dabc 9dd8 143e 63e0 a13d
00000220: d1d2 38bc 1511 963d e109 13bd f090 403b
00000230: 849a fdbd 4984 bebd e8e6 1d3d e358 283d
00000240: 592f 2ebe bc21 803d ef95 1bbd eba8 43be
00000250: 6507 e2bb 7cc3 993d e3f1 c1bd 9b64 d9bd
00000260: 3313 8a3d 4af0 3d3e 439d a93c af60 9d3d
00000270: 2b81 0ebe 551b 13be 5b35 603c 4666 253c
00000280: 22cf 1ebe 37b4 19bd 3d87 a8bd d5a3 f13c
00000290: 47a5 8f3c 2199 89bc 4064 92bd 9c1a 26be
000002a0: 00ed f3bd 4709 16ba c325 cebb 9cf6 5fbd
000002b0: 3a95 96bd 6a5b f43d 68b4 d53b 7c8b e2bd
000002c0: 0266 7d3d 0758 e0bd 469f 283d 64df 0f3d
000002d0: 50b0 643e 7ead 093e a091 9cbd 3382 673d
000002e0: cd3d 183e 1a33 0dbe 5364 e83d 77ae a3bc
000002f0: f36b 583c 8874 083e bb5b a63d 2a21 243c
00000300: 5d68 383d fd89 333e 98c4 833d 09af 5e3d
00000310: 6ae6 9c3d 1bd7 d53d b1c9 d03c 12c9 fd3d
00000320: 8cc6 283e d19c e7bb b6c8 ff3d cceb 4abb
00000330: 4db3 a53d 5daf 543d 6203 00bd 6a66 fbbd
00000340: e85c 9b3d 4bfd 203c 992a c23d b980 2c3c
00000350: de6c 91bd 8225 bfbd 9247 233d 5147 6f3d
00000360: a44d a03d 1617 683c 72e3 14be f98f 25bc
00000370: b890 fb3d d889 48bd fc83 593d 8360 bdbd
00000380: b41f b2bc 7495 ab3d 89f7 e73d 9b26 6c3d
00000390: 0173 c9bd 581b c33d 31e9 b1bc afe4 4a3d
000003a0: 5bb4 c13d 6938 883e f5f6 a83d afec 803e
000003b0: 385f d53d 7f68 9bbd 04fa d83d 5311 153d
000003c0: 4ea8 8a3e f46b 09bb abd9 9ebc 6a57 0bbd
000003d0: 805d e33d b1d6 fa3a 133f ec3d 9bc4 bb3d
000003e0: ab28 423c 3078 e13d 8cb1 a7bd 9e41 6abd
000003f0: cdfe a23d d2a7 d43d b422 8f3c 806a 853d
-0.09559156 0.0799654 -0.02897091 0.016292017 -0.05368337 -0.032559138 -0.029371982 -0.11282334
-0.041016597 0.15685156 -0.033682756 0.09625418 0.0456997 0.040068198 -0.1762719 -0.058600638
0.045549724 0.076094136 0.018644415 0.08426036 -0.08886864 0.043105062 0.060959697 -0.18448009
-0.08709079 0.018615127 -0.12993036 0.24470331 -0.16349632 0.08490372 -0.14568047 0.089888945
-0.0659534 -0.060993016 0.06392971 0.031465843 -0.27778 -0.0022157482 -0.15677784 -0.095728345
-0.07365833 0.10847327 0.0865283 -0.15244286 0.018307341 0.07986544 -0.09370851 -0.06919717
0.023955952 -0.048591945 -0.07771376 -0.12474439 0.040548664 0.023528868 -0.029465185 -0.09009338
-0.002664082 0.07374286 0.020843167 0.18082622 -0.06465548 -0.048157085 -0.19131304 0.20409049
-0.21092185 0.17432979 -0.03748615 0.0923278 -0.000952315 -0.03930069 -0.14562213 -0.035641722
-0.24359566 0.14036828 -0.14905068 -0.003944575 -0.017624766 0.09917137 -0.15105173 -0.13984525
0.02466043 -0.015835594 0.0024670444 -0.04511319 0.055864953 -0.08416855 0.15426289 -0.020641454
-0.15744786 0.03364727 -0.018564835 -0.18106139 -0.11856004 -0.12751888 0.0011551406 -0.119045585
-0.06680105 0.15206766 -0.004075573 0.04096579 0.01682094 -0.057973664 -0.028716106 0.0012292571
-0.097106986 0.051901642 -0.15702088 0.022979982 -0.25781542 -0.011989578 0.007028184 -0.12295127
-0.1456451 0.015399966 -0.11127082 -0.2619736 -0.094142534 0.21432735 -0.122741 0.03319454
-0.06330616 0.07481345 -0.059383444 0.066573635 0.0927426 0.031968232 -0.00864425 -0.012363227
-0.10662885 -0.15028223 -0.09515066 -0.044861075 -0.034699567 -0.02667733 0.14535756 0.079041265
-0.011280731 0.07327477 -0.035898093 0.0029383264 -0.12382987 -0.09302575 0.038550287 0.041100394
-0.17010249 0.06256434 -0.037984785 -0.19107406 -0.006897854 0.07507989 -0.09469964 -0.10614892
0.06741943 0.18548694 0.020704871 0.076844566 -0.13916461 -0.14365895 0.013684596 0.010095185
-0.15508702 -0.037525382 -0.0822892 0.029497067 0.017534865 -0.01679665 -0.071480274 -0.16221088
-0.119104385 -0.00057234283 -0.0062911226 -0.054678544 -0.073526815 0.11931498 0.0065217502 -0.11061761
0.06186486 -0.1095429 0.04116752 0.03512515 0.22332883 0.13445088 -0.07644963 0.056520652
0.14867325 -0.13789025 0.1134726 -0.019980652 0.013209331 0.13325703 0.08122965 0.010017673
0.045021404 0.17533107 0.06433982 0.054366145 0.076611355 0.10441419 0.025486799 0.12391867
0.1648199 -0.0070682545 0.124894544 -0.00309633 0.080908395 0.051925052 -0.031253226 -0.12275393
0.0758608 0.009826015 0.09480781 0.010528737 -0.07100843 -0.09333326 0.039863177 0.058417622
0.07827309 0.01416566 -0.14539889 -0.010105127 0.12283462 -0.048959583 0.053104386 -0.09246924
-0.021743633 0.08378115 0.113265105 0.057654005 -0.098363884 0.095267 -0.02171764 0.049534496
0.09458228 0.26605538 0.08250228 0.25180575 0.10418552 -0.075882904 0.10594562 0.036393475
0.2708153 -0.0020968886 -0.019390902 -0.03401891 0.11101818 0.0019137469 0.11535468 0.09168359
0.011850516 0.11009252 -0.08188161 -0.057191484 0.07958756 0.10383572 0.017472602 0.06514454

network_body._body_endoder.seq_layers.0.bias f4 [128]
00000000: ca63 23bd 43eb 923d f419 bfbd 1926 483d
00000010: 7cac 343c c72b 00be 5960 5f3c 9d7f 34bc
00000020: 4b8d bebd e53a 02be ca75 babd c9ab e0bd
00000030: c567 cfbd 32b9 fcbd 5040 3cbe 307d ccbd
00000040: d7f2 2cbd eae5 3bbb 4d30 e6bd 8b27 e5ba
00000050: beaf d8bd ad78 6cbe 4a2c 5d3d 5d63 3d3c
00000060: 0028 65bd 61fc a23b 4c30 00be 9f49 03be
00000070: d9be d7bc 0c5d babc b042 a8bd 3517 2e3c
00000080: 2f3a 06be 780e fabc d3c0 b03d 2b7a a8b9
00000090: 640f a1bd fa88 42be 3275 3ebe 602e 623c
000000a0: 2505 35bd b19d abbd ec81 06be 1130 903b
000000b0: 7198 38be 179e 29be 732c 38be 60fa 8c3c
000000c0: 1570 a2bd e97d c1bd c3c2 0dbe d10b 29bd
000000d0: 525a 36be e42d 6bbe d088 1dbe ee01 c2bd
000000e0: de0c 11be 0717 03be 7cf5 2cbd 9786 83bd
000000f0: 081a 05be d844 35bd ce44 0bbe 2677 3ebe
00000100: 70bd 37be e5e1 ebbd c88d 1abe 4ac7 8cbd
00000110: 39db fbbd 4a02 fdbc 0bcc b83c 3a04 35bd
00000120: 920d 05be 36d7 f1bc 2849 50be 8e3f 04be
00000130: 4ece d4bd 633e 7ebd 8b60 02be 8ba1 17be
00000140: 150e 28be e930 c9bd dcdd b1bb 8d8c 3ebe
00000150: 74f3 9ebd 5f23 91bd 82ee 89be 6952 b73d
00000160: 8585 34be 3e52 25be 3867 84bd 1c3e 9abd
00000170: 2667 0ebe 57af ff3c 4b68 11bd a36c f8bc
00000180: abb7 0cbd e4ca 05be 8958 b0bd c30e 8dbc
00000190: e5b2 66bd 8d0c 70bd d1a2 0abe d31b d3bd
000001a0: 43d3 d4bd d754 3abd 3dfc 8fbd 036c 5fbd
000001b0: 017d 1ebe e545 2bbd a8c1 5cbc aef9 4dbc
000001c0: 2162 efbd 5682 e3bd d100 6ebe 91e8 823b
000001d0: 4e6e 5abe 672c 5dbe 322c f7bd 7cb6 883d
000001e0: e935 62bd ff3f 4cbe e9c9 30be e7e3 17be
000001f0: 825f f4bd 4556 f03c c375 0b3d 1022 12bd
-0.03989009 0.07173779 -0.09331122 0.048864458 0.011027452 -0.125167 0.013633811 -0.0110167535
-0.09304293 -0.12717779 -0.09104498 -0.109702654 -0.10127214 -0.12340011 -0.18383908 -0.09984815
-0.042223778 -0.0028670975 -0.112396814 -0.0017483098 -0.10580395 -0.23092909 0.053997315 0.011559335
-0.05594635 0.0049739336 -0.12518424 -0.12821053 -0.02633612 -0.022749446 -0.08215845 0.01062565
-0.13108133 -0.030524477 0.08630528 -0.0003213448 -0.07864264 -0.18997565 -0.18599394 0.013805002
-0.04419436 -0.083796866 -0.13135499 0.004400261 -0.18026902 -0.16564213 -0.17985706 0.017209232
-0.07931534 -0.094478436 -0.13843827 -0.041271035 -0.17807892 -0.22966725 -0.15384221 -0.09473024
-0.14165065 -0.12801753 -0.0422263 -0.06422155 -0.12998211 -0.044255108 -0.13600466 -0.18600139
-0.17943358 -0.11517695 -0.15093148 -0.06873949 -0.12297673 -0.03088488 0.022558233 -0.044193484
-0.12993458 -0.029521566 -0.20340407 -0.12914869 -0.10390912 -0.062071215 -0.1273214 -0.14807718
-0.16411622 -0.09823782 -0.005428059 -0.18608303 -0.07761279 -0.070868246 -0.2693978 0.08951265
-0.17629059 -0.16144654 -0.06465 -0.07531378 -0.13906536 0.031211538 -0.035499852 -0.03032524
-0.034354847 -0.13065678 -0.08610637 -0.017218953 -0.05632295 -0.05860572 -0.13538672 -0.103080414
-0.103918575 -0.045491066 -0.070305325 -0.054546367 -0.15477373 -0.041814703 -0.013473906 -0.012571735
-0.116886385 -0.11108844 -0.23242499 0.003995009 -0.2133114 -0.2159897 -0.120689765 0.06675431
-0.055227194 -0.19946288 -0.17264523 -0.14833032 -0.11932279 0.029338012 0.034047853 -0.035677016

network_body._body_endoder.seq_layers.2.weight f4 [128, 128]
00000000: 4bfc 15bd e363 3bbe b048 413d 47b4 78bd
00000010: b511 00be b506 23bd 03ff 29be 88d8 3ebe
00000020: e6f1 8ebd 6bec 9b3e b204 d3bd 017e 0ebd
00000030: e909 bdbd 67f5 d03d 07b1 e63d b5d5 2c3e
00000040: 6cd6 153d 74dd 66be 0fba 373d 9e82 dd3c
00000050: 33a4 8abd bfac 52be 1e76 6fbd 4ced 6bbd
00000060: 46f7 f93d f58d 36be 25ac 3bbe 4933 81bc
00000070: 3a76 f33d 48d6 5db9 a953 fdbd 2445 23be
00000080: bba2 7fbe 7c41 bdbd 41b1 18be 0855 1e3d
00000090: 7058 febd 2e82 59be e72e a4bd afb7 453e
000000a0: 6a72 a2bd 31fb 8a3d c06d 903d 2e76 4ebe
000000b0: df28 6dbd c278 49be 5677 443d 7915 403e
000000c0: a47c dc3a a672 28be 8f9c fd3b ac63 093e
000000d0: 9458 4ebd 2b42 02be 0674 3cbd aea8 6a3d
000000e0: 9cc5 803d 9601 6cbe 6434 38be bb32 2ebd
000000f0: e468 c23c e2b3 0f3e 6fdd b5bd d256 07bd
00000100: 95cb 87bd 28ec d8bd c778 e13d 7ed7 9dbc
00000110: 7428 02be 266a 44bd 5498 a13d 48af 02be
00000120: 0dc3 1f3e 9282 8abe 3992 0a3d de81 fdbb
00000130: 4d9d debd ffd8 28bd 4bab dcbd 4999 8d3d
00000140: 2e2b a8bd 885c cb3c 6293 dbbd 564b 2fbe
00000150: 06d1 15be fc15 91be 2288 86be 9b5b f6bd
00000160: 73fa a1bd 7aac a8be 045e bebd 37a8 2f3d
00000170: f614 f3bb bef1 963d ddbf b4ba 4791 c33d
00000180: 1a48 b53c 143e 6bbd d452 8ebd e439 013e
00000190: 5234 22bc 5fa7 ef3d d2b7 07be e78b bebc
000001a0: a7b7 693d 5516 23bd 40ea da3e c223 edbd
000001b0: 8df5 503d 5843 bdbc f0f9 713e 6c93 713d
000001c0: 5a45 4abe 73f4 91ba 5c03 3b3d d3e5 1f3a
000001d0: 3c45 163e 9457 fcbb 992e abbd 5f5a 133e
000001e0: ae25 8a3d af35 3d3c e827 9a3d ec76 0dbd
000001f0: 2ec6 4ebe 7c81 04bd b609 56be 15d6 cdbc
00000200: 4818 99bd 02c5 4ebe 9e42 fabd 67d0 ae3b
00000210: e18b 9cbd 1ee4 3b3c 0cb8 1abd 9e10 7ebd
00000220: 5458 81bd 1848 c93d 452f f23c de46 2b3d
00000230: 3f2b 7c3d f513 41bd af4e e2bb 6356 05be
00000240: af92 9dbd 4068 8a3d d6b6 113e b026 17be
00000250: 1cd0 4b3d b8ae a53d b58b 123e 304e 83bb
00000260: 337c f73c 9f25 d7bb b667 52bc c872 6abe
00000270: fb24 b93d 1936 0dbe b09e 91be b9c6 11be
00000280: 6f2c b6be f0b8 a23c 146b 583d b293 51be
00000290: 92d4 9c3d 685c 193d afd7 c3bd 7597 383e
000002a0: 72fd 133e f871 5fbd 5c9d bf3d 469d 9dbe
000002b0: e201 b43e 5de4 c23d 1a84 6d3c 5f25 9ebd
000002c0: 3014 a7bc 7186 eebd 1439 7fbd 974f bcbd
000002d0: e664 5a3d 3999 f13d d34c 7b3c 5e39 ed3d
000002e0: 8023 92be a394 74bd e48e edbb 39a1 65be
000002f0: 69a0 333b 60b6 cebd 95d2 c9bd c513 a0bd
00000300: 4084 a5bd 7776 8ebe a0db cb3c e974 e03d
00000310: cb47 d3bc 0917 b6bd c06a 72bd 2e83 a03c
00000320: b6ae 60bc e10a 87bc 7c2e 1ebd c76b 003e
00000330: 24af 7dbe 5767 50be b37c b8bd 30cb d7bd
00000340: 5d53 bf3c fec0 64be f508 d3be 3f27 75bc
00000350: 6700 bdbc 101b 83be 0684 553b 70c8 62bd
00000360: 6cf6 21bb 04ea 2abd f970 013e 2635 dcbd
00000370: 03ff 1abd bca4 2ebe 0ea4 83bd a7d6 00bd
00000380: bb81 de3d 3660 24bd ca17 e53b 0864 023e
00000390: 22dd 9a3d 8ddd 92be 0f6f 8bbd dc61 013e
000003a0: 1ba2 edbd 8e94 5e3d 83b7 8bbd 81fc 85bc
000003b0: 77c9 df3d 308c f0bd c2a3 66bd d3d8 19bd
000003c0: 0e7a 8fbd b2e7 963d 6844 c53d 7893 b8bd
000003d0: cf4e b7bd 54eb b43c 9433 e9be 3d9d b63d
000003e0: 9fc6 b9bd 3f56 433d d78a 803d 5de3 493e
000003f0: ad97 c33c 49c1 cd3b 78f5 7c3d fae6 98be
-0.03661756 -0.18299823 0.04718846 -0.0607188 -0.12506755 -0.03980132 -0.16601186 -0.18637288
-0.06979732 0.3045381 -0.1030363 -0.034788135 -0.09230406 0.10203057 0.11264234 0.16878398
0.03658144 -0.22545415 0.044855174 0.027039822 -0.067696 -0.2057371 -0.058462255 -0.05759935
0.12205367 -0.1782759 -0.18327387 -0.015771525 0.11887784 -0.00021156028 -0.123694725 -0.15944344
-0.2496442 -0.09241006 -0.14911367 0.03865531 -0.12419212 -0.21241066 -0.080167584 0.19308351
-0.07931979 0.06786192 0.07052183 -0.2016227 -0.057900306 -0.19674972 0.04796537 0.18758191
0.0016821814 -0.16449985 0.0077396105 0.13416928 -0.050377443 -0.12720554 -0.046009086 0.05728977
0.06287691 -0.2304748 -0.17988735 -0.04252885 0.023731656 0.14033464 -0.08880126 -0.033041783
-0.06630627 -0.10591918 0.110093646 -0.019267794 -0.12710744 -0.047952794 0.078903824 -0.12762177
0.1560175 -0.27052742 0.033830855 -0.0077364286 -0.108698465 -0.04122257 -0.10774859 0.069140024
-0.08211361 0.024824396 -0.107214704 -0.17118582 -0.14630517 -0.28337085 -0.26275736 -0.12029191
-0.079090975 -0.3294409 -0.09295276 0.04288503 -0.00741827 0.073703274 -0.001379009 0.09549194
0.022129107 -0.05743225 -0.06949392 0.1261974 -0.009900169 0.117018454 -0.13253716 -0.02326007
0.05705991 -0.03981622 0.42756844 -0.11579086 0.051015425 -0.023103401 0.236305 0.058978483
-0.19753018 -0.0011135474 0.0456575 0.0006099615 0.14674848 -0.00770087 -0.08358497 0.14389943
0.06745468 0.011548444 0.07527143 -0.03453724 -0.20192787 -0.03235005 -0.20902142 -0.025126496
-0.074753344 -0.2019234 -0.122197375 0.005334902 -0.07643867 0.011467962 -0.037773177 -0.062027566
-0.063156754 0.09828204 0.029563555 0.04181563 0.06156468 -0.047138173 -0.0069063525 -0.13021235
-0.07693993 0.06758165 0.14229903 -0.14760852 0.049759015 0.080899656 0.14311107 -0.0040071234
0.03021059 -0.006565764 -0.012842109 -0.22895348 0.090402566 -0.13790168 -0.2844138 -0.14235963
-0.35580775 0.019863576 0.052836493 -0.20466498 0.07657732 0.03744164 -0.09562623 0.18026526
0.1445215 -0.05455205 0.09356186 -0.30784053 0.35157686 0.09516213 0.0144968275 -0.07721972
-0.020395368 -0.116467364 -0.062310293 -0.09194868 0.05331888 0.11796803 0.015338141 0.115832075
-0.2854271 -0.059712064 -0.0072497 -0.22424783 0.0027408844 -0.10093379 -0.098546185 -0.07816271
-0.08081865 -0.27824757 0.024884999 0.10959799 -0.02579107 -0.08891112 -0.059183836 0.019593801
-0.013713529 -0.01648468 -0.03861855 0.12541114 -0.24773842 -0.20351921 -0.090081595 -0.10536802
0.02335518 -0.22339246 -0.4121777 -0.01496297 -0.02307148 -0.25606585 0.0032579913 -0.055366933
-0.002471353 -0.04172708 0.12640752 -0.10752325 -0.037840854 -0.17055029 -0.06427775 -0.03145471
0.10864588 -0.040130816 0.0069913613 0.12733471 0.07561709 -0.28684655 -0.06808292 0.12634987
-0.11603185 0.05434089 -0.068221115 -0.016355755 0.10927098 -0.11745489 -0.056308515 -0.037560295
-0.07005702 0.07368411 0.09632188 -0.090125024 -0.089505784 0.02208487 -0.45547163 0.089167096
-0.09071087 0.047689673 0.062764816 0.19715638 0.023876036 0.006279145 0.061757535 -0.2986372

network_body._body_endoder.seq_layers.2.bias f4 [128]
00000000: 3613 1bbe 2a1c ffbc fe05 3cbe b3b9 c7bd
00000010: dfd9 36be 7af6 00be 9801 113b ce92 14be
00000020: c4bb 68be 070b c5bd 949e 8dbd 9ee4 79bc
00000030: 983c 69bc 0470 cfbb 7d33 6cbd e710 1dbe
00000040: 6a28 4dbe c0bb f0bb f314 133d fd6b 5e3b
00000050: acdb 2abe 9a8b 09be db2e 90bd 66c0 a8be
00000060: 3b91 c1bb 96c9 08be cfc7 37be d7bc c2bd
00000070: e232 35be 09c9 a5bd 0ef3 62bc 467e cbbd
00000080: 1ea6 21bb 9256 41bd 047c 5ebd 2498 b7bd
00000090: 4513 dabd 1ebf 57be d248 d73b e355 48bd
000000a0: 5bb2 68be 77da 0dbe 44ae 15be e380 f43b
000000b0: 857b dcbd e840 ae3b 4fc6 1c3d 2dc4 32be
000000c0: 3441 7a3c 727f fabd cefd 98bc 810a a5bd
000000d0: 1c38 fbbd aa9c 25be 6c46 95bd 7cf2 03be
000000e0: fb5d 45bc 00c8 33be d790 23be 06b1 0fbe
000000f0: 0f3d 073c 59ba 0cbd c291 6e3d 7b77 49be
00000100: 2744 41be 9d9a 01be 5a68 8abc fe76 c4bd
00000110: e4e9 44be c616 8abd 44da 1fbe 2b35 a8bd
00000120: b5cf aabd 03e9 23be 2df4 a5bd 4917 943d
00000130: d290 20be 4c4b 40bd 5988 2abd ed54 98bd
00000140: 8f2c 12be 27bc 52be bbc4 50bc 2aa0 81bd
00000150: 3577 97be 211d 94bd 2ddf 5c3d e1ee 17be
00000160: e201 7bbd d1a6 52bc 28c5 963c c2dd b6bd
00000170: 7727 75be 85b8 50be 972a 1fbe 393a c5bc
00000180: d0c4 d7bd b568 81bd 97f4 30be e900 abbd
00000190: 10d0 adbd 475b 1cbc 316f 52bc 8897 2a3c
000001a0: a098 59bd 82ab 8fbd e4d3 463d 6b87 88bd
000001b0: 60f8 40bd af97 54bd 3aa9 febd 1062 acbd
000001c0: b437 c5bd 5db9 6cbe 4622 e83d a7e1 77be
000001d0: c53a 39be 6bbc 67be 8016 59bd 8c98 453d
000001e0: f1e5 4cbe 9a06 b1bd 576d 19be d3c0 34bc
000001f0: c9b2 0cbe 378b a0be 9d75 7fbc c04a 05be
-0.15144047 -0.03114136 -0.18361661 -0.09752216 -0.17856549 -0.12594023 0.0022126194 -0.14509127
-0.22727877 -0.09621244 -0.06915012 -0.0152522605 -0.014235638 -0.006330492 -0.05766629 -0.15338479
-0.20034948 -0.0073466003 0.03590865 0.0033938878 -0.1668536 -0.1343216 -0.07040187 -0.32959288
-0.0059072054 -0.13358149 -0.17947315 -0.095086746 -0.17695192 -0.08094985 -0.013851894 -0.09936194
-0.0024665664 -0.0472017 -0.05431749 -0.089645654 -0.106482066 -0.21068999 0.00656996 -0.048910033
-0.22724287 -0.13852869 -0.14617258 0.0074616536 -0.10765747 0.005317796 0.03827506 -0.17457648
0.015274335 -0.122313395 -0.018675711 -0.08058644 -0.122665614 -0.16173044 -0.072888225 -0.12885469
-0.0120463325 -0.17556763 -0.15973221 -0.14032373 0.008254304 -0.034357402 0.058244474 -0.19674484
-0.18873654 -0.12656637 -0.016895462 -0.095930085 -0.19229847 -0.06742625 -0.15610605 -0.08213266
-0.08340398 -0.16006856 -0.081032135 0.07231004 -0.15680245 -0.04694681 -0.041633938 -0.07438073
-0.1427481 -0.20579587 -0.012742217 -0.06329377 -0.29583135 -0.072321184 0.053923775 -0.14837219
-0.061281092 -0.012857155 0.018404558 -0.08929016 -0.23940836 -0.20382889 -0.1554359 -0.024075614
-0.10535586 -0.063187994 -0.17280804 -0.08349783 -0.084869504 -0.009543247 -0.012843893 0.010412104
-0.05312407 -0.070151344 0.04854192 -0.06666454 -0.04711187 -0.05190247 -0.12434621 -0.084171414
-0.09629765 -0.23117585 0.11334662 -0.24207173 -0.18088825 -0.2263047 -0.052999973 0.048241183
-0.2000959 -0.08643837 -0.14983116 -0.011032301 -0.13740076 -0.31356212 -0.015592006 -0.13016796

action_model._continuous_distribution.log_sigma f4 [1, 2]
00000000: 2c2e b5bd fbf6 1f3d
-0.08846697 0.0390539

action_model._continuous_distribution.mu.weight f4 [2, 128]
00000000: bee6 acbd 1e36 d9bc f5fb adbd 2aed 6cbd
00000010: ffc9 b9bb 61ac 323b b75c c5bd 5854 c13c
00000020: 2f1e 3abd 0149 893d 8a2c 483c 9d96 053d
00000030: bed1 d9bd 915a 4e3d 7b6f 57bd 992d 493d
00000040: 5c8d f5bb e749 afbd b216 583d cc1b 8b3c
00000050: d62e 0b3d 9e72 d1bc 4fae de3d 0b63 a63c
00000060: c074 11be 4d0e 393d 6774 19bd f706 d6bc
00000070: 965f 8ebd b13a fcbc 276f 67bc b3b5 fa3c
00000080: e50f 07bd 45ec 663d f9ab 20bd 9908 e03c
00000090: 3487 7d3c 46ba 57bd 72ec 533d 0b53 7bbb
000000a0: 8aa6 573c a070 2bbc 76e2 173d dd7e 1cbe
000000b0: 8cd8 33bb a071 81bd beeb 4bbd fec4 2f3c
000000c0: a85b 113d 66c2 e13c a7c7 adbc 3a9d 22bc
000000d0: 4956 3cbd 75d6 51ba 4dd2 32bd 4aea 52bc
000000e0: 807b f33d e92f 0d3d 3435 69bd 9f3a 0bbd
000000f0: 148f 11bd 76ce b8bb e6ec 0cbd 757c b83c
00000100: 2f7e b0bc ce68 2f3d 9869 e7bc 8b8f ac3d
00000110: b03a 6c3c 05c2 4ebd 23cd 84bc d6da 97bb
00000120: 89f5 9fbb f320 b3bc fd4d 08bd 43a5 903c
00000130: 99f5 d23c c113 3bba 715c fa3c 6aad bdbd
00000140: 09d7 d33c 66f7 993c bd33 b9bd 5c4b 343d
00000150: 1228 7c3d 546e ce3b 65e0 edbc d913 e93c
00000160: ba61 38bc abdb e43c cc5d 173e ee54 cebb
00000170: a32f dabc c425 29bd 1591 51bd 7884 1ebb
00000180: 612c 273b d37a a23c 7721 1abc f131 f8bc
00000190: 9114 303d 327e 9f3d 8db7 0cbd f5d1 2ebd
000001a0: 65de 6abd d768 7cbc 9199 923d c315 a6bd
000001b0: affe 943c ed22 38be 5ab6 91bd 6e4f 043e
000001c0: 6ef5 8bbc 5f1c 9dbc c7b0 87bd 95a6 013d
000001d0: 8de3 5abd 9c4f 863c 36cd dbbc 84dd 6abd
000001e0: c417 58bd d29f 0bbd 7225 0b3c 3f88 0cbd
000001f0: d871 41bc 8bee 9abb c4fc 6bbd 374e a63c
00000200: 5f78 ed3c 3540 01bd 33a5 aebc 0ca3 573d
00000210: 8560 b93c dd6a a23d a1ee ec3d 6533 fb3d
00000220: a336 f53b 6e3b 053e d6cc 403c d1a2 9abd
00000230: 8fae 5cbd c153 5e3c 06f0 a53a 893b 083e
00000240: 4a98 293d 42b6 efbb f7b8 91bd 577b 06be
00000250: 4cf3 153d 9ef7 1b3c 02ca 3f3b 76a5 9e3d
00000260: 329c 4dbc ad79 1a3d 1f66 543c a686 53bd
00000270: 69e9 b63c 0e8b 1d3e aa94 67bd bcb5 553d
00000280: 8e11 00be 4eb9 eabb 5cac cf3d 4399 223d
00000290: ed5d d33c 8037 6e3d 7fad 0d3d 1999 83bd
000002a0: 7215 21bd ec93 d03d 803a d2bd 8942 90bd
000002b0: 4020 ab3d 2696 c63c a00a e6bd c08e 76bd
000002c0: 65d3 73bc 3e69 653d eecd 90bc 6600 bb3d
000002d0: f50b fd3c 2075 973d a8ea 233d f753 263d
000002e0: 2914 6dbd 5435 da3c acdd 8a3d 97c7 f83d
000002f0: 1b90 003d 2fe6 b5bd 0021 e2bd 4dc1 bfba
00000300: b96c 3d3c 63dd 15bd be9b e33d 521c b1bc
00000310: 3c3e 193d 9587 07ba 92f3 2abd a747 443d
00000320: bc0f bf3c 9241 ce3d 24c0 c43d e031 68bd
00000330: ecdc 1ebc fa37 c53d 2966 e9bd 19ed 9f3c
00000340: 79f7 cb3d 06ad 703d 04a9 c13d 3bcd c63d
00000350: fceb 9e3d e302 90bd d2e7 b83d 10e3 0cbc
00000360: e1e6 133c b75c 8f3d 2ff9 acbd c377 13bd
00000370: f98a 7a3d 472c 7dbc 7cc5 ff3d 3cca 053e
00000380: 2e52 123a da37 873d de63 9a3d 49ec 493c
00000390: 043b 523d 3f0c bd3d 663a e9bc 2b95 13bd
000003a0: 8b44 9f3c d232 87bd 37a2 403e 5b55 0b3d
000003b0: 56c1 09be 5534 003e 9329 143e d03c c23c
000003c0: 1578 ebbd 0f7e ff3b 7e93 adbd bc55 843d
000003d0: 2dee 413d 0c29 013d f9cb 4fbc 87cd 29bd
000003e0: 5e5c 2b3d 8e59 b43d 428e 103c 8628 413c
000003f0: ebaf ee3c eb89 24ba 7599 0f3c fa7c 493c
-0.08442448 -0.026515063 -0.084953226 -0.057843365 -0.0056698318 0.002726339 -0.096368246 0.023599789
-0.04543894 0.067033775 0.01221765 0.03261434 -0.10635708 0.05037934 -0.05259655 0.04911575
-0.007493658 -0.08559018 0.05275602 0.016981028 0.033980213 -0.025567349 0.108730905 0.0203109
-0.14204693 0.045179654 -0.037464526 -0.026126368 -0.06951825 -0.030789705 -0.014125622 0.030604219
-0.032974143 0.056377668 -0.039226506 0.02734785 0.0154741295 -0.05266788 0.051739164 -0.0038349058
0.013162265 -0.010463864 0.037081204 -0.1528277 -0.0027442304 -0.063205004 -0.04978537 0.010728119
0.0354878 0.027558517 -0.021213366 -0.009925181 -0.045980725 -0.0008004674 -0.04365759 -0.012873242
0.1188879 0.03446952 -0.056935504 -0.033991452 -0.03553684 -0.0056398464 -0.03440561 0.022520283
-0.021544544 0.04282456 -0.028248593 0.08425816 0.014418289 -0.050478 -0.016211098 -0.0046342416
-0.004881565 -0.021866297 -0.0332775 0.017656928 0.025751876 -0.00071364274 0.030561658 -0.09261592
0.025859373 0.018794727 -0.090430714 0.04401718 0.06156165 0.006299773 -0.029037664 0.028451847
-0.011253769 0.027936777 0.14781874 -0.0062967455 -0.026634043 -0.04129578 -0.05116375 -0.0024187844
0.002550863 0.019833958 -0.009407393 -0.030297251 0.042988364 0.07787742 -0.034354735 -0.0426807
-0.057341 -0.015405855 0.07158197 -0.081096195 0.018187849 -0.17982073 -0.07114859 0.12920925
-0.017084803 -0.019178567 -0.066255145 0.031653006 -0.053439666 0.016395383 -0.02683125 -0.05734016
-0.05275704 -0.034087963 0.008492814 -0.034309622 -0.011806928 -0.0047281436 -0.057614103 0.020300968
0.028988061 -0.031555373 -0.021319008 0.052645728 0.022629032 0.07930539 0.11568952 0.12265662
0.00748332 0.13010952 0.011767587 -0.07550586 -0.05387741 0.013569773 0.0012660034 0.13303961
0.041405 -0.007315428 -0.07115357 -0.13132988 0.03660898 0.009519486 0.0029264693 0.07746403
-0.012549447 0.037713695 0.012963801 -0.051642083 0.022328096 0.15385076 -0.05653826 0.05217527
-0.12506697 -0.0071632033 0.10140297 0.039696943 0.025801623 0.058158398 0.034589287 -0.064256854
-0.039327092 0.10184464 -0.10265064 -0.070439406 0.083557606 0.024241518 -0.11232495 -0.06019473
-0.014881943 0.05600857 -0.01767632 0.09130935 0.03088949 0.07395387 0.040018708 0.04060742
-0.057880554 0.026636757 0.06780562 0.12147444 0.03138743 -0.08881795 -0.110414505 -0.0014629752
0.011561566 -0.036588084 0.1111369 -0.02161995 0.037412867 -0.00051700446 -0.041736193 0.047919895
0.023322932 0.100711 0.096069604 -0.05668819 -0.009696227 0.09629817 -0.11396439 0.019522237
0.09959311 0.058758758 0.09456065 0.09707113 0.07759854 -0.070318006 0.09028591 -0.008599058
0.009027214 0.07000106 -0.084459655 -0.036002886 0.06116769 -0.015452451 0.12488839 0.13065428
0.0005581704 0.0660245 0.075385794 0.012324401 0.051325813 0.092308514 -0.02847023 -0.03603093
0.019441864 -0.0660149 0.1881188 0.03401695 -0.13452658 0.12519963 0.14468984 0.023710638
-0.11497513 0.00779701 -0.084753975 0.06461665 0.047346283 0.031533286 -0.012682908 -0.04145577
0.041836135 0.08806144 0.008822979 0.011789447 0.029136619 -0.0006276655 0.008764614 0.012297863

action_model._continuous_distribution.mu.bias f4 [2]
00000000: b6a9 b8bb 68ba 2f3d
-0.0056354655 0.04290238

exp_avg f4 [128, 180]
00000000: 9434 92b7 63d8 c7b9 e7ee 27b7 cb12 1ab9
00000010: 3e22 0438 5d17 54b5 3025 0438 e90b 63b5
00000020: 7d24 0438 f22b eab3 6f24 0438 0000 0000
00000030: 6f24 0438 2a59 f92a fd7b 0338 dd54 9435
00000040: 7124 0438 c093 9b2e 6f24 0438 4348 d9ae
00000050: 6f24 0438 4d9a 1cac 6f24 0438 9ff4 80aa
00000060: 6f24 0438 257f 18ac 6f24 0438 a5db c2ab
00000070: 6f24 0438 885e acaa 6f24 0438 0000 0000
00000080: 6f24 0438 0000 0000 6f24 0438 0000 0000
00000090: 42ca 78b7 357f cdb9 47f1 23b7 eb96 1ab9
000000a0: f418 0438 3827 3db5 7d24 0438 69a9 5eb5
000000b0: 4222 0438 675e 10b4 9321 0438 0000 0000
000000c0: 9321 0438 c64c f62a 7961 0338 55a1 dc35
000000d0: 9a21 0438 5b9e ad2e 9621 0438 926f ccae
000000e0: 9321 0438 4dc8 602b 9321 0438 d7ef b5ad
000000f0: 9321 0438 1331 b6aa 9321 0438 c05e 31ab
00000100: 9321 0438 8784 1aab 9321 0438 0000 0000
00000110: 9321 0438 0000 0000 9321 0438 0000 0000
00000120: 50b5 d4b7 4ca8 d5b9 89f4 1fb7 2551 1bb9
00000130: fb10 0438 7fb8 80b5 0421 0438 bea1 50b5
00000140: 321c 0438 2835 7bb3 dd1a 0438 0000 0000
00000150: e11a 0438 ef3b c32a e739 0338 e0e3 1b36
00000160: e71a 0438 1849 f22e e71a 0438 6144 9dae
00000170: e11a 0438 abe8 442d e11a 0438 f469 da2d
00000180: dd1a 0438 5749 40ab e11a 0438 a044 a2ab
00000190: e11a 0438 7c9f 7eab dd1a 0438 0000 0000
000001a0: dd1a 0438 0000 0000 dd1a 0438 0000 0000
000001b0: 1c7a 1ab7 7478 d8b9 70a9 1bb7 f8b2 1bb9
000001c0: 6624 0438 7f52 33b5 2239 0438 731e 67b5
000001d0: 7b2e 0438 69d3 4eb4 142c 0438 0000 0000
000001e0: 142c 0438 d905 a02a 7e22 0338 f382 1136
000001f0: 1e2c 0438 30d0 242f 1e2c 0438 42e8 40ae
00000200: 172c 0438 3041 d82d 142c 0438 e062 c12c
00000210: 142c 0438 f14a 35ab 142c 0438 1f5b f0ab
00000220: 142c 0438 901e ceab 142c 0438 0000 0000
00000230: 142c 0438 0000 0000 142c 0438 0000 0000
00000240: ae3d c0b5 6f0b e4b9 a6f8 17b7 2ad5 1bb9
00000250: bb24 0438 bc06 3ab5 7738 0438 ae6c 36b5
00000260: 8c37 0438 2bee 35b2 4837 0438 0000 0000
00000270: 4c37 0438 feb8 b52a 5331 0338 0da9 6435
00000280: 020e 0438 eeab bd33 5436 0438 7e2f 6d35
00000290: 4f37 0438 5406 0b2e 4c37 0438 82f1 512e
000002a0: 4837 0438 24c5 0d2b 4c37 0438 3b2a d7ac
000002b0: 4c37 0438 cd1e 3aac 4837 0438 0000 0000
000002c0: 4837 0438 0000 0000 4837 0438 0000 0000
000002d0: e27b 55bb 562b c6ba 862d 8aba 5423 27ba
000002e0: 35fa ebba 02b5 8b35 cdfa ebba d0f1 9635
000002f0: dff8 ebba 52d3 7735 a6f8 ebba 0000 0000
00000300: a617 ecba da78 92b6 ef96 ecba e78a 9f38
00000310: 312f ecba af9a c6b7 1e4b ecba 30eb e0b7
00000320: cc28 ecba 9866 d5b7 760f ecba d8f8 c2b6
00000330: b6f0 ebba dd4c 7a36 3525 ecba 8276 5d36
00000340: 6be1 ebba c16a 82b5 a6f8 ebba 0000 0000
00000350: a6f8 ebba 0000 0000 a6f8 ebba 0000 0000
00000360: 54ae 57bb 4e88 c9ba f086 8aba ec2e 28ba
00000370: d7f9 ebba 96da 7a35 d8fa ebba 6d99 9335
00000380: e7f8 ebba b5c8 2835 a9f8 ebba 0000 0000
00000390: c520 ecba c77a a5b6 ce84 ecba c1c7 2139
000003a0: be3a ecba ab88 d5b7 655b ecba 7ae6 f1b7
000003b0: 4935 ecba 8c34 eeb7 3314 ecba 972e 4036
000003c0: 5303 ecba 9576 17b7 6505 ecba f6e5 d2b5
000003d0: 9de9 ebba 4dad bdb3 a9f8 ebba 0000 0000
000003e0: a9f8 ebba 0000 0000 a9f8 ebba 0000 0000
000003f0: 5ca8 52bb 2ff5 baba 0ae0 8aba 08b0 28ba
-1.742904e-05 -0.00038117458 -1.00095995e-05 -0.00014693585 3.1503143e-05 -7.901015e-07 3.1505886e-05 -8.458142e-07
3.1505235e-05 -1.0904468e-07 3.1505184e-05 0.0 3.1505184e-05 4.4293155e-13 3.1348307e-05 1.1051558e-06
3.150519e-05 7.0748296e-11 3.1505184e-05 -9.880854e-11 3.1505184e-05 -2.2254587e-12 3.1505184e-05 -2.2907108e-13
3.1505184e-05 -2.1671079e-12 3.1505184e-05 -1.3845493e-12 3.1505184e-05 -3.0618932e-13 3.1505184e-05 0.0
3.1505184e-05 0.0 3.1505184e-05 0.0 -1.4829044e-05 -0.00039195424 -9.771734e-06 -0.00014742806
3.1494492e-05 -7.046506e-07 3.1505235e-05 -8.294797e-07 3.1503158e-05 -1.3445388e-07 3.150252e-05 0.0
3.150252e-05 4.375165e-13 3.1323612e-05 1.6438231e-06 3.1502546e-05 7.895259e-11 3.150253e-05 -9.296665e-11
3.150252e-05 7.985876e-13 3.150252e-05 -2.0683828e-11 3.150252e-05 -3.2363747e-13 3.150252e-05 -6.3014524e-13
3.150252e-05 -5.489571e-13 3.150252e-05 0.0 3.150252e-05 0.0 3.150252e-05 0.0
-2.53568e-05 -0.00040751917 -9.534074e-06 -0.0001481218 3.1487067e-05 -9.590439e-07 3.1502e-05 -7.7721404e-07
3.149751e-05 -5.8488837e-08 3.149627e-05 0.0 3.1496285e-05 3.4680546e-13 3.128676e-05 2.322944e-06
3.1496307e-05 1.101787e-10 3.1496307e-05 -7.15168e-11 3.1496285e-05 1.1192973e-11 3.1496285e-05 2.4830783e-11
3.149627e-05 -6.831388e-13 3.1496285e-05 -1.152984e-12 3.1496285e-05 -9.0460256e-13 3.149627e-05 0.0
3.149627e-05 0.0 3.149627e-05 0.0 -9.207546e-06 -0.00041288475 -9.27817e-06 -0.00014848623
3.150515e-05 -6.6802744e-07 3.152446e-05 -8.6098515e-07 3.151454e-05 -1.9262156e-07 3.1512303e-05 0.0
3.1512303e-05 2.8425767e-13 3.1264957e-05 2.1682906e-06 3.151234e-05 1.4989676e-10 3.151234e-05 -4.3862032e-11
3.1512314e-05 2.4585306e-11 3.1512303e-05 5.4963673e-12 3.1512303e-05 -6.440812e-13 3.1512303e-05 -1.7078317e-12
3.1512303e-05 -1.4645663e-12 3.1512303e-05 0.0 3.1512303e-05 0.0 3.1512303e-05 0.0
-1.4323066e-06 -0.00043496068 -9.058194e-06 -0.00014861362 3.150546e-05 -6.93002e-07 3.152384e-05 -6.7958433e-07
3.1522985e-05 -1.058974e-08 3.1522737e-05 0.0 3.152275e-05 3.2280423e-13 3.127877e-05 8.518262e-07
3.14843e-05 8.832272e-08 3.152185e-05 8.835849e-07 3.1522763e-05 3.161056e-11 3.152275e-05 4.77356e-11
3.1522737e-05 5.036685e-13 3.152275e-05 -6.115356e-12 3.152275e-05 -2.6449288e-12 3.1522737e-05 0.0
3.1522737e-05 0.0 3.1522737e-05 0.0 -0.003257506 -0.0015119116 -0.0010542131 -0.0006375809
-0.0018003645 1.0408987e-06 -0.0018003822 1.1246248e-06 -0.0018003247 9.232218e-07 -0.001800318 0.0
-0.0018012419 -4.365208e-06 -0.0018050353 7.6075834e-05 -0.0018019435 -2.367547e-05 -0.0018027758 -2.6812399e-05
-0.001801753 -2.5439353e-05 -0.0018009979 -5.8106198e-06 -0.0018000815 3.7297643e-06 -0.001801646 3.3000547e-06
-0.0017996257 -9.716824e-07 -0.001800318 0.0 -0.001800318 0.0 -0.001800318 0.0
-0.0032910304 -0.0015375705 -0.0010568779 -0.00064156833 -0.0018003535 9.345034e-07 -0.0018003834 1.0997006e-06
-0.0018003256 6.2876944e-07 -0.0018003184 0.0 -0.0018015137 -4.9316764e-06 -0.001804495 0.0001542857
-0.0018022878 -2.545522e-05 -0.0018032609 -2.8836763e-05 -0.0018021251 -2.839628e-05 -0.0018011391 2.8637348e-06
-0.0018006362 -9.027911e-06 -0.0018006979 -1.5713147e-06 -0.0017998699 -8.8325216e-08 -0.0018003184 0.0
-0.0018003184 0.0 -0.0018003184 0.0 -0.0032143807 -0.0014263744 -0.0010595333 -0.0006434922

exp_avg_sq f4 [128, 180]
00000000: 9d98 ec37 30ae 0c39 18bb 5f36 f9f8 9d3a
00000010: 1a22 6d36 6c42 e639 13bd 9136 805a 0d3a
00000020: 3335 b036 8702 9039 ab32 c236 0000 0000
00000030: 8838 9e36 86dc 8136 d591 9436 ec12 7736
00000040: 9a01 a136 a8da ad36 9392 ae36 d75d d936
00000050: d6b3 b036 b99f 9c36 097f ac36 26d7 e635
00000060: c131 c236 506a 8d2f ac32 c236 dc88 742e
00000070: 9e32 c236 9adb 012d ab32 c236 0000 0000
00000080: ab32 c236 0000 0000 ab32 c236 0000 0000
00000090: 098a ef37 11ec 0e39 cfb4 6336 a328 9f3a
000000a0: 1d05 6e36 1d47 e639 6cd4 9236 42c4 0c3a
000000b0: 99c2 b036 7ca4 8e39 be90 c236 0000 0000
000000c0: 6f39 9e36 ec56 8436 6d7e 9436 d909 7336
000000d0: d482 a036 2358 8936 e3e8 ae36 0b10 d536
000000e0: 5719 b236 78d7 aa36 1321 a936 3d1d fc35
000000f0: d78f c236 dfaf 842f c190 c236 36e6 762e
00000100: b490 c236 08a9 012d be90 c236 0000 0000
00000110: be90 c236 0000 0000 be90 c236 0000 0000
00000120: 1db2 f337 0fa0 1139 225c 6836 35fc 9f3a
00000130: 4013 7336 dd34 e839 b674 9536 38d4 0c3a
00000140: 8983 b336 12fb 8939 4c42 c536 0000 0000
00000150: b59b a036 1663 8236 12c1 9636 d346 8936
00000160: 0c57 a236 cd49 a236 30ae b136 84d6 ca36
00000170: 3ac0 b136 1507 8d36 a1d3 b036 a46e bc35
00000180: 5d41 c536 bfdb 802f 5242 c536 d7ba 752e
00000190: 3b42 c536 d6d8 002d 4c42 c536 0000 0000
000001a0: 4c42 c536 0000 0000 4c42 c536 0000 0000
000001b0: 80b2 f837 5df4 1339 5f1b 8936 6446 a63a
000001c0: 96a9 8c36 4fbf e239 2dc5 a736 3463 0b3a
000001d0: 21fe c736 564d 8b39 d613 da36 0000 0000
000001e0: 5b30 b536 9a57 8036 4222 ab36 4d77 8436
000001f0: 5f42 b636 2335 b136 7983 c636 fed2 c636
00000200: 63d9 c536 d7ea 8936 746a c336 a590 ce35
00000210: db12 da36 0b27 7b2f e913 da36 7c10 7d2e
00000220: c913 da36 dff5 ff2c d613 da36 0000 0000
00000230: d613 da36 0000 0000 d613 da36 0000 0000
00000240: da02 fd37 a7c8 1639 c45f 7d36 7814 c03a
00000250: 7814 8236 bd0c fb39 390d 9f36 a311 1a3a
00000260: bcfb c936 1f3a 9539 8feb dc36 0000 0000
00000270: d2b6 b736 4640 7e36 6a7f ad36 2db1 7e36
00000280: f442 b836 cebd 7d36 1734 c936 ab1a c636
00000290: af74 ca36 4876 9536 c350 c336 3a66 cf35
000002a0: 8eea dc36 5e71 9e2f 4deb dc36 5d0f 2f2f
000002b0: 7ceb dc36 4e41 fe2c 8feb dc36 0000 0000
000002c0: 8feb dc36 0000 0000 8feb dc36 0000 0000
000002d0: 4d2e 2d3a 56a0 383a 00a9 1b37 aafc 073b
000002e0: 478e 8037 b34e ce3a f98b 8537 ef9a b33a
000002f0: 070e b537 c1f9 a93a 0caf ca37 0000 0000
00000300: 40f5 bb37 0a74 e938 3bcd b937 6b1e b837
00000310: eb59 bf37 478f 2a38 d7aa bc37 eb49 8e39
00000320: e4f1 c737 87c4 c236 76ba c737 7037 da35
00000330: 45ae ca37 e54f b131 2ea8 ca37 10a3 9232
00000340: 0a99 ca37 ebf2 2031 0caf ca37 0000 0000
00000350: 0caf ca37 0000 0000 0caf ca37 0000 0000
00000360: 5c16 2d3a aa23 3a3a cc46 1b37 e7e5 043b
00000370: 7539 8237 23d8 d03a 5b89 8637 8ecb b23a
00000380: ada3 b537 9dfa a73a 0250 cb37 0000 0000
00000390: ff6e bc37 9bfc d838 cdf1 b937 f048 bb37
000003a0: 0cdd bf37 bae9 2b38 15a1 bc37 dc21 9639
000003b0: 147c c837 d850 ca36 067b c837 dfb5 de35
000003c0: 974e cb37 2d69 a531 3147 cb37 4696 8d32
000003d0: c638 cb37 7e8e 1c31 0250 cb37 0000 0000
000003e0: 0250 cb37 0000 0000 0250 cb37 0000 0000
000003f0: 4728 2d3a bf97 3b3a a73e 1d37 30d9 053b
2.8204458e-05 0.0001341633 3.3338492e-06 0.0012052349 3.5335602e-06 0.00043918507 4.343348e-06 0.00053922087
5.251402e-06 0.00027467703 5.787549e-06 0.0 4.715348e-06 3.870172e-06 4.427721e-06 3.6816882e-06
4.7983604e-06 5.1812567e-06 5.2026676e-06 6.4780284e-06 5.2661444e-06 4.6677565e-06 5.1407883e-06 1.7198952e-06
5.7874427e-06 2.572329e-10 5.7875495e-06 5.5600732e-11 5.787543e-06 7.381562e-12 5.787549e-06 0.0
5.787549e-06 0.0 5.787549e-06 0.0 2.8555298e-05 0.00013630117 3.393088e-06 0.0012142848
3.546774e-06 0.00043922002 4.3758682e-06 0.0005369821 5.267863e-06 0.000272069 5.7985008e-06 0.0
4.715453e-06 3.9440256e-06 4.4254616e-06 3.6215554e-06 4.783602e-06 4.0931786e-06 5.2127157e-06 6.3497623e-06
5.3077633e-06 5.0914787e-06 5.040443e-06 1.8783973e-06 5.7983957e-06 2.4135624e-10 5.798502e-06 5.6138393e-11
5.798496e-06 7.3703335e-12 5.7985008e-06 0.0 5.7985008e-06 0.0 5.7985008e-06 0.0
2.9050798e-05 0.00013887904 3.4624322e-06 0.0012205901 3.6221027e-06 0.00044289874 4.454133e-06 0.0005372199
5.3499284e-06 0.00026317738 5.8787755e-06 0.0 4.7864983e-06 3.885837e-06 4.4928247e-06 4.091163e-06
4.83811e-06 4.8365678e-06 5.295289e-06 6.045042e-06 5.297389e-06 4.202952e-06 5.2698456e-06 1.4039292e-06
5.878667e-06 2.3439203e-10 5.878778e-06 5.5872498e-11 5.8787678e-06 7.324105e-12 5.8787755e-06 0.0
5.8787755e-06 0.0 5.8787755e-06 0.0 2.9647024e-05 0.00014110045 4.0861046e-06 0.0012685773
4.1920675e-06 0.00043248615 4.999942e-06 0.00053172116 5.9602467e-06 0.00026569766 6.4992155e-06 0.0
5.3998497e-06 3.8248954e-06 5.1001853e-06 3.947795e-06 5.4317493e-06 5.281197e-06 5.9161653e-06 5.9254226e-06
5.8963647e-06 4.110257e-06 5.8238456e-06 1.5390293e-06 6.4991013e-06 2.2842188e-10 6.499224e-06 5.754018e-11
6.4992096e-06 7.274833e-12 6.4992155e-06 0.0 6.4992155e-06 0.0 6.4992155e-06 0.0
3.0161278e-05 0.00014379864 3.775568e-06 0.0014654538 3.876685e-06 0.0004788394 4.7401086e-06 0.0005877262
6.0195725e-06 0.00028462798 6.5839336e-06 0.0 5.475108e-06 3.7886361e-06 5.1706347e-06 3.795208e-06
5.4914217e-06 3.7810419e-06 5.996331e-06 5.9039644e-06 6.033653e-06 4.454316e-06 5.8208548e-06 1.5452454e-06
6.5838167e-06 2.8820585e-10 6.5839035e-06 1.5921615e-10 6.583925e-06 7.2263645e-12 6.5839336e-06 0.0
6.5839336e-06 0.0 6.5839336e-06 0.0 0.00066063256 0.0007042935 9.278068e-06 0.0020749965
1.5325042e-05 0.0015740007 1.5920015e-05 0.001370279 2.1583413e-05 0.0012968109 2.4161789e-05 0.0
2.240634e-05 0.0001113192 2.2149286e-05 2.1948674e-05 2.2810846e-05 4.0664596e-05 2.24909e-05 0.00027139424
2.3835288e-05 5.8045293e-06 2.3809476e-05 1.62584e-06 2.4161427e-05 5.160461e-09 2.4158591e-05 1.707079e-08
2.415154e-05 2.3421147e-09 2.4161789e-05 0.0 2.4161789e-05 0.0 2.4161789e-05 0.0
0.0006602758 0.0007100651 9.255204e-06 0.0020278634 1.5523963e-05 0.0015933554 1.6038006e-05 0.0013640986
2.1653099e-05 0.0012815777 2.4236742e-05 0.0 2.2463033e-05 0.00010346734 2.2166316e-05 2.2326101e-05
2.2871907e-05 4.0987252e-05 2.2486356e-05 0.00028635457 2.3899636e-05 6.0294806e-06 2.3899145e-05 1.659322e-06
2.4236082e-05 4.814089e-09 2.4232637e-05 1.6482897e-08 2.4225923e-05 2.2781985e-09 2.4236742e-05 0.0
2.4236742e-05 0.0 2.4236742e-05 0.0 0.0006605428 0.0007156096 9.372517e-06 0.0020423643

exp_avg f4 [128]
00000000: 4837 0438 62f7 ebba 3d1b 4ab6 90b9 8bba
00000010: f837 6cb7 20a5 5a33 fd86 deb9 27e9 1539
00000020: 8544 7ab5 6f2b d4b3 dcd1 da32 a4b1 2eb5
00000030: 841c 8eb4 a56e 14b2 9167 d8b1 09f3 bbb6
00000040: 332f 673a a080 41ba 6275 2435 fbac 1538
00000050: e63a fb39 1b4c b0b0 9644 8036 7c60 d738
00000060: 60f1 a735 d355 b53a d25c 80b7 6a08 5fb6
00000070: 317c a7b8 a4f3 5939 08e1 f939 4dff b639
00000080: 3433 4339 0625 3fb5 73e4 623a 1293 1539
00000090: 183c 8c37 c3f7 6eb3 dd77 0eb2 e13f 4f36
000000a0: b1de 4135 ee11 88b8 5ba3 b8b3 e115 21ba
000000b0: dca9 3136 c2e2 8731 b71b 2435 52c7 a9ba
000000c0: 9a33 9837 d530 86b7 55f5 7fb6 11be c135
000000d0: add7 ae39 0fd1 10b6 49bd d8b3 e48f 3ab8
000000e0: cd1f 5e35 55de 4339 fcbb d239 e2cb ee39
000000f0: ecdb 7fb5 a115 1938 5497 3e36 f521 84b1
00000100: d8ec ecb1 5061 76b5 4453 c4b4 67c3 b339
00000110: 3d0d 22b6 4f60 1c3a f9e3 9eb9 2092 6cb6
00000120: 5571 81b4 1684 8d39 2ee5 f6b1 028b b4b6
00000130: 8c37 ffb6 5c1c 9838 6dac 60b6 f3ac 43b3
00000140: b8f4 39b1 a060 10b5 57bf fc3a 55cc 00b2
00000150: c678 c834 1893 7eb8 91f6 a1b0 109e f7b9
00000160: afdf 37b3 cc4f 3ab2 8403 8738 f270 b7b6
00000170: f66f b6b3 b5e3 61b9 3984 d439 fcc2 f539
00000180: b270 22b9 9cad e9b4 50e5 cd34 8163 1738
00000190: 2eeb 52b8 20b6 2eb7 1066 e7b1 9873 15b8
000001a0: e5af 57b3 655a 8e38 e6c7 5332 b85f 36b7
000001b0: d7d9 c036 ebf2 83b7 b764 6236 69c2 833a
000001c0: 4f30 1038 9000 e2b8 2607 76b1 8228 07ba
000001d0: 97b2 5db1 701b aeb1 ab75 03b7 8aad d937
000001e0: 65b4 37b9 124d 6db1 c4d5 2fb2 74ff 4bb2
000001f0: 99a7 2bb5 4fca 33b8 4342 71b9 49e4 9b3a
3.1522737e-05 -0.0018002803 -3.01162e-06 -0.001066016 -1.4079727e-05 5.090726e-08 -0.00042443714 0.00014296603
-9.3231967e-07 -9.87992e-08 2.5473973e-08 -6.507855e-07 -2.647031e-07 -8.6398915e-09 -6.2982015e-09 -5.6013273e-06
0.0008818984 -0.00073815323 6.1265575e-07 3.568547e-05 0.00047918333 -1.2827316e-09 3.8226817e-06 0.000102699705
1.2512719e-06 0.0013834782 -1.5302012e-05 -3.3234487e-06 -7.986313e-05 0.00020785496 0.00047660642 0.0003490396
0.00018615724 -7.120692e-07 0.00086552574 0.00014264535 1.6717284e-05 -5.563903e-08 -8.292742e-09 3.0882586e-06
7.222216e-07 -6.488325e-05 -8.597882e-08 -0.0006144923 2.6473926e-06 3.9547965e-09 6.113509e-07 -0.0012953079
1.814384e-05 -1.5996784e-05 -3.8140763e-06 1.4434937e-06 0.00033348557 -2.157936e-06 -1.00927146e-07 -4.4479864e-05
8.274772e-07 0.00018679474 0.0004019438 0.00045546802 -9.531493e-07 3.6498186e-05 2.840029e-06 -3.845566e-09
-6.89543e-09 -9.178375e-07 -3.656843e-07 0.00034287127 -2.4147587e-06 0.0005965279 -0.0003030596 -3.5251796e-06
-2.4110582e-07 0.00026992027 -7.185597e-09 -5.3806007e-06 -7.6060587e-06 7.253207e-05 -3.3478966e-06 -4.5559272e-08
-2.706015e-09 -5.378479e-07 0.0019283098 -7.49704e-09 3.7340777e-07 -6.069531e-05 -1.178437e-09 -0.00047229277
-4.2811447e-08 -1.0844769e-08 6.4379565e-05 -5.4669736e-06 -8.495401e-08 -0.000215425 0.00040534305 0.00046875316
-0.00015491506 -4.352595e-07 3.8351072e-07 3.6093876e-05 -5.028693e-05 -1.04136125e-05 -6.734588e-09 -3.5632023e-05
-5.0218564e-08 6.787925e-05 1.2327268e-08 -1.0870332e-05 5.747406e-06 -1.5729534e-05 3.3735248e-06 0.0010052446
3.4377266e-05 -0.000107766245 -3.5801775e-09 -0.00051558774 -3.226125e-09 -5.067186e-09 -7.835605e-06 2.5949226e-05
-0.00017519442 -3.4531848e-09 -1.0234945e-08 -1.18742385e-08 -6.394635e-07 -4.286534e-05 -0.00023008235 0.0011893596

exp_avg_sq f4 [128]
00000000: 8feb dc36 4245 d237 0dae 7236 c8b9 da37
00000010: 261d 1837 91fd 0b34 32bb e737 1547 0a37
00000020: 00a1 8f36 711d c933 ed54 9534 4ae0 a034
00000030: 0b5d 4b35 f46a 6a33 aaaf 1233 f91f 8837
00000040: e780 3337 637d 6e37 a422 6c35 57b3 8f36
00000050: 013e 4f36 3a36 5d31 0e7d 4e36 a313 6937
00000060: 8a1b 4b35 3f8e 0e37 be5f 8234 2f62 0d35
00000070: ac57 ba36 a3f0 1737 fe19 7436 c311 2b37
00000080: 58a2 7036 99a2 2635 783b 8737 8e79 d636
00000090: 77da 5336 ffa4 3c33 aba3 2e33 5e3e b436
000000a0: 6d1c 3435 fc58 d335 e09d 6934 bc52 8737
000000b0: b29a 2433 578d 4233 d650 ad37 fa1c c236
000000c0: 8015 d035 229e bf35 860e c036 8ae2 6f35
000000d0: 72af bb37 9d51 3032 d0d8 9434 c4a7 1b36
000000e0: d563 5835 44b4 6335 87ad d836 453b ab37
000000f0: dcdf 9637 c83f 4436 e06e 6c34 2cf1 7f33
00000100: d81c 4b33 85cc 5834 5360 0034 d37a f136
00000110: 873f 7e37 f83c 7737 6054 dc37 6a7d 8c36
00000120: 1ba8 7f34 cbf1 f636 ba1b c733 f7dd e134
00000130: faf2 2337 ed1a f136 8bbd 1a36 145e 8235
00000140: 50a2 6133 8d89 3733 cb6b b637 da57 0933
00000150: b2d7 fb37 193d 0738 50c0 9631 d72b 8c37
00000160: 27f4 2933 f410 1533 6527 9735 9290 fb35
00000170: e123 dd35 c7f6 1f37 00ae bd36 cbed 6537
00000180: 5893 6736 cb19 1635 a084 c335 3922 9136
00000190: c3b8 b836 9889 4b35 9c45 e032 2f06 ba35
000001a0: 7747 3437 2a40 8936 efd8 5a34 266d 0136
000001b0: ed34 1e34 5e39 0737 da5e 8f36 31cd 0a37
000001c0: 2ca6 7836 0431 0436 4f38 7031 8eac 9437
000001d0: cef1 dd31 4d5b 2933 64cd b136 0fbf 1d37
000001e0: 0650 9136 c056 5132 c26c 4c33 766b 9c33
000001f0: ab7b 6d37 164c e536 8bf8 5f37 e374 c137
6.5839336e-06 2.5066201e-05 3.616212e-06 2.6074136e-05 9.066693e-06 1.303763e-07 2.7624515e-05 8.241991e-06
4.280475e-06 9.365147e-08 2.7815204e-07 2.9965514e-07 7.575879e-07 5.4579644e-08 3.415304e-08 1.6227352e-05
1.0699244e-05 1.4215099e-05 8.796726e-07 4.28261e-06 3.0881495e-06 3.2190557e-09 3.0769183e-06 1.3892454e-05
7.566347e-07 8.496979e-06 2.4284049e-07 5.266947e-07 5.5534383e-06 9.056329e-06 3.6373963e-06 1.019653e-05
3.5857283e-06 6.207643e-07 1.6120946e-05 6.391848e-06 3.1568613e-06 4.3922224e-08 4.0661387e-08 5.3716785e-06
6.709659e-07 1.5746623e-06 2.175725e-07 1.613178e-05 3.832492e-08 4.5297693e-08 2.066085e-05 5.785024e-06
1.5503465e-06 1.4276632e-06 5.7237366e-06 8.9364096e-07 2.2373835e-05 1.0263105e-08 2.77249e-07 2.3194452e-06
8.0611545e-07 8.482641e-07 6.457503e-06 2.0412388e-05 1.7985636e-05 2.9243402e-06 2.2019549e-07 5.959116e-08
4.7290854e-08 2.0190971e-07 1.1955972e-07 7.1966583e-06 1.5154371e-05 1.4736543e-05 2.6265334e-05 4.1869253e-06
2.3809882e-07 7.3595197e-06 9.271703e-08 4.2071017e-07 9.7721295e-06 7.1854943e-06 2.3058117e-06 9.713135e-07
5.2534517e-08 4.273311e-08 2.1746286e-05 3.19777e-08 3.0021973e-05 3.224341e-05 4.387438e-09 1.6709715e-05
3.9570434e-08 3.4707185e-08 1.1261842e-06 1.8743033e-06 1.6476225e-06 9.534596e-06 5.652895e-06 1.3704829e-05
3.4507448e-06 5.591689e-07 1.4567231e-06 4.325321e-06 5.5051364e-06 7.582362e-07 2.6108687e-08 1.385988e-06
1.0745475e-05 4.090388e-06 2.0381752e-07 1.928603e-06 1.4734151e-07 8.059984e-06 4.2727743e-06 8.273216e-06
3.7051605e-06 1.9698064e-06 3.4956604e-09 1.7723327e-05 6.4594365e-09 3.9431416e-08 5.2989217e-06 9.4024135e-06
4.3306527e-06 1.2185126e-08 4.7596366e-08 7.283863e-08 1.41550945e-05 6.8335894e-06 1.3349704e-05 2.3061823e-05
