results/physicomimetics_changed_controls/DroneAgent/DroneAgent-6645.onnx (onnx, 164154 bytes, 7 tensors)

network_body._body_endoder.seq_layers.0.weight f4 [128, 180]
000000 c1 e0 88 3d de 6f 54 be c1 4f 32 3c 8f 76 2b 3e
       0.066834934 -0.20745799 0.010883273 0.16744445
000010 04 1f 57 3d e1 c7 57 3c 59 64 bf bd 8b 17 da 3d
       0.052519813 0.013170213 -0.09345312 0.10649022
000020 73 29 a0 bc 14 ea 5c 3d c3 fb c7 3a 9a 33 3b bd
       -0.019551015 0.05393417 0.0015257526 -0.045703508
000030 ad 19 5a bd 7b a7 74 3d 95 40 66 bd 09 cc 80 3d
       -0.053247143 0.059730034 -0.056213934 0.062889166
000040 ad c2 f2 3d 48 27 7b 3d 80 36 41 be 19 ca 6e bc
       0.11853538 0.06131676 -0.18868446 -0.014574551
000050 a8 6b d1 bd 3f 7a 11 3e d5 b2 5f 3d 61 f3 af 3d
       -0.10225612 0.1420679 0.054613907 0.08591343
000060 46 1f 15 be 67 a8 e9 bd 87 3e 7a 3c d6 fc 48 bd
       -0.14562711 -0.11409073 0.015273697 -0.04906925
000070 35 30 56 3d 1f cb 2e bd b9 fe 87 3d c5 12 ba 3d
       0.052292068 -0.04267418 0.06640381 0.09085611
000080 67 e1 3f bc 84 50 33 3c 29 71 9d 3d 62 f3 43 3c
       -0.011711455 0.010944489 0.07687599 0.011959882
000090 ce 89 c1 3d f9 f8 7a 3b bf 75 88 bd 86 7b 38 bd
       0.09450112 0.0038295372 -0.06663083 -0.045039676
0000a0 59 51 f2 bc 47 bb a4 bc a4 a4 d2 3c 27 17 f6 3d
       -0.029579805 -0.020108832 0.025713272 0.12016135
0000b0 19 28 40 3d 9a da 53 3d bb f1 f9 bc 87 41 a6 3c
       0.04691324 0.051722147 -0.030510774 0.020294918
0000c0 80 e6 b4 3c 01 fb 1e bc c2 0f dc 3b 74 8c f0 3d
       0.022082567 -0.009703399 0.0067157457 0.11745539
0000d0 1f 92 02 be 28 dc d9 3c 43 31 5e bd 0e 56 cc 3b
       -0.12751053 0.026594236 -0.0542462 0.0062358445
0000e0 91 fe cf ba c0 fe da 3d a4 44 27 bc 2c a9 85 3d
       -0.0015868713 0.10693121 -0.010209236 0.065264076
0000f0 54 e4 97 bd 12 4b ad 3c 22 1f 0a b9 4d 2d 7b bd
       -0.07416597 0.02115396 -0.00013172303 -0.0613225
000100 c8 c6 c6 3d c8 f5 0d 3e ad 37 93 bd d6 07 ab bd
       0.09705883 0.1386329 -0.07188354 -0.08351104
000110 58 6e e7 39 90 a0 51 3c 1a 37 d7 bc 6a 02 39 be
       0.00044141966 0.012794629 -0.026271392 -0.18067327
000120 70 24 12 3c 51 fc ac 3b 51 28 20 be 77 b9 eb bd
       0.00891982 0.005279102 -0.1564038 -0.11509984
000130 e7 8a a7 3d fb 9e 8e bd 34 b7 ea bd e9 eb c0 3d
       0.081807904 -0.06963917 -0.114607245 0.09419996
000140 7e 0f 92 bc cb ea d4 3d 3c 07 f2 3c 93 e9 e6 bb
       -0.017829653 0.10396346 0.029544465 -0.007046887
000150 9a c8 06 bc 02 7f 12 3e bf 79 11 bd 9d 48 71 bc
       -0.008226538 0.14306262 -0.035516497 -0.014726785
000160 c6 e1 07 bd b0 14 ba bd 88 73 b7 bd 05 d3 0a bc
       -0.0331743 -0.09085977 -0.08957583 -0.008473163
000170 47 4a 77 bd 9a f8 8e bd b7 c1 3e 3c f5 c1 1e 3d
       -0.06037357 -0.06981011 0.011642865 0.03875919
000180 27 4b 15 bd eb c9 72 3c 50 f8 1b be 87 25 71 3e
       -0.036448624 0.014818649 -0.15231442 0.23549472
000190 94 b4 df bb ea f0 c7 bd e7 19 bf 3c ad 9d c8 bd
       -0.0068269465 -0.097627476 0.02332778 -0.09795699
0001a0 61 47 e4 3d 3f 3e a3 3b 71 a0 a8 bc 89 29 9e bd
       0.11146427 0.0049817855 -0.020584317 -0.07722766
0001b0 7f aa 14 3d 73 37 ef 3d ec c7 05 3e 0d 47 16 be
       0.03629541 0.11680498 0.13064545 -0.14675541
0001c0 92 c2 33 bc ba 9a af bb c6 c9 35 bc 78 dd 97 3d
       -0.010971682 -0.005359021 -0.01109547 0.07415289
0001d0 7e 6b bc bd 40 e0 de 3c b4 14 33 bd 9e a6 f0 3c
       -0.0920019 0.02720654 -0.043720916 0.029376324
0001e0 d5 2f 1a 3e 39 3c 39 3e 9d 05 ce bd e5 c9 08 be
       0.15057309 0.1808938 -0.100596644 -0.13358267
0001f0 10 ac 49 3b 95 50 09 3e 14 43 b7 bd 4f 08 94 bb
       0.0030772723 0.13409646 -0.08948341 -0.004517592
000200 53 c6 a2 3d 73 0c ba bc 11 5d 53 bc 83 7a bc 3d
       0.079479836 -0.022711014 -0.012900607 0.09203055
000210 bd 7e d9 3d 98 d8 05 be cd 6a ac 3d ed 5f 63 bc
       0.106198765 -0.13070905 0.08418808 -0.013877851
000220 0b 5b 62 3d db e0 00 3e 8f f9 88 3d fd b3 06 3e
       0.055262607 0.12585776 0.066882245 0.13154598
000230 97 21 a2 3c 12 a4 38 bd 4c 52 b1 3c 4e 35 4c bd
       0.019791408 -0.045078345 0.021645688 -0.049855523
000240 07 ec c4 bd 8b af cd 3d cd 39 2b 3d 10 4f d7 bc
       -0.09615331 0.10043248 0.04180317 -0.026282817
000250 3f ac f1 bd 54 fa 91 3d f8 3b d7 bd 6f 11 4c bd
       -0.118004315 0.071278244 -0.10509485 -0.049821313
000260 50 d6 9f bd 51 07 87 3d 3c b8 3e 3e 81 6a f6 bc
       -0.07804549 0.06593192 0.18624967 -0.030080082
000270 c1 ce 60 bd 7b d1 1c be f8 ad f0 bd bc 12 14 bd
       -0.054884676 -0.15314285 -0.11751932 -0.03615068
000280 de 81 2d 3c bd f4 af bd 12 bf 22 bd c9 fb bd 3d
       0.010590045 -0.08591602 -0.039733 0.0927654
000290 95 f8 1b 3d 5e 72 04 bd f2 9d 96 bd 84 dc 9a 3d
       0.038078863 -0.03233563 -0.073543444 0.07561591
0002a0 41 2a 8f bc 55 ae d5 bc 7f 8b 9c bd d5 20 17 bd
       -0.017476203 -0.026084105 -0.07643794 -0.036896545
0002b0 3b ed bb 3d 60 5e de bb 2f 9e d5 bd f8 6d 2d be
       0.091761075 -0.0067861527 -0.10430562 -0.16936481
0002c0 8a bd d2 bd a6 47 81 bc 4f 1c 7e bb 7f 1c f6 3d
       -0.10290058 -0.015781235 -0.0038774197 0.12017154
0002d0 f9 04 21 3e 02 17 a0 3d 2c 3e e9 3c d9 98 23 bc
       0.15724553 0.078168884 0.028472029 -0.009985172
0002e0 89 04 c0 3d 62 a3 35 3e 2a af 00 bd f8 f7 3c bd
       0.09375865 0.17738107 -0.03141705 -0.04613492
0002f0 16 13 ac bc 14 01 0a bd 25 34 d1 bd 90 bb 98 bd
       -0.021005195 -0.033692434 -0.10215024 -0.0745765
000300 d4 69 1b bd 3e 38 84 bd a2 14 09 be d1 c4 99 bc
       -0.037942722 -0.0645604 -0.13386777 -0.018770607
000310 33 f9 04 bd 27 92 3d be 7d eb 0d be 04 01 e0 bc
       -0.032464217 -0.18512784 -0.13859363 -0.027344234
000320 c2 17 1c 3d 97 04 85 bd a4 d5 41 bd 9f 78 50 bd
       0.038108595 -0.06495016 -0.047322884 -0.050896283
000330 70 a9 ae bd 0e d2 0a 3e a4 08 b3 3d 75 32 28 bd
       -0.085284114 0.13556692 0.087418824 -0.041063745
000340 7a 0f ee bd 6d 37 12 bd 7e ee c3 3d 42 0e ac 3d
       -0.11624046 -0.03569739 0.09566973 0.08401157
000350 fa ab ab 3b a3 de 18 3d 31 ec 44 bd 2c 25 9b 3d
       0.005239007 0.037321698 -0.048076812 0.07575449
000360 98 97 bb bd 8c 50 88 3d a7 c8 57 bd 68 a1 9a bd
       -0.091597736 0.06655988 -0.05268159 -0.07550317
000370 d1 5e 3e bc e8 68 48 bc 59 44 9c bd cf 99 ac 3b
       -0.011619286 -0.012232043 -0.07630224 0.005267359
000380 b0 54 64 3d dc f1 ec 3c be 15 66 3c 59 92 be bb
       0.055744827 0.028923921 0.01404327 -0.005815786
000390 12 74 c2 3c e1 9b a5 3b 53 4b cf bd 2b 0d 4d bc
       0.023736987 0.0050539826 -0.10121789 -0.0125153465
0003a0 dd fd 38 bd 8f 30 9b 3d 47 ee 16 3d 1e 63 6b bd
       -0.045163978 0.07577621 0.036848333 -0.057467572
0003b0 ba 65 b3 bd 94 ea f4 bd 4e c3 64 3c 38 8f a2 3d
       -0.08759637 -0.11958805 0.01396258 0.07937473
0003c0 d1 0b f9 bc 3e 51 ac 3d 21 4d 1d 3d 13 fa ad 3c
       -0.030401142 0.08413933 0.038403634 0.021237409
0003d0 b1 77 85 3c 58 42 ae 3d 21 99 de 3d 8e 6e 74 bd
       0.016292425 0.08508748 0.10869051 -0.059675746
0003e0 33 67 be bd 94 65 c5 3d 6d 5f 0c 3d 0a d0 94 3c
       -0.092970274 0.09638515 0.034270693 0.018165607
0003f0 cf df f2 3d 1a ba a2 bd b6 28 a5 bd e7 de 13 3d
       0.11859094 -0.07945652 -0.080644056 0.036101248

network_body._body_endoder.seq_layers.0.bias f4 [128]
000000 08 c6 ad bb 8c e4 6c bc d7 25 ab bb 6d 72 ee 39
       -0.005303148 -0.014458787 -0.0052230167 0.0004548015
000010 e8 1f 72 3b cb 25 c1 3a ef cf ae bb 86 54 c8 3b
       0.0036945287 0.0014735995 -0.005334846 0.0061135916
000020 9f 98 8b bb d4 66 a9 b9 f8 1b f7 bb 31 fa 5d bc
       -0.004260137 -0.00032310805 -0.007541176 -0.01354842
000030 c5 00 97 bc b8 2a 16 bc 25 52 af bb 0a 8f ac 3a
       -0.018432984 -0.009165458 -0.0053503686 0.0013165188
000040 56 d2 67 bc 1c 4b 25 bc 7a dd 1c bc 50 07 fa bb
       -0.014149269 -0.010088708 -0.0095742885 -0.0076302662
000050 d5 f5 6b bc 5f a6 46 bc 60 9f 7e ba c8 62 70 b9
       -0.014401873 -0.012124627 -0.000971308 -0.00022924982
000060 c0 13 6a 3b a5 83 a4 bb 96 de 2d bc 38 8a 6e bc
       0.0035717338 -0.005020576 -0.010612151 -0.014559321
000070 00 73 4d bc ab 28 7b bc d0 1d 58 bc 42 af 97 bc
       -0.012539625 -0.01532952 -0.013190702 -0.018516187
000080 85 e1 e2 38 d7 96 aa bb 30 bf cf bb 05 1c 07 3c
       0.00010818526 -0.00520597 -0.00633993 0.0082464265
000090 24 5d 8d 3b eb 9d 0e 3b d4 c7 46 3b 58 a3 87 bc
       0.0043140817 0.0021761607 0.003033151 -0.01655738
0000a0 bc 73 6d bc 37 b2 b4 ba 0e 97 34 3b 51 0f 3d bb
       -0.014492925 -0.0013786022 0.0027555856 -0.002884824
0000b0 fc bb ae 3b b6 23 bc bc f4 fd 85 bc 4d 6c 2b bc
       0.005332468 -0.022966247 -0.016356446 -0.010462833
0000c0 ff 8e 31 3b c9 39 5c 3a 79 ee 25 bc 4d 84 af bb
       0.002709329 0.00084009446 -0.010127657 -0.0053563477
0000d0 97 51 aa bc b5 66 d7 3b 42 83 b7 3b c7 9a 14 bc
       -0.020790858 0.006573523 0.005600364 -0.009070105
0000e0 34 93 99 bc 1a 80 cb 3b 4a 3a 30 3c 40 82 7c 3b
       -0.01874695 0.0062103393 0.010756085 0.0038529783
0000f0 8b 7f 5c bc e4 8e f4 bb 5f b9 a8 3b 86 89 6f bc
       -0.013458143 -0.007463323 0.005149051 -0.0146201905
000100 f4 c6 83 bc ee 99 81 bc 3b 60 7d bc fe c4 3b bc
       -0.01608608 -0.01582047 -0.015464838 -0.011460541
000110 11 14 ac bb 0d db a1 bb 39 ee 3a bb fc 04 03 3c
       -0.0052514155 -0.004939443 -0.002852334 0.007996794
000120 81 f0 02 bb 2d 6d 9d bb 57 76 e1 3b e4 89 a6 bc
       -0.0019979777 -0.0048042745 0.0068805623 -0.020329423
000130 fa 91 9a bc a5 6a ff 39 20 ac c8 bb a3 48 83 bc
       -0.018868435 0.00048716847 -0.0061240345 -0.016025847
000140 72 d7 f5 39 34 ca 2a 3b 20 e9 9e bb e8 e1 38 3b
       0.0004689056 0.0026060464 -0.004849568 0.0028210822
000150 40 3f 94 bb 07 1a 2a bb 84 e2 1e bc 7c 4b 09 bc
       -0.0045241416 -0.0025955455 -0.00969756 -0.008379813
000160 02 a1 8e bb ef 38 60 bc d1 69 55 3b f7 5e 2a bb
       -0.0043526897 -0.013685449 0.0032564292 -0.0025996545
000170 61 5b b1 bc 98 9c a4 bb 7f e9 17 bc dc b5 77 bc
       -0.021650018 -0.0050235502 -0.009271978 -0.015119042
000180 71 52 dd bb 6b 4c 0a bc e4 06 b3 bc d2 40 3e 3c
       -0.0067542125 -0.008441071 -0.021853872 0.011612134
000190 6c fd 3f bb c8 8f 64 bb 46 c4 e3 bb 4f 55 f9 bb
       -0.0029295338 -0.003487574 -0.006950888 -0.0076090465
0001a0 44 08 21 3c 83 92 9a bb 87 b5 54 bb df 98 3c bc
       0.009828631 -0.0047171726 -0.0032456832 -0.011511057
0001b0 28 f6 81 3b 1e b7 1d bc ca 2e 72 bc d6 1f 92 3b
       0.0039661117 -0.009626178 -0.014781663 0.0044593615
0001c0 34 7b 17 bc ce 9a 9f bb 60 6e f0 bc 5f 04 df 39
       -0.0092456825 -0.004870749 -0.029349506 0.0004253713
0001d0 19 f3 19 bc 2f d1 e4 bb 56 d4 58 3b 1d 40 cf bb
       -0.009396338 -0.0069829444 0.0033085546 -0.0063247816
0001e0 4c 78 5f bc c3 cf fa bb 98 3c 37 bc e8 86 8e 3b
       -0.013639521 -0.0076541617 -0.01118388 0.004349578
0001f0 fb 67 a1 3b 29 6c 67 bc e5 de fd bb 88 82 66 3b
       0.0049257255 -0.0141249085 -0.0077475184 0.0035173018

network_body._body_endoder.seq_layers.2.weight f4 [128, 128]
000000 8e e7 85 bd 25 44 95 3d 52 8f 36 bd ec 7f e4 3d
       -0.06538306 0.07288388 -0.044570275 0.11157212
000010 47 3c 08 3d 39 56 34 be 2b d7 e0 3d a6 71 f3 bd
       0.03326061 -0.17611016 0.1097854 -0.11886911
000020 76 0d 0f 3d 07 85 cf bd 33 90 94 3d 41 00 96 3d
       0.034924947 -0.10132795 0.07254066 0.07324267
000030 4b f2 31 3d 49 32 90 3d 0b 5b 62 3d 13 3d 42 3d
       0.04344396 0.07040841 0.055262607 0.047421526
000040 ac f9 ec bd b4 bd 22 3e 8e 31 26 bd 2e da 19 3c
       -0.11571059 0.15892678 -0.040574603 0.009390397
000050 ef 7b ae 3d 56 13 55 bd bd e2 7c bd 8a 34 8d be
       0.08519732 -0.052020393 -0.061739672 -0.27579147
000060 36 85 ee bc 6a 20 80 3d 74 ca fd bc a8 73 ad bd
       -0.029116254 0.062561825 -0.030980326 -0.08469325
000070 ce eb 9a bd cc 15 af bd 74 39 06 3c 58 96 93 3d
       -0.075645074 -0.08549079 0.008192409 0.0720641
000080 4f 4c 1f bd 1c 4a d1 bd 44 d9 9d bc 2e 1e 80 3b
       -0.038891133 -0.10219213 -0.01926864 0.0039098477
000090 c9 48 04 be 38 f3 3d 3e 7e 7f d4 3b ba 73 98 3b
       -0.1291839 0.18549812 0.006484925 0.0046524676
0000a0 c5 04 85 bd f9 c3 9d bc 65 39 df 3c eb d4 c6 bd
       -0.0649505 -0.019258486 0.027249048 -0.0970858
0000b0 6e 75 b4 bc 49 dd a3 bc d6 21 7e bd c5 3b 06 3e
       -0.022028651 -0.020002978 -0.062043987 0.13108738
0000c0 1c 53 42 bd 7b 1d cc 3c 91 1f 7d 3d 68 48 c9 bd
       -0.04744254 0.024916401 0.061797682 -0.098282635
0000d0 47 77 86 bd 51 9e ef 3d fc 0d 69 3e 34 2b a3 bd
       -0.06565719 0.11700118 0.22759241 -0.07967225
0000e0 c6 6f ce bc 3e f0 b0 3d f0 c1 02 3d 07 6a a7 bd
       -0.025199782 0.086395726 0.031923234 -0.0817452
0000f0 48 8e 83 3d 73 6a db bd 47 86 2c 3d 78 cb dd bd
       0.06423622 -0.10713663 0.042120244 -0.10829824
000100 57 c2 80 3c 5e c2 a7 bd aa aa 27 be a7 be a6 bd
       0.015717668 -0.081913695 -0.16373697 -0.08141833
000110 1c 3c 9e 3c dc 3b 43 3d df 2e 9e be 57 66 f6 bd
       0.019315772 0.04766451 -0.30895135 -0.120312385
000120 45 db 1b bc 7a 77 c3 3d 0d 72 c9 bb 71 be d4 3c
       -0.009512727 0.09544273 -0.006147629 0.025969716
000130 58 79 84 3d 59 ee e9 bc 54 cd 01 3d e5 91 e5 3d
       0.06468457 -0.028556036 0.031689957 0.11209468
000140 7a 31 84 bc 19 57 0f be f0 89 0d 3e 24 01 ef bc
       -0.016136874 -0.13998069 0.1382215 -0.029175349
000150 f6 23 fc bd 2f e3 de bd 2c 71 94 3d 3a 28 ac bc
       -0.123115465 -0.108831756 0.07248148 -0.021015275
000160 18 8c d1 3d ec bd 8d bc cc 61 a6 bd 22 fa 0e bd
       0.10231799 -0.017302476 -0.08124122 -0.034906514
000170 e9 b1 03 be 98 94 61 be 57 10 f9 bd 0b 55 71 3e
       -0.12860836 -0.2202934 -0.1216132 0.23567598
000180 68 f8 e4 bd 6f ec ac 3d 75 23 20 3e 1e 8f 08 be
       -0.11180192 0.08443534 0.15638526 -0.13335845
000190 d9 19 37 3d 9d b6 93 3d 42 a1 22 3e c3 59 19 3d
       0.044702385 0.07212565 0.15881827 0.03743912
0001a0 33 62 87 bd 92 2c 0c 3e b9 84 0c bd 7a 69 8b 3b
       -0.06610527 0.13688877 -0.03430626 0.004254517
0001b0 a4 c3 28 bb 73 cc 4b bd dd 00 c9 bc cc 48 59 bc
       -0.0025751377 -0.049755525 -0.024536544 -0.013261985
0001c0 d2 48 0f bd 6c 25 57 bc d5 4f d6 3d 63 cb 62 bc
       -0.034981556 -0.013131481 0.104644455 -0.0138424365
0001d0 24 6f 67 bd d1 7e c1 3d ab da d4 bc 2f 9a 94 bd
       -0.056502476 0.094480164 -0.025983175 -0.07255971
0001e0 3c ef 97 3d 50 dd be 3d 27 9d 1e 3d 19 2b 45 ba
       0.07418677 0.09319556 0.03872409 -0.00075213757
0001f0 c3 d9 05 3c 6e 0f b1 3d ab 10 ff bd 73 5a c7 bd
       0.008169594 0.08645521 -0.12454351 -0.09734049
000200 60 3e b8 3d 37 c7 b5 bd 51 9d 83 bc d8 df 7c 3d
       0.08996272 -0.08875888 -0.016066225 0.06173691
000210 72 07 57 3e 44 23 df 3c 39 d2 00 bd c8 9e 10 3e
       0.20998934 0.027238496 -0.031450484 0.1412307
000220 b7 0b 0a bd 75 9a 20 3e 3e 89 f5 bd f0 70 2e 3b
       -0.03370258 0.1568392 -0.119890675 0.002661761
000230 02 bb 12 3e fd 36 54 3e 59 95 22 3e 57 67 3d bd
       0.1432915 0.20724101 0.15877284 -0.04624113
000240 44 0d 1d 3e da da 43 3d 8c 52 e8 3c 03 bf c7 3c
       0.15337092 0.047816135 0.028359674 0.024383074
000250 9a c4 08 bc df 7c d1 bd 2b a3 d1 bb 75 18 14 3e
       -0.008347655 -0.102288954 -0.006397625 0.14462455
000260 fc 03 3e bc a6 24 1b be 8f a8 68 bd 33 5d e1 bd
       -0.01159763 -0.15150699 -0.056801375 -0.110041045
000270 d2 40 7a 3d 6d c8 90 bd 4e e9 d9 3d 7d e7 ad 3d
       0.061096974 -0.07069478 0.106402025 0.084914185
000280 f4 7b 2f 3c 20 01 be 3d bd 54 ea bd 4f 39 24 bd
       0.010710705 0.09277558 -0.11441944 -0.040093716
000290 1c 5a 4e be 04 fa 9a bd 76 d1 6e 3c 44 de da 3b
       -0.20151561 -0.07567218 0.014576307 0.006679328
0002a0 f5 7d 1d 3d ca 75 ea 3c 69 32 7b bc 58 d4 1e 3c
       0.0384502 0.02862062 -0.015331843 0.009694181
0002b0 f9 a1 08 3e d9 c2 e7 bd be 10 c2 3c e2 99 bc 3d
       0.13343038 -0.11316461 0.023689624 0.09209038
0002c0 74 52 73 bd 98 08 c2 bc 38 2d 5f 3d 08 58 06 be
       -0.059404805 -0.023685738 0.054486483 -0.13119519
0002d0 8a 07 a2 bd 0e 85 b0 3c 0a 26 34 3e cb 40 05 bc
       -0.07911594 0.02154782 0.17592636 -0.008133124
0002e0 de c2 91 3d 37 f6 8c be ab 83 f4 3c d8 cb 85 bc
       0.07117246 -0.27531597 0.02984794 -0.016332552
0002f0 af 23 ba bb 8a fe d5 bd 21 77 05 be 79 27 d0 bc
       -0.0056805233 -0.1044894 -0.13033725 -0.025409447
000300 6d ba ed bd ae 29 67 3d 94 60 a0 bc ab df a7 bc
       -0.116078235 0.056436233 -0.019577302 -0.020492395
000310 e7 48 8c 3b 51 e0 25 bd 8f 95 83 be 65 d8 79 bc
       0.0042811516 -0.040497128 -0.25700042 -0.015249346
000320 ea 90 fb 3d 01 c4 e2 3c 28 93 ad bc 23 e0 8e bc
       0.122834995 0.027681353 -0.021188334 -0.017440861
000330 24 8d 89 3d fb 1b ec 3d c8 72 3d bd 38 16 82 3d
       0.067163736 0.11528774 -0.046252042 0.06351894
000340 ac 61 da 3d 62 5b 2a 3e f9 c6 f4 bb 08 6f 00 3b
       0.10663161 0.16636422 -0.0074700085 0.001959743
000350 61 bf cd 3c 66 1a ee bd 72 e6 c3 3d 56 15 20 3b
       0.02511567 -0.11626129 0.09565438 0.002442678
000360 a1 d3 31 bd df d4 ab 3d f2 16 4e 3d 2f 10 ed bd
       -0.043414716 0.08390211 0.05031485 -0.115753524
000370 73 78 83 bd 4b 32 19 3b e3 ef 07 3e 60 e0 db 3d
       -0.06419458 0.0023375924 0.13275103 0.107361555
000380 d1 4e a1 bd cd 46 a3 bd 1b 6e c7 3d 33 a5 83 3c
       -0.07876361 -0.079724886 0.09737798 0.016069984
000390 60 22 44 bb ef 3a 95 bd 98 17 dd 3d 3b 66 58 3d
       -0.0029927716 -0.07286631 0.10795516 0.05283187
0003a0 bc e4 28 3d 92 2f 06 bc 52 d5 e0 bd 85 ad c2 3d
       0.041233763 -0.008190053 -0.109781876 0.095057525
0003b0 28 49 56 3d 35 b2 98 3c 1a 04 ce 3d b7 e7 0c be
       0.05231586 0.018639663 0.10059376 -0.13760267
0003c0 6a 1c 8d bd 7b 6d 80 bd 6b eb b7 bd 96 8f 09 3d
       -0.06890185 -0.06270882 -0.08980449 0.0335842
0003d0 5a 3f 0d 3d 96 f0 66 bd 7b 89 f8 3d 3f 8f 70 3d
       0.034484245 -0.056381784 0.12135597 0.05873036
0003e0 8d 01 a2 3c 6b 49 2e bd 0f 85 9a 39 c4 43 30 bc
       0.01977613 -0.042550486 0.00029472305 -0.010758344
0003f0 ca 0f d8 bd a8 86 47 bd 1c ea e0 3b 01 bd 10 bc
       -0.105498865 -0.048712403 0.0068638455 -0.008834125

network_body._body_endoder.seq_layers.2.bias f4 [128]
000000 71 20 02 bc 61 ff a5 3a 0c c4 8d bc 1b c2 0b bc
       -0.007942305 0.001266461 -0.017305396 -0.008530165
000010 e4 b3 d1 ba 01 ee 81 bb fa 02 38 bc 76 4f 47 bc
       -0.0015999046 -0.00396514 -0.011231178 -0.012164941
000020 a7 91 ba bb 28 41 9e bb 9c 2d 61 3b 44 61 a0 bb
       -0.0056936326 -0.0048295446 0.003435946 -0.0048944075
000030 4b 8c 31 bc 2f f5 08 bc 21 16 a9 bc 1c 9d c1 b9
       -0.010836671 -0.008359238 -0.020640435 -0.00036928884
000040 9e e0 0e bc b2 d6 f3 bb be 82 60 bc ad c7 4a bb
       -0.008720545 -0.007441365 -0.013703046 -0.003094177
000050 45 5a 37 bc fe 52 fa bb f9 59 f5 3c 2d 2b c1 3a
       -0.0111909555 -0.007639288 0.029950129 0.0014737599
000060 27 5e 7f ba ca c7 80 bc 5d 48 13 bb 73 ce 7e bb
       -0.0009741508 -0.015720267 -0.0022473552 -0.0038880378
000070 d3 13 f5 bb f1 e8 c6 ba 33 02 8b bc 2a e1 53 bc
       -0.00747917 -0.0015175623 -0.016968822 -0.012932101
000080 fc 3e d3 bb 1e 4b 4d bb 3a 1e 3c bb 3c b2 70 bb
       -0.0064467173 -0.003132529 -0.002870454 -0.003672733
000090 e0 4f 4a bb 6b 0b ce bb cd dc da 3a 50 c8 28 bc
       -0.0030870363 -0.006287982 0.0016697884 -0.0103016645
0000a0 c5 15 9b bb 91 79 bb 3b c7 3e d9 39 96 0a 62 bb
       -0.0047328197 0.005721279 0.00041436238 -0.0034491173
0000b0 d2 f8 10 bc b2 37 5a bc 1c 7c a2 ba f2 e8 83 3c
       -0.008848386 -0.013318943 -0.0012396607 0.016102288
0000c0 d7 04 2a 3b 32 dc 65 bc e2 81 ce 3b 4e 52 d4 bb
       0.0025942826 -0.014029549 0.0063021043 -0.006479538
0000d0 93 78 5c bb 67 2d 16 bc 83 bf db 3b 56 0c a4 bb
       -0.0033641204 -0.009166098 0.0067061796 -0.0050063534
0000e0 34 5d 08 bc b4 fe d8 bb 98 3d 45 bb 5a 85 57 3b
       -0.008323003 -0.00662216 -0.0030096527 0.003288588
0000f0 46 1e 94 bb a7 d8 93 bb d2 e7 2b 3b d7 f0 d5 ba
       -0.0045202104 -0.004511911 0.0026230705 -0.0016322386
000100 ca d4 8b 39 76 99 d2 3a c0 f4 da 3a 5c 1d eb ba
       0.00026670686 0.0016067463 0.0016705021 -0.0017937827
000110 7f a7 8f bc b2 56 20 bc 48 b3 44 bb 71 1e 0b 3c
       -0.017535923 -0.009786295 -0.0030014087 0.0084911445
000120 cf a3 81 bc b2 ae 13 3b 23 b1 25 bc 9e 87 7d bc
       -0.01582518 0.0022534546 -0.0101130335 -0.015474228
000130 98 87 bc ba 6f 13 a2 ba 3e 35 5d bc b4 33 b0 ba
       -0.0014383672 -0.0012365411 -0.013501463 -0.0013443143
000140 97 1f 40 bc 3a 4d 59 bc a3 b9 6d bc ca c4 8d 39
       -0.011726282 -0.013263041 -0.014509591 0.00027040235
000150 01 95 0d bd 6d c4 f1 b8 d1 2a 15 3b c0 d5 0a bc
       -0.03456593 -0.00011528363 0.0022761116 -0.0084738135
000160 ea e1 2a bc d7 86 30 bc 60 e2 ed ba 6c a5 17 bc
       -0.010429839 -0.010774336 -0.001814913 -0.009255748
000170 ae 95 ee ba f8 08 1c bc f3 c7 6c bb 86 cd f6 bb
       -0.0018202567 -0.009523623 -0.0036129921 -0.0075318245
000180 23 4c a0 bb 99 a7 2e bc 38 b9 85 bc c8 9e 5a bb
       -0.0048918887 -0.010660076 -0.01632367 -0.00333588
000190 b8 a9 ea 3b 7f 15 ed 3a ae 91 f3 3a 03 da c5 bb
       0.0071613453 0.0018088071 0.0018582845 -0.006037952
0001a0 15 2e 5a bc 1c a7 d4 bb 0a af 5e bb d4 d2 8f bb
       -0.013316651 -0.0064896476 -0.0033978843 -0.0043891463
0001b0 8f 53 54 bc 85 dd ab bc 71 d2 20 bc 5e 70 93 bb
       -0.012959375 -0.020979652 -0.009815798 -0.004499479
0001c0 96 85 2f 3b bc e3 12 3b 68 0d 15 bc 3f 8e 70 bc
       0.0026782504 0.0022413572 -0.009097435 -0.014682352
0001d0 26 19 dd bb aa b9 ca bb 8e 93 38 bc 77 7e 42 bc
       -0.0067473827 -0.0061866837 -0.0112656485 -0.011870972
0001e0 32 e6 98 bb 08 52 31 bc 46 eb 19 bc 7a 4e 4a bc
       -0.0046661133 -0.01082278 -0.009394472 -0.012347812
0001f0 da 47 0a bb 43 c8 1d 3b 22 03 0d bc 47 9f 39 bb
       -0.0021099956 0.0024075664 -0.008606704 -0.0028323696

action_model._continuous_distribution.log_sigma f4 [1, 2]
000000 50 c4 55 3c 45 aa e6 3b
       0.013047293 0.0070393407

action_model._continuous_distribution.mu.weight f4 [2, 128]
000000 97 39 60 bc 62 1c 41 3d 31 d2 93 3b 86 59 ec 3b
       -0.0136856055 0.04714621 0.0045111408 0.0072128205
000010 8a de 25 bb bb 71 56 bc 72 23 16 ba 30 c9 6b 3c
       -0.0025309646 -0.013088639 -0.00057273277 0.014391229
000020 cd d8 09 3c 12 b3 1e bc 8b aa c8 3b 44 56 81 bc
       0.008413506 -0.009686248 0.006123846 -0.015788205
000030 c7 9f 15 bc 85 b7 4b 3c 12 aa 83 3b 15 58 53 bc
       -0.009132332 0.012433891 0.0040180767 -0.012899418
000040 83 66 16 3c e9 b5 bd 3b 6b 23 cf bc f6 b6 65 3c
       0.009179714 0.0057895076 -0.025285443 0.014020672
000050 60 78 1b ba 3c 28 02 bc c9 89 db 3c de 5b af bc
       -0.0005930718 -0.007944163 0.0267991 -0.02140611
000060 2b be 85 39 1d 6a 5e b8 c7 04 6e 3c 56 41 bd 3c
       0.00025509423 -5.302775e-05 0.014527506 0.023102444
000070 e8 13 ad 3c fa c6 f9 3c dd 93 4a b9 54 ca bd ba
       0.021127656 0.030490387 -0.00019319305 -0.0014479854
000080 51 7f 24 3c 6d cf fa 3b 76 b9 27 bc d6 99 ca bc
       0.01004012 0.0076541216 -0.010237088 -0.024731558
000090 f5 c9 a5 3c bd 1b 37 3c b6 9d 00 3c f2 9c 2b 3b
       0.020237902 0.011176047 0.007850101 0.0026186076
0000a0 60 10 ef bb 79 93 13 bd 0c df 80 bb 0c d8 49 bc
       -0.007295653 -0.036029313 -0.0039328393 -0.012319576
0000b0 a7 2c 09 bc c9 62 e8 bb 1d 1c db 39 f4 3b 5b bc
       -0.008372462 -0.0070918542 0.0004179188 -0.013380993
0000c0 ea 40 f0 3c 16 5b 04 bb e3 22 5f bd 7a 44 ea 39
       0.029327828 -0.0020195893 -0.05447663 0.00044682977
0000d0 a4 08 2d bc 57 b6 3b bc 9a ea 58 3c d2 f6 89 3c
       -0.010561142 -0.011457047 0.013239527 0.016841326
0000e0 9f 03 c8 ba 6f 97 3b 3b 28 93 83 3a 1b e0 8e 3c
       -0.0015259868 0.0028624197 0.0010038363 0.017440846
0000f0 07 42 75 3c 9c 2e 2a 3c e4 6f c0 bc de d6 e4 bb
       0.014969355 0.010387089 -0.023490854 -0.006983622
000100 89 ed 8e 3c 3a 68 ae 3c a1 24 02 bc 90 a3 05 3c
       0.01744725 0.021289933 -0.007943303 0.008156672
000110 aa 5f e9 bb 30 d6 b7 3c 90 ba 81 3c 1a 49 5e ba
       -0.0071219997 0.022441 0.01583603 -0.0008479521
000120 80 5d 04 bc 0d 76 04 3d 2a 50 32 bb fc 30 0b 3d
       -0.008078933 0.032339144 -0.0027208426 0.033982262
000130 c3 22 17 3c b4 85 82 bb 80 19 15 3b dd 34 af bb
       0.009224596 -0.003983224 0.0022750795 -0.005346878
000140 0f 03 ae bb 71 05 04 3b 00 6b 9d 3a 5f 6e ac bb
       -0.005310423 0.0020144845 0.0012010038 -0.0052621807
000150 56 76 c4 3a 53 fc 52 3c 88 13 1e 3c 1e 78 97 bc
       0.001498888 0.012877542 0.009648211 -0.018489894
000160 0d 33 2b bd 60 e6 2c 3c bf 2f f9 bc 44 f3 1e 3c
       -0.041796733 0.010552973 -0.030418275 0.009701554
000170 aa 0c dd 3b d5 85 cc bb 15 43 59 3b 5b 86 a9 3c
       0.0067458944 -0.00624154 0.0033151556 0.020693948
000180 c5 ca 77 3b 10 2f 83 ba 19 b5 d2 bc a8 09 a1 bc
       0.003781007 -0.0010008533 -0.02572112 -0.019657925
000190 a3 be 32 bb bf d5 90 bb 2d 64 88 bc f5 96 13 bc
       -0.0027274273 -0.004420012 -0.01664933 -0.009008159
0001a0 3a ff 64 bb 55 7a 8a 3c a6 ce 87 b9 fa 15 f1 3b
       -0.0034942166 0.016904036 -0.00025903172 0.007357356
0001b0 1a 62 1d 3b 10 53 a2 39 8d 0b 8d 3a d3 6f e3 3c
       0.0024014772 0.00030960934 0.0010760889 0.027763283
0001c0 43 fd 9f 3c 67 27 e1 3c db f9 fc bb 18 ad 17 3c
       0.019529944 0.027484609 -0.007720215 0.009257577
0001d0 4c f4 64 bc 2c 54 6e bc 99 1d 40 bc 66 e2 9a 3a
       -0.013974261 -0.014546435 -0.011725807 0.001181674
0001e0 bd a8 ac 3b eb 0f 0b bc 8a cc c6 ba 0e cc b9 bb
       0.0052691386 -0.008487682 -0.0015167159 -0.005670077
0001f0 2f 39 a3 bc f3 c2 15 bd f7 3b b1 3b 3c c9 91 bb
       -0.019924728 -0.03656287 0.0054087597 -0.004449038
000200 c7 07 dd bc 2a e8 05 3c e9 c5 9c ba b4 d1 48 3c
       -0.026981248 0.008173028 -0.0011960837 0.012257028
000210 8a 39 47 3c 7b d1 5e bc 5b a4 11 3c 0d c0 00 bc
       0.0121597145 -0.013599749 0.008889283 -0.0078582885
000220 b8 a5 5d bb 1c da 6c bc ca 3f 13 bd d6 c8 f6 39
       -0.00338207 -0.014456298 -0.035949506 0.0004707041
000230 b1 be 60 3b a0 ee c3 3b fc d1 fb ba ad 78 58 3c
       0.0034293348 0.005979374 -0.001921236 0.013212365
000240 e3 0d 16 bc eb 5d 46 3c 56 39 be bb 22 4c d6 3b
       -0.009158584 0.012107353 -0.005805175 0.0065398375
000250 62 5a 0f 3c 3b 3a 7c 3c ce be f3 3c 52 02 3a 3c
       0.008749576 0.015394743 0.029754069 0.011353092
000260 58 f2 b9 bc b2 da 17 bb ff f3 81 3c 67 45 ef bb
       -0.022698566 -0.0023171124 0.015863417 -0.0073019746
000270 b1 dd 9b 3c 99 27 f8 38 1e 9c 68 bb 2b d1 82 3a
       0.01902661 0.00011832937 -0.0035493444 0.000998055
000280 9d 19 88 3c 69 b3 02 3d d7 05 24 bc 51 74 35 bc
       0.016613776 0.03190938 -0.010011158 -0.011075095
000290 df 96 57 3c c4 bb 32 bb c2 73 8d bb b7 ce d3 ba
       0.013158529 -0.0027272562 -0.004316778 -0.0016159628
0002a0 db b4 11 3b b5 1f be ba 21 50 06 3d 3c 56 7b bb
       0.0022233042 -0.0014505299 0.03279126 -0.003835096
0002b0 ea 5e bf 3b 7d 22 31 3c af fc 81 3c f5 8c f4 3c
       0.005840172 0.010811445 0.01586756 0.02985237
0002c0 a4 1b a9 bb 73 4e 20 3c db 90 08 bc dc a5 2a 3c
       -0.0051607657 0.009784329 -0.0083353175 0.0104155205
0002d0 f4 88 62 bb ee 4c 4f bb 1e 2e b1 bc 0f 1f b4 39
       -0.0034566494 -0.0031631547 -0.021628436 0.00034355416
0002e0 06 ba 2c 3c 20 f2 5a 3c 47 eb 82 3b 36 63 71 bc
       0.010542398 0.013363391 0.0039953324 -0.014733126
0002f0 4c aa c1 bb 02 38 55 3b c6 ff 8c bb ae f7 be bc
       -0.0059101935 0.0032534604 -0.0043029515 -0.023311462
000300 db de 8c 3b 62 c7 40 bc 56 99 b7 3c 1a f6 89 bc
       0.0042990274 -0.011766287 0.022411983 -0.016840983
000310 a5 ff bd bc 2f a7 4f 3c e3 28 66 bc 23 d4 7d bc
       -0.02319319 0.012674137 -0.014047834 -0.015492472
000320 90 ea bb bb cc d9 01 3c 25 98 71 3b cd 58 02 3d
       -0.005734749 0.007925462 0.0036864367 0.03182297
000330 bc 9d a8 3c 29 64 60 bc a3 15 b2 3b e3 9c bd bc
       0.020583026 -0.013695755 0.005434708 -0.023146098
000340 02 7a 3f 3b c3 21 75 3b e1 88 d9 ba e4 06 76 bc
       0.002921701 0.0037404157 -0.0016596579 -0.015016291
000350 6a 7b 42 ba 03 ec a6 bc df c0 b6 3c 4f 7d bc ba
       -0.0007418903 -0.020376211 0.022308765 -0.0014380607
000360 96 0d 8b 3b 2c fa 83 3c dc 0b 96 bc 24 11 98 3a
       0.004243563 0.016110502 -0.018316202 0.0011601788
000370 36 f9 5c 3c 33 1e 66 bc b8 cb 26 bc aa af f0 3c
       0.013487151 -0.014045286 -0.010180406 0.029380638
000380 98 65 2c bc ad 7a 27 bc 1f c0 ef 3a 4e 3a 5f 3a
       -0.010522269 -0.010222119 0.001829151 0.0008515463
000390 5a e0 da 3c 97 72 9b bc c5 58 94 bc 51 f7 bb 3c
       0.026718307 -0.01897554 -0.018108735 0.022945078
0003a0 14 2c 9c 3b 9b 01 30 3b 41 e1 a9 3c 22 71 25 bc
       0.0047659967 0.0026856426 0.020737292 -0.010097774
0003b0 a9 a2 8f 3b 09 61 12 bb 15 0c 52 3c 1d 3e 69 3b
       0.0043834043 -0.002233567 0.012820263 0.003559
0003c0 d8 50 13 3b 36 94 76 ba b3 7c 05 3c 99 3f 47 ba
       0.0022478607 -0.00094062404 0.008147406 -0.00076007243
0003d0 1e cc 81 3b 21 2e 54 bc 27 af 80 bb 07 37 df 3b
       0.0039611002 -0.012950451 -0.00392713 0.0068119797
0003e0 cf 31 4f bc aa 2b e0 bb 97 a6 2c bb 94 23 0a 3c
       -0.012646153 -0.0068411427 -0.0026344412 0.008431334
0003f0 50 3e 87 3c f2 4a 6d bb dd 60 20 3c 6c f6 89 3c
       0.016509205 -0.0036208 0.009788719 0.016841136

action_model._continuous_distribution.mu.bias f4 [2]
000000 cb 82 0f 3a 29 be 10 bb
       0.0005474507 -0.0022086
