results/random_orientation_reward_zero/DroneAgent/DroneAgent-9999978.pt (torch, 550234 bytes, 36 tensors)

network_body._body_endoder.seq_layers.0.weight f4 [128, 41]
0.12100068 -0.5524639 0.20225039 -0.011873629 0.67744726 0.22475322 0.23075768 0.85222125
-0.031688403 0.42405638 -0.034879625 0.63957006 -0.9293791 0.707658 -0.18281826 -0.51915604
-0.4816987 -0.28319702 -0.6239948 -0.3201813 -0.47272375 -0.015302666 -0.24858312 0.13305588
-0.32302397 0.4067432 0.40484306 0.10137448 -0.1336471 -0.1422039 0.07767543 0.061256286
0.15114942 0.16085696 0.25158313 -0.33891863 0.031039825 -0.48723608 -0.86256963 -1.0997208
-0.9682702 -0.38118812 0.30720595 -0.61838984 0.21405347 0.343653 0.13135584 -0.065565996
-0.25229076 0.59913987 -0.12561038 -0.09815523 0.4295665 1.11547 0.08229872 0.68233854
0.14787267 -0.052764583 0.11248103 0.25159833 0.19411273 -0.06257175 0.66300243 0.17989485
0.13990243 0.36457628 0.07471253 0.22603074 0.43014023 0.11223219 -0.020483872 -0.3460351
-0.075921565 -0.02011518 -0.2142558 -0.12252851 -0.20020853 0.3128503 -0.26134488 0.36438277
0.34674823 0.43645322 0.26298252 -0.21225697 -0.33983496 0.30562335 0.22253229 -0.29520786
-0.13534254 0.6478345 -0.26959345 0.84219694 -0.36646107 -0.47950315 0.04203106 0.26273578
0.21796368 -0.02544481 -0.21596791 0.016789282 -0.0031246599 0.1713311 -0.49910265 -0.016741265
-0.4885302 0.12132786 -0.27487528 0.3005695 0.076832995 0.3414425 0.10768268 0.42993712
-0.07677906 0.10913417 0.25756434 -0.31012544 -0.06455488 0.23412634 0.016927471 0.16228329
-0.6146648 -0.7915014 -1.1896696 -0.22801012 0.21165633 -0.28759262 -0.23292246 -0.012901176
-1.0458391 0.30848745 -0.0330927 0.19445945 -0.23837355 0.2850027 1.2541022 -0.7312313
-0.009406276 0.23320372 0.24158539 0.33853135 0.46662372 0.17572483 0.70860404 0.0680295
-0.26852828 0.4039579 -0.08624013 -0.023778275 -0.24963187 0.0837889 0.06721424 -0.58201
0.039311793 -0.157538 -0.7084541 -0.43578228 -0.6498898 -0.4599696 -0.051995527 -0.3344849
0.11326462 0.31380242 0.06468366 0.33636123 -0.11507708 0.76757663 0.08338161 0.74998397
-0.26584345 -0.47478655 0.029268948 -0.54256123 -0.5080192 0.08804633 -0.67645025 0.32455224
0.44264156 0.53480995 -0.061090842 -0.029663129 -0.05863199 0.15144816 0.040426258 0.21224889
0.05740485 -0.009436334 0.16404139 0.32210323 -0.061758053 -0.34331155 -0.08771907 -0.3283332
-0.5078693 -0.0947534 0.075662196 0.31073627 -0.2684108 0.39593184 0.060202304 0.08843646
-0.15305345 0.14454825 0.4358202 0.69286877 0.18480308 -0.35285863 0.24777545 -0.6902838
0.04660046 0.32835075 -0.07786172 0.040587667 0.13269642 -0.24805343 0.29687062 -0.27053273
0.37639886 -0.82546955 1.0112759 -0.025315272 -0.09080179 0.40065792 0.28398678 0.3282771
0.16962753 0.24067439 0.45206094 0.34741357 0.14108022 0.06580687 0.28068328 0.33723843
-0.005445718 0.041894518 0.30606312 -0.3976036 -0.31041652 -0.8044773 -0.2548843 -0.71333313
0.07406131 -0.34952226 0.2487666 0.5193399 0.7613112 0.074349396 0.10470746 -0.057740573
-0.20719616 0.4741893 0.44848353 0.04688609 0.17582206 -0.008058988 -0.244033 -0.8322696
00000000: 34cf f73d 466e 0dbf ba1a 4f3e 9c89 42bc
00000010: 2f6d 2d3f b525 663e be4b 6c3e 2c2b 5a3f
00000020: b3cb 01bd eb1d d93e f0dd 0ebd ddba 233f
00000030: caeb 6dbf 1329 353f b634 3bbe 69e7 04bf
00000040: 36a1 f6be 33ff 90be 20be 1fbf ceee a3be
00000050: d908 f2be 09b8 7abc 938c 7ebe cd3f 083e
00000060: 6663 a5be a540 d03e 9747 cf3e 6c9d cf3d
00000070: c9da 08be e69d 11be 4c14 9f3d dfe7 7a3d
00000080: eac6 1a3e b0b7 243e 81cf 803e be86 adbe
00000090: 3b47 fe3c 0277 f9be 5dd1 5cbf a7c3 8cbf
000000a0: 8ee0 77bf 172b c3be 194a 9d3e cc4e 1ebf
000000b0: d530 5b3e 49f3 af3e 2582 063e 7747 86bd
000000c0: 412c 81be 3b61 193f 02a0 00be 9c05 c9bd
000000d0: 24f0 db3e b9c7 8e3f 3b8c a83d bdad 2e3f
000000e0: ef6b 173e ad1f 58bd 745c e63d 7fd1 803e
000000f0: 7dc5 463e 9e25 80bd 87ba 293f 5b36 383e
00000100: 9542 0f3e bea9 ba3e e202 993d 9a74 673e
00000110: 573b dc3e fed9 e53d cbcd a7bc 832b b1be
00000120: c47c 9bbd 97c8 a4bc df65 5bbe 3af0 fabd
00000130: 7703 4dbe ea2d a03e ffce 85be 6190 ba3e
00000140: fc88 b13e cc76 df3e a5a5 863e e459 59be
00000150: d9fe adbe aa7a 9c3e 81df 633e 7c25 97be
00000160: 3c97 0abe 7bd8 253f 2708 8abe 389a 573f
00000170: c9a0 bbbe 7081 f5be c328 2c3d 4e85 863e
00000180: df31 5f3e a271 d0bc b126 5dbe ad89 893c
00000190: 18c7 4cbb 6b71 2f3e 628a ffbe fa24 89bc
000001a0: a120 fabe be7a f83d 74bc 8cbe 3fe4 993e
000001b0: 9e5a 9d3d 8dd1 ae3e bd88 dc3d b820 dc3e
000001c0: 573e 9dbd bc81 df3d 79df 833e c3c8 9ebe
000001d0: 5935 84bd d1be 6f3e 7bab 8a3c 972d 263e
000001e0: ac5a 1dbf d69f 4abf 1847 98bf 7c7b 69be
000001f0: 70bc 583e 573f 93be 3a83 6ebe 745f 53bc
00000200: 0ede 85bf 11f2 9d3e 368c 07bd 6120 473e
00000210: 3218 74be e0eb 913e 6c86 a03f f931 3bbf
00000220: c81c 1abc f5cc 6e3e 2962 773e fb53 ad3e
00000230: 4ee9 ee3e 36f1 333e 1367 353f 0d53 8b3d
00000240: 8a7c 89be 92d3 ce3e aa9e b0bd a8ca c2bc
00000250: 7f9f 7fbe 8499 ab3d 9fa7 893d 9bfe 14bf
00000260: 6705 213d a451 21be 3f5d 35bf db1e dfbe
00000270: 2e5f 26bf 2381 ebbe 43f9 54bd 9b41 abbe
00000280: 48f7 e73d b6aa a03e de78 843d 8a37 ac3e
00000290: 88ad ebbd e77f 443f fac3 aa3d f3fe 3f3f
000002a0: a21c 88be 3917 f3be 6fc5 ef3c 4be5 0abf
000002b0: 8c0d 02bf a251 b43d d82b 2dbf b62b a63e
000002c0: eaa1 e23e 4ee9 083f 643a 7abd 1700 f3bc
000002d0: 1928 70bd 3a15 1b3e 0196 253d c657 593e
000002e0: 5921 6b3d da9a 1abc 77fa 273e b7ea a43e
000002f0: 03f6 7cbd 88c6 afbe 0ea6 b3bd 4a1b a8be
00000300: b903 02bf 120e c2bd c8f4 9a3d d318 9f3e
00000310: 246d 89be 94b7 ca3e b196 763d 2d1e b53d
00000320: 0bba 1cbe 7504 143e d323 df3e d95f 313f
00000330: 053d 3d3e e3a9 b4be d9b8 7d3e 70b6 30bf
00000340: 20e0 3e3d 971d a83e f775 9fbd 413f 263d
00000350: 92e1 073e b801 7ebe 6dff 973e 4483 8abe
00000360: 5ab7 c03e f951 53bf 7d71 813f f961 cfbc
00000370: 4af6 b9bd 0923 cd3e b766 913e f013 a83e
00000380: d7b2 2d3e 5973 763e 8874 e73e 31e0 b13e
00000390: 5577 103e c1c5 863d b8b5 8f3e 84aa ac3e
000003a0: fe71 b2bb 9699 2b3d 4eb4 9c3e b392 cbbe
000003b0: eaee 9ebe 39f2 4dbf 3280 82be 009d 36bf
000003c0: 75ad 973d 95f4 b2be acbc 7e3e 76f3 043f
000003d0: 4ae5 423f 7f44 983d dd70 d63d 6181 6cbd
000003e0: 3b2b 54be f1c8 f23e a29f e53e a10b 403d
000003f0: b30a 343e d809 04bc c9e3 79be 9f0f 55bf

network_body._body_endoder.seq_layers.0.bias f4 [128]
-0.6443815 0.2810412 -1.0124065 0.27740434 0.1547374 0.1385121 -0.33371118 -0.12710826
0.28761715 -0.42096126 -0.41910416 0.14016683 -0.100310445 0.063457094 0.6547009 -0.34128124
-0.36690122 -0.09529648 -0.3615644 0.6119735 0.1813192 0.33264822 -0.0070151086 0.28907263
-0.3128696 -0.58238614 0.48170266 -0.5860634 -0.5425817 0.84507656 0.38877317 -0.49312198
-0.3433016 -0.22602631 -0.49515688 0.035711687 0.10799589 0.24221464 -0.5371316 0.507632
-0.10383739 -0.08760355 -0.55263907 0.09410807 0.6266623 -0.2659999 0.25579768 -0.044618897
-0.66801 0.12908165 -0.14069344 -0.62004393 -0.07889647 0.15459065 0.5138125 0.11956922
0.20283471 -0.7104081 0.022509623 0.20174041 -0.91548324 0.021452555 0.08511132 -0.6624078
-0.40943992 -0.05654358 -0.39611825 -0.38055176 0.22417776 0.5067666 0.101154596 -0.34177968
-0.039072607 0.34541073 -0.8103712 -0.97005266 -0.12912127 0.39462817 -1.384468 0.26786795
0.18685536 -0.763265 -0.56318396 0.025319355 0.1015592 -0.84258604 -0.056767367 -0.69417936
-0.43816432 1.1501781 -0.8580911 -0.0041701626 -0.13203162 0.07863329 -0.5651423 0.34517795
0.37395254 -0.33582062 -0.8940993 0.04760255 -1.0261493 0.39440098 -0.2646094 0.60186476
0.6863525 0.27121437 0.44862485 0.48745716 0.62275696 -0.2398601 0.12938675 0.41936415
-0.54707503 -0.4205459 0.20740983 0.13974255 -0.5056273 0.47868764 -0.2285648 -0.8082897
0.4538125 -0.75211275 0.048783895 0.493668 -0.088870645 -0.6592834 0.68729967 -0.5217308
00000000: 30f6 24bf a2e4 8f3e 8996 81bf f107 8e3e
00000010: 7b73 1e3e 1ed6 0d3e 31dc aabe ab28 02be
00000020: 8e42 933e 3c88 d7be d294 d6be e587 0f3e
00000030: 906f cdbd cbf5 813d 7a9a 273f 6abc aebe
00000040: 7ada bbbe cd2a c3bd f81e b9be 4caa 1c3f
00000050: beab 393e de50 aa3e ffde e5bb 5401 943e
00000060: 7230 a0be 4217 15bf bba1 f63e 4008 16bf
00000070: a2e6 0abf f056 583f 470d c73e 7c7a fcbe
00000080: 3ac5 afbe 7173 67be 3485 fdbe 6b46 123d
00000090: f32c dd3d 1d07 783e 7581 09bf 2cf4 013f
000000a0: b3a8 d4bd 7d69 b3bd c179 0dbf bbbb c03d
000000b0: f16c 203f 2431 88be eaf7 823e 4ec2 36bd
000000c0: b402 2bbf fb2d 043e f111 10be 33bb 1ebf
000000d0: 7994 a1bd 034d 1e3e 3789 033f b5e0 f43d
000000e0: e7b3 4f3e 4edd 35bf 1a66 b83c 0a95 4e3e
000000f0: 1c5d 6abf 45bd af3c d84e ae3d 8f93 29bf
00000100: 1ca2 d1be 3e9a 67bd 03d0 cabe aed7 c2be
00000110: db8e 653e 75bb 013f 242a cf3d bffd aebe
00000120: 990a 20bd add9 b03e 7d74 4fbf 5f55 78bf
00000130: 5e38 04be b40c ca3e 3f36 b1bf fd25 893e
00000140: 0357 3f3e 5665 43bf d32c 10bf 896a cf3c
00000150: 45fe cf3d b8b3 57bf e684 68bd bdb5 31bf
00000160: 1357 e0be 0939 933f dcab 5bbf dca5 88bb
00000170: 4c33 07be 7e0a a13d 2aad 10bf 2abb b03e
00000180: b576 bf3e aef0 abbe b1e3 64bf e4fa 423d
00000190: dc58 83bf edee c93e e27a 87be cf13 1a3f
000001a0: ccb4 2f3f 9cdc 8a3e 28b2 e53e fc93 f93e
000001b0: 006d 1f3f e39d 75be f67d 043e e6b6 d63e
000001c0: 1c0d 0cbf cb51 d7be 3e63 543e ac18 0f3e
000001d0: ca70 01bf 8c16 f53e e40c 6abe 13ec 4ebf
000001e0: 1d5a e83e 768a 40bf 9fd1 473d 0dc2 fc3e
000001f0: d001 b6bd ccc6 28bf dff2 2f3f 2690 05bf

network_body._body_endoder.seq_layers.2.weight f4 [128, 128]
0.11232921 -0.33744976 0.15406948 -0.07289468 -0.32963774 -0.21594782 -0.12658916 0.18984267
-0.15666747 0.01892911 0.16893294 -0.09472675 -0.4279033 0.040446136 -0.41053972 -0.24255674
0.38671765 -0.59118557 0.2737129 -0.278433 -0.09635085 -0.2035195 -0.12367407 -0.3956225
-0.050738487 -0.3749064 -0.39454848 0.23288904 0.06628391 0.19466263 -0.5248572 0.18001245
-0.29249656 0.24933004 -0.091333866 -0.058455735 0.0052434434 -0.34561303 0.5379114 -0.3833241
-0.53383076 -0.09832311 0.4158455 -0.31112382 -0.27138606 0.3016329 -0.07861853 -0.21422486
-0.08769574 -0.29696676 -0.21373406 0.21044172 -0.1695557 -0.017823279 0.090734266 -0.53821105
-0.08176821 0.079061955 -0.3022066 -0.4597423 0.21475196 -0.39909515 -0.20696874 0.23748977
0.14300348 0.050922655 0.45981652 -0.17763908 -0.045225814 -0.20033199 -0.095817335 0.08626838
-0.36515126 -0.056798216 0.01816506 -0.14393815 -0.2536455 -0.52653235 -0.05145641 -0.15590236
-0.28844804 0.06572316 0.35577506 -0.356758 -0.20052923 0.19793199 -0.082706496 0.31812647
-0.33090267 -0.32097185 -0.09695241 -0.10027618 -0.5443116 -0.5703844 0.19923228 -0.10162937
-0.25186282 -0.08387626 -0.1468758 0.08269872 0.1598174 -0.079897895 -0.15356673 -0.4510061
-0.43600124 -0.21671295 -0.50275743 -0.31041884 -0.22877184 0.07433456 -0.017580593 -0.20566754
0.11150035 -0.04608361 -0.27310827 -0.2226405 -0.019946191 -0.23131369 0.13553174 0.29688677
-0.19992012 -0.08459662 -0.070482075 -0.23119824 -0.09065622 -0.18559562 0.06783774 0.5032213
0.3880335 -0.15734974 0.5758852 -0.5209496 -0.49861327 -0.41954777 -0.34764984 0.16093197
-0.72618526 -0.1653432 0.32734105 0.30119517 -0.30674848 -0.09522123 -0.29851073 -0.6819915
0.012188416 0.33494717 0.041718338 0.13971281 0.26202625 -0.027573053 0.30773824 -0.26048476
0.15814799 0.06297095 -0.27353778 0.26435095 -0.32473743 -0.1281778 0.01835394 0.018749297
0.6365685 0.06514952 0.43044996 0.04737228 0.17676644 -0.115396105 0.20894821 0.184782
-0.14992984 0.12901904 0.5303926 -0.07436822 -0.3101631 0.22267196 -0.4510519 -0.08743001
0.3046018 -0.07954771 -0.42219707 0.045379095 0.2040711 -0.24688719 -0.1440047 -0.27329063
-0.6915177 0.12210855 0.11562831 0.08567594 0.6327374 -0.12503932 0.14975518 -0.01747283
-0.16909617 0.49000114 -0.13747203 -0.16484347 0.0070731416 -0.020186206 0.10983078 -0.02587561
0.10317744 -0.047644917 0.22815968 -0.12198269 0.1514091 -0.66815937 0.16875158 -0.09969117
-0.0630607 0.26616558 -0.049667273 -0.4929074 0.42919058 0.16462754 0.11592539 0.031801872
0.13735075 0.19788493 0.20258766 0.10789692 -0.3382446 -0.5011849 0.39606512 -0.4133449
-0.09825644 -0.03753171 0.697641 0.3257425 0.21181743 0.24915607 0.3875024 -0.2922523
0.29829827 0.1812208 -0.11063725 -0.25210407 0.44061863 -0.5257548 -0.0037672902 0.17585157
0.2891803 0.04391646 -0.6491244 0.3984563 0.1598387 -0.2562383 0.15136267 0.48102522
0.03955343 0.11720212 -0.1295614 -0.3279743 0.24019012 0.11763843 -0.17239273 0.12594353
00000000: db0c e63d 37c6 acbe 64c4 1d3e ce49 95bd
00000010: 47c6 a8be 6d21 5dbe 97a0 01be 1e66 423e
00000020: 706d 20be 3911 9b3c c2fc 2c3e 1900 c2bd
00000030: 2416 dbbe d9aa 253d 4332 d2be cb60 78be
00000040: dbff c53e f057 17bf 1924 8c3e c58e 8ebe
00000050: 9853 c5bd 6a67 50be d548 fdbd 088f cabe
00000060: 29d3 4fbd bbf3 bfbe 4202 cabe 777a 6e3e
00000070: dcbf 873d a455 473e 0b5d 06bf 2f55 383e
00000080: 1cc2 95be 6050 7f3e 400d bbbd 486f 6fbd
00000090: 31d1 ab3b 31f4 b0be 90b4 093f 0e43 c4be
000000a0: 22a9 08bf a05d c9bd b4e9 d43e 9f4b 9fbe
000000b0: 1df3 8abe a16f 9a3e c002 a1bd c35d 5bbe
000000c0: d399 b3bd 070c 98be 1add 5abe 097e 573e
000000d0: 02a0 2dbe 2002 92bc e3d2 b93d 33c8 09bf
000000e0: 1776 a7bd 3ceb a13d d3ba 9abe 5863 ebbe
000000f0: f0e7 5b3e 3356 ccbe 9def 53be 8530 733e
00000100: 816f 123e 4694 503d 126d eb3e 05e7 35be
00000110: b43e 39bd d423 4dbe e13b c4bd 7aad b03d
00000120: 1bf5 babe 3fa5 68bd e4ce 943c 8664 13be
00000130: d3dd 81be d3ca 06bf f5c3 52bd dea4 1fbe
00000140: 76af 93be dd99 863d 2628 b63e fca8 b6be
00000150: 8957 4dbe afae 4a3e 0662 a9bd 79e1 a23e
00000160: 136c a9be 6c56 a4be fc8e c6bd 995d cdbd
00000170: 0158 0bbf b604 12bf 8c03 4c3e 0f23 d0bd
00000180: 2af4 80be 51c7 abbd 9c66 16be f25d a93d
00000190: 2ca7 233e 82a1 a3bd 9940 1dbe 46ea e6be
000001a0: 8e3b dfbe 00ea 5dbe b6b4 00bf 38ef 9ebe
000001b0: 2a43 6abe b83c 983d 2d05 90bc 839a 52be
000001c0: 4c5a e43d 2bc2 3cbd d9d4 8bbe dffb 63be
000001d0: 3266 a3bc 7fdd 6cbe d5c8 0a3e 8b01 983e
000001e0: dcb7 4cbe fe40 adbd e858 90bd 3bbf 6cbe
000001f0: f8a9 b9bd c70c 3ebe 83ee 8a3d 1cd3 003f
00000200: 54ac c63e 4a20 21be 366d 133f f45c 05bf
00000210: 3d4a ffbe f7ce d6be 29ff b1be 5acb 243e
00000220: 47e7 39bf ba4f 29be 3f99 a73e 4136 9a3e
00000230: 230e 9dbe 5903 c3bd 66d6 98be ff96 2ebf
00000240: ecb1 473c 327e ab3e d9e0 2a3d e010 0f3e
00000250: 4e28 863e e2e0 e1bc de8f 9d3e 425e 85be
00000260: 8cf1 213e eaf6 803d 250d 8cbe 0259 873e
00000270: fc43 a6be 0b41 03be 015b 963c 2098 993c
00000280: 27f6 223f 1d6d 853d f063 dc3e 7009 423d
00000290: 4302 353e cb54 ecbd 85f6 553e 7e37 3d3e
000002a0: 3587 19be 911d 043e cfc7 073f 5e4e 98bd
000002b0: b3cd 9ebe 1e04 643e 46f0 e6be 810e b3bd
000002c0: c4f4 9b3e e9e9 a2bd 372a d8be 6edf 393d
000002d0: 04f8 503e ffcf 7cbe f875 13be c0ec 8bbe
000002e0: 4e07 31bf 0c14 fa3d 89ce ec3d de76 af3d
000002f0: 14fb 213f 4f0a 00be 6c59 193e 2e23 8fbc
00000300: 8c27 2dbe 6ee1 fa3e 78c5 0cbe bacc 28be
00000310: d0c5 e73b 8b5d a5bc f6ee e03d 16f9 d3bc
00000320: b24e d33d 5127 43bd b1a2 693e 10d2 f9bd
00000330: fd0a 1b3e 7e0c 2bbf 37cd 2c3e e22a ccbd
00000340: f825 81bd db46 883e e96f 4bbd 5c5e fcbe
00000350: debe db3e 1f94 283e 4a6a ed3d ae42 023d
00000360: ada5 0c3e 59a2 4a3e 2473 4f3e 0ff9 dc3d
00000370: 652e adbe a74d 00bf 0cc9 ca3e f1a1 d3be
00000380: ac3a c9bd daba 19bd 9a98 323f b9c7 a63e
00000390: abe6 583e c522 7f3e b766 c63e 18a2 95be
000003a0: 8dba 983e f291 393e c895 e2bd c913 81be
000003b0: c498 e13e de97 06bf a4e4 76bb 6f12 343e
000003c0: 710f 943e bfe1 333d 042d 26bf 7702 cc3e
000003d0: c2ac 233e ab31 83be d1fe 1a3e f048 f63e
000003e0: c702 223d aa07 f03d beab 04be 3fec a7be
000003f0: 66f4 753e 6bec f03d b887 30be 57f7 003e

network_body._body_endoder.seq_layers.2.bias f4 [128]
-0.5287016 0.13494572 -0.18372163 -0.066855796 -0.3580802 -0.03829422 -0.56106615 -0.34441185
-0.45873785 -0.5060055 -0.61802095 -0.36607152 -0.39433622 -0.07991015 -0.24047235 -0.07323239
-0.4449798 -0.5890338 -0.25773263 -0.052529447 -0.51336265 -0.26999673 -0.5230003 -0.43580258
-0.26715413 -0.20554215 -0.50666136 -0.45604238 -0.04085704 -0.4015206 -0.32552698 0.21241137
-0.44133288 -0.43877938 -0.3934885 -0.6179448 0.15036258 -0.35052976 -0.19837084 0.056132674
-0.31124485 -0.44936964 0.14974336 -0.4244656 -0.25061795 -0.49508867 -0.18124318 -0.5349031
-0.06448002 -0.453643 -0.19880787 -0.25353968 -0.15127105 -0.15772964 -0.1975072 -0.42245972
-0.07749286 -0.29332882 -0.080478646 -0.121603295 0.061003234 -0.3501094 -0.41356063 -0.17797308
-0.3596499 -0.5759462 -0.196523 -0.1826099 -0.18076588 -0.21419205 -0.03634791 -0.41925517
-0.42155743 -0.5556062 -0.57613313 -0.4365257 -0.5804404 -0.5778267 -0.4603883 -0.30354157
-0.0886874 -0.1573968 -0.3443299 -0.18320191 -0.5335378 -0.58344626 -0.21848488 -0.48510835
-0.23025227 -0.56432366 -0.21983774 -0.30636516 -0.049139507 -0.1366283 -0.558765 -0.58822113
-0.33991954 -0.31254947 -0.18561953 -0.22454295 -0.16325283 -0.25707045 -0.112523474 -0.45035437
0.22758304 -0.48035756 0.22383678 -0.17938855 -0.3915787 -0.0026729573 -0.08191361 -0.5069339
-0.49448922 -0.40744463 -0.12338709 -0.01111012 -0.5592256 -0.1794632 -0.45391458 -0.16454615
-0.544936 0.020537602 -0.25904757 -0.5618508 -0.047838848 -0.15853523 -0.5787017 -0.362098
00000000: fd58 07bf 362f 0a3e 8621 3cbe b1eb 88bd
00000010: 4a56 b7be 66da 1cbd 08a2 0fbf c056 b0be
00000020: b0df eabe 9489 01bf 9f36 1ebf ba6d bbbe
00000030: 70e6 c9be efa7 a3bd 623e 76be ddfa 95bd
00000040: 64d4 e3be ebca 16bf 88f5 83be 1e29 57bd
00000050: bc6b 03bf 033d 8abe 59e3 05bf 8421 dfbe
00000060: 6dc8 88be a479 52be 8fb4 01bf 637e e9be
00000070: b659 27bd 1c94 cdbe 79ab a6be 5e82 593e
00000080: 62f6 e1be b1a7 e0be 5377 c9be a131 1ebf
00000090: a6f8 193e a378 b3be ba21 4bbe 60eb 653d
000000a0: 7c5b 9fbe c713 e6be 5356 193e 8e53 d9be
000000b0: ff50 80be 437c fdbe d097 39be 69ef 08bf
000000c0: 1a0e 84bd e543 e8be 4a94 4bbe f4cf 81be
000000d0: cce6 1abe e183 21be 543f 4abe a44c d8be
000000e0: 94b4 9ebd 322f 96be fdd1 a4bd 260b f9bd
000000f0: 87de 793d 8a41 b3be 38be d3be 933e 36be
00000100: 0824 b8be 3671 13bf 533d 49be 17fe 3abe
00000110: b11a 39be 2955 5bbe 8ce1 14bd 9da8 d6be
00000120: 60d6 d7be 353c 0ebf 767d 13bf 4c80 dfbe
00000130: be97 14bf 73ec 13bf 04b8 ebbe cd69 9bbe
00000140: bda1 b5bd a02c 21be 024c b0be 4899 3bbe
00000150: ef95 08bf bc5c 15bf 80ba 5fbe 1f60 f8be
00000160: 40c7 6bbe 8477 10bf 251d 61be e5db 9cbe
00000170: 8246 49bd 4ae8 0bbe 390b 0fbf a995 16bf
00000180: ef09 aebe 7c06 a0be 0c13 3ebe 96ee 65be
00000190: c02b 27be bd9e 83be b572 e6bd d994 e6be
000001a0: 870b 693e 6df1 f5be 7835 653e a2b1 37be
000001b0: 017d c8be c82c 2fbb 53c2 a7bd 6cc6 01bf
000001c0: b12d fdbe 959c d0be 5fb2 fcbd 3907 36bc
000001d0: 6929 0fbf 33c5 37be 7e67 e8be c97e 28be
000001e0: ed80 0bbf 793e a83c e2a1 84be 74d5 0fbf
000001f0: abf2 43bd 0f57 22be cb25 14bf e964 b9be

action_model._continuous_distribution.log_sigma f4 [1, 2]
-4.7802324 -5.1229577
00000000: aaf7 98c0 45ef a3c0

action_model._continuous_distribution.mu.weight f4 [2, 128]
0.023173433 -0.104052365 0.024947086 0.35477707 0.015338908 -0.18007497 0.08625496 -0.21396783
-0.045795664 0.14719528 0.12746923 0.0046656854 0.113616124 -0.27661172 0.14273086 0.086905785
0.1109039 0.014049359 0.15255995 -0.051633656 0.037079968 0.40240562 -0.15047032 -0.022991685
0.17958105 0.11311572 0.03347114 0.040409956 0.20851523 -0.05401303 0.01788388 0.6148339
0.031051164 -0.2377989 0.19107372 0.064892516 -0.036500398 -0.015213969 0.18692742 0.18022117
0.045521904 0.15488702 0.38096964 0.012889727 -0.072613455 0.2030805 0.10517109 0.13025755
-0.10633441 0.1340357 -0.044401802 -0.045747027 0.17127043 0.13469276 0.24410562 0.0030888375
-0.29877168 0.2540038 0.031097054 0.09848224 0.5893569 0.15778963 0.013976583 -0.018844072
-0.2892635 0.087397106 0.041210108 -0.2633747 0.12857836 0.092174165 0.28767332 0.2862635
0.12984268 -0.083048485 -0.010264492 -0.11962106 0.058114547 -0.011452415 0.14242016 0.0074519925
0.3447339 -0.111209534 -0.115000956 0.0899497 -0.046137217 0.043633234 0.050082274 0.032423336
0.15251215 0.07399389 -0.034217298 -0.07603418 -0.07749037 -0.23825848 0.114298835 0.031629466
-0.05730215 0.2799233 0.29022798 0.06662043 0.0073647182 0.21081458 -0.22094136 -0.121806346
0.52566373 0.09845837 -0.19484249 -0.10245797 -0.013231496 -0.11183294 0.4291391 -0.046028003
0.023291763 -0.032291982 0.23945735 -0.08653098 -0.0011157854 -0.11382685 0.0045587015 -0.2479748
-0.17015085 0.25023687 -0.013756462 0.02210764 0.33984956 0.048024483 0.02124545 0.09135323
0.11585997 -0.1578931 0.07655249 -0.06937221 -0.026831731 -0.031949554 -0.030998716 -0.12515342
0.0015259333 -0.030548604 0.010454443 -0.115132645 -0.09126779 0.002760513 -0.22072792 0.018502465
-0.12743549 -0.04684212 -0.3236695 -0.28102365 0.004029532 -0.27569473 0.1277117 0.114407584
-0.026213644 -0.07871023 -0.0737302 -0.05223991 0.06539825 0.018105298 0.093870215 -0.104662284
-0.008122942 -0.1765171 0.0595231 0.02157962 -0.38899285 0.059289552 0.029632635 -0.15255511
-0.0945871 -0.1319835 0.07108037 0.028209953 -0.036974788 -0.1298066 -0.13862395 -0.13006231
0.13729449 -0.078318596 0.25226906 -0.024935985 -0.14792792 0.21229054 -0.00012966825 -0.0117063755
0.04658281 -0.2689041 0.08263405 0.014822001 0.009353049 -0.09952829 -0.015215929 0.058247317
0.018919911 0.008992116 -0.17559135 -0.1532661 -0.11577944 -0.23817974 -0.09095341 0.18127836
0.10365547 0.058275234 -0.013496586 -0.050622854 0.023498597 0.0065738996 -0.010797261 0.16567749
0.16343166 0.18834431 -0.013137481 -0.23223497 -0.0053641372 -0.002776496 -0.07834939 -0.08995898
-0.08211396 -0.05995065 -0.07332668 -0.27964035 -0.37864542 -0.036060695 -0.014878971 -0.13818748
0.089924075 -0.04137052 0.028892426 0.060632158 -0.0032247682 0.054587778 -0.057055835 0.04457467
-0.35331708 -0.31794864 -0.42448843 0.16689913 -0.009677213 -0.39743504 0.1662782 -0.053449813
0.15928484 -0.087509945 0.21569754 -0.03040738 -0.051954374 0.010905883 0.00021405926 -0.027782237
-0.016843371 -0.17599148 0.053821664 0.024089942 -0.080689125 -0.14286223 0.063786045 -0.12808165
00000000: 36d6 bd3c 6819 d5bd d55d cc3c 57a5 b53e
00000010: 0b50 7b3c 9365 38be 71a6 b03d 621a 5bbe
00000020: 3c94 3bbd 5cba 163e 4b87 023e 9be2 983b
00000030: 92af e83d 0da0 8dbe 0a28 123e a9fb b13d
00000040: 9521 e33d 482f 663c ad38 1c3e d07d 53bd
00000050: 2ae1 173d 1c08 ce3e e414 1abe 0f59 bcbc
00000060: 18e4 373e 37a9 e73d 0919 093d e984 253d
00000070: 0485 553e c43c 5dbd 3781 923c c165 1d3f
00000080: 035f fe3c 8e81 73be d4a8 433e 5ee6 843d
00000090: 7181 15bd 0344 79bc e769 3f3e e68b 383e
000000a0: 2d75 3a3d b49a 1e3e 740e c33e 6f2f 533c
000000b0: 5db6 94bd 56f4 4f3e f163 d73d 3c62 053e
000000c0: dbc5 d9bd a840 093e aade 35bd 3c61 3bbd
000000d0: 8461 2f3e e6ec 093e d3f6 793e 186e 4a3b
000000e0: 9af8 98be c90c 823e 40bf fe3c 0fb1 c93d
000000f0: 18e0 163f 9b93 213e 0afe 643c e25e 9abc
00000100: 581a 94be 41fd b23d eecb 283d 0cd9 86be
00000110: 0caa 033e cfc5 bc3d eb49 933e 2191 923e
00000120: 7bf5 043e 5315 aabd 662c 28bc e3fb f4bd
00000130: 8509 6e3d e9a2 3bbc 97d6 113e d82f f43b
00000140: f680 b03e d3c1 e3bd 9f85 ebbd 8c37 b83d
00000150: 61fa 3cbd c3b8 323d 1223 4d3d 55ce 043d
00000160: 252c 1c3e 1c8a 973d 7027 0cbd cfb7 9bbd
00000170: 45b3 9ebd 08fa 73be 8215 ea3d e68d 013d
00000180: a9b5 6abd 1b52 8f3e c398 943e 4b70 883d
00000190: bc53 f13b c7df 573e 743e 62be 9b75 f9bd
000001a0: e691 063f 8ba4 c93d ca84 47be 7cd5 d1bd
000001b0: ebc8 58bc ab08 e5bd 1fb8 db3e dc87 3cbd
000001c0: 5ece be3c 9944 04bd 4f34 753e 2837 b1bd
000001d0: 8c3f 92ba 0d1e e9bd 2961 953b 1bed 7dbe
000001e0: 063c 2ebe 0c1f 803e c962 61bc 151b b53c
000001f0: c300 ae3e 52b5 443d f00a ae3c 6717 bb3d
00000200: fe47 ed3d bbae 21be 8dc7 9c3d 0413 8ebd
00000210: 38ce dbbc 89dd 02bd 05f1 fdbc 3828 00be
00000220: d301 c83a 1141 fabc 1d49 2b3c aaca ebbd
00000230: 9bea babd b9e9 343b 8006 62be 7b92 973c
00000240: 737e 02be 86dd 3fbd 02b8 a5be 55e2 8fbe
00000250: 2a0a 843b dc27 8dbe dbc6 023e 864e ea3d
00000260: ffbd d6bc d432 a1bd dcff 96bd 84f9 55bd
00000270: 85ef 853d 9051 943c 073f c03d 2e59 d6bd
00000280: 1716 05bc e6c0 34be 7ece 733d bec7 b03c
00000290: 122a c7be 9ad9 723d 24c0 f23c 6837 1cbe
000002a0: e2b6 c1bd af26 07be 9692 913d 8f18 e73c
000002b0: e072 17bd 05ec 04be 70f3 0dbe 0e2f 05be
000002c0: ed96 0c3e 8065 a0bd 6929 813e 8d46 ccbc
000002d0: 6b7a 17be b162 593e 8ef7 07b9 19cc 3fbc
000002e0: 9ecd 3e3d ccad 89be 0a3c a93d fad7 723c
000002f0: 883d 193c 7dd5 cbbd 3b4c 79bc bd94 6e3d
00000300: eefd 9a3c ab53 133c 38ce 33be caf1 1cbe
00000310: c51d edbd 64e5 73be c845 babd 09a1 393e
00000320: 5249 d43d 03b2 6e3d c920 5dbc e959 4fbd
00000330: 2180 c03c de69 d73b ffe6 30bc 5ca7 293e
00000340: a15a 273e 55dd 403e 973e 57bc 01cf 6dbe
00000350: a5c5 afbb e0f5 35bb a575 a0bd 6a3c b8bd
00000360: 5d2b a8bd d08e 75bd 4c2c 96bd 052d 8fbe
00000370: d0dd c1be 61b4 13bd edc6 73bc 0581 0dbe
00000380: 1d2a b83d 2274 29bd cfaf ec3c 6d59 783d
00000390: a256 53bb 6f97 5f3d 61b3 69bd ee93 363d
000003a0: fae5 b4be 2aca a2be 8c56 d9be 9be7 2a3e
000003b0: 2c8d 1ebc 9b7c cbbe d544 2a3e 31ee 5abd
000003c0: 911b 233e 6a38 b3bd d1df 5c3e e618 f9bc
000003d0: 1cce 54bd 97ae 323c 1875 6039 9397 e3bc
000003e0: 1cfb 89bc 1c37 34be 1b74 5c3d 4558 c53c
000003f0: 5740 a5bd 7a4a 12be 42a2 823d d627 03be

action_model._continuous_distribution.mu.bias f4 [2]
-0.17715241 0.066346355
00000000: 7167 35be 99e0 873d

exp_avg f4 [128, 41]
-3.9802953e-06 -3.757058e-05 1.8885132e-07 -2.1937474e-07 5.7186448e-08 -5.8488578e-08 2.441675e-07 1.0747124e-07
7.3650575e-08 1.9626619e-08 -1.7717869e-07 -1.202844e-07 -6.9013034e-10 2.3954762e-08 4.7758264e-12 -5.855563e-06
-2.9277787e-06 -5.0710655e-06 -5.07107e-06 -2.927784e-06 -5.855568e-06 -3.4901905e-13 -5.07107e-06 2.9277844e-06
-2.9277844e-06 5.07107e-06 5.1191e-13 5.855568e-06 2.927784e-06 5.07107e-06 5.07107e-06 2.927783e-06
5.855568e-06 -3.4901905e-13 5.071071e-06 -2.9277826e-06 2.9277896e-06 -5.0710655e-06 5.767725e-07 6.2361244e-07
-4.1547614e-06 0.00027042322 -0.007424586 0.00034722072 0.00028274657 0.00035738264 0.0010381353 6.410576e-05
-0.00041905444 -9.6551776e-05 -5.24097e-05 0.00014807822 0.00015980138 1.4182416e-05 -0.00011918225 1.992202e-14
-0.00063124363 -0.00031562182 -0.0005466733 -0.0005466733 -0.00031562182 -0.00063124363 -3.7625056e-11 -0.0005466733
0.00031562208 -0.00031562208 0.0005466733 5.5184975e-11 0.00063124363 0.00031562184 0.0005466733 0.0005466733
0.0003156218 0.00063124363 -3.7625056e-11 0.0005466731 -0.00031562173 0.00031562214 -0.000546673 0.002279978
0.0022810663 0.0005565932 -5.4683638e-05 -0.0002879706 -8.347087e-06 -8.457479e-06 -5.9083964e-06 -1.4292521e-05
4.792149e-06 1.5901132e-05 1.2888485e-06 3.914148e-06 -2.2393601e-06 -4.5954976e-06 1.3271716e-07 1.8788159e-06
-2.2820798e-17 -5.8402526e-05 -2.9201263e-05 -5.0578074e-05 -5.0578074e-05 -2.9201263e-05 -5.8402526e-05 -3.4810624e-12
-5.0578074e-05 2.9201272e-05 -2.9201272e-05 5.0578074e-05 5.105712e-12 5.8402526e-05 2.9201268e-05 5.0578074e-05
5.0578074e-05 2.9201261e-05 5.8402526e-05 -3.4810624e-12 5.0578088e-05 -2.920126e-05 2.9201276e-05 -5.0578074e-05
-1.6931912e-05 -1.5060838e-05 -5.6460358e-05 0.00033681805 0.0004331659 7.2352974e-05 4.928937e-05 -3.5249745e-05
-3.793335e-05 0.000106509535 4.512338e-05 -5.532079e-05 2.0500522e-05 1.2089713e-05 -5.567522e-05 1.4010534e-05
-7.4815514e-05 -2.0899534e-11 0.00037170647 0.00018585323 0.00032190725 0.00032190725 0.00018585323 0.00037170647
2.2155432e-11 0.00032190725 -0.00018585328 0.00018585328 -0.00032190725 -3.251095e-11 -0.00037170647 -0.00018585323
-0.00032190725 -0.00032190725 -0.00018585322 -0.00037170647 2.2155432e-11 -0.00032190728 0.00018585319 -0.0001858533
0.0003219072 0.0007402133 0.0007544642 0.0011542109 0.0010388426 0.004725122 9.201081e-05 4.5332126e-05
0.00014899932 0.0002918151 -6.0579507e-05 -0.00019024007 5.5284814e-05 -8.038786e-05 2.9696716e-05 0.00020125449
-2.5253323e-05 6.9406924e-05 -3.2995596e-11 0.0011381435 0.00056907174 0.0009856613 0.0009856613 0.00056907185
0.0011381437 6.783865e-11 0.0009856613 -0.0005690719 0.0005690719 -0.0009856613 -9.950915e-11 -0.0011381437
-0.00056907185 -0.0009856613 -0.0009856613 -0.00056907174 -0.0011381437 6.783865e-11 -0.0009856614 0.0005690717
-0.000569072 0.0009856613 -0.00026756042 -0.00027812357 0.0006230251 0.00010716887 0.0018182233 -0.00011437589
-0.00016483718 -0.00016014326 -0.00046629686 6.474477e-05 0.0002098437 5.19079e-05 1.5781427e-05 -7.165242e-05
-5.9549693e-05 -8.067536e-06 6.9425325e-05 -1.7804456e-11 0.00050391036 0.00025195518 0.0004363991 0.0004363991
0.00025195518 0.00050391036 3.0035408e-11 0.0004363991 -0.00025195527 0.00025195527 -0.0004363991 -4.405294e-11
-0.00050391036 -0.00025195527 -0.0004363991 -0.0004363991 -0.00025195524 -0.00050391036 3.0035408e-11 -0.00043639913
0.00025195515 -0.00025195532 0.00043639907 -0.0008875536 -0.0008591364 0.0004274101 -0.00019381533 -0.0010419384
-2.0387486e-05 -1.6829237e-05 -1.3309885e-05 -3.090263e-05 5.331404e-06 2.0461757e-05 1.8184818e-06 2.6429304e-06
00000000: 7a8e 85b6 1a95 1db8 0ec7 4a34 458d 6bb4
00000010: 2a9d 7533 df34 7bb3 2016 8334 f0ca e633
00000020: d529 9e33 6497 a832 823e 3eb4 8627 01b4
00000030: 9bb3 3db0 14c5 cd32 d208 a82c e77a c4b6
00000040: db7a 44b6 1f28 aab6 2928 aab6 f27a 44b6
00000050: f27a c4b6 f27a c4aa 2928 aab6 f47a 4436
00000060: f47a 44b6 2928 aa36 0117 102b f27a c436
00000070: f27a 4436 2928 aa36 2928 aa36 ee7a 4436
00000080: f27a c436 f27a c4aa 2b28 aa36 ec7a 44b6
00000090: 0b7b 4436 1f28 aab6 81d3 1a35 5266 2735
000000a0: 2169 8bb6 97c7 8d39 f149 f3bb 2d0b b639
000000b0: 9a3d 9439 165f bb39 0a12 883a 8570 8638
000000c0: 89b4 dbb9 d77b cab8 7dd2 5bb8 7245 1b39
000000d0: 5b90 2739 03f1 6d37 7cf1 f9b8 0d71 b328
000000e0: 0b7a 25ba 0b7a a5b9 a04e 0fba a04e 0fba
000000f0: 0b7a a5b9 0b7a 25ba 0c7a 25ae a04e 0fba
00000100: 147a a539 147a a5b9 a04e 0f3a c2b4 722e
00000110: 0b7a 253a 0c7a a539 a04e 0f3a a04e 0f3a
00000120: 0a7a a539 0b7a 253a 0c7a 25ae 9c4e 0f3a
00000130: 087a a5b9 167a a539 9b4e 0fba af6b 153b
00000140: f17d 153b 56e8 113a 1c5c 65b8 c2fa 96b9
00000150: 770a 0cb7 99e4 0db7 bd40 c6b6 e9c9 6fb7
00000160: 3fcc a036 6c63 8537 7ffc ac35 4656 8336
00000170: ea47 16b6 0633 9ab6 0481 0e34 9f2b fc35
00000180: 167c d2a3 3cf5 74b8 3cf5 f4b7 cb23 54b8
00000190: cb23 54b8 3cf5 f4b7 3cf5 74b8 3ff5 74ac
000001a0: cb23 54b8 41f5 f437 41f5 f4b7 cb23 5438
000001b0: 2aa4 b32c 3cf5 7438 3ff5 f437 cb23 5438
000001c0: cb23 5438 3bf5 f437 3cf5 7438 3ff5 74ac
000001d0: cf23 5438 3af5 f4b7 43f5 f437 cb23 54b8
000001e0: 0109 8eb7 cfad 7cb7 d9cf 6cb8 f496 b039
000001f0: 8b1a e339 35bc 9738 0fbc 4e38 20d9 13b8
00000200: a01a 1fb8 df5d df38 dc42 3d38 3f08 68b8
00000210: 89f8 ab37 ecd4 4a37 d084 69b8 c90e 6b37
00000220: 46e6 9cb8 91d5 b7ad 99e1 c239 99e1 4239
00000230: a9c5 a839 a9c5 a839 99e1 4239 99e1 c239
00000240: 99e1 c22d a9c5 a839 9ce1 42b9 9ce1 4239
00000250: a9c5 a8b9 13fc 0eae 99e1 c2b9 99e1 42b9
00000260: a9c5 a8b9 a9c5 a8b9 98e1 42b9 99e1 c2b9
00000270: 99e1 c22d aac5 a8b9 96e1 4239 9ee1 42b9
00000280: a7c5 a839 e00a 423a 3cc7 453a e448 973a
00000290: c629 883a 32d5 9a3b edf5 c038 0023 3e38
000002a0: b33c 1c39 c2fe 9839 c016 7eb8 2e7b 47b9
000002b0: 9ee1 6738 e795 a8b8 361d f937 d707 5339
000002c0: 19d7 d3b7 8f8e 9138 bd1d 11ae c22d 953a
000002d0: c22d 153a 4e31 813a 4e31 813a c42d 153a
000002e0: c42d 953a c42d 952e 4e31 813a c52d 15ba
000002f0: c52d 153a 4e31 81ba acd2 daae c42d 95ba
00000300: c42d 15ba 4e31 81ba 4e31 81ba c22d 15ba
00000310: c42d 95ba c42d 952e 4f31 81ba c12d 153a
00000320: c72d 15ba 4e31 813a 5a47 8cb9 1dd1 91b9
00000330: 8252 233a d9bf e038 7351 ee3a 17dd efb8
00000340: 25d8 2cb9 21ec 27b9 4e79 f4b9 95c7 8738
00000350: 7d09 5c39 afb7 5938 5b62 8437 1a44 96b8
00000360: ffc4 79b8 ce59 07b7 7098 9138 129c 9cad
00000370: da18 043a da18 8439 7fcc e439 7fcc e439
00000380: da18 8439 da18 043a dd18 042e 7fcc e439
00000390: dd18 84b9 dd18 8439 7fcc e4b9 33bf 41ae
000003a0: da18 04ba dd18 84b9 7fcc e4b9 7fcc e4b9
000003b0: dc18 84b9 da18 04ba dd18 042e 80cc e4b9
000003c0: d918 8439 df18 84b9 7ecc e439 b7aa 68ba
000003d0: ab37 61ba 0316 e039 e83a 4bb9 a791 88ba
000003e0: cb05 abb7 832c 8db7 854d 5fb7 729d 01b8
000003f0: 69e4 b236 4aa5 ab37 8f12 f435 335d 3136

exp_avg_sq f4 [128, 41]
0.1455716 0.13791543 3.976859e-06 3.7046466e-05 1.2940845e-06 1.4363283e-05 5.6993014e-07 5.1333336e-06
1.6384062e-06 3.1602272e-06 8.7533516e-07 6.6106384e-07 5.445333e-07 1.1402206e-05 0.006932432 0.013318579
0.009038856 0.011139881 0.8739992 0.009246547 0.8680279 0.009102727 0.86844784 0.017459761
0.0026778157 0.0067922994 0.0005044069 0.009086295 0.0028828983 0.0067819348 0.007275304 0.0024156964
0.008988412 1.6317096e-06 0.012811201 0.0062616584 0.009350118 0.011128889 0.00015310521 0.0001530991
0.31414464 0.16814765 0.10776333 0.003438896 0.0010249274 0.0014342397 0.00089802535 0.0024992009
0.0014741464 0.0006440232 0.0004385331 0.00053896604 0.00071376015 0.0021628973 0.0024339932 0.061015867
0.06013112 0.06536942 0.056851134 0.073599815 0.049622606 0.057839844 0.017112838 0.29033872
0.33639652 0.86365825 0.9696437 1.0115498 1.075162 0.3435322 0.5795329 0.36292094
0.37566605 0.05130983 0.05776148 0.07803465 0.0958043 0.06992332 0.10363371 0.1807341
0.18450005 0.33370775 0.3073369 0.23680162 0.001679095 0.0006970504 0.00051386544 0.00033173422
0.0010736992 0.0012703949 0.00015655858 0.00041316907 4.7058097e-06 4.971421e-07 0.00061253237 0.0013248895
6.259038e-05 0.017543595 0.004412473 0.013203211 1.3599708 0.07259548 1.3609836 0.07413889
1.5763134 0.45539173 0.2366226 0.3832355 0.24080098 0.39077696 0.2522071 0.38323498
0.27617207 0.37553218 0.018657597 1.1430217e-05 0.013082835 0.004527323 0.0044103772 0.0132137295
0.051091455 0.051088978 0.55817425 0.015252067 0.0053907936 1.5309164e-05 1.7242415e-05 3.8054764e-05
2.2523505e-05 2.1939846e-05 3.7831737e-06 1.6758386e-05 4.548146e-05 1.0180581e-05 1.253145e-05 1.53597e-05
0.00013930803 0.0031069259 0.0045161056 0.0007725303 0.0021384084 0.027852582 0.055163763 0.041124564
0.052212942 0.032607783 0.05047721 0.0074160546 0.007006318 0.012559066 0.011359835 0.006483231
0.006768684 0.0075981426 0.003036208 0.0031343969 1.8898412e-05 0.0018055763 0.0006135329 0.0006285776
0.0019867136 0.0015402505 0.0015366442 0.016129369 0.014725423 0.0072187707 0.00022463672 0.00015222844
0.00010868414 8.6013155e-05 0.0001678687 0.00013366825 0.0001316985 6.33409e-05 3.699915e-05 2.1374137e-05
0.000102553575 0.00017342734 0.011340964 0.013390905 0.008898055 0.009488324 0.009413414 0.00512758
0.056144357 0.013087199 0.05996354 0.055705287 0.06204506 0.06452483 0.06342473 0.0667007
0.06392296 0.06650563 0.06963845 0.058560617 0.02109189 0.014182423 0.020707231 0.018007629
0.02155477 0.022857849 0.009329518 0.009655769 0.021476373 0.049810804 0.024538985 0.00096681353
0.0004227218 0.0004958695 0.00018096711 0.000647864 0.00040542378 7.464699e-05 0.00011550618 4.1378065e-05
0.00012547064 0.0006509822 0.00064267026 0.0038325342 0.009267874 0.0020274892 0.005656612 0.008725969
0.0102416305 0.02926905 0.00818263 0.08863102 0.11585035 0.2363874 0.27109337 0.22965434
0.27815366 0.097523116 0.1632933 0.102792375 0.10911372 0.0065412065 0.003371381 0.0047197375
0.0024619496 0.001908063 0.0057092537 0.04678671 0.04678058 0.087122485 0.028603148 0.00096102234
1.5250117e-06 5.8302016e-05 4.6151035e-05 0.00026906325 2.8860404e-06 3.1031454e-06 9.7794145e-06 1.674052e-05
00000000: b910 153e b439 0d3e f570 8536 5762 1b38
00000010: 68b0 ad35 d5f9 7037 4dfd 1835 003f ac36
00000020: 35e7 db35 4a14 5436 93f8 6a35 f673 3135
00000030: 0b2c 1235 1a4c 3f37 7429 e33b 2b36 5a3c
00000040: b617 143c 0c84 363c 69be 5f3f d47e 173c
00000050: 1437 5e3f 9b23 153c 9952 5e3f c607 8f3c
00000060: 4b7e 2f3b f091 de3b 2d3a 043a afde 143c
00000070: 02ef 3c3b fe3a de3b ac65 ee3b a950 1e3b
00000080: 2244 133c 1d01 db35 12e6 513c 992e cd3b
00000090: 3d31 193c f255 363c de8a 2039 3a89 2039
000000a0: 91d7 a03e e62e 2c3e 05b3 dc3d 1a5f 613b
000000b0: db56 863a 19fd bb3a 7669 6b3a a2c9 233b
000000c0: 2538 c13a aad3 283a ebea e539 6649 0d3a
000000d0: a21b 3b3a 65bf 0d3b a183 1f3b c6eb 793d
000000e0: 0d4c 763d 67e0 853d bcdc 683d 80bb 963d
000000f0: 1341 4b3d 79e9 6c3d 3930 8c3c 47a7 943e
00000100: 2a3c ac3e b518 5d3f 923a 783f 777a 813f
00000110: e99e 893f 74e3 af3e 455c 143f c6d0 b93e
00000120: 4d57 c03e 422a 523d 4d97 6c3d a1d0 9f3d
00000130: 0b35 c43d f533 8f3d e93d d43d 5c12 393e
00000140: 95ed 3c3e bedb aa3e 435b 9d3e 207c 723e
00000150: 1415 dc3a 43ba 363a edb4 063a 9dec ad39
00000160: 5ebb 8c3a 6183 a63a e029 2439 9d9e d839
00000170: 99e6 9d36 5873 0535 5a92 203a eaa7 ad3a
00000180: f442 8338 96b7 8f3c 8296 903b 4852 583c
00000190: 8613 ae3f f0ac 943d b634 ae3f 21d6 973d
000001a0: a3c4 c93f 1b29 e93e 324d 723e 7237 c43e
000001b0: 8894 763e eb13 c83e 4a21 813e 6037 c43e
000001c0: 6d66 8d3e c145 c03e d1d7 983c 68c4 3f37
000001d0: 6359 563c f059 943b ed84 903b 667e 583c
000001e0: 4645 513d ad42 513d 82e4 0e3f cee3 793c
000001f0: 41a5 b03b 2e6c 8037 cea3 9037 fe9c 1f38
00000200: dcf0 bc37 760b b837 6ee2 7d36 5c94 8c37
00000210: 59c3 3e38 43cd 2a37 2b3e 5237 b4d8 8037
00000220: 3713 1239 919d 4b3b d7fb 933b a183 4a3a
00000230: 8a24 0c3b 192b e43c 66f3 613d 3b72 283d
00000240: 3ddd 553d bd8f 053d 31c1 4e3d 6002 f33b
00000250: 4195 e53b 8ac4 4d3c 9a1e 3a3c 4971 d43b
00000260: d6cb dd3b d7f9 f83b 1efb 463b 746a 4d3b
00000270: 0888 9e37 16a9 ec3a 7fd5 203a 21c7 243a
00000280: 8633 023b 3be2 c93a 3969 c93a bd21 843c
00000290: e742 713c 708b ec3b 768c 6b39 839f 1f39
000002a0: 5aed e338 f661 b438 e905 3039 4c29 0c39
000002b0: 8c18 0a39 e3d5 8438 892f 1b38 9c4c b337
000002c0: 0812 d738 0cda 3539 73cf 393c 8765 5b3c
000002d0: 26c9 113c ea74 1b3c b83a 1a3c 4205 a83b
000002e0: a0f7 653d b16b 563c 549c 753d 3a2b 643d
000002f0: f622 7e3d 9825 843d d3e4 813d 609a 883d
00000300: 0aea 823d 1b34 883d 9b9e 8e3d 42dd 6f3d
00000310: e6c8 ac3c 655d 683c 36a2 a93c bc84 933c
00000320: a193 b03c 6240 bb3c d6da 183c 3b33 1e3c
00000330: 38ef af3c 6a06 4c3d fb05 c93c c271 7d3a
00000340: c2a0 dd39 3dfd 013a fdc1 3d39 6bd5 293a
00000350: 0f8f d439 cc8b 9c38 e83b f238 5c8d 2d38
00000360: c590 0339 ada6 2a3a df78 283a 412b 7b3b
00000370: 48d8 173c a0df 043b 1a5b b93b 5ef7 0e3c
00000380: 83cc 273c a6c5 ef3c 7010 063c 2e84 b53d
00000390: f342 ed3d 8a0f 723e c0cc 8a3e 822a 6b3e
000003a0: 286a 8e3e 33ba c73d 5c36 273e cf84 d23d
000003b0: 0477 df3d 9e57 d63b 63f2 5c3b 07a8 9a3b
000003c0: a958 213b f817 fa3a b114 bb3b 6ca3 3f3d
000003d0: fe9c 3f3d 466d b23d 2651 ea3c 1eed 7b3a
000003e0: 01af cc35 5089 7438 4c92 4138 0f11 8d39
000003f0: ccad 4136 a23f 5036 4412 2437 fe6d 8c37

exp_avg f4 [128]
-5.8555665e-06 -0.00063124386 -5.840253e-05 0.00037170644 0.0011381437 0.0005039103 -0.00022142181 0.0066903485
0.00056370144 -0.00013151097 -9.298857e-05 -0.0034317852 0.0009487746 -0.0007325859 -0.0020063138 -0.0002176085
-0.00016325158 -0.0002902897 -8.804978e-05 -0.00068005547 -0.001077956 0.00055020466 -0.0001286858 0.00013979319
-7.973987e-05 -0.00010935423 0.00066324126 0.0008537623 -0.0004663132 -0.00043575364 0.0028215107 -7.98353e-06
-1.8804256e-05 -0.00015877701 -2.0029725e-05 -0.00011031554 -0.0011476636 -0.00099862 -0.00043911696 -0.0008365115
-0.00017744466 0.00059630186 -9.462152e-05 1.7862949e-05 -0.0009219444 -0.00011913147 0.0026098117 -8.8641485e-05
-3.6872052e-06 0.0011533204 -8.805895e-05 -7.707456e-05 -9.366827e-05 0.0056593474 0.0037148292 0.0013072058
0.0043224148 -0.00032822357 -0.0001590303 0.0039569917 -0.000155802 0.0021902085 2.3148425e-05 -8.040507e-05
0.00039628375 0.0031522643 -0.00043000866 0.00283068 0.00066822924 -0.0019475103 -0.0030930329 -0.0001694953
-1.4416568e-05 -0.00023589644 -0.0002948718 -6.1712344e-05 0.0002745102 0.0021819547 -6.599346e-06 -0.0010851143
-0.0017835068 -0.00032269344 -9.5557625e-06 0.00076076336 -0.0011971918 -2.050496e-05 0.001231553 -6.8203466e-05
-4.3083605e-06 0.00037146383 -6.967407e-05 0.0011284458 -0.00060609216 0.0022278635 -1.9477124e-05 -0.00022707833
0.00046900325 -3.166805e-05 -5.758486e-05 0.0005294735 -5.3752785e-05 -5.2985175e-05 -0.000105022984 0.002254783
0.00054923585 0.00064110156 2.2848088e-05 0.0032444966 -0.0012055922 -0.0016976788 -0.0033256598 0.00083786406
-7.618213e-05 -2.2476776e-07 0.000943798 0.0017226256 -5.6749686e-06 0.0035874413 -0.0002190391 -3.348525e-05
-0.0014022604 -3.4104717e-06 -2.7062417e-05 0.0018099935 -4.714767e-06 -1.3712792e-05 -0.0018346498 3.8744554e-05
00000000: ef7a c4b6 0f7a 25ba 3df5 74b8 98e1 c239
00000010: c42d 953a d918 043a 772d 68b9 b63a db3b
00000020: 5dc5 133a 35e6 09b9 dc02 c3b8 cde7 60bb
00000030: 30b7 783a 020b 40ba 5c7c 03bb d62d 64b9
00000040: 832e 2bb9 0632 98b9 5ea7 b8b8 c045 32ba
00000050: 344a 8dba 9c3b 103a d5ef 06b9 7395 1239
00000060: 043a a7b8 1b55 e5b8 5edd 2d3a 05cf 5f3a
00000070: 807b f4b9 dd75 e4b9 18e9 383b 00f1 05b7
00000080: d5bd 9db7 617d 26b9 8205 a8b7 3459 e7b8
00000090: 336d 96ba 20e4 82ba 4839 e6b9 5649 5bba
000000a0: 7010 3ab9 2451 1c3a 8b6f c6b8 64d8 9537
000000b0: a4ae 71ba 39d6 f9b8 6009 2b3b 09e5 b9b8
000000c0: b471 77b6 032b 973a 4aac b8b8 17a3 a1b8
000000d0: c56f c4b8 0c72 b93b 7e74 733b 8c56 ab3a
000000e0: 0ba3 8d3b 6c15 acb9 5fc1 26b9 a7a9 813b
000000f0: c85e 23b9 9a89 0f3b dd2e c237 259f a8b8
00000100: 4ec4 cf39 3896 4e3b c972 e1b9 ee82 393b
00000110: 1b2c 2f3a 9a43 ffba 7bb4 4abb 8cba 31b9
00000120: b0de 71b7 f85a 77b9 0699 9ab9 906b 81b8
00000130: 23ec 8f39 20ff 0e3b f36f ddb6 653a 8eba
00000140: 8fc4 e9ba 2e2f a9b9 b051 20b7 f76d 473a
00000150: 17eb 9cba 1102 acb7 106c a13a 7508 8fb8
00000160: 8990 90b6 08c1 c239 fb1d 92b8 5ce8 933a
00000170: 28e2 1eba 5901 123b ce62 a3b7 e01b 6eb9
00000180: 8de4 f539 4fd3 04b8 4687 71b8 5dcc 0a3a
00000190: 9d74 61b8 663c 5eb8 c93f dcb8 fbc4 133b
000001a0: 98fa 0f3a 990f 283a e5a9 bf37 9fa1 543b
000001b0: f604 9eba a684 deba 50f3 59bb 1ba4 5b3a
000001c0: f8c3 9fb8 b157 71b4 3669 773a b9c9 e13a
000001d0: 9c6b beb6 471b 6b3b dcad 65b9 8372 0cb8
000001e0: 0dcc b7ba 75df 64b6 1904 e3b7 4e3d ed3a
000001f0: 8a33 9eb6 fe0f 66b7 a278 f0ba a681 2238

exp_avg_sq f4 [128]
0.008750043 0.015379855 0.017381081 0.0023719473 0.005422194 0.005981719 0.018601598 0.0423491
0.008677991 0.027255766 0.0035691706 0.008284567 0.006276137 0.007842752 0.014602487 0.00023565229
0.0065117846 0.0019818007 0.0014986881 0.013047234 0.001271465 0.003256628 0.011141359 0.044045407
0.0076129464 0.01799072 0.016585816 0.00019460717 0.012658305 0.005725358 0.016064933 0.0009503554
0.0021007867 0.0043707266 0.010392863 0.035995264 0.024460444 0.016700199 0.0065942975 0.0072669303
0.013722878 0.0032131113 0.033877634 0.05354948 0.0043789665 0.0024595594 0.005178499 0.021364497
0.0057532117 0.0053832117 0.011047963 0.0024199188 0.013911295 0.017281294 0.012480559 0.0051023867
0.01143086 0.0019007232 0.0016068233 0.017952453 0.021192083 0.0038180472 0.0048147645 0.0045900824
0.046676125 0.003402858 0.0014205155 0.02539795 0.009215181 0.004997248 0.0026726092 0.011009257
0.0019612866 0.0023946825 0.0016449114 0.016382944 0.0019344726 0.016033132 3.702103e-05 0.008663576
0.017450305 0.0013723401 0.0064938758 0.0023787094 0.007514589 0.017474694 0.00661739 0.0011938844
0.0032924793 0.0036288188 0.018950623 0.00667357 0.0044694175 0.019249769 0.0126416795 0.032931343
0.025059717 0.039491266 0.0072768233 0.009656164 0.003349646 0.0022069945 0.07914132 0.020881217
0.016701983 0.0010568195 0.002355494 0.015903648 0.00510206 0.0023580922 0.016257823 0.0036397006
0.0076493165 0.025068954 0.015975486 0.003077461 0.012117742 0.041438516 0.00097602705 0.0082699405
0.021431057 0.019156458 0.005322233 0.005097739 0.010541481 0.012062159 0.005072484 0.0032836394
00000000: 575c 0f3c cafb 7b3c c562 8e3c ac72 1b3b
00000010: a9ac b13b 4c02 c43b 6162 983c 4076 2d3d
00000020: 222e 0e3c 7c47 df3c bfe8 693b febb 073c
00000030: 0ea8 cd3b e37e 003c 453f 6f3c 6e19 7739
00000040: cf60 d53b 19e1 013b a16f c43a 11c4 553c
00000050: 49a7 a63a 276d 553b 3f8a 363c f568 343d
00000060: 0676 f93b 4661 933c fade 873c 770f 4c39
00000070: c764 4f3c c99b bb3b 9b9a 833c 4521 793a
00000080: 5aad 093b 5038 8f3b d446 2a3c c56f 133d
00000090: 4561 c83c dbce 883c fa14 d83b 6e1f ee3b
000000a0: ecd5 603c 1093 523b 46c3 0a3d b356 5b3d
000000b0: 6f7d 8f3b 8f30 213b 66b0 a93b 9904 af3c
000000c0: 7085 bc3b a765 b03b 8402 353c 8097 1e3b
000000d0: 33ec 633c 8091 8d3c 427b 4c3c ec31 a73b
000000e0: 8048 3b3c b021 f93a 0b9c d23a 0611 933c
000000f0: 059b ad3c 3438 7a3b 2cc5 9d3b 6768 963b
00000100: 772f 3f3d 7c02 5f3b 9730 ba3a 5d0f d03c
00000110: 45fb 163c f4bf a33b f126 2f3b 2c60 343c
00000120: ee88 003b 1bf0 1c3b 119a d73a 8635 863c
00000130: 218e fd3a ea57 833c 0747 1b38 acf1 0d3c
00000140: f1f3 8e3c 18e0 b33a 94ca d43b 1fe4 1b3b
00000150: f13c f63b 1727 8f3c b1d6 d83b 1d7c 9c3a
00000160: a3c6 573b 7ad1 6d3b 563e 9b3c f6ad da3b
00000170: 3174 923b b1b1 9d3c 0c1f 4f3c 04e3 063d
00000180: 094a cd3c 98c1 213d 6b72 ee3b e334 1e3c
00000190: bc85 5b3b 39a3 103b d814 a23d 160f ab3c
000001a0: 99d2 883c fa84 8a3a a25e 1a3b 5e48 823c
000001b0: 2e2f a73b 398a 1a3b 202f 853c 0b88 6e3b
000001c0: 1ea7 fa3b 685d cd3c 06df 823c 3aaf 493b
000001d0: 7e89 463c 6fbb 293d 11dc 7f3a a57e 073c
000001e0: 2f90 af3c 01ee 9c3c 2066 ae3b ef0a a73b
000001f0: 2db6 2c3c 5da0 453c 1437 a63b 5432 573b
