results/physicomimetics/DroneAgent/checkpoint.pt (torch, 976738 bytes, 36 tensors)

network_body._body_endoder.seq_layers.0.weight f4 [128, 180]
-0.556651 0.41931543 0.11448373 -1.2604915 -0.16943994 -0.0062764823 -0.24278785 0.44180572
0.10567376 -0.38304055 -0.10901694 0.117714584 -0.17716019 0.8060653 -0.035685707 0.7437997
-0.23102611 -0.014917601 -0.18445463 0.6427714 -0.35280028 -0.3007395 -0.05870227 -0.28712335
-0.015876265 -0.24580915 -0.16608016 -0.062348418 -0.26560083 -0.05170177 -0.084637865 0.13337013
-0.1951902 -0.009718649 -0.09344122 0.014812342 -0.5398509 0.3647242 0.074020244 -1.0119191
-0.027861299 -0.120020404 -0.21317382 0.46143118 0.02987743 -0.2246264 -0.24558853 -0.07084051
-0.12639323 0.9248519 -0.25329724 0.6827671 -0.036456883 0.0458077 -0.15047833 0.60689884
-0.18275672 -0.36779165 -0.04996848 -0.28518978 -0.3457027 -0.29509956 -0.34503418 0.15962066
-0.12742758 -0.22566392 -0.26519164 0.059978276 -0.27663088 -0.0066890256 -0.15876275 0.08087578
-0.61132526 0.34640893 0.1508015 -0.59512323 -0.33574376 -0.10098511 -0.36171708 -0.2551714
0.011825954 -0.13330477 -0.44751644 0.14355344 -0.30785918 0.8106331 -0.34304345 0.9782763
-0.3067482 -0.051701296 -0.21349336 0.54682463 -0.1585992 0.13938075 -0.28846562 -0.0076288083
-0.3994829 -0.079393715 -0.2711366 -0.046116944 -0.38312024 -0.3575217 -0.29258105 -0.12619968
-0.34252995 -0.024832403 -0.41551742 -0.08256591 -0.48303923 0.4679489 0.07900598 -0.16966622
-0.398715 -0.2988498 -0.42934865 -0.37469357 0.0025183205 -0.030831983 -0.3684815 -0.03701749
-0.34148708 0.79195863 -0.41058582 0.101499595 -0.42949018 -0.03651777 -0.27479842 0.32709846
-0.11009995 -0.271115 -0.28750077 -0.29841447 -0.41453502 -0.26511678 -0.38616922 -0.13385549
-0.41208574 -0.16127777 -0.25471726 -0.11386842 -0.27412966 -0.06153663 -0.28343487 -0.01152634
-0.37668496 0.4541581 0.33057392 -0.119542174 -0.043116145 -0.4426756 -0.21725944 0.06694159
0.0902988 -0.43000373 -0.097235635 -0.0815552 -0.053361706 0.9643322 -0.050456177 0.24085297
-0.027386831 0.060915202 -0.065087065 0.43460065 -0.20597696 -0.77877194 -0.08365588 -0.5423739
-0.15268672 -0.4768472 -0.14492303 0.2675539 -0.27378678 -0.20971787 -0.02682873 -0.08927599
0.06101655 -0.07805182 -0.17037627 -0.03316626 0.04845683 0.10468334 -0.4296982 0.7561357
-0.7300293 -0.2555382 -0.52064174 -0.098854594 -0.5722705 0.4330202 -0.50899166 -0.027453933
-0.36017284 -0.2313098 -0.34824324 0.55260277 -0.34442326 -0.19228344 -0.30608913 -0.41066566
-0.49353606 -0.2781242 -0.4200403 0.10458422 -0.40143394 -0.48618808 -0.504978 -0.19105609
-0.3860565 -0.12640697 -0.53279245 0.048338525 -0.2203439 0.012250231 -0.47775477 0.05090659
0.22854683 -0.0036919639 -0.7114107 0.75571394 -0.8753587 -0.41414857 -1.0239488 -0.04825006
-0.6350548 0.29718924 -0.64860517 0.04049292 -0.62514496 -0.33159995 -0.4325982 0.37676978
-0.50786704 0.19434272 -0.5649563 -0.26342767 -0.65552735 -0.11571873 -0.68484133 0.056595806
-0.7288241 -0.3740084 -0.73813826 -0.27799812 -0.72768474 -0.009046558 -0.7622234 0.015429823
-0.53289264 0.07265812 -0.7015948 0.07744328 -0.063807055 0.00447714 -0.835769 -0.054262836
00000000: ae80 0ebf 83b0 d63e 7276 ea3d c957 a1bf
00000010: aa81 2dbe f3aa cdbb 619d 78be 5c34 e23e
00000020: 7c6b d83d e41d c4be 4644 dfbd 5814 f13d
00000030: 7b69 35be 4c5a 4e3f 2d2b 12bd a869 3e3f
00000040: 1c92 6cbe f468 74bc ade1 3cbe ab8c 243f
00000050: 3da2 b4be 87fa 99be cb71 70bd d501 93be
00000060: f10e 82bc 65b5 7bbe eb10 2abe 0e61 7fbd
00000070: d5fc 87be 3cc5 53bd 9e56 adbd 2e92 083e
00000080: f1df 47be f83a 1fbc 1c5e bfbd 77af 723c
00000090: ab33 0abf 21bd ba3e ed97 973d 9186 81bf
000000a0: 613d e4bc 42cd f5bd 3d4a 5abe b540 ec3e
000000b0: 83c1 f43c 7704 66be 8f7b 7bbe d414 91bd
000000c0: 3a6d 01be 18c3 6c3f 2db0 81be d3c9 2e3f
000000d0: d053 15bd dba0 3b3d fe16 1abe b95d 1b3f
000000e0: 9424 3bbe 304f bcbe c0ab 4cbd 6504 92be
000000f0: f2ff b0be 4a17 97be 52a8 b0be 9973 233e
00000100: 607c 02be 7114 67be 33c7 87be c8ab 753d
00000110: 90a2 8dbe 9d2f dbbb b492 22be 33a2 a53d
00000120: d07f 1cbf 835c b13e b56b 1a3e ff59 18bf
00000130: 9be6 abbe 48d1 cebd fb32 b9be d3a5 82be
00000140: a5c1 413c 0c81 08be e020 e5be acff 123e
00000150: b89f 9dbe a785 4f3f 64a3 afbe 5170 7a3f
00000160: 1a0e 9dbe bdc4 53bd 019e 5abe b3fc 0b3f
00000170: d467 22be d4b9 0e3e c4b1 93be 15fb f9bb
00000180: 0689 ccbe 2c99 a2bd 6bd2 8abe 1fe5 3cbd
00000190: 5628 c4be 160d b7be 2fcd 95be 7d3a 01be
000001a0: 1660 afbe 536d cbbc b3be d4be 5118 a9bd
000001b0: eb50 f7be 0097 ef3e e3cd a13d fbbc 2dbe
000001c0: 5f24 ccbe d702 99be 96d3 dbbe d6d7 bfbe
000001d0: 680a 253b 5b93 fcbc 9ba9 bcbe a79f 17bd
000001e0: 65d7 aebe cdbd 4a3f 4e38 d2be 05df cf3d
000001f0: 23e6 dbbe a893 15bd 61b2 8cbe 7379 a73e
00000200: 157c e1bd 96cf 8abe 4d33 93be c8c9 98be
00000210: ef3d d4be 63bd 87be f9b7 c5be 6a11 09be
00000220: e7fc d2be 0026 25be 4d6a 82be d933 e9bd
00000230: b95a 8cbe d50d 7cbd 601e 91be f9d8 3cbc
00000240: dadc c0be 6987 e83e fc40 a93e 87d2 f4bd
00000250: 8e9a 30bd 60a6 e2be 4279 5ebe ac18 893d
00000260: 94ee b83d 7329 dcbe 7a23 c7bd 6a06 a7bd
00000270: ce91 5abd 7ade 763f 23ab 4ebd 29a2 763e
00000280: 595a e0bc 3882 793d 5e4c 85bd fa83 de3e
00000290: a0eb 52be 995d 47bf c653 abbd 04d9 0abf
000002a0: e859 1cbe 5125 f4be b466 14be d3fc 883e
000002b0: c82d 8cbe 48c0 56be edc7 dbbc 55d6 b6bd
000002c0: 7dec 793d a2d9 9fbd 1e77 2ebe 58d9 07bd
000002d0: ab7a 463d 3864 d63d 6701 dcbe 1c92 413f
000002e0: 33e3 3abf e7d5 82be c748 05bf 4774 cabd
000002f0: 5280 12bf d3b4 dd3e 474d 02bf 12e7 e0bc
00000300: 9368 b8be 7adc 6cbe f04c b2be 6077 0d3f
00000310: 3f58 b0be f3e5 44be b7b7 9cbe c542 d2be
00000320: c2b0 fcbe 4c66 8ebe 860f d7be 4030 d63d
00000330: c088 cdbe a5ed f8be 3d46 01bf 35a4 43be
00000340: 33a9 c5be d470 01be 1665 08bf 9efe 453d
00000350: d5a1 61be 31b5 483c 469c f4be 6e83 503d
00000360: 2e08 6a3e e0f4 71bb 031f 36bf 7876 413f
00000370: 8217 60bf 480b d4be c110 83bf dba1 45bd
00000380: f492 22bf 3029 983e fd0a 26bf e7db 253d
00000390: 8009 20bf 78c7 a9be 837d ddbe f8e7 c03e
000003a0: 9303 02bf c701 473e faa0 10bf fedf 86be
000003b0: a4d0 27bf f1fd ecbd c351 2fbf 01d1 673d
000003c0: 3794 3abf 077e bfbe a1f6 3cbf c555 8ebe
000003d0: 8c49 3abf 0438 14bc 1321 43bf 5ecd 7c3c
000003e0: a76b 08bf c8cd 943d b89b 33bf 959a 9e3d
000003f0: 46ad 82bd f9b4 923b f5f4 55bf b542 5ebd

network_body._body_endoder.seq_layers.0.bias f4 [128]
-0.13898261 -0.06757362 -0.13800381 0.24210274 -0.15934072 -0.6652877 -0.23799877 -0.04981198
-0.19741446 0.30284116 -0.30900553 0.31729132 -0.25757006 -0.020667577 0.047804758 -0.20290758
-0.49653333 -0.14683577 -0.7544665 -0.68541354 -0.5672341 -0.2749211 -0.2822963 -0.58796823
0.44026765 0.07121428 -0.52611285 -1.0773422 -0.16873841 -1.1621505 0.08921386 -0.5428321
-0.12690738 0.038792763 -0.13872972 -0.8651197 -0.37166837 -0.41081622 -0.31951934 0.10810379
-0.7701688 0.41868445 -0.23146845 -0.20964462 -0.3889467 0.03382567 -0.09043058 0.18857086
-0.24840501 -0.19079062 -0.41155446 -0.23115519 -0.22043158 -0.22595793 -0.09540439 -0.18235305
-0.5086505 -0.26633433 -0.6332005 -0.30155277 -0.72282225 -0.23057804 -0.46139032 0.49327928
-0.70663077 -0.32806835 0.3696904 0.14368881 -0.57410324 -0.08374865 -0.035697278 0.0410612
-0.54424906 -0.25890744 0.09914781 -0.19270918 -0.9203968 -0.71466994 -0.6575878 -0.7390421
-0.15370168 -0.952781 -0.20304461 -0.046036188 0.02990619 -0.45450467 -0.32290557 -0.4547061
-0.60884494 -0.31026083 -0.27559325 -0.12627518 -0.14695889 -0.6861131 -0.30948576 -0.4588979
-0.46306902 0.4367771 0.018030442 -0.68995255 -0.26453948 -0.14959952 -0.18884224 -0.18469082
-0.38673258 0.47842574 -0.21940194 -0.36321646 0.051545326 -0.10801749 -0.09571417 0.47160268
-1.0579845 -0.20443626 -0.12833259 -0.5697634 -0.09066029 -0.3491968 -0.3492685 0.022055196
-0.846054 0.2200514 -0.37449375 -0.35652184 0.032061115 -0.6552539 -0.7479495 -0.34592107
00000000: 7551 0ebe 0a64 8abd df50 0dbe c8e9 773e
00000010: 372a 23be 4b50 2abf f3b5 73be a607 4cbd
00000020: 0427 4abe ff0d 9b3e f935 9ebe 0274 a23e
00000030: 39e0 83be 0d4f a9bc ecce 433d 01c7 4fbe
00000040: 9e39 febe 1e5c 16be b724 41bf 4377 2fbf
00000050: 4136 11bf 75c2 8cbe 2489 90be 1685 16bf
00000060: c36a e13e cbd8 913d 55af 06bf 59e6 89bf
00000070: c3c9 2cbe 59c1 94bf c2b5 b63d 0bf7 0abf
00000080: 02f4 01be 29e5 1e3d 2a0f 0ebe 7c78 5dbf
00000090: 514b bebe 8156 d2be 0a98 a3be 8565 dd3d
000000a0: c829 45bf cf5d d63e 1106 6dbe 14ad 56be
000000b0: 0624 c7be c98c 0a3d ab33 b9bd b818 413e
000000c0: e25d 7ebe 9e5e 43be 44b7 d2be f2b3 6cbe
000000d0: d1b8 61be 8461 67be 6063 c3bd c2ba 3abe
000000e0: eb36 02bf f95c 88be 6e19 22bf 2065 9abe
000000f0: e10a 39bf a61c 6cbe 5a3b ecbe 1a8f fc3e
00000100: c1e5 34bf 93f8 a7be 0f48 bd3e 2923 133e
00000110: 6ef8 12bf 6a84 abbd 4f37 12bd ca2f 283d
00000120: e853 0bbf 848f 84be 020e cb3d 8e55 45be
00000130: 209f 6bbf 9cf4 36bf ad57 28bf dd31 3dbf
00000140: f963 1dbe 75e9 73bf edea 4fbe 7190 3cbd
00000150: d3fd f43c d6b4 e8be e153 a5be 3dcf e8be
00000160: 43dd 1bbf 82da 9ebe 8f1a 8dbe 484e 01be
00000170: 647c 16be 1ca5 2fbf eb74 9ebe aaf4 eabe
00000180: 6217 edbe 40a1 df3e 94b4 933c bba0 30bf
00000190: b871 87be 9e30 19be dc5f 41be 971f 3dbe
000001a0: d001 c6be 38f4 f43e e7aa 60be 82f7 b9be
000001b0: 3121 533d 4638 ddbd ca05 c4bd e875 f13e
000001c0: 096c 87bf bd57 51be 9e69 03be 04dc 11bf
000001d0: 1aac b9bd ecc9 b2be 52d3 b2be 19ad b43c
000001e0: ff96 58bf 2755 613e a5bd bfbe 088a b6be
000001f0: 8452 033d b8be 27bf 9e79 3fbf 911c b1be

network_body._body_endoder.seq_layers.2.weight f4 [128, 128]
0.27892452 0.4340098 -0.16885002 0.76779324 -0.96157163 -0.9184978 -0.53040516 -0.5044152
-1.0811559 0.54621077 -1.0201449 0.760169 -1.0161822 -1.5793277 0.1864732 -1.2722989
-1.1774272 -0.67645603 -0.7655071 -0.7420381 -1.3401492 -1.1418233 -0.7294776 -1.0048904
-0.019485151 -1.4363569 -1.2811512 -0.5916664 0.28567025 -0.51369244 0.09370755 -0.33926013
-1.2099723 -1.318523 -0.89112794 -1.209659 -0.697934 -0.4230834 -1.1211723 -0.87425
-1.1709294 0.1511331 -0.37340224 -0.59509313 0.47454336 -0.03326585 -0.39987722 -0.42824167
-0.7076963 -1.5688547 0.08398476 -0.36082056 -0.26787853 -0.9826402 0.045313336 -1.4280691
-1.6745822 -0.8715069 -0.89968085 -0.678137 -0.98126626 -0.9371872 -0.18864311 0.72932684
-0.90032804 -0.54709095 -0.91408914 0.45546904 -1.3874495 -0.4133116 -0.7423951 -1.1095723
-0.97869617 -1.191823 -1.6130935 -0.9389565 -0.82190174 -0.8932566 -1.324508 -0.26811913
0.17580013 -0.8291214 -1.4049108 -0.6876622 -0.8184763 -1.21103 0.8376997 -0.6820038
-0.3068472 -0.15175088 0.4014291 -0.49549207 -0.72389585 -1.064916 -0.0858731 -1.3715017
-0.18922473 -0.2885041 -1.7629727 -0.63965464 -0.93575877 -0.6067618 -0.76786214 -0.101111226
-1.514462 -0.77355295 -0.25056216 -0.07188444 -0.6809384 -1.7609812 -0.96378434 0.20013018
-0.8664121 -1.2307078 -0.77224904 -1.0568143 -0.93461823 -0.73569393 -0.37451655 0.32237002
-0.6310915 0.4196103 -0.83542913 -1.1998442 -0.08650388 -0.38066065 -1.0457909 -1.1685286
-0.89822054 -0.4560105 0.1807913 0.48680928 0.734189 0.058718994 -0.09648637 0.43389896
-0.37365064 0.1540769 0.18708593 -0.30151972 0.039080974 0.3403098 -0.7345133 -0.57790744
-0.32918113 0.5190045 -0.43017814 0.347135 -0.8726529 -0.43142277 0.20609736 -0.19922793
-0.14593297 0.14732388 0.10996506 -0.15313803 0.7060854 -0.7155257 -0.43905336 -0.16304003
-0.37137184 0.6436642 -0.10241422 0.40596414 0.09474457 -0.17497031 -0.12022078 -0.6111691
0.0646114 0.43301627 -0.25476632 -0.44969732 0.28649354 0.512117 -0.569874 0.375503
0.36263546 -0.7023474 -0.51439947 0.17655541 0.47293657 -0.55717456 0.11092512 0.6604493
-1.2331313 0.6115417 0.5239983 -0.10557918 -0.40387404 -0.7698975 -0.37669644 -0.75533974
1.2693946 -0.36290535 -0.6221643 0.24533041 -0.4856063 0.8595066 0.10940671 -0.26260942
-0.9632706 -0.23971099 0.13430807 -0.20500553 -0.6426138 -0.05382091 -0.12400022 -0.830491
-0.463356 -0.4398983 0.5283795 -0.26363528 0.46717942 -0.03909347 -0.35705593 -0.17090254
-0.0098044695 -0.4076089 -0.32482415 0.7788155 -0.0038728204 -0.029469734 0.24365534 0.5142382
-0.13375653 -0.5354473 0.19271083 -0.79653054 -0.26480317 0.5955819 0.45480534 -0.2402675
0.30357584 0.5945724 -1.3089787 -0.8403012 0.8385599 0.30931374 0.6604849 -0.39797786
0.60341936 0.6715749 -0.22984883 0.0139825335 1.0870637 -0.93214774 -0.19155891 -0.31304103
0.007894844 0.12636337 -0.24103077 0.17507151 0.6639207 0.14910401 -0.17457521 -0.23055823
00000000: 32cf 8e3e 8836 de3e 05e7 2cbe 198e 443f
00000010: 8f29 76bf ac22 6bbf a2c8 07bf 5b21 01bf
00000020: 5163 8abf 78d4 0b3f 1c94 82bf 709a 423f
00000030: 4212 82bf 6927 cabf d5f2 3e3e b1da a2bf
00000040: efb5 96bf 392c 2dbf 46f8 43bf 35f6 3dbf
00000050: 028a abbf 4427 92bf 0bbf 3abf 40a0 80bf
00000060: 539f 9fbc 8bda b7bf c3fc a3bf 7377 17bf
00000070: 5f43 923e 5981 03bf bee9 bf3d 81b3 adbe
00000080: 5fe0 9abf 5dc5 a8bf f620 64bf 1bd6 9abf
00000090: cdab 32bf 639e d8be 9382 8fbf d9ce 5fbf
000000a0: 04e1 95bf a3c2 1a3e 942e bfbe 0658 18bf
000000b0: 59f7 f23e c641 08bd b5bc ccbe 7e42 dbbe
000000c0: 962b 35bf 3bd0 c8bf 3400 ac3d 79bd b8be
000000d0: 6027 89be 4f8e 7bbf 7a9a 393d f8ca b6bf
000000e0: b658 d6bf 141b 5fbf 7c51 66bf 639a 2dbf
000000f0: 4434 7bbf 80eb 6fbf a92b 41be 2ab5 3a3f
00000100: e67b 66bf 270e 0cbf bf01 6abf 3d33 e93e
00000110: f297 b1bf 949d d3be 9b0d 3ebf 7706 8ebf
00000120: d58b 7abf a88d 98bf d979 cebf 745f 70bf
00000130: 2768 52bf 77ac 64bf 7a89 a9bf e946 89be
00000140: f304 343e 4d41 54bf 1ed4 b3bf a10a 30bf
00000150: aa87 51bf 0803 9bbf 7d73 563f cd97 2ebf
00000160: 141b 9dbe 9564 1bbe 1d88 cd3e 23b1 fdbe
00000170: 3d51 39bf 2b4f 88bf 3cde afbd 5e8d afbf
00000180: 21c4 41be cfb6 93be 17a9 e1bf 68c0 23bf
00000190: e38d 6fbf be54 1bbf 9d92 44bf 6713 cfbd
000001a0: e4d9 c1bf 9107 46bf af49 80be 2638 93bd
000001b0: fb51 2ebf d567 e1bf 92ba 76bf edee 4c3e
000001c0: 2fcd 5dbf d587 9dbf 1db2 45bf b145 87bf
000001d0: 2443 6fbf 7056 3cbf a2c0 bfbe af0d a53e
000001e0: 368f 21bf 29d7 d63e afde 55bf 7f94 99bf
000001f0: f228 b1bd f4e5 c2be 7adc 85bf 5892 95bf
00000200: c8f1 65bf 357a e9be 5b21 393e 113f f93e
00000210: cff3 3b3f 5483 703d a59a c5bd 0128 de3e
00000220: 234f bfbe 56c6 1d3e 7493 3f3e cb60 9abe
00000230: 5f13 203d 163d ae3e 1009 3cbf bef1 13bf
00000240: 6e8a a8be 7bdd 043f 4f40 dcbe aebb b13e
00000250: 2e66 5fbf 72e3 dcbe 300b 533e 6802 4cbe
00000260: 746f 15be 12dc 163e 5d35 e13d 37d0 1cbe
00000270: 03c2 343f b12c 37bf 9acb e0be f7f3 26be
00000280: 7324 bebe 2dc7 243f 8cbe d1bd 88da cf3e
00000290: 7109 c23d 6b2b 33be 5036 f6bd 9475 1cbf
000002a0: fb52 843d 4fb4 dd3e bb70 82be ba3e e6be
000002b0: 48af 923e 1a1a 033f 43e3 11bf ee41 c03e
000002c0: 5bab b93e 0acd 33bf afaf 03bf f1ca 343e
000002d0: be24 f23e fea2 0ebf b62c e33d 3513 293f
000002e0: 3fd7 9dbf ff8d 1c3f c124 063f e639 d8bd
000002f0: 94c8 cebe 0118 45bf 5bde c0be f25d 41bf
00000300: 867b a23f bbce b9be 2946 1fbf e537 7b3e
00000310: 64a1 f8be a008 5c3f a010 e03d be74 86be
00000320: e798 76bf cc76 75be 0e88 093e f8ec 51be
00000330: 5782 24bf 5173 5cbd d4f3 fdbd 0f9b 54bf
00000340: ff3c edbe 5a3a e1be e143 073f 34fb 86be
00000350: 2432 ef3e 7920 20bd 09d0 b6be 1301 2fbe
00000360: eda2 20bc 1db2 d0be 5a4f a6be 7460 473f
00000370: 25cf 7dbb 836a f1bc c980 793e 1da5 033f
00000380: 79f7 08be 1313 09bf fd55 453e 6de9 4bbf
00000390: 4894 87be 0e78 183f 3fdc e83e af08 76be
000003a0: 4b6e 9b3e e635 183f 9d8c a7bf fb1d 57bf
000003b0: ddab 563f 5f5e 9e3e 8a15 293f c1c3 cbbe
000003c0: b179 1a3f 55ec 2b3f 7e5d 6bbe ff16 653c
000003d0: e724 8b3f 3ca1 6ebf 0528 44be ea46 a0be
000003e0: 6059 013c 6665 013e c5d0 76be f245 333e
000003f0: b5f6 293f b9ae 183e d8c3 32be 7517 6cbe

network_body._body_endoder.seq_layers.2.bias f4 [128]
0.5573214 0.23679496 -0.000589501 0.22364034 -0.06219598 -0.31684032 -0.046927184 0.2868626
0.08365673 0.06842386 0.011184927 -0.2770701 -0.2644619 -0.34835014 -0.13684535 -0.5999901
0.21477628 0.11659592 0.02741429 -0.6095278 -0.33471906 -0.8795647 0.08831478 -0.060105678
-0.30936402 -0.91901094 0.02845772 0.28186935 0.23227501 -0.7643938 -0.941409 -0.057354663
0.6785096 -0.39209047 -0.61576885 -0.89100754 -0.11630867 -0.12627837 -0.43859074 -1.164729
-0.53253406 -0.042217206 -0.61476237 -0.30616874 -0.5461484 -0.083403185 -0.042342454 -1.0189239
-0.17726894 -0.3609826 -0.0023934944 0.5052502 0.33028984 -0.5868675 -0.47151273 -0.21153288
-0.75569195 -0.011029218 -0.94541126 0.30288213 0.026758745 -0.53681207 -0.4717879 0.3706216
-0.015458495 -0.43509212 -0.02124208 -0.03152718 -0.8737143 0.14635773 -0.13385595 -0.38655597
-0.15112688 0.249214 -0.25266343 -0.114287235 -0.8029908 -0.013620952 -0.34731114 -0.27121925
-0.35409018 0.071143895 0.03872943 0.16543035 0.2341222 -0.006595311 -0.11755363 0.07875038
-0.08459679 -0.6400253 -0.24462421 -0.43191114 -0.8091309 0.3992271 0.12141648 -0.24012318
-0.47183678 -0.135225 0.20351948 -0.79477763 -0.532007 -0.11591363 -0.71598905 0.6159683
-0.74796194 -0.45497736 0.27741632 -0.19504212 -1.0361602 0.3400906 0.3836605 0.42252532
-0.44343427 -0.08100329 -0.46025482 -0.53082424 -0.75031036 -0.65243703 0.0041710674 -0.13215229
-0.26935437 0.10476164 0.07990146 -0.59033215 -0.6891747 -0.39908797 0.40087557 -0.8365355
00000000: 9eac 0e3f 617a 723e be88 1aba f901 653e
00000010: 36c1 7ebd e538 a2be b836 40bd a8df 923e
00000020: 3854 ab3d cf21 8c3d fc40 373c 22dc 8dbe
00000030: 8d67 87be f35a b2be 3021 0cbe f498 19bf
00000040: 50ee 5b3e d7c9 ee3d ef93 e03c 040a 1cbf
00000050: 4c60 abbe 272b 61bf 61de b43d 5f31 76bd
00000060: f664 9ebe 4d44 6bbf 2a20 e93c 2e51 903e
00000070: 80d9 6d3e 50af 43bf 2e00 71bf b9ec 6abd
00000080: ceb2 2d3f 15c0 c8be 07a3 1dbf 1219 64bf
00000090: 3d33 eebd 1e4f 01be f78e e0be d715 95bf
000000a0: 2754 08bf f3eb 2cbd 1161 1dbf 26c2 9cbe
000000b0: 62d0 0bbf 4acf aabd 486f 2dbd 196c 82bf
000000c0: fd85 35be b6d2 b8be 2cdc 1cbb 1458 013f
000000d0: c01b a93e f33c 16bf 1e6a f1be 139c 58be
000000e0: 0775 41bf e5b3 34bc 7906 72bf 5e13 9b3e
000000f0: 2835 db3c 846c 09bf 2f8e f1be 1dc2 bd3e
00000100: a145 7dbc 65c4 debe df03 aebc a522 01bd
00000110: beab 5fbf cdde 153e 8911 09be aaea c5be
00000120: 01c1 1abe f431 7f3e 1a5d 81be 6d0f eabd
00000130: ce90 4dbf 6a2a 5fbc c4d2 b1be 40dd 8abe
00000140: 4f4b b5be e4b3 913d c0a2 1e3d 9366 293e
00000150: bbbd 6f3e 7b1d d8bb f5bf f0bd e147 a13d
00000160: 1541 adbd b3d8 23bf c57e 7abe 7523 ddbe
00000170: 3423 4fbf 7f67 cc3e 34a9 f83d dae2 75be
00000180: 9794 f1be 6c78 0abe 6967 503e 8c76 4bbf
00000190: 9c31 08bf 2064 edbd 0f4b 37bf 19b0 1d3f
000001a0: 6f7a 3fbf cbf2 e8be 8309 8e3e 1fb9 47be
000001b0: e6a0 84bf 5b20 ae3e 266f c43e 3d55 d83e
000001c0: d109 e3be 0ee5 a5bd 85a6 ebbe 19e4 07bf
000001d0: 5714 40bf 1d06 27bf 73ad 883b ee52 07be
000001e0: d1e8 89be 458d d63d 60a3 a33d 0220 17bf
000001f0: c16d 30bf 4255 ccbe 903f cd3e 3127 56bf

action_model._continuous_distribution.log_sigma f4 [1, 2]
3.1951504 3.910403
00000000: 587d 4c40 0b44 7a40

action_model._continuous_distribution.mu.weight f4 [2, 128]
0.81430423 -0.32565334 -0.15893956 0.9746098 -0.69525933 -0.2489845 -0.7345458 -0.0021224495
-0.12800531 -0.31916305 -1.0590811 -0.13095708 -0.08500258 -0.12863362 -0.025362309 -0.036976136
-0.35260794 0.08732678 0.44587377 0.07711325 0.05687972 -0.25533766 0.11589835 0.42410368
0.25169364 0.2920567 -0.2144201 0.45824173 0.36776763 -0.24221303 -0.07841204 0.36067358
-0.75984156 0.02320305 -0.0515239 -0.006913403 -0.2538844 0.4060605 -0.5309572 0.26798984
0.36294833 -0.19889727 0.4782818 0.26531962 -0.24996531 0.19751354 0.39908257 0.13975793
0.71574503 -0.5985973 0.7398458 0.85003555 0.71196073 -0.08976534 -0.5978269 -0.2460192
0.050481033 -0.58060014 -0.14261329 -0.13831763 0.2356568 0.10912089 -0.2849095 -0.22871974
-0.9007039 -0.008282292 0.096653774 -0.012454072 -0.19119206 -0.45960823 -0.054602057 0.5087045
-0.07840012 0.17172338 -0.07125928 0.1413222 0.26026055 -0.6373909 0.28407553 0.505757
-0.5604139 0.5178925 -0.4079098 -0.53617555 0.24869362 -0.44739178 0.2291194 0.26142776
0.009640188 0.016233824 -0.061467297 0.45088696 -0.28118497 0.056613766 -0.7413979 0.17036928
-0.7718589 0.06284743 -0.46029052 -0.21554 0.17712657 -0.5757658 -0.0042488207 0.26793852
0.19353487 0.025440024 -0.03860709 0.7780298 -0.03722275 -0.036777336 -0.6742112 -0.31381974
-0.012032983 -0.21084729 0.024467897 -0.3982581 0.25012016 0.060519263 -0.77986056 -0.13009126
-0.016550845 0.17630553 0.06903286 0.23693867 -0.5599397 -0.4425517 0.2726787 -0.05628425
0.71163493 0.15678987 -0.6905835 0.16792174 -0.13214491 -0.89797735 -0.6360139 -0.86273795
-0.6285207 -0.02609673 -0.112569354 -0.5992954 0.582995 0.25830805 -0.51848865 -0.08259478
1.5151262 -0.45222008 -0.07991428 0.5795766 0.6180985 -0.88733786 -0.3840935 0.5417724
-0.1610405 0.09083474 -0.5150227 -0.6114373 -0.7423379 0.19926025 0.87098604 0.048065275
-0.20909025 0.5227251 -0.110565156 0.27305037 -0.6227633 -0.4291627 0.10185688 0.3957337
0.13333566 -0.5224063 0.40576887 -0.38685885 0.2788112 -0.8391065 -0.39053494 -0.025086572
0.033378307 0.8413591 0.083593294 -0.2340486 -0.4514255 0.176861 -0.057380624 0.47066346
0.09419821 0.3192927 -0.15990655 -0.6847557 -0.27534914 -0.42117134 0.88464284 0.4896485
-0.64010245 -0.31860435 0.36801913 0.6752908 -0.016536785 -0.27228743 0.7474398 0.20481521
-0.5129631 0.38362613 -0.26497442 -0.8688278 0.31814432 1.1810945 0.3656171 -0.05400974
0.13483377 0.89013827 -0.4506526 1.1450652 0.10757197 0.199508 0.14260702 -0.31066385
-0.5587614 0.7697592 0.13006502 0.19758931 0.2966208 1.8046073 -0.19399443 -0.30917653
-0.30070865 0.4694208 0.47126102 0.39553446 -0.61671287 -0.6053093 0.5101768 0.8140636
-0.23306596 -0.2993866 -0.59112906 -0.09376087 0.23349649 -0.4122955 1.1607713 0.27343115
-0.14713295 -0.0053579854 -0.17073008 0.11413957 -0.17505825 0.5226858 0.75815946 -0.4249771
-0.6371041 -0.91191566 -0.36166525 -0.082277946 0.15931913 -0.6457942 0.5125731 0.35971853
00000000: 3e76 503f 09bc a6be 0dc1 22be 0780 793f
00000010: 84fc 31bf cbf5 7ebe 320b 3cbf cb18 0bbb
00000020: d313 03be 5769 a3be f88f 87bf 9d19 06be
00000030: d515 aebd 88b8 03be 9ec4 cfbc 4a74 17bd
00000040: 0789 b4be 62d8 b23d 9149 e43e 8ded 9d3d
00000050: b6fa 683d 9ebb 82be 1d5c ed3d 1e24 d93e
00000060: fddd 803e 7588 953e f190 5bbe a99e ea3e
00000070: 0a4c bc3e b106 78be 7e96 a0bd 35aa b83e
00000080: fa84 42bf 5314 be3c ba0a 53bd d489 e2bb
00000090: 23fd 81be 29e7 cf3e d0ec 07bf f735 893e
000000a0: 5dd4 b93e baab 4bbe 5ae1 f43e f9d7 873e
000000b0: e8f6 7fbe fd40 4a3e 8d54 cc3e b41c 0f3e
000000c0: 113b 373f ac3d 19bf 8966 3d3f ee9b 593f
000000d0: 0f43 363f e4d6 b7bd 2f0b 19bf 75ec 7bbe
000000e0: 33c5 4e3d 36a2 14bf 3809 12be 23a3 0dbe
000000f0: 0450 713e c67a df3d a8df 91be 8235 6abe
00000100: 8894 66bf 73b2 07bc 6af2 c53d 2a0c 4cbc
00000110: dac7 43be c551 ebbe 68a6 5fbd 753a 023f
00000120: 3e90 a0bd 41d8 2f3e 63f0 91bd c4b6 103e
00000130: df40 853e 0d2c 23bf 5972 913e 4a79 013f
00000140: 4977 0fbf 9a94 043f 8ed9 d0be cd42 09bf
00000150: 8aa9 7e3e 8910 e5be 479e 6a3e dcd9 853e
00000160: e1f1 1d3c ccfc 843c 22c5 7bbd a8da e63e
00000170: 7af7 8fbe d6e3 673d 41cc 3dbf 4975 2e3e
00000180: 8b98 45bf 27b6 803d 33ab ebbe 85b6 5cbe
00000190: ab60 353e 6365 13bf b139 8bbb 3d2f 893e
000001a0: 012e 463e 9967 d03c 7822 1ebd f62c 473f
000001b0: e276 18bd d5a3 16bd 1b99 2cbf fbac a0be
000001c0: fd25 45bc 5ae8 57be e670 c83c 7ce8 cbbe
000001d0: c00f 803e 0ce3 773d f1a4 47bf a536 05be
000001e0: a395 87bc 7089 343e 1a61 8d3d 0da0 723e
000001f0: 3558 0fbf 2396 e2be 8b9c 8b3e 508a 66bd
00000200: b52d 363f 868d 203e 15ca 30bf adf3 2b3e
00000210: ff50 07be d8e1 65bf cfd1 22bf 65dc 5cbf
00000220: bce6 20bf cfc8 d5bc c38a e6bd 6c6b 19bf
00000230: 293f 153f f440 843e acbb 04bf 7427 a9bd
00000240: a8ef c13f 6489 e7be 19aa a3bd 225f 143f
00000250: b43b 1e3f 9328 63bf e7a7 c4be 99b1 0a3f
00000260: cde7 24be 9007 ba3d 87d8 03bf 2887 1cbf
00000270: db09 3ebf e10a 4c3e f1f8 5e3f 18e0 443d
00000280: c11b 56be 50d1 053f fc6f e2bd 42cd 8b3e
00000290: 6a6d 1fbf 37bb dbbe 579a d03d 9c9d ca3e
000002a0: 2589 083e 6bbc 05bf f0c0 cf3e 5d12 c6be
000002b0: 57c0 8e3e afcf 56bf 32f4 c7be 5b82 cdbc
000002c0: b1b7 083d 4f63 573f f632 ab3d 70aa 6fbe
000002d0: 3e21 e7be 0d1b 353e f207 6bbd cdfa f03e
000002e0: feea c03d 557a a33e 8bbe 23be 264c 2fbf
000002f0: 90fa 8cbe c5a3 d7be f477 623f 35b3 fa3e
00000300: c1dd 23bf 1c20 a3be 016d bc3e dcdf 2c3f
00000310: 2778 87bc 4269 8bbe 3758 3f3f 14bb 513e
00000320: 8d51 03bf a56a c43e baaa 87be 806b 5ebf
00000330: d0e3 a23e 1b2e 973f 2a32 bb3e 5139 5dbd
00000340: dd11 0a3e 1ae0 633f f0bb e6be 7f91 923f
00000350: b14e dc3d d34b 4c3e 9307 123e 550f 9fbe
00000360: fd0a 0fbf f00e 453f c42f 053e da54 4a3e
00000370: aede 973e 5ffd e63f 7aa6 46be 634c 9ebe
00000380: 7cf6 99be ec57 f03e 2049 f13e 7e83 ca3e
00000390: e5e0 1dbf 8df5 1abf f29a 023f 7966 503f
000003a0: d8a8 6ebe 3349 99be 3c54 17bf b305 c0bd
000003b0: b419 6f3e 6518 d3be 2794 943f 2bff 8b3e
000003c0: 05aa 16be 0a92 afbb ded3 2ebe 02c2 e93d
000003d0: 7842 33be bdce 053f bd16 423f 9996 d9be
000003e0: 4119 23bf 4e73 69bf 302c b9be 5781 a8bd
000003f0: 8e24 233e c552 25bf fe37 033f 072d b83e

action_model._continuous_distribution.mu.bias f4 [2]
0.20532623 -0.13106504
00000000: 0a41 523e ea35 06be

exp_avg f4 [128, 180]
0.00026123112 0.00018663745 6.7988505e-05 0.011245969 5.3125637e-05 -0.0028214832 0.00016028507 -1.4967003e-05
0.00015973627 5.949611e-12 0.00015973627 0.0 0.0001597196 -7.5792045e-08 0.0001597242 -1.0442501e-07
0.00015973626 -6.275114e-11 0.0001597241 4.5467146e-08 0.00015973626 4.535801e-11 0.00015973626 3.6002885e-11
0.00015973627 -4.599934e-16 0.00015973627 -7.1883525e-16 0.00015973627 6e-45 0.00015973627 0.0
0.00015973627 0.0 0.00015973627 0.0 0.00024555385 0.00014539303 6.554403e-05 0.011374426
5.3895372e-05 -0.0028337112 0.00016030259 -1.4658772e-05 0.00015973627 1.5154534e-11 0.00015973627 0.0
0.00015971999 -7.676031e-08 0.00015972462 -1.05624295e-07 0.00015973626 -6.232346e-11 0.00015972454 4.6047674e-08
0.00015973626 4.505481e-11 0.00015973626 -5.0054657e-12 0.00015973627 -4.58052e-16 0.00015973627 -7.1657775e-16
0.00015973627 -6e-45 0.00015973627 0.0 0.00015973627 0.0 0.00015973627 0.0
0.00026947528 0.00010732933 6.30866e-05 0.011384034 5.454951e-05 -0.0028439648 0.0001603155 -1.4332568e-05
0.00015973627 2.1275811e-11 0.00015973627 0.0 0.00015972032 -7.769549e-08 0.00015972504 -1.070671e-07
0.00015973626 -6.198226e-11 0.00015972496 4.660189e-08 0.00015973626 4.48332e-11 0.00015973626 3.8034624e-11
0.00015973627 -4.5627394e-16 0.00015973627 -7.141042e-16 0.00015973627 6e-45 0.00015973627 0.0
0.00015973627 0.0 0.00015973627 0.0 0.00026455056 9.141706e-05 6.055945e-05 0.011624975
5.512121e-05 -0.0028544175 0.00016033639 -1.4097575e-05 0.00015973627 3.9968452e-11 0.00015973627 0.0
0.00015972069 -7.8578736e-08 0.00015972544 -1.08274335e-07 0.00015973626 -6.156753e-11 0.00015972536 4.709256e-08
0.00015973626 4.4548316e-11 0.00015973626 2.765174e-11 0.00015973627 -4.542192e-16 0.00015973627 -7.1003347e-16
0.00015973627 6e-45 0.00015973627 0.0 0.00015973627 0.0 0.00015973627 0.0
0.00021116427 0.000113592665 5.813163e-05 0.011762862 5.564578e-05 -0.002867238 0.0001603599 -1.3920745e-05
0.00015973627 3.957307e-11 0.00015973627 0.0 0.00015972104 -7.9465e-08 0.00015972587 -1.0948781e-07
0.00015973626 -6.133086e-11 0.00015972575 4.762305e-08 0.00015973626 4.4343848e-11 0.00015973626 2.8551259e-11
0.00015973627 -4.523438e-16 0.00015973627 -7.081849e-16 0.00015973627 6e-45 0.00015973627 0.0
0.00015973627 0.0 0.00015973627 0.0 -0.0003547726 0.00033040912 -4.0834944e-05 -0.0066730417
-4.946192e-05 1.7387812e-07 -4.9469898e-05 8.978145e-11 -4.9469898e-05 3.2861686e-11 -4.9469898e-05 0.0
-4.9469898e-05 2.6493531e-17 -4.9469898e-05 -6.416874e-16 -4.9469898e-05 -1.8064825e-16 -4.9469898e-05 -4.1932723e-17
-4.9469898e-05 -2.673454e-16 -4.9469898e-05 -7.4226784e-16 -4.9469898e-05 2.4825207e-23 -4.9469898e-05 3.928593e-23
-4.9469898e-05 6e-45 -4.9469898e-05 0.0 -4.9469898e-05 0.0 -4.9469898e-05 0.0
-0.00036130997 0.0003374291 -4.1408497e-05 -0.006605479 -4.9460996e-05 4.279264e-06 -4.9470033e-05 1.6428537e-09
-4.9469898e-05 3.4325636e-11 -4.946989e-05 0.0 -4.946989e-05 2.6782993e-17 -4.946989e-05 -5.090722e-16
-4.946989e-05 -1.4228843e-16 -4.946989e-05 -3.2541193e-17 -4.946989e-05 -2.1396527e-16 -4.946989e-05 -5.984626e-16
-4.946989e-05 2.4695934e-23 -4.946989e-05 3.9096038e-23 -4.946989e-05 6e-45 -4.946989e-05 0.0
-4.946989e-05 0.0 -4.946989e-05 0.0 -0.00036784675 0.00034444913 -4.1956566e-05 -0.006408397
00000000: d9f5 8839 1cb4 4339 0d95 8e38 0341 383c
00000010: 38d3 5e38 a2e8 38bb 3212 2839 ca1a 7bb7
00000020: e17e 2739 5555 d12c e17e 2739 0000 0000
00000030: 677a 2739 1ec3 a2b3 a37b 2739 4240 e0b3
00000040: e07e 2739 c0fd 89ae 9d7b 2739 a847 4333
00000050: e07e 2739 947c 472e e07e 2739 a557 1e2e
00000060: e17e 2739 8695 04a6 e17e 2739 ae30 4fa6
00000070: e17e 2739 0400 0000 e17e 2739 0000 0000
00000080: e17e 2739 0000 0000 e17e 2739 0000 0000
00000090: aebd 8039 a574 1839 af74 8938 cd5b 3a3c
000000a0: b70d 6238 c9b5 39bb e616 2839 f2ee 75b7
000000b0: e17e 2739 fa4c 852d e17e 2739 0000 0000
000000c0: 827a 2739 6dd7 a4b3 c07b 2739 92d3 e2b3
000000d0: e07e 2739 fd0c 89ae bb7b 2739 f4c5 4533
000000e0: e07e 2739 3527 462e e07e 2739 3a1d b0ac
000000f0: e17e 2739 4606 04a6 e17e 2739 1b8a 4ea6
00000100: e17e 2739 0400 0080 e17e 2739 0000 0000
00000110: e17e 2739 0000 0000 e17e 2739 0000 0000
00000120: 5c48 8d39 ff15 e138 5c4d 8438 1984 3a3c
00000130: 17cc 6438 d061 3abb 5d1a 2839 e975 70b7
00000140: e17e 2739 de24 bb2d e17e 2739 0000 0000
00000150: 997a 2739 8cd9 a6b3 dd7b 2739 c3ec e5b3
00000160: e07e 2739 e94c 88ae d87b 2739 5227 4833
00000170: e07e 2739 b22d 452e e07e 2739 2e47 272e
00000180: e17e 2739 1383 03a6 e17e 2739 97d3 4da6
00000190: e17e 2739 0400 0000 e17e 2739 0000 0000
000001a0: e17e 2739 0000 0000 e17e 2739 0000 0000
000001b0: 60b3 8a39 29b7 bf38 3701 7e38 ae76 3e3c
000001c0: f331 6738 2e11 3bbb f91f 2839 a084 6cb7
000001d0: e17e 2739 7ac8 2f2e e17e 2739 0000 0000
000001e0: b27a 2739 1ebf a8b3 f97b 2739 7284 e8b3
000001f0: e07e 2739 7063 87ae f37b 2739 d142 4a33
00000200: e07e 2739 f2ec 432e e07e 2739 2f3a f32d
00000210: e17e 2739 76eb 02a6 e17e 2739 39a7 4ca6
00000220: e17e 2739 0400 0000 e17e 2739 0000 0000
00000230: e17e 2739 0000 0000 e17e 2739 0000 0000
00000240: fa6b 5d39 9938 ee38 5dd2 7338 05b9 403c
00000250: 3465 6938 45e8 3bbb 4826 2839 258d 69b7
00000260: e17e 2739 510b 2e2e e17e 2739 0000 0000
00000270: ca7a 2739 59a6 aab3 167c 2739 8f1f ebb3
00000280: e07e 2739 34de 86ae 0e7c 2739 198a 4c33
00000290: e07e 2739 bc06 432e e07e 2739 b823 fb2d
000002a0: e17e 2739 1561 02a6 e17e 2739 d31e 4ca6
000002b0: e17e 2739 0400 0000 e17e 2739 0000 0000
000002c0: e17e 2739 0000 0000 e17e 2739 0000 0000
000002d0: c600 bab9 c33a ad39 3046 2bb8 88a9 dabb
000002e0: 5575 4fb8 41b3 3a34 e67d 4fb8 776e c52e
000002f0: e67d 4fb8 f886 102e e67d 4fb8 0000 0000
00000300: e67d 4fb8 155c f423 e67d 4fb8 2cf4 38a6
00000310: e67d 4fb8 f445 50a5 e67d 4fb8 6c61 41a4
00000320: e67d 4fb8 381d 9aa5 e67d 4fb8 b3f1 55a6
00000330: e67d 4fb8 3c18 f019 e67d 4fb8 a0f9 3d1a
00000340: e67d 4fb8 0400 0000 e67d 4fb8 0000 0000
00000350: e67d 4fb8 0000 0000 e67d 4fb8 0000 0000
00000360: 346e bdb9 f8e8 b039 09ae 2db8 c672 d8bb
00000370: 5774 4fb8 9996 8f36 0b7e 4fb8 c7ca e130
00000380: e67d 4fb8 3bf7 162e e47d 4fb8 0000 0000
00000390: e47d 4fb8 8e07 f723 e47d 4fb8 e6ba 12a6
000003a0: e47d 4fb8 220c 24a5 e47d 4fb8 dc11 16a4
000003b0: e47d 4fb8 67af 76a5 e47d 4fb8 bf7e 2ca6
000003c0: e47d 4fb8 2cd8 ee19 e47d 4fb8 8d0e 3d1a
000003d0: e47d 4fb8 0400 0000 e47d 4fb8 0000 0000
000003e0: e47d 4fb8 0000 0000 e47d 4fb8 0000 0000
000003f0: 8edb c0b9 2e97 b439 85fa 2fb8 88fd d1bb

exp_avg_sq f4 [128, 180]
4.614829e-05 9.027925e-05 1.3291564e-06 0.0024487898 1.4938418e-06 0.0011561769 3.171648e-06 0.0013356874
3.6817728e-06 0.00076040305 3.938245e-06 0.0 3.8992753e-06 1.2212845e-06 3.8849994e-06 5.226564e-06
3.9106144e-06 3.7172828e-07 3.884404e-06 1.7555893e-06 3.918133e-06 8.39089e-08 3.9191173e-06 4.643541e-07
3.938245e-06 4.5410463e-16 3.938245e-06 6.4926674e-16 3.938245e-06 5.938089e-20 3.938245e-06 0.0
3.938245e-06 0.0 3.938245e-06 0.0 4.5622397e-05 8.9515604e-05 1.328651e-06 0.0024270758
1.5077321e-06 0.0011677598 3.1802706e-06 0.001393974 3.7005016e-06 0.0007943746 3.954337e-06 0.0
3.915406e-06 1.2340375e-06 3.9008355e-06 5.2380956e-06 3.9260676e-06 3.3573494e-07 3.9002607e-06 1.9305946e-06
3.9341417e-06 6.891828e-08 3.9349525e-06 3.8067398e-07 3.954337e-06 4.536576e-16 3.954337e-06 6.4798423e-16
3.954337e-06 6.5475825e-21 3.954337e-06 0.0 3.954337e-06 0.0 3.954337e-06 0.0
4.522195e-05 8.888529e-05 1.3273728e-06 0.0023172023 1.5352722e-06 0.0011809503 3.1992395e-06 0.0014343505
3.7373034e-06 0.0008325818 3.991195e-06 0.0 3.952237e-06 1.3603842e-06 3.9373854e-06 5.244323e-06
3.9625666e-06 2.7339132e-07 3.936969e-06 1.970892e-06 3.9709134e-06 5.5650318e-08 3.971611e-06 3.0674246e-07
3.991195e-06 4.9687964e-16 3.991195e-06 6.4684555e-16 3.991195e-06 4.4112735e-24 3.991195e-06 0.0
3.991195e-06 0.0 3.991195e-06 0.0 4.479891e-05 8.823629e-05 1.3515606e-06 0.0023298843
1.5887738e-06 0.0011865111 3.2569947e-06 0.0014134891 3.803472e-06 0.0009440852 4.062513e-06 0.0
4.0154455e-06 2.6690047e-06 4.001823e-06 6.1304704e-06 4.033686e-06 3.5045744e-07 4.0016316e-06 2.0679527e-06
4.0422e-06 4.4366512e-08 4.0427226e-06 2.4442122e-07 4.062513e-06 1.2045567e-13 4.062514e-06 1.4740787e-15
4.062513e-06 5.801087e-24 4.062513e-06 0.0 4.062513e-06 0.0 4.062513e-06 0.0
4.4824796e-05 8.728617e-05 1.3057521e-06 0.0023313425 1.5518804e-06 0.001143832 3.223914e-06 0.0014460576
3.7983611e-06 0.0010194031 4.062645e-06 0.0 4.016837e-06 2.6488262e-06 4.002541e-06 5.956589e-06
4.033645e-06 3.182348e-07 4.002392e-06 1.6629108e-06 4.0420687e-06 3.6309565e-08 4.042487e-06 1.9946569e-07
4.0626464e-06 1.3929563e-15 4.062645e-06 6.461646e-16 4.062645e-06 8.466238e-23 4.062645e-06 0.0
4.062645e-06 0.0 4.062645e-06 0.0 7.255619e-05 0.00017347495 2.6094312e-07 0.001302054
4.165524e-07 0.0006942211 1.0045843e-06 0.00033565977 1.0592414e-06 0.00013378814 1.1491188e-06 0.0
1.1491186e-06 1.4879719e-11 1.1477772e-06 4.6890598e-08 1.142978e-06 9.999199e-08 1.1429204e-06 2.5213967e-07
1.1437146e-06 2.4108495e-08 1.149094e-06 1.507574e-08 1.1491188e-06 6.2278365e-27 1.1491188e-06 2.2090692e-27
1.1491188e-06 1.4732914e-27 1.1491188e-06 0.0 1.1491188e-06 0.0 1.1491188e-06 0.0
7.113505e-05 0.00017689656 2.6498873e-07 0.001306937 4.242693e-07 0.00073841197 1.0066298e-06 0.00033363904
1.0609684e-06 0.00013959572 1.1511617e-06 0.0 1.1511614e-06 1.4909579e-11 1.149851e-06 1.0464052e-07
1.1450018e-06 8.0846526e-08 1.1449318e-06 2.4736784e-07 1.1501977e-06 1.21564225e-08 1.1511477e-06 1.529592e-08
1.1511617e-06 7.286516e-19 1.1511617e-06 2.3335879e-27 1.1511617e-06 1.5555254e-27 1.1511617e-06 0.0
1.1511617e-06 0.0 1.1511617e-06 0.0 6.972853e-05 0.00018035337 2.6286355e-07 0.0012534818
00000000: 598f 4138 4e54 bd38 7765 b235 e07b 203b
00000010: 0380 c835 dc8a 973a 7fd8 5436 3b12 af3a
00000020: 6014 7736 c955 473a 4425 8436 0000 0000
00000030: 85d6 8236 04eb a335 e45b 8236 d85f af36
00000040: ec37 8336 f291 c734 c756 8236 97a1 eb35
00000050: 8278 8336 6831 b433 f680 8336 574c f934
00000060: 4425 8436 02e3 0226 4425 8436 6e23 3b26
00000070: 4425 8436 8c35 8c1f 4425 8436 0000 0000
00000080: 4425 8436 0000 0000 4425 8436 0000 0000
00000090: ad5a 3f38 53ba bb38 1a54 b235 930f 1f3b
000000a0: 485d ca35 840f 993a a26c 5536 01b6 b63a
000000b0: 2256 7836 943d 503a 7faf 8436 0000 0000
000000c0: 1561 8336 35a1 a535 ece3 8236 e6c2 af36
000000d0: aabc 8336 0f3f b434 fcde 8236 5d8f 0136
000000e0: 0502 8436 3a00 9433 fc08 8436 6f5f cc34
000000f0: 7faf 8436 06c2 0226 7faf 8436 ccc4 3a26
00000100: 7faf 8436 555c f71d 7faf 8436 0000 0000
00000110: 7faf 8436 0000 0000 7faf 8436 0000 0000
00000120: b3ac 3d38 ed67 ba38 2f28 b235 34dc 173b
00000130: 8d0f ce35 1eca 9a3a 84b2 5636 d100 bc3a
00000140: 62ce 7a36 9e41 5a3a 1bec 8536 0000 0000
00000150: 759d 8436 7296 b635 e21d 8436 64f8 af36
00000160: 30f6 8436 9ec6 9234 4e1a 8436 ab43 0436
00000170: e33d 8536 2c04 6f33 e143 8536 5dae a434
00000180: 1bec 8536 3f37 0f26 1bec 8536 c770 3a26
00000190: 1bec 8536 23a7 aa18 1bec 8536 0000 0000
000001a0: 1bec 8536 0000 0000 1bec 8536 0000 0000
000001b0: 77e6 3b38 7f0b b938 4567 b535 f9b0 183b
000001c0: da3d d535 b584 9b3a be92 5a36 d344 b93a
000001d0: 273f 7f36 7c7c 773a b950 8836 0000 0000
000001e0: 6abc 8636 271d 3336 6647 8636 57b4 cd36
000001f0: 1959 8736 8126 bc34 c145 8636 28c7 0a36
00000200: 3ca2 8736 7f8d 3e33 b9a6 8736 ff38 8334
00000210: b950 8836 fc9e 072a bb50 8836 e86f d426
00000220: b950 8836 2f6b e018 b950 8836 0000 0000
00000230: b950 8836 0000 0000 b950 8836 0000 0000
00000240: 4202 3c38 680d b738 4d41 af35 70c9 183b
00000250: 344a d035 a2ec 953a 6c5a 5836 a489 bd3a
00000260: 59e7 7e36 7e9d 853a db51 8836 0000 0000
00000270: 5ec8 8636 7dc2 3136 914d 8636 b6de c736
00000280: bf58 8736 dcd9 aa34 494c 8636 2e31 df35
00000290: 1ba1 8736 caf2 1b33 b3a4 8736 b62c 5634
000002a0: de51 8836 04bf c826 db51 8836 883e 3a26
000002b0: db51 8836 7ab3 cc1a db51 8836 0000 0000
000002c0: db51 8836 0000 0000 db51 8836 0000 0000
000002d0: 4f29 9838 d4e6 3539 c017 8c34 afa9 aa3a
000002e0: 87a2 df34 64fc 353a 41d5 8635 7efb af39
000002f0: 422b 8e35 7b49 0c39 6c3b 9a35 0000 0000
00000300: 6a3b 9a35 26e2 822d 530d 9a35 c264 4933
00000310: 6d68 9935 2ebb d633 7266 9935 d05d 8734
00000320: bc81 9935 2417 cf32 923a 9a35 e77f 8132
00000330: 6c3b 9a35 c4b5 f613 6c3b 9a35 3f05 2f13
00000340: 6c3b 9a35 cd73 e912 6c3b 9a35 0000 0000
00000350: 6c3b 9a35 0000 0000 6c3b 9a35 0000 0000
00000360: 572e 9538 4f7d 3939 c643 8e34 874d ab3a
00000370: 21c7 e334 fd91 413a 891b 8735 46ec ae39
00000380: 9966 8e35 7160 1239 9d81 9a35 0000 0000
00000390: 9b81 9a35 6325 832d 9454 9a35 bcb6 e033
000003a0: f6ad 9935 d99d ad33 8fab 9935 facd 8434
000003b0: 7e60 9a35 83d8 5032 2281 9a35 1564 8332
000003c0: 9d81 9a35 5c0f 5721 9d81 9a35 c9e2 3813
000003d0: 9d81 9a35 9b7b f612 9d81 9a35 0000 0000
000003e0: 9d81 9a35 0000 0000 9d81 9a35 0000 0000
000003f0: 383b 9238 3d1d 3d39 b11f 8d34 df4b a43a

exp_avg f4 [128]
0.00015973627 -4.9469898e-05 9.6179785e-05 3.2056605e-06 8.693737e-06 4.753814e-13 3.2378626e-05 -0.00055249274
-0.00026543875 6.1012237e-05 -0.00036779835 3.0064879e-05 -6.294435e-05 0.00045690488 -0.00039507457 -0.00046346692
3.8242833e-05 -0.00045688712 0.00013834664 1.0022088e-09 -0.00014082564 -0.00022999359 -8.711196e-09 -4.267587e-14
0.0004893637 -2.2035778e-05 -0.0002626587 1.5973774e-19 -0.00025510276 6.199158e-14 -0.0004936178 3.6155452e-05
0.00011154375 -1.630353e-12 0.0010975435 0.00023984468 -0.0003135609 8.677527e-05 2.4040728e-15 0.0004657782
-1.918334e-15 -1.7514554e-07 6.370822e-05 -0.00015698448 -0.0003401256 -0.00046354168 0.0005679449 -0.000120904326
1.1803323e-14 0.00015277199 8.516876e-05 -9.33496e-12 -0.00046719037 0.00018935514 -0.000409932 0.00026043926
0.00015693619 1.6179385e-05 0.0003006394 -0.00010762893 3.2292777e-12 -0.0003397529 -4.7380815e-12 -3.8545284e-05
-0.0001257307 -0.0003614884 -0.00013217847 0.0007948956 0.00028629362 -0.0002885217 -0.00014521736 0.00055092387
3.102928e-05 -0.0007049756 0.00020986161 -1.2083535e-05 -2.2892367e-05 0.00024365736 -6.1042947e-06 8.30323e-05
0.00027930166 5.1078076e-13 0.0001904933 -0.0002049974 0.0004148099 -0.0002578692 6.742299e-11 0.00020386536
-0.0001316597 3.9257968e-05 -9.42409e-05 6.235165e-16 1.2911593e-07 6.1576463e-07 -0.00024570312 4.8856655e-05
-0.00015522649 -0.00019503068 0.00011108415 -4.9001013e-05 0.00021510184 5.551378e-13 0.00015170788 0.00039909378
1.4948481e-05 0.00030161132 0.0001254287 0.00037459238 -8.805308e-12 9.719314e-05 -0.0008121343 -0.00021702315
3.8454903e-19 -3.8205968e-08 -5.152439e-05 -6.3046675e-05 -3.2057295e-09 -6.407565e-05 -0.00023951812 -0.00010417675
-2.3865686e-13 -0.0008236188 0.0002622002 -4.3429114e-07 -0.0003204204 -3.3996724e-15 0.00012908778 3.2894538e-06
00000000: e17e 2739 e67d 4fb8 21b4 c938 d420 5736
00000010: 51db 1137 d7ce 052b 49ce 0738 29d5 10ba
00000020: 962a 8bb9 64e7 7f38 0fd5 c0b9 d633 fc37
00000030: fe00 84b8 bc8c ef39 0322 cfb9 7afd f2b9
00000040: ee66 2038 5a8a efb9 2511 1139 16be 8930
00000050: 98aa 13b9 6f2a 71b9 3fa8 15b2 ee31 40a9
00000060: a448 003a 79d9 b8b7 74b5 89b9 c595 3c20
00000070: 50bf 85b9 b697 8b29 2166 01ba 9fa5 1738
00000080: 98ec e938 a873 e5ab 73db 8f3a d17e 7b39
00000090: 6e65 a4b9 1efb b538 513b 2d27 b133 f439
000000a0: 043b 0aa7 a40f 3cb4 179b 8538 339c 24b9
000000b0: e352 b2b9 8307 f3b9 23e2 143a 048e fdb8
000000c0: 38a1 5428 6b31 2039 a19c b238 ec38 24ad
000000d0: 3bf1 f4b9 a28d 4639 24ec d6b9 918b 8839
000000e0: 3d8f 2439 f7b8 8737 239f 9d39 d8b6 e1b8
000000f0: 7f3d 632c dd20 b2b9 d8b4 a6ac afab 21b8
00000100: 94d6 03b9 2786 bdb9 6399 0ab9 8a60 503a
00000110: ae19 9639 ba44 97b9 7d45 18b9 e06b 103a
00000120: 7025 0238 1dce 38ba 4c0e 5c39 63ba 4ab7
00000130: fc08 c0b7 467e 7f39 7ed3 ccb6 a021 ae38
00000140: 3c6f 9239 a2c5 0f2b 28bf 4739 92f4 56b9
00000150: d87a d939 9e32 87b9 c543 942e b1c4 5539
00000160: 220e 0ab9 eca8 2438 33a3 c5b8 66b7 3326
00000170: 1ea3 0a34 064b 2535 b7d1 80b9 6feb 4c38
00000180: 4bc4 22b9 2681 4cb9 d9f5 e838 7086 4db8
00000190: f68c 6139 e541 1c2b c613 1f39 763d d139
000001a0: 3dcb 7a37 9621 9e39 8385 0339 f064 c439
000001b0: 95e7 1aad 2bd4 cb38 69e5 54ba b590 63b9
000001c0: 68ff e220 e817 24b3 e41b 58b8 ed37 84b8
000001d0: ca4b 5cb1 5a60 86b8 2827 7bb9 7779 dab8
000001e0: 145a 86aa 1fe8 57ba ea77 8939 8528 e9b4
000001f0: 19fe a7b9 e3f8 74a7 bd5b 0739 63c0 5c36

exp_avg_sq f4 [128]
4.0626455e-06 1.1558891e-06 6.9174225e-06 7.704921e-06 1.1240221e-06 6.2577663e-09 2.0553303e-07 3.5280395e-05
5.2435234e-06 1.5407953e-05 2.2701348e-05 2.1168999e-06 1.2798411e-05 6.8888664e-07 1.0365829e-05 5.281813e-05
1.0224259e-07 9.159316e-06 7.788159e-07 2.6463003e-09 1.0146631e-06 1.4858139e-07 1.7048856e-09 5.6747163e-09
1.1303502e-05 1.7481467e-06 1.268999e-05 2.0259364e-15 1.4746706e-05 7.862239e-09 2.525757e-05 6.8729844e-09
2.6602627e-06 1.9316385e-06 2.7524551e-05 4.1915578e-07 3.2890248e-06 9.973337e-07 1.0874641e-10 1.4175945e-05
2.2486535e-09 2.860232e-06 1.31387815e-05 4.626354e-06 1.408682e-06 2.4008146e-05 1.2008386e-05 1.3287962e-05
3.5509027e-09 5.2559382e-05 4.6617478e-07 1.1187258e-08 9.784297e-06 5.7429543e-06 6.452014e-06 2.2876615e-07
1.5343851e-06 5.970492e-07 9.127661e-07 1.3357454e-06 1.7384284e-07 9.453481e-06 2.1035478e-07 2.3344941e-05
3.854934e-07 1.6571481e-05 3.49855e-06 9.67852e-06 1.4549589e-06 4.1115054e-06 5.8478377e-06 2.188731e-05
1.4256737e-07 9.2107775e-06 1.659595e-05 4.9653017e-06 5.9846315e-08 3.032878e-07 3.5636967e-07 1.6132489e-06
6.2827894e-06 7.6651254e-08 3.9683394e-07 2.9207322e-05 1.3109371e-06 1.2214006e-06 7.83438e-07 8.7450627e-07
1.6495417e-06 2.0223835e-07 2.7780784e-06 1.4635332e-08 4.356383e-08 1.541248e-07 1.8499705e-06 3.251533e-07
6.3956995e-06 2.0420778e-06 1.5904518e-06 5.6911308e-08 1.4034622e-06 1.1443682e-07 1.4009886e-06 5.771303e-06
2.4287783e-06 3.688385e-06 1.2040119e-06 4.2796946e-06 2.166222e-06 1.2267124e-06 7.815672e-06 4.427491e-05
8.144365e-13 1.3246303e-08 4.5405002e-07 3.099077e-07 2.2303905e-07 1.4094808e-06 4.744932e-06 1.0840722e-06
1.2749335e-07 2.7618044e-05 5.744084e-07 4.9371366e-08 3.4805507e-06 1.1860588e-09 2.3600671e-07 8.001151e-06
00000000: dc51 8836 0c24 9b35 351c e836 6244 0137
00000010: 1bdd 9635 e503 d731 7db0 5c34 09fa 1338
00000020: 86f1 af36 5440 8137 c66e be37 1010 0e36
00000030: c2b8 5637 eeeb 3835 e6e8 2d37 0989 5d38
00000040: 7590 db33 f6aa 1937 d20f 5135 35da 3531
00000050: 8f2f 8835 be89 1f34 5451 ea30 55fb c231
00000060: 2ca4 3d37 dda1 ea35 18e7 5437 eefb 1127
00000070: 9f68 7737 7e12 0732 38e0 d337 6927 ec31
00000080: f786 3236 4ca1 0136 86e4 e637 5508 e134
00000090: 04b9 5c36 20dc 8535 c922 ef2e 38d5 6d37
000000a0: bb86 1a31 69f2 3f36 a36e 5c37 143c 9b36
000000b0: f211 bd35 1a65 c937 a077 4937 5def 5e37
000000c0: 2404 7431 3573 5c38 9346 fa34 1532 4032
000000d0: 3c27 2437 9ab3 c036 617e d836 c3a2 7534
000000e0: 12f1 cd35 e944 2035 cf04 7535 dd47 b335
000000f0: 8ea9 3a34 649a 1e37 e2dd 6134 e1d4 c337
00000100: cff5 ce34 fc02 8b37 a2c8 6a36 ed60 2237
00000110: 0248 c335 90f5 8936 8b38 c436 a49a b737
00000120: 9f14 1934 fd87 1a37 8837 8b37 9e9b a636
00000130: dc84 8033 8fd3 a234 1353 bf34 cf86 d835
00000140: c0d0 d236 799b a433 710c d534 3f02 f537
00000150: 75f3 af35 01ef a335 734d 5235 9dbf 6a35
00000160: d265 dd35 db26 5934 066f 3a36 df6e 7b32
00000170: f01a 3b33 817d 2534 814c f835 bb90 ae34
00000180: a49a d636 a10a 0936 8277 d535 a56e 7433
00000190: 985e bc35 4fc0 f533 9a09 bc35 1ea7 c136
000001a0: 18fe 2236 f985 7736 8999 a135 4c9a 8f36
000001b0: 695f 1136 84a5 a435 0e20 0337 d3b3 3938
000001c0: 563e 652b db91 6332 29c4 f334 6461 a634
000001d0: 827c 6f34 642d bd35 a836 9f36 7080 9135
000001e0: 1be5 0834 4cad e737 0b31 1a35 640c 5433
000001f0: 6893 6936 bc02 a330 0869 7d34 af3c 0637
