results/physicomimetics/DroneAgent/DroneAgent-13499949.onnx (onnx, 164154 bytes, 7 tensors)

network_body._body_endoder.seq_layers.0.weight f4 [128, 180]
000000 f8 69 04 bf 4d c4 f8 3e bf 3e f9 3d 65 d9 9c bf
       -0.51724195 0.48587266 0.12170171 -1.2253844
000010 80 46 57 be 73 e2 40 3d 37 87 73 be 79 4f e5 3e
       -0.21022987 0.04709096 -0.23782049 0.44787195
000020 9a 31 ef 3d d1 4a 7f be d2 2b db bd 58 14 f1 3d
       0.116793826 -0.24930884 -0.107017174 0.117714584
000030 a3 96 35 be 23 61 72 3f 42 b5 22 bd 7d cd 50 3f
       -0.17733245 0.9467947 -0.039723642 0.8156355
000040 97 82 7e be 94 67 04 bd 34 b0 49 be e8 72 29 3f
       -0.24854504 -0.032325342 -0.19696122 0.6619096
000050 45 ad b5 be 2d b4 c6 be b4 2c 82 bd 5b c4 49 be
       -0.35483757 -0.38809338 -0.06356183 -0.1970381
000060 8a da 71 bc c7 f8 42 be da c3 28 be f3 f8 14 bc
       -0.014761576 -0.19040214 -0.16480961 -0.009092557
000070 bb 37 87 be 51 83 42 bc d1 3e a9 bd 2e 92 08 3e
       -0.26409706 -0.011872129 -0.082639344 0.13337013
000080 17 d4 45 be f8 3a 1f bc fe 45 bb bd 77 af 72 3c
       -0.19319187 -0.009718649 -0.09144209 0.014812342
000090 52 1f ff be f8 23 de 3e e4 f3 a4 3d 11 a2 79 bf
       -0.49828583 0.43386817 0.08054331 -0.9751292
0000a0 20 14 25 bd a1 1e 64 bd 0b 1a 54 be 25 9f 07 3f
       -0.040302396 -0.055693273 -0.2071306 0.5297721
0000b0 cb a6 4a 3d a9 91 da bd d8 6c 6f be d4 14 91 bd
       0.049475472 -0.10672314 -0.23381364 -0.07084051
0000c0 79 e9 ed bd 8d 00 81 3f 6c 23 7d be 35 85 40 3f
       -0.11616797 1.0078293 -0.24720544 0.7520326
0000d0 8a 66 3f bd c2 2b 9b 3d be 74 24 be ca b8 34 3f
       -0.04672865 0.075767055 -0.16060159 0.70594466
0000e0 e0 79 3d be 64 e7 d8 be 6c 5c 46 bd 14 74 7e be
       -0.18503523 -0.42364037 -0.048427984 -0.24848968
0000f0 c3 53 ab be b6 d5 82 be e8 df aa be 37 49 45 3e
       -0.33462343 -0.25553674 -0.33373952 0.1926621
000100 f9 cd ed bd 68 28 5a be c2 bf 81 be c8 ab 75 3d
       -0.11611552 -0.21304476 -0.25341612 0.059978276
000110 80 9b 87 be 9d 2f db bb 3b 84 16 be 33 a2 a5 3d
       -0.26485825 -0.0066890256 -0.1469888 0.08087578
000120 a5 3e 14 bf 1a 57 d1 3e ec b1 47 3e 0a d0 14 bf
       -0.5790809 0.40886766 0.19501466 -0.5812994
000130 9f 6a 9d be de a3 87 bc 73 a0 aa be 28 75 2c be
       -0.30745408 -0.01655763 -0.33325538 -0.16841567
000140 97 7e 21 3d 77 c0 c4 bc 2b 0b d1 be ac ff 12 3e
       0.039427366 -0.024017556 -0.40828833 0.14355344
000150 58 ea 89 be f1 5c 68 3f f4 b4 a3 be e0 e6 86 3f
       -0.26936603 0.9076682 -0.31973994 1.0539207
000160 4f 6f 9b be e1 7d 6b bc ca 2c 53 be 9e 09 18 3f
       -0.3035836 -0.014373274 -0.20622554 0.59389675
000170 62 6c 11 be 68 3c 01 3e 95 da 88 be fc 1e 88 bd
       -0.14201501 0.126207 -0.26729265 -0.06646535
000180 d4 44 b9 be ac 01 08 bd 7f 8f 6d be f6 76 c7 bb
       -0.36185324 -0.03320472 -0.2319927 -0.0060871793
000190 30 51 b0 be 0f c3 97 be 90 b7 81 be 7d 3a 01 be
       -0.3443694 -0.29641005 -0.2533536 -0.12619968
0001a0 61 4a 9b be 53 6d cb bc fe a8 c0 be 51 18 a9 bd
       -0.30330184 -0.024832403 -0.3762893 -0.08256591
0001b0 cc 01 e4 be dc 08 07 3f 7a b3 15 3e c1 41 19 be
       -0.4453262 0.52747893 0.14619246 -0.1496649
0001c0 02 07 c8 be 2a 6a 81 be d1 50 c3 be d5 d6 a1 be
       -0.39067847 -0.2527631 -0.38147596 -0.31609216
0001d0 a7 e2 4e 3d 68 3c d4 3d b1 67 9e be a7 9f 17 bd
       0.05050912 0.10363084 -0.30938485 -0.03701749
0001e0 a7 51 93 be 66 5c 6e 3f e7 78 bd be cb 67 85 3e
       -0.28773233 0.9310974 -0.37006304 0.2605575
0001f0 16 a2 ce be 51 9d 80 3b 36 3d 7a be 48 88 e3 3e
       -0.40358037 0.0039250036 -0.24437413 0.44439912
000200 c4 a2 a3 bd 4d 5f 9c be 8e 69 7b be e8 11 8a be
       -0.079900295 -0.3054146 -0.24551985 -0.26966786
000210 91 ea b7 be 15 09 37 be 35 00 a8 be 54 19 96 bd
       -0.35921147 -0.17874558 -0.32812658 -0.0732905
000220 3d 34 b5 be 05 f8 b4 bd cd 51 48 be d9 33 e9 bd
       -0.35391417 -0.088363685 -0.19562455 -0.11386842
000230 b3 32 5c be d5 0d 7c bd 9e ba 65 be f9 d8 3c bc
       -0.21503715 -0.06153663 -0.2243447 -0.01152634
000240 87 55 ae be ba fd 01 3f e1 c6 c7 3e b0 8c 1d bd
       -0.34049627 0.5077778 0.3901892 -0.03846425
000250 f8 7c 41 3d bb 3d f2 be 3c ee 0e be 09 18 a3 3d
       0.04723832 -0.47312722 -0.13958067 0.07963569
000260 67 0e 33 3e a3 1e 9b be c9 2e b6 bb 6a 06 a7 bd
       0.17485963 -0.3029681 -0.0055597764 -0.0815552
000270 d7 10 12 3d ee 09 90 3f 6c 00 b0 3c c7 d1 a0 3e
       0.03566059 1.125303 0.021484576 0.31410047
000280 3c 53 f9 3c 62 dc 0f 3e 2a 75 e2 bb 63 36 10 3f
       0.030435197 0.14048913 -0.0069109397 0.5633299
000290 d5 49 13 be 2b d0 66 bf d2 0b 82 bc f8 6f 10 bf
       -0.14383633 -0.9016139 -0.015874777 -0.5642085
0002a0 f3 07 8f bd 79 1e de be 3f 9f 58 bd a8 e9 83 3e
       -0.06983938 -0.43382624 -0.052886244 0.25764203
0002b0 5b 22 3b be 29 14 2c be 3f ce 84 3d 55 d6 b6 bd
       -0.18274824 -0.16804565 0.06484651 -0.08927599
0002c0 42 5b 1c 3e a2 d9 9f bd 11 2d a1 bd 58 d9 07 bd
       0.15269187 -0.07805182 -0.07869924 -0.03316626
0002d0 4f ed 17 3e 85 3b 89 3d 6c dc b1 be 45 c8 4f 3f
       0.1483662 0.067008056 -0.3473848 0.8116496
0002e0 8a 68 31 bf b4 75 75 be 9b cd f8 be bd 1f 29 bd
       -0.6930014 -0.23970681 -0.48594365 -0.041290034
0002f0 70 3b 05 bf 0b 86 f7 3e 58 bd eb be 12 e7 e0 bc
       -0.5204382 0.48344454 -0.46042895 -0.027453933
000300 71 6a a1 be 99 9a 5d be 94 24 96 be f7 53 18 3f
       -0.3152652 -0.21641006 -0.29324782 0.5950312
000310 30 5e 90 be 59 1e 86 bd 23 2b 7c be 49 2d da be
       -0.2819686 -0.06548757 -0.2462583 -0.42612675
000320 88 96 e1 be c9 ae 95 be 3f 73 bd be a6 05 2c 3e
       -0.4406016 -0.29234913 -0.37001988 0.1679903
000330 09 aa b4 be 3d bc e5 be f7 8e e9 be d3 f3 68 be
       -0.35285977 -0.44870177 -0.45616886 -0.22749262
000340 76 cc ac be ea 9d e8 bd ff ec f7 be 9e fe 45 3d
       -0.3374974 -0.11358245 -0.48423 0.048338525
000350 60 e8 2f be 31 b5 48 3c 65 bf db be 6e 83 50 3d
       -0.17178488 0.012250231 -0.4291946 0.05090659
000360 95 9d a7 3e 0c 56 2d bd 92 25 13 bf 89 9a 50 3f
       0.32737413 -0.04231839 -0.574792 0.814858
000370 ed c6 48 bf 0d d6 d1 be ab 8d 73 bf ab 62 aa 3c
       -0.78428537 -0.4098362 -0.95138043 0.020799002
000380 a5 db 0e bf 93 2e a3 3e f5 0f 11 bf e7 db 25 3d
       -0.558039 0.3187147 -0.56664973 0.04049292
000390 b6 fa 0b bf 6c 60 af be 93 00 b1 be 65 67 b5 3e
       -0.5467943 -0.34253252 -0.3457075 0.35430446
0003a0 b9 7a d5 be 8a 93 8c 3e 72 0a f4 be 1d c2 9a be
       -0.41695192 0.27456313 -0.4766422 -0.30226222
0003b0 87 83 13 bf d8 aa 22 bd ed f9 1a bf 00 3e 19 3e
       -0.5762257 -0.03971371 -0.60537606 0.14965057
0003c0 df 9b 25 bf 54 9e b0 be 86 ef 27 bf df 33 9b be
       -0.64690965 -0.34495795 -0.6559986 -0.30313012
0003d0 8f 4e 25 bf 8c a2 d5 3b 0b 26 2e bf 5e cd 7c 3c
       -0.64572996 0.0065196212 -0.680268 0.015429823
0003e0 9d e0 e6 be c8 cd 94 3d b0 a0 1e bf 95 9a 9e 3d
       -0.4509324 0.07265812 -0.6196394 0.07744328
0003f0 b1 83 09 3d 3c 13 0f bd 24 fd 3e bf a5 ce 16 3b
       0.033572856 -0.034930453 -0.7460501 0.0023011353

network_body._body_endoder.seq_layers.0.bias f4 [128]
000000 1c c4 41 bd 4e 1a bc bb 53 f4 54 be 37 ed 93 3e
       -0.047306165 -0.0057404405 -0.20796327 0.28891918
000010 99 69 ec bd 25 22 2e bf b9 16 34 be 13 29 8d 3c
       -0.11543579 -0.6802085 -0.17586793 0.0172315
000020 76 3a 2d be dd c4 c9 3e 04 33 84 be c4 0a c6 3e
       -0.16916832 0.39408007 -0.25820172 0.3868009
000030 4f 12 55 be 10 36 12 3d 09 e0 05 3d 81 b2 52 be
       -0.20807765 0.03569609 0.03268436 -0.20575906
000040 40 ab fc be a0 98 86 be 54 ce 33 bf d5 a2 36 bf
       -0.49349403 -0.2628832 -0.70236707 -0.7134221
000050 9d 66 0d bf e9 69 ae be b2 8b 5b be 3e ab ed be
       -0.552347 -0.34065178 -0.21440008 -0.4641971
000060 14 fb ec 3e 12 d3 1b be 05 45 fe be e2 69 85 bf
       0.46285307 -0.15217236 -0.49662033 -1.0422938
000070 57 8d 2b be 06 c1 84 bf fb 00 6c 3d 86 ae ec be
       -0.16753136 -1.0371406 0.057618123 -0.462269
000080 57 08 b1 bd b0 5d a9 bd ad 42 2c be c1 7f 53 bf
       -0.08644169 -0.082698226 -0.1682231 -0.8261681
000090 34 f7 94 be 3d 4d d2 be 2b 63 bb be 40 25 d9 3b
       -0.2909485 -0.41074553 -0.36599097 0.006626755
0000a0 4c f5 46 bf 24 25 04 3f c0 76 65 be 11 d7 98 be
       -0.77718043 0.5161917 -0.22408581 -0.29851583
0000b0 77 06 c0 be 53 7f b7 3c b7 a7 af bd ed d8 f4 3d
       -0.37504932 0.02239958 -0.08576911 0.11955438
0000c0 e7 7a 92 be d1 17 65 be 9c d5 c8 be 0b ac 78 be
       -0.28609392 -0.22372366 -0.3922547 -0.24284379
0000d0 0a d7 9a be 8f fb b4 be f2 2b 91 bd 15 63 49 be
       -0.30242187 -0.35348174 -0.0708846 -0.19666703
0000e0 97 d5 ef be 74 1d 70 be e4 eb 26 bf de a9 be be
       -0.46842644 -0.23448735 -0.6520369 -0.37238973
0000f0 01 79 25 bf 95 41 9c be 9f a1 ed be e1 55 d6 3e
       -0.6463776 -0.30518785 -0.4641237 0.41862395
000100 36 24 16 bf f1 eb b1 be 4f 2a b1 3e f4 08 e6 3d
       -0.58649004 -0.34750322 0.3460259 0.112321764
000110 bf f0 1f bf c0 c0 f8 3c 15 c8 17 bd 2e 0d 7d bd
       -0.62476724 0.030365348 -0.037056047 -0.061780147
000120 07 00 03 bf 5f 34 b9 be 79 19 a4 3d 92 cb 1d be
       -0.51171917 -0.36172768 0.08012671 -0.15409687
000130 bd f9 68 bf 0e 35 41 bf 6b 4d 32 bf ff 1d 49 bf
       -0.9100607 -0.7547158 -0.6964938 -0.78561395
000140 0b 15 c9 bd ed 83 6b bf 41 cc 84 be 0b 84 d5 bd
       -0.09818467 -0.9199818 -0.25937083 -0.10425576
000150 91 ae 94 be bd 50 a2 be e7 12 a9 be 0d 5f ee be
       -0.29039434 -0.31702223 -0.33022234 -0.46556893
000160 70 0b 2b bf f0 77 4d be ae da 8c bd 28 9d 11 be
       -0.6681433 -0.20065284 -0.06877647 -0.14220107
000170 0c f8 18 be 71 59 2d bf ca 0f 3a be 09 1e 03 bf
       -0.14938372 -0.677146 -0.18170086 -0.51217705
000180 a1 c9 c6 be 74 64 b8 3e b4 db cb bd e9 7e 46 bf
       -0.38825706 0.3601414 -0.099540144 -0.775374
000190 65 df 9a be b3 5e 29 be e9 f2 22 be 2c d8 85 be
       -0.30248562 -0.16540031 -0.15912975 -0.2614149
0001a0 24 48 a1 be f9 68 e0 3e c6 f0 12 be 21 c2 d4 be
       -0.3150035 0.43830088 -0.1434966 -0.4155436
0001b0 af 7c a3 3d 5f 51 44 be 3d be 56 be 9e 06 bf 3e
       0.07982766 -0.19171666 -0.20971008 0.37309736
0001c0 07 58 81 bf 92 c8 17 be 93 dc 18 be 95 18 1e bf
       -1.0104989 -0.14822605 -0.14927892 -0.6175626
0001d0 f2 f4 51 be 34 65 d7 be 82 cc 9e be 94 0f 26 bd
       -0.20503595 -0.420694 -0.31015402 -0.0405422
0001e0 c7 13 49 bf d4 f1 e8 3d 00 90 b1 be 1d db 8d be
       -0.785458 0.1137425 -0.34680176 -0.27706233
0001f0 e3 4d 2f 3e 12 24 30 bf fe 26 4a bf 79 af bd be
       0.17119555 -0.6880504 -0.7896575 -0.37047938

network_body._body_endoder.seq_layers.2.weight f4 [128, 128]
000000 82 e7 de 3e c0 49 f0 3e 01 64 2a be 50 56 52 3f
       0.43536 0.46931267 -0.16639711 0.8216295
000010 93 65 69 bf 2d fa 64 bf dc b3 03 bf 2c 7d 02 bf
       -0.91170615 -0.8944424 -0.5144632 -0.5097225
000020 32 1b 80 bf 41 e6 1f 3f cc 00 77 bf b9 ff 49 3f
       -1.0008299 0.62460715 -0.9648559 0.78905827
000030 d6 b5 74 bf 4c 70 b9 bf a4 aa 88 3e 0d 2c ac bf
       -0.9558996 -1.4487395 0.26692688 -1.3450943
000040 dc 28 9a bf af 22 0c bf db ac 4e bf 61 f5 36 bf
       -1.2043719 -0.5474042 -0.80732507 -0.7146817
000050 8b 22 ad bf 17 34 95 bf 11 6d 41 bf c2 75 7f bf
       -1.3526167 -1.1656522 -0.7555705 -0.9978906
000060 aa 3a 3e 3d e2 d2 ae bf 0e c0 99 bf f3 6e 19 bf
       0.046442665 -1.3658106 -1.2011735 -0.5993492
000070 a6 ef ad 3e 5b 28 03 bf 5d c7 ed 3d cc c9 be be
       0.339719 -0.5123345 0.11610291 -0.37263334
000080 88 b8 91 bf a6 cd 94 bf b8 93 52 bf fb fa 9e bf
       -1.138444 -1.1625259 -0.8225665 -1.2420343
000090 33 2c 13 bf b4 13 bd be d0 25 8f bf 8e 1b 54 bf
       -0.5748932 -0.36929095 -1.1183414 -0.82854545
0000a0 57 20 97 bf 92 1c fd 3d 37 74 a4 be f9 df e2 be
       -1.1806744 0.12358965 -0.32119915 -0.44311503
0000b0 02 f4 0e 3f 54 20 1c 3e bc a5 80 be 3a 38 ea be
       0.55841076 0.15246707 -0.25126445 -0.45746022
0000c0 42 7b 35 bf 79 b2 ab bf 69 0e ff 3d 51 72 be be
       -0.708912 -1.341384 0.124539204 -0.37196591
0000d0 6d 4d 2a be 9b 18 79 bf cd 20 fa bb 5a 6d b4 bf
       -0.16631098 -0.9730317 -0.0076333047 -1.4095871
0000e0 0a c7 cc bf c8 8f 53 bf 7c a5 69 bf a4 0b 20 bf
       -1.5998242 -0.8264127 -0.91268134 -0.6251776
0000f0 0c d3 82 bf 33 4f 62 bf 95 9d 5d be 55 4a 3a 3f
       -1.0220656 -0.884021 -0.21642144 0.7276967
000100 47 83 6d bf 7a 20 04 bf 55 d6 74 bf 5a db f5 3e
       -0.9277844 -0.51612055 -0.95639545 0.48018914
000110 ab 22 b7 bf c5 e6 93 be c5 fc 0f bf 6e 25 78 bf
       -1.4307455 -0.28887 -0.5624507 -0.96932113
000120 66 ff 76 bf d1 e9 82 bf 01 fc c0 bf 11 b7 66 bf
       -0.9648346 -1.0227605 -1.5076905 -0.9012309
000130 0e ab 50 bf 7f 80 6e bf 09 89 a7 bf fb 4e 8f be
       -0.8151101 -0.9316482 -1.3088695 -0.27989945
000140 5d 64 5f 3e f9 4b 58 bf 6b 8c ad bf a4 a4 1f bf
       0.2181563 -0.84490925 -1.3558477 -0.62360597
000150 d1 62 28 bf 98 08 97 bf 63 5a 60 3f 27 8d 2d bf
       -0.6577578 -1.1799498 0.8763792 -0.67793506
000160 5b 7e 99 be d2 93 61 be c3 85 04 3f 28 37 c4 be
       -0.29979214 -0.22029045 0.51766604 -0.3832333
000170 75 c3 26 bf 36 13 87 bf 51 75 66 bd cc 7e a6 bf
       -0.65141994 -1.0552738 -0.056264225 -1.3007445
000180 a5 28 6d be c4 50 9e be 6f dd cf bf 4d f2 27 bf
       -0.23160036 -0.30920994 -1.6239451 -0.65604097
000190 9c 43 47 bf 92 01 10 bf f7 7e 3d bf 50 72 ea 3d
       -0.7783754 -0.56252396 -0.7402186 0.11447585
0001a0 41 e6 ba bf 68 be 47 bf 6b 1b 6f be aa 4d 5c bd
       -1.4601518 -0.7802491 -0.23350303 -0.053785004
0001b0 69 e2 29 bf 44 ce dd bf dd b9 6d bf ec bf a1 3e
       -0.663611 -1.7328572 -0.9286173 0.31591737
0001c0 50 44 5c bf 83 ed 9a bf 03 3b 39 bf a3 e9 89 bf
       -0.86041737 -1.2103733 -0.7235567 -1.0774425
0001d0 9b c4 4d bf ff be 2e bf dd 6a e6 be d9 17 bf 3e
       -0.8037812 -0.68260187 -0.45003405 0.37322882
0001e0 05 99 22 bf 08 ab 15 3f b6 93 3f bf f6 f5 9d bf
       -0.6351474 0.584641 -0.74834764 -1.2340686
0001f0 ea 43 0b 3b e2 bc e4 be c9 a8 84 bf 12 ea 97 bf
       0.0021250197 -0.44675356 -1.0364009 -1.1868308
000200 89 9c 7c bf 5a e3 0c bf 19 e5 00 3e 54 92 fb 3e
       -0.98676354 -0.5503441 0.12587394 0.49135077
000210 09 2d 3a 3f 46 63 36 bd d9 6b bf bd d7 42 c5 3e
       0.7272497 -0.04452827 -0.09346742 0.38527557
000220 6e c1 80 be 81 e9 44 3e 55 11 2b 3e e8 01 aa be
       -0.25147575 0.192297 0.1670583 -0.3320458
000230 14 06 e1 3c 20 52 a1 3e 29 76 02 bf cd 97 2b bf
       0.027468719 0.3150797 -0.5096155 -0.67028505
000240 10 5d 99 be 6e dc 0c 3f 79 c1 d3 be a8 c9 5a 3e
       -0.29953814 0.5502385 -0.41358545 0.21365988
000250 f2 f1 81 bf 85 cb a9 be dc c2 2b 3e e2 42 b4 bd
       -1.0151961 -0.33163086 0.16773552 -0.088018194
000260 1a b7 97 bd 52 d4 51 3e 16 05 9f 3d eb 36 ff bd
       -0.07407971 0.2049115 0.07764642 -0.12461647
000270 ef 19 2f 3f f7 66 42 bf 43 23 18 bf 10 12 81 be
       0.68398947 -0.7593836 -0.59428805 -0.25209093
000280 a9 b5 d0 be b1 38 28 3f de ce 01 bd e4 71 d0 3e
       -0.40763596 0.65711504 -0.031691425 0.40711892
000290 6a cd d2 3d e3 9c 82 bd 08 2e 8e 3c c5 10 0c bf
       0.10293086 -0.0637758 0.017355934 -0.5471309
0002a0 b5 07 eb 3d df 53 b8 3e e5 a5 aa be fa e6 00 bf
       0.114760794 0.3600149 -0.33329692 -0.5035244
0002b0 be ae 40 3e 68 74 06 3f 93 c3 00 bf 26 fc 6a 3e
       0.18816659 0.5252137 -0.5029842 0.2294775
0002c0 c0 96 bb 3e 41 13 35 bf 58 58 ee be 78 a6 9d 3e
       0.3663845 -0.70732504 -0.46551776 0.30791068
0002d0 fd 86 bb 3e 5e 17 f4 be e6 5d 3d 3d d5 7d 2e 3f
       0.36626425 -0.47674078 0.046232127 0.68160754
0002e0 ae 5c b0 bf 8a 6c 0b 3f 0c 8f 0a 3f 70 71 47 be
       -1.3778284 0.5446249 0.5412452 -0.19476867
0002f0 1d 72 de be 12 77 53 bf 89 3e 8c be 54 ad 44 bf
       -0.43446437 -0.8260356 -0.2739146 -0.7682698
000300 f6 ab a0 3f 50 eb d7 be 4b ee 26 bf fa 43 98 3e
       1.2552478 -0.42171717 -0.65207356 0.29739362
000310 ca 64 09 bf 95 c4 44 3f ee 0c bf 3d ef 67 59 be
       -0.53669417 0.7686246 0.09328638 -0.21231054
000320 90 36 78 bf c3 8f a6 be d6 30 de 3d df 06 22 be
       -0.96958256 -0.32531556 0.108491585 -0.15822934
000330 49 2f 14 bf f4 66 41 be 85 7f 5b be b4 c8 3c bf
       -0.5788465 -0.1888693 -0.21435364 -0.7374375
000340 9e a3 d6 be 27 d3 f5 be 79 41 0f 3f a4 2a 61 be
       -0.41921705 -0.4801266 0.5595928 -0.21988922
000350 b7 01 e4 3e 36 3a c2 bd d8 76 bf be 69 64 ee bd
       0.44532558 -0.09483759 -0.37395358 -0.116402455
000360 77 a1 59 bd f9 ca ae be 71 36 f5 be 00 1f 54 3f
       -0.0531325 -0.3413923 -0.47893098 0.828598
000370 a5 a3 22 3d a4 be e7 bd f4 70 1d 3e 70 89 0e 3f
       0.039706845 -0.11315659 0.1537512 0.55678463
000380 3c 02 a0 bd 7a 46 ea be 48 58 7b 3e b5 4d 47 bf
       -0.07812926 -0.45756894 0.24545395 -0.77852947
000390 ce c3 b8 be bb fe 13 3f 5d 96 e3 3e 1b 72 90 be
       -0.36086887 0.5781056 0.44450656 -0.28212056
0003a0 9b 23 56 3e 02 bd 1e 3f 70 0d a4 bf c4 17 55 bf
       0.2091202 0.62007153 -1.2816601 -0.8323939
0003b0 b6 84 4c 3f 4c 60 a9 3e 87 ef 1c 3f 16 96 c2 be
       0.7989 0.3308128 0.6130299 -0.3800513
0003c0 eb 31 19 3f 01 41 53 3f dc 18 ce bd b5 80 2c bd
       0.59841794 0.82521063 -0.10063335 -0.042114932
0003d0 bf 4e 90 3f 34 c0 65 bf 44 60 8b be a2 43 a6 be
       1.1274031 -0.89746404 -0.27221882 -0.32473475
0003e0 2e fc 98 3c f6 09 50 3e 19 48 cb be 2a 6d 9d 3e
       0.018674936 0.203163 -0.39703444 0.30747348
0003f0 83 40 1b 3f 3f 42 44 3e aa fe 72 be 2c b3 dc bd
       0.6064531 0.19165896 -0.23729959 -0.10776362

network_body._body_endoder.seq_layers.2.bias f4 [128]
000000 e8 54 1e 3f 2e 72 80 3e 0c 23 2d bd 3b 4e 4b 3e
       0.61848307 0.25087112 -0.04226975 0.19854061
000010 68 76 c4 3c 8b f3 4a be 35 7a 5d bd e3 59 88 3e
       0.023982242 -0.19819467 -0.054071624 0.26631078
000020 76 24 c6 3d 71 62 ca bc 80 97 85 bd b2 8c a8 be
       0.09674923 -0.024705144 -0.06523037 -0.32919842
000030 d5 92 50 be b9 02 9a be a7 ec 25 be 9a 2c 09 bf
       -0.20368512 -0.30080202 -0.16203557 -0.5358368
000040 44 e4 92 3d 91 ee cc 3d b4 a4 0a bd 72 e8 1d bf
       0.071724445 0.100064404 -0.03384848 -0.6168281
000050 be 65 a3 be 74 38 7b bf 7c 05 90 3d d7 15 22 bd
       -0.3191356 -0.98133016 0.07032296 -0.03957161
000060 d3 73 7d be 3a 69 6c bf 5f d0 ea 3c 4e 94 aa 3e
       -0.24751215 -0.92348063 0.028663812 0.33316272
000070 4c 1f 4e 3e f5 bb 1f bf ec a3 67 bf 4e 53 37 be
       0.20129126 -0.62396175 -0.904845 -0.17902872
000080 f3 83 2b 3f e8 ed 65 be 3b f9 2b bf 0c e9 49 bf
       0.66998214 -0.22454035 -0.6717717 -0.78871226
000090 09 06 e7 bd 8c 8c 1f bd 62 1a 01 bf 6b 04 8c bf
       -0.11280448 -0.038952395 -0.5043088 -1.0938848
0000a0 cb 2f f9 be 16 8c 26 bc 2c f7 16 bf 70 76 83 be
       -0.48669276 -0.010165235 -0.58970904 -0.25676298
0000b0 78 e9 06 bf 8c c9 4f ba cb 67 50 bd f5 a8 8b bf
       -0.52699995 -0.0007926456 -0.050880235 -1.0910937
0000c0 19 30 86 be e1 75 8c be d9 c0 61 3d ae 8b 00 3f
       -0.2620857 -0.27433684 0.055115554 0.50213134
0000d0 dd aa a3 3e 02 3b 05 bf 74 99 d4 be 12 c0 69 be
       0.31966296 -0.52043164 -0.41523325 -0.22827175
0000e0 0a 61 53 bf a9 58 f6 bc ec 19 64 bf 81 02 7b 3e
       -0.82569945 -0.030071573 -0.89102054 0.24512674
0000f0 f3 32 13 3d c6 ca 20 bf 06 aa b6 be 82 0b d1 3e
       0.03593726 -0.6280941 -0.35676593 0.40829092
000100 06 91 f8 3c c6 a6 de be f9 31 af 3c e3 05 32 be
       0.03034259 -0.43486613 0.021386134 -0.17385058
000110 03 d5 54 bf 81 9a c8 3d c9 db 22 ba de f0 d4 be
       -0.8313753 0.09795094 -0.000621256 -0.41590017
000120 74 5e 57 be 91 c0 4a 3e 9d 58 82 bd 6b 3e 79 bc
       -0.21032125 0.19800021 -0.06364558 -0.0152126355
000130 27 e8 6f bf 70 2c 9c bd 20 7f a8 be 46 eb 8f be
       -0.9371361 -0.07625663 -0.3290949 -0.28109187
000140 33 d1 a0 be 99 2f e6 3d 0d cb 6f 3d 65 6d 60 3e
       -0.31409606 0.11239547 0.058543254 0.2191673
000150 86 97 20 3e 7a ef 39 3c c0 6a 21 be fe 08 bb 3d
       0.15682802 0.0113486 -0.15763378 0.091325745
000160 b3 59 e5 bd 2c 43 17 bf 8f 50 7e be 0a 4d c8 be
       -0.111987494 -0.5908687 -0.24835418 -0.39121276
000170 17 ce 51 bf 72 31 9c 3e 8a f0 eb 3d b2 d4 38 be
       -0.81955093 0.30506474 0.115204886 -0.18049887
000180 0f 77 d6 be 2e 2f 2e be ee 85 57 3e 79 ed 2a bf
       -0.4188771 -0.17010185 0.21047184 -0.66768605
000190 2c 0b 10 bf ca 0f 32 be df 02 34 bf 21 d2 e5 3e
       -0.56267047 -0.17388836 -0.7031688 0.44886878
0001a0 a1 6c 36 bf ce aa f2 be 47 ae 74 3e bf e6 51 be
       -0.71259505 -0.4739594 0.23894607 -0.20498179
0001b0 87 e9 8a bf ab 20 d0 3e 6e 6f ae 3e 03 f8 a5 3e
       -1.0852517 0.40649924 0.3406939 0.3241578
0001c0 17 b6 be be ff 82 32 bd ad 56 d2 be 14 8a 02 bf
       -0.372483 -0.04358196 -0.41081753 -0.5099194
0001d0 15 61 23 bf d3 2c 2b bf 37 0a 99 bd 4a 91 f8 bd
       -0.6382001 -0.6686527 -0.074726515 -0.12137087
0001e0 dc 54 9f be 22 97 50 bc 94 3e a7 3c a1 77 1a bf
       -0.3111943 -0.012731345 0.020415582 -0.6033879
0001f0 70 8c f7 be 7c 9e f5 be 0d 40 b3 3e 58 09 58 bf
       -0.48349333 -0.47972476 0.35009804 -0.8438926

action_model._continuous_distribution.log_sigma f4 [1, 2]
000000 35 ff 51 40 f9 42 71 40
       3.2812016 3.7697127

action_model._continuous_distribution.mu.weight f4 [2, 128]
000000 93 26 56 3f c2 ec 8d be f4 b7 90 bd 53 60 79 3f
       0.8365261 -0.27719694 -0.07066336 0.97412604
000010 10 2f 36 bf 03 15 86 be 03 54 49 bf cb 79 6a 3d
       -0.7116556 -0.26187906 -0.78643817 0.057245057
000020 30 a9 64 be 77 1f 98 be c5 03 83 bf 0c 3b eb 3c
       -0.22330165 -0.29711506 -1.0235525 0.02871468
000030 f7 5e 0c be 81 3a 68 bd d5 0c 9f bd e8 e9 9c bc
       -0.13708101 -0.05669642 -0.077661194 -0.019154504
000040 33 f8 85 be da cf d8 3d 5c 6b ee 3e 31 94 71 3d
       -0.26165923 0.105865195 0.46566284 0.058979217
000050 ba 01 f5 3c a1 d0 37 be fc 47 97 3d 77 8a fb 3e
       0.02990805 -0.1795068 0.07386777 0.49129078
000060 dc 97 a1 3e 4d 1d 9a 3e 09 5d 14 be 97 e7 d3 3e
       0.31561172 0.3010048 -0.14488615 0.41387627
000070 2e a5 cd 3e 44 14 8b be 50 00 ec bc 99 4e 41 3e
       0.40165085 -0.271639 -0.028808743 0.18877639
000080 e0 ce 4b bf c7 e6 d0 3d 8d b5 fd 3b 3b 79 a7 bd
       -0.7961254 0.10200267 0.00774259 -0.0817742
000090 09 be a4 be 01 d5 0e 3f 06 7f d8 be 61 99 9c 3e
       -0.32176235 0.5579377 -0.4228441 0.3058577
0000a0 8b 20 bd 3e 4d b2 80 be 00 f4 e4 3e 3f cd 9a 3e
       0.3693889 -0.25136033 0.44717407 0.30234715
0000b0 1c d2 95 be 24 f0 6f 3e ed ae c2 3e db 70 5a 3d
       -0.29261863 0.2343145 0.38024083 0.053330284
0000c0 f6 81 34 3f 69 8d 12 bf 88 91 3c 3f 06 aa 59 3f
       0.70510805 -0.57247025 0.73659563 0.8502506
0000d0 a8 e7 06 3f 71 37 2d bd 3b 86 19 bf 73 30 91 bd
       0.5269723 -0.0422892 -0.59970444 -0.07089319
0000e0 db 49 ca bc 67 f0 21 bf 13 c2 2b be 92 39 41 bd
       -0.02469342 -0.6325745 -0.16773252 -0.047174044
0000f0 4e bb 88 3e 8f f5 df 3d 17 f9 70 be 79 a6 a6 be
       0.26705402 0.109355085 -0.2353252 -0.32548884
000100 3a 81 6c bf 55 e9 bc bd ca 74 47 3d cf 96 3b bc
       -0.92384684 -0.09224192 0.048695363 -0.01144953
000110 82 03 51 be e3 39 0a bf 92 ee 6d bd f2 1e 09 3f
       -0.20411494 -0.5399458 -0.058088847 0.53562844
000120 70 9e c5 bd 68 8d 03 3e 89 af 17 bc 3a 12 8c 3e
       -0.0964936 0.12846911 -0.009258159 0.27357656
000130 5f d2 35 3e 1a 1d 03 bf e0 40 9b 3e c4 c8 fb 3e
       0.17756031 -0.5121628 0.30322933 0.4917661
000140 e5 a2 12 bf d5 f3 08 3f 19 35 f3 be a3 c0 a7 be
       -0.5727981 0.5349706 -0.47501448 -0.32764158
000150 ab f8 5e 3e 90 4c ef be 50 13 42 3e 5c 21 a6 3e
       0.21774547 -0.467381 0.1895268 0.32447326
000160 bc f2 08 bd 6a a3 e5 3d 61 0f b6 bd b8 3c cc 3e
       -0.033434615 0.112128094 -0.08889652 0.39890075
000170 c3 c8 9d be 2d cd 53 3c e3 32 22 bf f4 a3 42 3e
       -0.30817232 0.012927336 -0.63358897 0.19007856
000180 29 29 4e bf 11 af 37 3c 68 a9 c8 be fd 0b a3 be
       -0.80531555 0.011211173 -0.39191747 -0.31845084
000190 de a2 6e 3e e3 38 04 bf 60 a8 09 3d 0b 9f ad 3e
       0.23304316 -0.516493 0.03360784 0.33910403
0001a0 31 5f 8b 3e 4e c4 1b 3d 77 3d 48 bc 9f c9 4b 3f
       0.27221063 0.038029008 -0.012221686 0.79604524
0001b0 ef e3 4b bc b2 9e ab bd 33 ca 4a bf 5d 63 b1 be
       -0.01244448 -0.08379878 -0.7921478 -0.3464612
0001c0 63 89 82 3c e2 cf 6b be 60 9b c8 3d e4 ff dc be
       0.015934652 -0.2302852 0.097952604 -0.4316398
0001d0 c6 51 b7 3e 6f 2d 45 3e e5 eb 47 bf 52 84 43 be
       0.35804576 0.19255613 -0.7809432 -0.19093445
0001e0 4e 3e 9a bd fa 96 3f 3e 77 1c 54 3d 6c 39 6d 3e
       -0.07531415 0.18709937 0.05178496 0.23166436
0001f0 93 81 20 bf cf 36 fc be 58 be 3e 3e 44 c7 17 be
       -0.62697715 -0.49260566 0.18627298 -0.14822108
000200 83 9e 3e 3f 55 98 a6 3e dd e3 21 bf 0f 69 60 3e
       0.7446062 0.32538095 -0.63238317 0.21915077
000210 24 b4 f8 bd c7 a1 5f bf e7 27 fa be 9c 48 5e bf
       -0.12143734 -0.8735623 -0.48858568 -0.86829543
000220 3c ed 09 bf ae 6e 0d bd 2b ad 08 be a4 ad 09 bf
       -0.53877616 -0.03452938 -0.13347308 -0.5378058
000230 df 0b 3a 3f 77 f7 42 3e bd 47 03 bf 38 15 9a bd
       0.72674364 0.19039713 -0.5128134 -0.075235784
000240 2d 25 ad 3f 13 97 d6 be 58 b9 c3 bd fa 5e e8 3e
       1.352697 -0.41912135 -0.09556836 0.4538496
000250 82 8e 38 3f fc aa 33 bf 88 4f b5 be 28 ba ec 3e
       0.7209245 -0.70182776 -0.3541224 0.46235776
000260 0b bd 42 be b9 27 95 3d 00 09 02 bf 1b 5e 3b bf
       -0.19017427 0.07282967 -0.5079498 -0.7319047
000270 45 53 1d bf ea 5b 3b 3e e4 03 68 3f 0f 9b 03 3e
       -0.61455184 0.18296781 0.90630937 0.12852119
000280 a9 61 80 be 1f 8e 18 3f 8e 6e 5c 3b 74 ce a9 3e
       -0.2507451 0.5959186 0.0033635232 0.33165324
000290 a4 7b 1b bf 7a e0 a1 be 92 37 dd 3d 5b 5d db 3e
       -0.60735536 -0.31616575 0.10801615 0.42844662
0002a0 66 23 5d 3e 86 ad f9 be 90 b6 67 3e 0a 03 8c be
       0.21595535 -0.487652 0.22628236 -0.2734607
0002b0 88 f1 94 3e 24 3f 3b bf 83 c2 ae be f8 c8 16 3d
       0.29090524 -0.7314322 -0.34132776 0.036812752
0002c0 45 b8 f5 3c 48 05 4d 3f ad fb f7 3d ec ec 5f be
       0.029995093 0.80086184 0.1210855 -0.21867722
0002d0 d0 26 e1 be c5 26 76 3e ac 2a 4e 3c 9a 24 25 3f
       -0.43974924 0.24038227 0.012583416 0.64508975
0002e0 a5 b5 20 3e 9b 38 39 3e ad 55 0f be 1b 12 20 bf
       0.15694292 0.18088 -0.13997526 -0.62527627
0002f0 6b f1 61 be d7 63 ce be 8e 5c 71 3f ab df d0 3e
       -0.2206475 -0.40310547 0.9428185 0.40795645
000300 e8 4f 0e bf b6 20 9f be 40 0b b0 3e e3 32 28 3f
       -0.5559068 -0.31079644 0.34383583 0.65702647
000310 44 55 38 bc ca 7e 83 be 09 35 19 3f aa 9d 8f 3e
       -0.011250798 -0.2568267 0.5984655 0.28049976
000320 8f d1 9a be 91 93 c4 3e 8c bb 95 be 00 4a 5b bf
       -0.30238006 0.38393834 -0.2924465 -0.8565979
000330 f6 4d 90 3e d4 a4 8c 3f 38 0c e5 3e ea 76 f7 bd
       0.2818448 1.0987802 0.44735885 -0.12083228
000340 c6 3f 4b 3e 4a 17 6b 3f 28 5f e4 be 4b ed 9e 3f
       0.19848546 0.9183241 -0.44603848 1.2416166
000350 3d 3b ca 3d 87 90 5f 3e 98 46 4c 3e 75 b1 93 be
       0.0987458 0.21832477 0.19948804 -0.28846326
000360 58 65 0c bf e1 51 3a 3f f9 89 94 3d 67 eb 41 3e
       -0.5484214 0.7278119 0.07252879 0.18937455
000370 e3 a3 59 3e fd 03 d1 3f ae c9 1a 3d 0c 97 61 be
       0.21253924 1.6329342 0.037789993 -0.22030276
000380 ec a7 74 be 44 68 ce 3e b1 69 13 3f 5e a5 87 3e
       -0.23892182 0.40313923 0.5758315 0.26493353
000390 cb 4a 07 bf 81 54 1d bf d9 89 ea 3e 24 e6 2b 3f
       -0.528485 -0.6145707 0.45808294 0.6714804
0003a0 c0 bb 11 be 24 de 97 be 69 07 f5 be 13 a0 ec bd
       -0.14231777 -0.29661667 -0.47857216 -0.11553969
0003b0 3c 53 7f 3e 08 b3 ca be 53 13 75 3f 6f de 78 3e
       0.24934095 -0.39589715 0.9573261 0.24303602
0003c0 40 16 19 be ea 9b 25 bc bf f1 4d be 90 ba cc 3d
       -0.14949894 -0.010107974 -0.2011175 0.099965215
0003d0 2f db 3b be 29 f0 bf 3e e3 9e 15 3f 19 d9 de be
       -0.1834533 0.37487915 0.58445567 -0.43525007
0003e0 a7 ce 1b bf 91 18 73 bf 1a 05 db be 1f 94 a7 bd
       -0.608622 -0.9495936 -0.4277733 -0.08182549
0003f0 cb 16 6f 3e 90 05 ec be 1e 08 08 3f bb 9d c0 3e
       0.23348539 -0.46097994 0.53137386 0.3762034

action_model._continuous_distribution.mu.bias f4 [2]
000000 53 ad 4a 3e 6d a8 dc bd
       0.1979268 -0.10774312
