results/physicomimetics/DroneAgent/DroneAgent-12499990.onnx (onnx, 164154 bytes, 7 tensors)

network_body._body_endoder.seq_layers.0.weight f4 [128, 180]
00000000: 15b6 11bf cf28 9d3e 72cf c03d c908 9abf
00000010: b988 3fbe 7778 a43d 6f67 12be c029 e83e
00000020: 6d08 463e 746d 63be 5451 26bd 5814 f13d
00000030: e07a 0bbe 7e9b 633f 0210 d2bc 12ea 443f
00000040: fc92 73be d8c6 a7bd 8843 21be 9577 5f3f
00000050: 34bc acbe f4c9 dfbe 24c5 38bd d3ae 12be
00000060: 15f6 223d e4fe 62be 3430 d5bd 84c7 a2bd
00000070: 7d11 4ebe e0b8 133d 24eb 84bc 2e92 083e
00000080: 61d1 01be f83a 1fbc 0a09 cdbc 77af 723c
00000090: 542e 0fbf 0e4a 873e 3916 4e3d 91ee 65bf
000000a0: 83ec aa3c fa6c 92bc 0f8c a0bd 7c14 0f3f
000000b0: 231e 133e 3ee0 00be 74a5 1abe d414 91bd
000000c0: b000 70bd 3bbe 733f 857d 52be 1f3f 4e3f
000000d0: bdae 43bc 1304 e5bc 64cb ccbd 2bce 513f
000000e0: f8e5 10be c6f5 debe c3bb 81bc c082 43be
000000f0: 08a3 87be 875b 9dbe 4479 83be e42a c43d
00000100: b7a8 17bd 093c 63be f4b7 2ebe c8ab 753d
00000110: 5c6f 3abe 9d2f dbbb 0d7b 83bd 33a2 a53d
00000120: 042a 28bf 8890 793e 6abb 853e 57ab 31bf
00000130: b6da 3ebe ab38 ee3c cc4b e3bd 7203 febd
00000140: ea0c 323e 7259 203d d8cf 86be acff 123e
00000150: 678c 11be 15c4 3d3f 0fed 5cbe a013 763f
00000160: 8f2b 58be 0afa 0dbc a82d d3bd 6e9e 5b3f
00000170: 3255 1bbd 9c21 943d 698d 22be e9b4 c9bc
00000180: fc65 6dbe 42b1 d3bc c716 bfbd 1cff 0ebe
00000190: ba5e 50be b647 a2be 3ff1 ddbd 7d3a 01be
000001a0: b21e 22be 536d cbbc 3cdb 6cbe 5118 a9bd
000001b0: 627f 08bf 0573 b73e 583c 2d3e c3dc 80be
000001c0: 07e6 a5be 6d80 5ebe 7a05 84be 1005 92be
000001d0: 55f3 093e 417c 1a3e d265 50be a79f 17bd
000001e0: 0b9c 51be a17c 493f 1689 98be 0ef8 3c3e
000001f0: fc7b afbe df27 b13c bff9 30be 7e38 343f
00000200: 6759 da3a 2799 9bbe 55e6 2ebe 68b0 93be
00000210: 1460 88be 194e 3abe fa45 66be fc37 72be
00000220: 8395 7fbe 2107 a4bd 95d1 b7bd d933 e9bd
00000230: 6493 dfbd d50d 7cbd baa2 f2bd f9d8 3cbc
00000240: 28bb dcbe 9678 ac3e 32c1 de3e 701e 65be
00000250: fdf6 2e3e e637 b5be 2ea6 c3bb 9aa8 d03d
00000260: fa02 9a3e 8190 81be 2b1c e63d 6a06 a7bd
00000270: c02f 173e 44c3 763f 38bd 1c3e 8223 343e
00000280: 3bff 1f3e 622c 273e f806 ff3d a292 1d3f
00000290: 8255 f5bc 998a 59bf 72a6 e63d 3d13 26bf
000002a0: b68e 513d f2ba f8be 084a 9c3d 1713 723c
000002b0: d9b9 71bd c119 60be d326 3b3e 55d6 b6bd
000002c0: 0f8d 8a3e a2d9 9fbd 2fa3 203d 58d9 07bd
000002d0: 015b 063e aac1 c63d c90c 9bbe abce 533f
000002e0: d027 17bf c3f6 84be bf98 f8be a9eb 20be
000002f0: 0017 f4be 5f8d bb3e 5150 d5be 12e7 e0bc
00000300: e128 8ebe cef7 bdbe d24d 78be b980 1c3f
00000310: e5eb 66be a0c5 9abd 607d 3ebe a71b b4be
00000320: 1f36 cdbe 494c 54be 7f4c a5be dcab 263e
00000330: 1129 9ebe c03c e2be 9fdb d2be c76a 90be
00000340: cc54 96be 3874 16be bf7f e1be 9efe 453d
00000350: cb0f 03be 31b5 483c 5e52 c5be 6e83 503d
00000360: 42ad a03e 41d5 59bc a983 0abf 522d 543f
00000370: 631c 35bf 2077 debe 448b 79bf da7a ebbd
00000380: 7274 09bf 1644 9c3e d0ab 08bf e7db 253d
00000390: 9d0a 05bf 3441 f1be 351d 9ebe ffc1 e33e
000003a0: 3a98 bebe 96db 723e 01ff dcbe 091e 2ebe
000003b0: 5d51 0cbf 0bb1 42bb b87e 12bf 9e40 213e
000003c0: ea2b 1dbf 1839 b3be ab65 1fbf 390f abbe
000003d0: 1ae5 1cbf bcbd f6bc 1ac2 25bf 5ecd 7c3c
000003e0: 8416 d6be c8cd 943d bf3c 16bf 959a 9e3d
000003f0: 28d5 9d3c fdb9 e3bb 68d2 42bf 85e7 25bd
-0.5691846 0.30695197 0.09414567 -1.2033931 -0.187045 0.08030789 -0.1429727 0.45344353
0.19339152 -0.22209722 -0.040604904 0.117714584 -0.13621092 0.8890914 -0.025642399 0.7691966
-0.23786539 -0.08192223 -0.15748417 0.8729184 -0.33737338 -0.43708766 -0.045109883 -0.14324503
0.039785463 -0.22167546 -0.10409585 -0.07948211 -0.20123859 0.036064982 -0.016225405 0.13337013
-0.12677528 -0.009718649 -0.025028724 0.014812342 -0.55930066 0.26423687 0.050314162 -0.8981715
0.02086473 -0.01787423 -0.07839214 0.5589063 0.14366965 -0.12585542 -0.15102178 -0.07084051
-0.058594406 0.95212144 -0.20555694 0.80565065 -0.011943516 -0.027956044 -0.09999731 0.8195521
-0.14150226 -0.43546885 -0.015836602 -0.19092846 -0.2649157 -0.30733892 -0.25678456 0.09578493
-0.037026133 -0.2219087 -0.1706236 0.059978276 -0.18206543 -0.0066890256 -0.064199544 0.08087578
-0.6568911 0.2437154 0.26119548 -0.6940207 -0.18638119 0.029079756 -0.110984415 -0.12403001
0.17387739 0.0391478 -0.26330447 0.14355344 -0.14213715 0.7412732 -0.21574806 0.96123695
-0.21110366 -0.008665571 -0.103114426 0.8578862 -0.037923045 0.07232973 -0.15874256 -0.024622397
-0.23183435 -0.025841359 -0.09330516 -0.13964504 -0.20348635 -0.31695336 -0.1083703 -0.12619968
-0.15832022 -0.024832403 -0.23130506 -0.08256591 -0.5331937 0.3582994 0.1691755 -0.25168428
-0.3240206 -0.21728678 -0.25785428 -0.28519487 0.1347173 0.15086462 -0.20351341 -0.03701749
-0.20469682 0.78705794 -0.29792088 0.18454 -0.3427428 0.021625457 -0.1728277 0.703987
0.0016658724 -0.30390283 -0.17080052 -0.28845525 -0.26635802 -0.18193854 -0.22487631 -0.23654169
-0.24959378 -0.08009172 -0.089755215 -0.11386842 -0.109167844 -0.06153663 -0.11847444 -0.01152634
-0.4311154 0.3368575 0.4350677 -0.22374892 0.17086406 -0.3539421 -0.005970738 0.10188408
0.30080396 -0.2530556 0.11235841 -0.0815552 0.14764309 0.963917 0.15306556 0.1759167
0.15624706 0.16325524 0.12452501 0.6155187 -0.029948 -0.8497711 0.11262216 -0.64873105
0.05116149 -0.48580128 0.07631308 0.014775059 -0.05901513 -0.21884824 0.18276529 -0.08927599
0.27060744 -0.07805182 0.039218124 -0.03316626 0.13120653 0.09704907 -0.30283192 0.82737225
-0.59045124 -0.25969514 -0.48554036 -0.15714897 -0.47673798 0.36631295 -0.4166284 -0.027453933
-0.27765563 -0.37103122 -0.24248436 0.61133915 -0.22550924 -0.07557225 -0.18602514 -0.35177347
-0.40080354 -0.20732225 -0.32284924 0.16276497 -0.30890706 -0.44186974 -0.41183183 -0.28206465
-0.2936157 -0.14692771 -0.44042775 0.048338525 -0.12798993 0.012250231 -0.38539404 0.05090659
0.31382185 -0.013295473 -0.5410715 0.82881653 -0.7074644 -0.4345026 -0.9747813 -0.114980415
-0.53693306 0.30520695 -0.53387165 0.04049292 -0.5196932 -0.4712006 -0.30881658 0.44483945
-0.37225515 0.23716578 -0.43163303 -0.17003645 -0.5481165 -0.0029707577 -0.5722461 0.15747306
-0.6139513 -0.35004497 -0.6226451 -0.3341005 -0.6128708 -0.03011977 -0.647493 0.015429823
-0.41814053 0.07265812 -0.5868644 0.07744328 0.01926668 -0.0069496618 -0.76102304 -0.040503997

network_body._body_endoder.seq_layers.0.bias f4 [128]
00000000: a89c 903d 1ce8 583c 8da5 19be 782a d03e
00000010: 1cb7 88be 2655 34bf b78e 89be 7460 823d
00000020: 7259 0ebe 9f5e c03e 09fb 9fbe 0a03 dc3e
00000030: bde1 fcbd 0d89 ddbd 76d3 b3bc 5e5f 55be
00000040: c9b5 0dbf 07d1 4ebe 3ada 5fbf 3e75 29bf
00000050: 3ec6 f5be 3fb1 a3be 8230 85be d352 01bf
00000060: 5d32 113f 416b c2bd 2a23 08bf 677a 81bf
00000070: e5fb 94be f515 70bf 6d14 56bd 66b8 fcbe
00000080: 54d7 4abe 928e 89be 4937 87be 8175 4ebf
00000090: df5b f0bd d632 a8be 7db1 b9be a049 89bc
000000a0: 8823 07bf 857c 223f ed24 8abe 4282 ccbe
000000b0: 31b0 b0be 40b2 303d abb2 11be 68c7 d73d
000000c0: 68af e3be b879 9dbe 0c5f 9cbe 4650 0ebe
000000d0: 73a2 b9be 9670 98be 37cb b63c c675 0ebe
000000e0: eaad 0fbf fd18 4bbe ac40 1ebf c198 a7be
000000f0: 2cb6 4fbf e0e2 8dbe 45e2 10bf a2e7 aa3e
00000100: 7568 efbe 0d7f 49be 2aad 953e 9769 203e
00000110: 79f5 2abf 9cef b7bd 898c 06be d27c 56be
00000120: f0bc 37bf 90ae cbbe a10c 833d c870 1bbe
00000130: 3b2e 3abf 8275 41bf 701b 41bf 15e4 4fbf
00000140: a585 b9bd f70a 59bf fb29 49be 3b6b 4bbd
00000150: b64a 55be c3d8 aebe 2a94 abbe cee5 a7be
00000160: baba 15bf 8312 f7bd 6f99 eabd 1384 02be
00000170: ce24 e7bd 610a 21bf ce8e 3cbe d687 18bf
00000180: 26f0 06bf b5bd a73e 23d2 57bd 15bd 36bf
00000190: a406 c1be 2b3d 00be a3cc 07be c145 20be
000001a0: 6fff 82be 5c6a 003f cdac 3cbe c917 95be
000001b0: 457e 533d 66a1 20be 1711 81be c4d2 893e
000001c0: 3cee 68bf 8fe9 cabd 51b4 46be ea9d 1fbf
000001d0: 727e 31be 2f1d ecbe b106 c1be c389 efbd
000001e0: 38e0 3dbf bf5c cd3d e528 58be 6def 7cbe
000001f0: 03a0 7f3d f521 23bf c8d4 2cbf 13e8 85be
0.0706113 0.013238933 -0.15004559 0.406574 -0.267022 -0.70442426 -0.26866695 0.06366053
-0.13901308 0.3757219 -0.31246212 0.4297107 -0.12347744 -0.10817156 -0.021951418 -0.20837161
-0.5535551 -0.20196925 -0.8744236 -0.6619452 -0.4800281 -0.31971166 -0.2601357 -0.50517005
0.56717473 -0.09493113 -0.53178656 -1.0115479 -0.2909843 -0.93783504 -0.052265573 -0.49359435
-0.19808704 -0.26866585 -0.26409367 -0.80648047 -0.11736273 -0.32851285 -0.36268225 -0.01675874
-0.5278859 0.6347125 -0.26981297 -0.3994313 -0.34509423 0.043138742 -0.14228313 0.105360806
-0.44469762 -0.30756927 -0.30541265 -0.1389781 -0.3625675 -0.29773396 0.022313697 -0.13912115
-0.56124747 -0.19833751 -0.6181743 -0.3273373 -0.8113735 -0.27712154 -0.5659526 0.33379847
-0.46759382 -0.19677372 0.29233676 0.1566528 -0.6678081 -0.08981249 -0.13139547 -0.20946053
-0.7177267 -0.39781618 0.06398893 -0.15179741 -0.7272679 -0.7556993 -0.7543249 -0.812074
-0.09058694 -0.84782356 -0.1964492 -0.04966281 -0.20829281 -0.3414975 -0.33511478 -0.32792515
-0.5848805 -0.12064078 -0.114550464 -0.12745695 -0.11286317 -0.6290646 -0.1841385 -0.5958227
-0.5271019 0.32761922 -0.052690636 -0.71382266 -0.3770038 -0.12523334 -0.13261656 -0.15651609
-0.25585505 0.5016229 -0.18425293 -0.2911971 0.051634092 -0.15686569 -0.2520835 0.26918614
-0.90988517 -0.09907829 -0.19404723 -0.6235033 -0.17333391 -0.46116015 -0.37700418 -0.11696198
-0.74170256 0.100274555 -0.2110935 -0.24700709 0.06240846 -0.6372369 -0.6751218 -0.2615362

network_body._body_endoder.seq_layers.2.weight f4 [128, 128]
00000000: 067a bd3e 3f45 a33e 3909 9cbd eaeb 3e3f
00000010: 2bca 69bf 1b5f 68bf 603b 01bf 0ff2 f1be
00000020: fa8f 9ebf 20e2 c03e 32e0 80bf f637 363f
00000030: b49f 72bf 463f b4bf 605a 4e3e a93d 9bbf
00000040: 9f39 8bbf 1b56 4bbf 13f3 3abf 60fe 2abf
00000050: 46af a0bf 6cc9 98bf 2d96 3fbf d441 77bf
00000060: c00c 18be 381f bbbf 65a3 90bf 6166 11bf
00000070: 829f ce3b bbd8 f8be ef6c 133e d709 a0be
00000080: 1871 87bf 45d3 93bf 09e1 35bf 01d1 91bf
00000090: 1805 4abf 618a d0be b5d3 8ebf 4b51 51bf
000000a0: d338 8ebf 465c 213e 8ce4 c7be 8ab2 f7be
000000b0: f6ca 293f 2e9d d6bd 9113 0fbf 8248 a2be
000000c0: b4ea 28bf 5ed4 c7bf dfe8 b43d c5e9 02bf
000000d0: 9cb8 72be 4067 59bf 6e7d 23bd a61b b2bf
000000e0: dbb1 b4bf c150 81bf 8226 64bf 4c3f 14bf
000000f0: f0d0 64bf 174b 32bf 8a9d 8ebe 8a35 3c3f
00000100: 40d0 4abf deea c6be 3ef5 55bf 3129 a93e
00000110: e4f2 a3bf 0c82 07bf 8f39 4fbf b184 75bf
00000120: ad65 42bf 2af8 5abf 9219 b6bf a2c8 7fbf
00000130: c886 44bf fd88 5dbf 3e9a 9ebf d53e 1fbe
00000140: c860 59bc 7cd8 3abf 90a8 97bf 7bed 43bf
00000150: 595a 40bf b8e1 85bf 07f3 683f 00a3 3cbf
00000160: c456 6abe 7cf7 f2be 2436 7e3e 7697 febe
00000170: fabb 36bf e7c1 84bf 478d 39be e8f5 9ebf
00000180: 5bda 04be cdde 61be 4a5a cebf 2ff0 17bf
00000190: dcf9 38bf 0c53 56bf 4e21 4fbf 1aca 86bc
000001a0: f7dd b2bf 134e 3fbf 9c08 cdbe aa45 f2bd
000001b0: b59e 79bf 962b e1bf 1f22 5ebf 4cdd b83d
000001c0: e83f 4cbf cfa4 9fbf d637 50bf aad4 8cbf
000001d0: 7c93 64bf ff65 33bf f5aa e3be d99e 893e
000001e0: c68d 1abf e5e8 753e 6de0 55bf ec07 a5bf
000001f0: d65c 2ebe 6b9f e6be 2fdd 65bf 2cae 8fbf
00000200: a32b 93bf e3f6 0ebf 6d2d 1b3e 1081 eb3e
00000210: 5939 3b3f 5738 683c 8e33 12be ab8a cb3e
00000220: df0a 4bbe 21f7 4f3e cb84 0d3e e1af abbe
00000230: d24c b33c 82df 8e3e 4220 00bf bbc5 27bf
00000240: 0078 b4be 2fe1 df3e a9c1 07bf 806f 053e
00000250: 9c9d 7dbf 1b29 97be 4aaa f7ba 130e 823c
00000260: 652d 49bd 3841 1ebd c45d 3ab9 cb82 0fbe
00000270: 7e8d 253f 160b 28bf 6d1a 11bf bbaa 16be
00000280: 5151 0abf df02 3d3f 4d44 5e3d df67 d23e
00000290: 2c2c cb3c e622 eebd 4f46 a8bc 3f35 0dbf
000002a0: 4a29 f63d 800d 9c3e 1e3e 4bbe ebf3 98be
000002b0: 0223 443e 87b5 f73e fb1e 3cbf 72a9 953e
000002c0: 4da1 a03e 6476 45bf 02cb 0cbf f0ef 613e
000002d0: 0e82 da3e 3fc6 0fbf e789 b93d df60 2c3f
000002e0: 81e5 a7bf 25c0 d33e 1ca3 cb3e dd0d c2be
000002f0: 9621 d1be 981c 49bf 9866 56be 8ce5 41bf
00000300: a92f 9c3f b95b babe a849 3fbf 4aca 8a3e
00000310: bcc5 0dbf a15f 513f 0f66 2e3e 248c bdbe
00000320: a933 53bf 856a 8ebe ac7d 793e 6b58 d7bd
00000330: c8d3 25bf e359 4cbe 5221 89be 139c 34bf
00000340: 8a7c b4be 09f0 07bf 0392 233f 710b 65be
00000350: dc87 d83e 5acb 18bd e7e1 cebe 28e9 25be
00000360: 65fe 7ebe 9af7 80be 839b febe e494 583f
00000370: 96b1 a5bb 4109 93bd 9dab 653e 6718 0b3f
00000380: a977 82bd 8a82 30bf e7d7 863e 01f7 50bf
00000390: 02ea 2ebe 7813 e23e b896 ed3e e199 e7be
000003a0: 6007 a03e 5b17 1b3f 61d0 9cbf 073b 3abf
000003b0: 1b91 2f3f b06b a53e 54e4 ea3e 3393 bfbe
000003c0: 38a4 283f 7310 403f 30a6 15be 7ffd 9ebd
000003d0: da7b a03f 6c2b 32bf c057 73be 9f19 95be
000003e0: b1ce 8b3c be46 833e 944f b3be 7ee6 123e
000003f0: 694e 223f b811 0c3e d077 77be 1b22 c9bc
0.3700716 0.31888768 -0.076189466 0.74578726 -0.9132411 -0.9077012 -0.50481224 -0.4725499
-1.2387688 0.3767252 -1.0068419 0.7117914 -0.9477494 -1.408181 0.20151663 -1.2128192
-1.087696 -0.7942826 -0.7302715 -0.66794395 -1.2553489 -1.1936469 -0.74838525 -0.9658482
-0.14848614 -1.4618902 -1.1299864 -0.5679684 0.006305636 -0.48602852 0.14397024 -0.31257507
-1.0581388 -1.1548849 -0.710465 -1.1391908 -0.7891402 -0.40730575 -1.1158358 -0.8176467
-1.1111091 0.15757856 -0.39041555 -0.48378402 0.6632532 -0.104791984 -0.5588923 -0.31695944
-0.6598313 -1.5611684 0.08833479 -0.51137954 -0.23703235 -0.8492317 -0.03991454 -1.3914688
-1.4116777 -1.0102769 -0.8912126 -0.57909083 -0.89381313 -0.6964583 -0.27854568 0.73519194
-0.79224014 -0.38851064 -0.83577335 0.3303924 -1.2808499 -0.5293281 -0.809472 -0.95905596
-0.75936395 -0.8553492 -1.4226553 -0.99915516 -0.7676816 -0.8653715 -1.2390821 -0.15551312
-0.013267703 -0.7298658 -1.1848316 -0.7653424 -0.7513786 -1.0459509 0.9099583 -0.7368622
-0.22884661 -0.4745444 0.2482534 -0.4972493 -0.7138058 -1.0371674 -0.181203 -1.2418795
-0.12973921 -0.22057648 -1.6121304 -0.59350866 -0.72256255 -0.8372047 -0.80910194 -0.016453791
-1.3973988 -0.74728507 -0.4004563 -0.118296936 -0.9750779 -1.7591426 -0.86770815 0.09026584
-0.79785013 -1.247217 -0.813352 -1.10024 -0.89287543 -0.7007751 -0.44466367 0.26879004
-0.6037258 0.24014623 -0.8354557 -1.2893043 -0.17027602 -0.450435 -0.89790624 -1.1225028
-1.1497692 -0.5584547 0.15154047 0.45996904 0.7313438 0.014173589 -0.14277479 0.39754233
-0.19828366 0.20309116 0.13820188 -0.33532622 0.021887217 0.27904898 -0.5004922 -0.6553609
-0.35247803 0.4372649 -0.53029877 0.13030815 -0.9906862 -0.29523548 -0.0018895355 0.015875852
-0.049115557 -0.038636416 -0.00017773273 -0.14014737 0.64669025 -0.65641916 -0.5668095 -0.14713566
-0.5403033 0.73832506 0.054264355 0.41094872 0.024801336 -0.1162775 -0.020541338 -0.5515937
0.12019594 0.3047905 -0.19847915 -0.29873595 0.1915398 0.48380682 -0.7348477 0.2923084
0.31373063 -0.77133775 -0.54997265 0.22064185 0.4267735 -0.56161875 0.09059506 0.67335314
-1.3116914 0.41357532 0.3977288 -0.37901202 -0.40845937 -0.78559256 -0.20937574 -0.75740886
1.2202045 -0.36398104 -0.74721766 0.2710746 -0.55379844 0.81786543 0.1703112 -0.3702098
-0.825007 -0.27815643 0.24364346 -0.10514911 -0.6477628 -0.19956164 -0.26783234 -0.7055065
-0.35251266 -0.5310064 0.6389467 -0.22367646 0.42291152 -0.037303306 -0.40406725 -0.16202223
-0.24901731 -0.25188905 -0.4972802 0.8460219 -0.0050565703 -0.071794994 0.22428747 0.5433411
-0.063704796 -0.68949187 0.26336595 -0.816269 -0.17081454 0.44155478 0.46404052 -0.45234588
0.31255627 0.6058251 -1.2251092 -0.7274632 0.6858079 0.32308722 0.45877326 -0.37416992
0.6587558 0.750251 -0.14614177 -0.07763194 1.2537796 -0.69597507 -0.23763943 -0.2912111
0.017066332 0.2563991 -0.3502165 0.14345738 0.63400894 0.13678634 -0.24166799 -0.024552396

network_body._body_endoder.seq_layers.2.bias f4 [128]
00000000: d374 e63e 9506 6e3e c93a 44be 1e8d 873e
00000010: c90d 09bd 3d4a 8bbe 991c 58bb 9eee 0f3e
00000020: 435a 03be 93af 4fbd a7b6 87be e0be 1cbf
00000030: 7d50 80be 8941 00bf 648d f9bd 55e1 0ebf
00000040: cfea f83d 539d e53d 476f 99bd 2d3c f7be
00000050: e7ff 0dbf b422 79bf 48bc 103e 4295 94bd
00000060: 1ad1 abbe b259 65bf cd8e 2abc e4aa 533e
00000070: 460e af3e 59e6 40bf f86b 61bf 94dd dfbc
00000080: cf13 0b3f 1e55 37be 668e 08bf 0390 4cbf
00000090: 939a 0fbe cdac e1bd 6cb5 dfbe 9dc2 8bbf
000000a0: 1b1e e4be 2992 edbd 6c5b 28bf 951f a0be
000000b0: ec59 02bf 7f60 2a3d e70b 783d 19c8 80bf
000000c0: 3fe6 67be 0ee4 99be 282f fbb8 acb0 e23e
000000d0: a79f a63e 2025 e0be 2a5c 15bf 022c 4cbe
000000e0: 4624 32bf c9aa 66be cb36 58bf 55be 8ebd
000000f0: 1c65 d73d 54ca 18bf fa1d adbe a149 b53e
00000100: 92dc 5ebe fe58 acbe f424 963c f797 f8bd
00000110: f093 72bf 470a 97bd 8c60 18be 0ee5 cbbe
00000120: 6a14 dbbe 77b2 443e 0426 d23c a477 fdbd
00000130: 3185 5fbf a200 f8bd 90ee a2be 2b6b 7dbe
00000140: 0a81 babe 9818 493e 857a 81bc 9ec9 213e
00000150: cf14 2f3d 4344 b73b 7dc3 bf3c ddce 0bbd
00000160: 8be5 b5bd 69e4 1fbf d145 c5be b1ec d9be
00000170: 448c 66bf 754a c03e 1ad6 f2bc b280 27be
00000180: eebc 0ebf da7a 9fbc 5533 273e 9c0a 14bf
00000190: bb6c 4fbf 84b9 3bbd 4350 2dbf dbac cf3e
000001a0: 138b 55bf d51e ccbe 61d7 043e d7da debd
000001b0: 0731 7cbf f40f c83e e7db be3e 85da df3e
000001c0: 32cf c1be 00e3 eebc 4310 0dbf a92f 0abf
000001d0: 794b e6be 2022 2cbf 0806 11be b850 3dbe
000001e0: b784 b7be f867 18bc 358e 673d 04cf 3fbf
000001f0: 8c57 febe 7385 e4be 3134 d73e ebad 8cbf
0.45011005 0.23244698 -0.1916305 0.2647485 -0.033460412 -0.27205077 -0.003297603 0.14055869
-0.12827401 -0.05070455 -0.2650654 -0.6122875 -0.25061408 -0.501 -0.12185171 -0.5581258
0.12154161 0.11211648 -0.074919276 -0.48288098 -0.554686 -0.9731858 0.14134324 -0.07255031
-0.3355797 -0.8958999 -0.010410023 0.20670658 0.34190577 -0.7535148 -0.8805537 -0.027327336
0.543271 -0.17903563 -0.5334228 -0.79907244 -0.14023809 -0.11019287 -0.436931 -1.0918766
-0.4455422 -0.116001435 -0.657645 -0.31274095 -0.5091846 0.041595932 0.060558226 -1.0061065
-0.22646426 -0.30056804 -0.00011977396 0.44275415 0.3254368 -0.43778324 -0.58343756 -0.19938663
-0.695866 -0.22526087 -0.8445861 -0.06969897 0.10517332 -0.5968373 -0.33811933 0.35407737
-0.21763828 -0.33661646 0.018328167 -0.1213836 -0.94756985 -0.07375007 -0.1488058 -0.39823192
-0.42789012 0.19208704 0.025652893 -0.12376335 -0.8731261 -0.12109496 -0.31822634 -0.24747913
-0.36426574 0.19638288 -0.015805492 0.15799567 0.042744454 0.005592854 0.023408646 -0.034132827
-0.088816725 -0.624579 -0.38529828 -0.42563394 -0.9005778 0.37556806 -0.029643107 -0.16357687
-0.55757034 -0.01946776 0.16328175 -0.5782869 -0.81025285 -0.04583122 -0.67700595 0.40561566
-0.83415335 -0.39867273 0.12972786 -0.10881584 -0.9851231 0.3907467 0.37277147 0.43721405
-0.3785339 -0.029160976 -0.5510294 -0.53978974 -0.44979456 -0.6723957 -0.14162457 -0.18487823
-0.3584344 -0.009302132 0.056532104 -0.74925256 -0.49676168 -0.44633064 0.42032006 -1.0990576

action_model._continuous_distribution.log_sigma f4 [1, 2]
00000000: 4ca0 4f40 5f76 7e40
3.2441587 3.9759748

action_model._continuous_distribution.mu.weight f4 [2, 128]
00000000: 431d 283f 15a0 d1be 2941 95bd 7033 8b3f
00000010: 560b 18bf 0be8 a1be 9d12 44bf b781 153d
00000020: 7aaf 94be ff02 f2bd 8332 54bf 4ef5 893c
00000030: d01f dfbd a697 c6bb bcb0 b3bd 234a 383d
00000040: 642d a6be 2ec0 4b3e 30e4 f53e 4f15 223e
00000050: f4ef 2e3d a154 0dbe 63c6 203d 3882 9c3e
00000060: 5b24 c13e 0c18 a53e e0a4 50be 06e9 ce3e
00000070: ca27 9c3e 3612 45be 4b7d 823b 4ff8 053e
00000080: 16cb 3dbf 061e 633e d1b9 d0bc dc88 20be
00000090: 2ec8 a7be 9135 053f bc71 9ebe cf57 ac3e
000000a0: 84e7 e03e 16fd 80be 6802 573e a45f 873e
000000b0: f4b6 b1be cc12 023e dc83 063f 46dd a73d
000000c0: 19d8 5b3f 8863 15bf 8fc3 483f ab63 633f
000000d0: 5cd2 0d3f 9cbc fbbd 4a73 5abe c89f 213c
000000e0: dab8 07be ba42 ddbe c328 68be aebb ce3c
000000f0: 9046 383e dbf8 953d 9ce1 603d 8708 7ebe
00000100: 525f 2ebf 16be 07be ef4d be3c ba49 8fbd
00000110: e011 f9bd 360f 0fbf ebe4 5ebc 2ec8 0a3f
00000120: f756 00be 17b5 363e c360 9c3d cd99 553e
00000130: 8e2d 6a3e a567 9fbe a010 a53e 4552 fe3e
00000140: 268c 24bf 591b a63e 14a1 0dbf 36ab 38be
00000150: 7407 533e e670 fbbe 71cb 733e c7e5 473e
00000160: b6a4 91bd f5ef 2e3e 868a 45bd c6e1 af3e
00000170: ce64 96be 576a dc3d df3c c9be 7951 373e
00000180: 3ad4 41bf 4f6f abbd 5e41 dfbe e578 c5be
00000190: 409c d53d c3a2 02bf 9c2e 08be 0737 ad3e
000001a0: 4fdc 5f3e 82e4 a33b d39e 0ebd 194b 3a3f
000001b0: 3341 9d3d ef00 95bd 9ffd 4ebf e299 d8be
000001c0: 0df5 8fbb e077 a8be 2e42 173e e895 04bf
000001d0: 6d9f 0c3f d85c 483e f644 1bbf a358 2bbe
000001e0: eee9 c8bd 5c99 423e 323b d03d 2fcc 393e
000001f0: 611a 2dbf 66c6 febe a140 943e 9770 16bd
00000200: daab 293f c4be d53e 6d11 f0be ddda cc3e
00000210: 7bff 8ebe cd2b 65bf 39ca e3be a474 44bf
00000220: 39b2 fabe 05d9 28be 7569 39be 5c10 d9be
00000230: 96c2 243f 3bc6 0b3e 2e1e 0abf 0d5f 00be
00000240: f19e a03f aaa1 ebbe e442 e2ba f927 013f
00000250: 4c8d 293f ce44 e5be 9a53 c6be 8e8b cd3e
00000260: 6b57 8cbd 41cd e73d f327 00bf afa7 0fbf
00000270: 9df4 06bf 8887 973e cb52 383f 47f5 9e3e
00000280: 7d16 87be a59f 1f3f 93a9 6bbd 8d6e b83e
00000290: e31d 22bf 166b 18be e206 04be 986c c73e
000002a0: db20 813e 071b 08bf 9222 da3d 2f86 ebbd
000002b0: c7bd 3c3e 3ff2 26bf 9bae aabe 4b08 60bd
000002c0: 81c8 4fbd 7a78 4e3f ed30 e23d 3877 39be
000002d0: 3068 74be 7f3d 063e cc0f ff3d b67b 1d3f
000002e0: 4664 fd3d 93a1 1b3e 62bd 06be aa1a dbbe
000002f0: f8b7 0ebe 977b c4be bf62 583f 1697 0e3f
00000300: c372 f1be 749d b9be dbe5 a63e f316 443f
00000310: 03a2 063d 6969 94be b392 143f 9124 9b3e
00000320: 904e 1bbe c309 8c3e ca63 9fbe a1dd 35bf
00000330: 435e 8b3e 4fc6 723f 1dea 0f3f 0350 1fbe
00000340: ad53 9d3e cb21 4c3f d4db 42be 7c54 a23f
00000350: 9de1 473e c5d9 163e 42b6 b43e 6381 5fbe
00000360: d5f0 11bf ef03 1d3f 782c 0a3e 7ae1 473e
00000370: 7e88 eb3d 3512 c83f 3af1 003e 01c5 96be
00000380: 844c 02be ba79 d63e c655 fe3e ac5d ab3d
00000390: 642d 8bbe 2211 15bf 0f7f 013f 6fbd 333f
000003a0: f23f a9bd eb51 afbe d7c0 dbbe 81c1 053e
000003b0: 7b89 6c3e faf9 e0be b4ce 613f 00ca ad3e
000003c0: 0bbd f3bd cf3d 9a3d 8fbb 40be f293 cd3d
000003d0: a018 48be 1684 c33e 42db 043f a48b f3be
000003e0: 12c8 1fbf 8e44 7dbf 6b30 f2be 2762 afbd
000003f0: 5cbc a33e 75d9 c5be b054 bc3e 729f 4a3e
0.6566965 -0.40942445 -0.07287819 1.0875072 -0.593923 -0.31622347 -0.765909 0.03650066
-0.29040128 -0.11816978 -0.82889575 0.016840603 -0.1089474 -0.0060605584 -0.08773944 0.044992577
-0.32456505 0.1989753 0.48025656 0.15828441 0.042709306 -0.13801815 0.039251696 0.305681
0.3772305 0.3224491 -0.20375395 0.40412158 0.30499107 -0.19245228 0.0039822212 0.13083003
-0.7413801 0.22179422 -0.02547923 -0.15677208 -0.32769912 0.5203486 -0.30946147 0.33660743
0.43926632 -0.2519309 0.20997012 0.26440156 -0.34709895 0.12702483 0.5254495 0.081965014
0.85876614 -0.58355 0.784234 0.88823956 0.5539911 -0.12291834 -0.21333042 0.009864755
-0.13254109 -0.4321497 -0.226718 0.025235977 0.17995667 0.07322856 0.054902658 -0.2480794
-0.681142 -0.13256106 0.023230521 -0.06996484 -0.121616125 -0.55882585 -0.013604383 0.542117
-0.12533174 0.17842518 0.07635643 0.20859452 0.2286894 -0.31133762 0.32239246 0.49672142
-0.6427635 0.3244274 -0.5532391 -0.18034062 0.20608312 -0.49109572 0.23808075 0.19521247
-0.07111494 0.17083724 -0.04822781 0.3435194 -0.29373783 0.1076247 -0.39304253 0.17902173
-0.7571446 -0.0837084 -0.4360456 -0.38568798 0.10430193 -0.51029605 -0.1329903 0.33831045
0.21861385 0.0050016055 -0.034819435 0.7277084 0.076784514 -0.07275569 -0.80855745 -0.42304903
-0.004393226 -0.32903957 0.1477134 -0.5179124 0.54930764 0.19566667 -0.606521 -0.16733031
-0.098102435 0.19003814 0.101675406 0.18144296 -0.67618376 -0.4976074 0.28955558 -0.036728468
0.6627785 0.41747105 -0.46888295 0.4001073 -0.2792929 -0.8951996 -0.4449022 -0.7674048
-0.48964098 -0.16489036 -0.18106635 -0.42395294 0.64359415 0.13649838 -0.539523 -0.12536259
1.2548505 -0.46021777 -0.0017262367 0.5045162 0.66231227 -0.44779056 -0.38735658 0.40145534
-0.06852611 0.11318446 -0.5006096 -0.5611524 -0.52717 0.2959559 0.7200133 0.31046507
-0.26384345 0.62352973 -0.057534765 0.36021844 -0.63326854 -0.148846 -0.1289325 0.38950038
0.2522038 -0.5316624 0.10651125 -0.11500203 0.1843177 -0.6521339 -0.33336338 -0.05469541
-0.050728325 0.8065258 0.11044488 -0.18111885 -0.2386787 0.13109396 0.12454185 0.6151689
0.12372641 0.15198354 -0.13158181 -0.4279378 -0.13937366 -0.38375542 0.84525675 0.5569929
-0.4715787 -0.3625294 0.3259724 0.7659752 0.03286935 -0.28986672 0.58036345 0.30301335
-0.15166688 0.27351198 -0.3113082 -0.71041304 0.27220353 0.94833845 0.56216604 -0.15557866
0.30727902 0.79739064 -0.1902917 1.2682033 0.19519658 0.1473151 0.35295302 -0.21826701
-0.57008106 0.6133413 0.13493526 0.19519606 0.11500643 1.5630556 0.1259202 -0.29447177
-0.12724501 0.41889745 0.49674815 0.08367476 -0.27183068 -0.5822927 0.505845 0.7021093
-0.0826415 -0.34242186 -0.42920563 0.13062097 0.2309932 -0.43940717 0.8820603 0.33943176
-0.119012915 0.0753132 -0.18821548 0.10037984 -0.19540644 0.3818671 0.5189706 -0.47567475
-0.6241466 -0.9893273 -0.47302565 -0.08563643 0.31979644 -0.3864247 0.3678336 0.19787386

action_model._continuous_distribution.mu.bias f4 [2]
00000000: a164 533e b9fa abbd
0.20643856 -0.08397431
