results/physicomimetics/DroneAgent/DroneAgent-12999982.pt (torch, 977305 bytes, 36 tensors)

network_body._body_endoder.seq_layers.0.weight f4 [128, 180]
00000000: 9fcb 0cbf 9df3 c73e 1198 153e 2e02 9abf
00000010: 7b13 fcbd 8d30 fe3d f768 29be f6cc e23e
00000020: feee 383e 3512 a0be 71f8 0fbd 5814 f13d
00000030: 7af7 02be 1e54 683f e5bb 0a3c 3730 5a3f
00000040: 962d 46be da69 fabd 936e f7bd f023 563f
00000050: 945b 95be d97b aebe 99ea eb39 2e1c 26be
00000060: bcce 5c3d 7e36 57be 3f23 c5bd ab0a 30bd
00000070: b7ba 48be 5aaf 8f3c 2373 30bc 2e92 083e
00000080: 9177 f8bd f83a 1fbc 1858 a0bc 77af 723c
00000090: 5bd3 08bf 7ea7 af3e c510 ce3d f054 6dbf
000000a0: fe75 4f3d 3135 3b3d 3cd0 e5bd 6d2f 0b3f
000000b0: b187 f83d 7c1d 26be 36e7 19be d414 91bd
000000c0: 4610 67bd cff0 783f b73c 3cbe 8bf7 533f
000000d0: 4532 9a3c 6b70 32bd 2958 94bd 609c 583f
000000e0: b3c2 dfbd 0a3f b3be c0b4 af3c de8a 5bbe
000000f0: 23f0 82be 4a34 86be 7ee9 81be 1011 153e
00000100: 51d0 15bd 488c 48be b4f9 2dbe c8ab 753d
00000110: 1cb1 39be 9d2f dbbb e2fd 81bd 33a2 a53d
00000120: 8f80 20bf 1908 a23e 7ce0 883e fa61 18bf
00000130: 1374 40be 8e55 4b3d 2233 3dbe cf0a 1fbe
00000140: c483 113e f0ec adbd 46e2 93be acff 123e
00000150: cb76 31be 1ddf 5b3f b0ae 5fbe c474 833f
00000160: 482a 4dbe ec3b 1cbd c951 b8bd d18e 603f
00000170: b952 02bd ff9c 1b3e 5923 17be 2c6d a9bd
00000180: 8fc8 7cbe 3576 12bd a3c8 eebd 61ed 8abd
00000190: c4dc 6abe a8a2 92be 401d 09be 7d3a 01be
000001a0: 0c43 3cbe 536d cbbc 1780 83be 5118 a9bd
000001b0: faca 00bf e749 df3e 2fa8 ee3d 5471 f7bd
000001c0: 9c8d acbe 4435 63be bff9 a3be 2bd7 9fbe
000001d0: d7bf c93d 92a8 633d a295 76be a79f 17bd
000001e0: 011d 76be def9 583f db45 a4be db04 343e
000001f0: 1f36 b2be 89cc 7a3c 46c9 3abe b78f 253f
00000200: 7476 1dbc 425f 84be 2b3e 3abe cff6 7dbe
00000210: 44c5 95be 9f6b 2fbe 97b7 85be 795c 45be
00000220: 0b30 93be ce5b aebd 9218 02be d933 e9bd
00000230: 4ef9 15be d50d 7cbd 3981 1fbe f9d8 3cbc
00000240: 5e20 cdbe b93e d33e 6028 cc3e 69c6 eabd
00000250: eeb5 0c3e dcbd d2be f386 c0bd 2e73 d33d
00000260: 0378 673e 3560 a3be a6d3 613d 6a06 a7bd
00000270: abe8 ae3d 9f7e 873f c5d0 9e3d d56a 5e3e
00000280: 35c1 b33d 6d50 f33d 4511 673d 3d9f 253f
00000290: 5774 bfbd 4ed0 6abf e2eb 283d 413c 0fbf
000002a0: 3880 bcbb bcba dabe ce29 523c 76cb 253e
000002b0: f708 f0bd c727 3ebe 768d 003e 55d6 b6bd
000002c0: 8381 5a3e a2d9 9fbd 0282 93bc 58d9 07bd
000002d0: 28a7 213e 1d4c c83d 4c1c a5be 4044 423f
000002e0: a770 24bf 7370 8abe ee24 f2be a8e0 e1bd
000002f0: 8439 f3be abc5 ec3e 1168 dbbe 12e7 e0bc
00000300: a9ad 94be ddeb bcbe 7443 89be be70 153f
00000310: c7d0 84be 8f6e 1cbb 2c29 61be ac90 c7be
00000320: a5b3 d9be 74be 9cbe b3e2 b1be d0ed 323e
00000330: 4935 a4be 8a63 dbbe d8f5 d8be d2bf 83be
00000340: 576d 9cbe e482 0cbe 7f97 e7be 9efe 453d
00000350: 1a3e 0fbe 31b5 483c 1e6a cbbe 6e83 503d
00000360: 2151 ae3e e7d0 40bc c523 0fbf 0a3f 483f
00000370: d65f 41bf 4f5d e6be 3dbf 70bf 9ad7 6ebd
00000380: bb0f 07bf fe78 be3e b555 08bf e7db 253d
00000390: 85fa 04bf b841 01bf 69f2 a5be 4ed0 e43e
000003a0: 34c5 cabe ca4c 973e 18fe e6be c256 82be
000003b0: 1021 0fbf 7f7a 60bd 28fe 14bf 7970 233e
000003c0: eed1 1cbf 1d2d 9abe 0213 1fbf d2fe a7be
000003d0: 968f 1cbf 7977 8dbc ff6b 25bf 5ecd 7c3c
000003e0: 856b d5be c8cd 943d a4e6 15bf 959a 9e3d
000003f0: 5b1d 423d 9f32 99bb 49f0 3ebf ead0 89bd
-0.549982 0.3905305 0.1460879 -1.2031915 -0.12308403 0.12411604 -0.16543947 0.44296998
0.18059918 -0.3126389 -0.03514904 0.117714584 -0.12789717 0.9075335 0.008467649 0.8522982
-0.19353327 -0.12227221 -0.12081637 0.83648586 -0.2917143 -0.34078863 0.00044997482 -0.16221687
0.053908095 -0.21016881 -0.09625863 -0.042978924 -0.19602476 0.017539669 -0.010769638 0.13337013
-0.121321805 -0.009718649 -0.019573256 0.014812342 -0.534475 0.34307474 0.10061792 -0.9270773
0.050649635 0.045705024 -0.11221358 0.5436924 0.12135256 -0.16222185 -0.15029606 -0.07084051
-0.056412004 0.97242445 -0.18382536 0.82799596 0.018822799 -0.04356424 -0.07243378 0.8461361
-0.10925808 -0.35009032 0.021448493 -0.21439692 -0.25573835 -0.26211768 -0.25373453 0.1455729
-0.03657562 -0.19584763 -0.16989785 0.059978276 -0.18133968 -0.0066890256 -0.063472524 0.08087578
-0.62696165 0.31646803 0.26733768 -0.595245 -0.18794279 0.04964214 -0.18476537 -0.15531467
0.14210421 -0.08492458 -0.2888357 0.14355344 -0.17330472 0.8588732 -0.21843982 1.0270009
-0.2003566 -0.038143083 -0.08999974 0.8771792 -0.03181717 0.15196608 -0.14759578 -0.08272776
-0.24685882 -0.035757262 -0.11659362 -0.06783558 -0.22935778 -0.28639722 -0.13390064 -0.12619968
-0.18384951 -0.024832403 -0.25683662 -0.08256591 -0.5030972 0.4361107 0.11653172 -0.120821625
-0.3370179 -0.22188288 -0.3202648 -0.31218848 0.09851044 0.055580683 -0.24080518 -0.03701749
-0.24034502 0.8475627 -0.32084545 0.17579977 -0.34806916 0.015307554 -0.18240842 0.64672416
-0.009610761 -0.25853926 -0.18187778 -0.24801181 -0.29252064 -0.17130898 -0.2611663 -0.19273557
-0.2874759 -0.08513604 -0.12704685 -0.11386842 -0.14645883 -0.06153663 -0.15576638 -0.01152634
-0.40063757 0.4125879 0.39874554 -0.11463625 0.13741276 -0.41160476 -0.094007395 0.10324703
0.22604375 -0.31909338 0.055133484 -0.0815552 0.08540472 1.0585517 0.077546634 0.2172044
0.08777086 0.118805744 0.056412954 0.64696103 -0.09348362 -0.917241 0.04124058 -0.55951315
-0.0057525896 -0.42720592 0.01282735 0.16190895 -0.1172046 -0.18569861 0.12553963 -0.08927599
0.21338467 -0.07805182 -0.018006328 -0.03316626 0.15786421 0.097801425 -0.3224815 0.7588539
-0.64234394 -0.27038917 -0.472938 -0.11029178 -0.47504818 0.4624456 -0.42852834 -0.027453933
-0.29038742 -0.368987 -0.26809275 0.58375156 -0.25940534 -0.002386961 -0.21988362 -0.38977563
-0.4251987 -0.30614054 -0.3474327 0.17473531 -0.32071903 -0.4284938 -0.42375064 -0.25732285
-0.3055217 -0.13721806 -0.4523277 0.048338525 -0.13988534 0.012250231 -0.39729398 0.05090659
0.3404627 -0.011768556 -0.55913955 0.7822119 -0.7553686 -0.44993064 -0.94041806 -0.058311082
-0.5275838 0.37201685 -0.5325578 0.04049292 -0.5194476 -0.50490904 -0.32411507 0.44690174
-0.3960358 0.29550773 -0.45115733 -0.25456816 -0.55909824 -0.05480432 -0.5820031 0.15960874
-0.6125783 -0.30112544 -0.6213838 -0.328116 -0.61156595 -0.017268883 -0.64617914 0.015429823
-0.41683593 0.07265812 -0.58555055 0.07744328 0.047391277 -0.004675224 -0.74585396 -0.067293

network_body._body_endoder.seq_layers.0.bias f4 [128]
00000000: d853 5b3c 4de4 4fbc 2160 11be 550b bb3e
00000010: 7b96 5abe 4bf9 33bf 9f91 63be ad56 943d
00000020: c485 0bbe e4a8 c33e 9808 78be 04e5 e73e
00000030: 6005 53be 2fb6 f1bc c7bf 0fbd a246 44be
00000040: 49d5 efbe d13f 79be b5ec 51bf e953 15bf
00000050: 8601 08bf 5266 b5be f983 5cbe eb30 e6be
00000060: ab5e 023f 465a 42be deed 07bf 4deb 87bf
00000070: d4d9 76be cf60 7bbf 82f2 a43c 179c fabe
00000080: ca84 52be 79fb 61be 5802 82be 8855 3fbf
00000090: c2cc 3dbe a8ec e3be 37c3 a0be 89f0 41bd
000000a0: 881d 2ebf 28db 133f 3961 6bbe 506c aebe
000000b0: a2de b7be 3382 843d 220a 88bd 7eec dd3d
000000c0: 8f76 95be 7868 86be 2295 d7be 8296 3ebe
000000d0: d844 87be e54d b7be 5ea6 eebc 7645 5bbe
000000e0: d24f 03bf ffe5 0cbe 116b 0cbf ce46 bcbe
000000f0: c322 32bf 66b5 8cbe 61a6 09bf 0bfc c53e
00000100: 8ad0 04bf 15e5 9bbe 76e4 8e3e 2547 f43d
00000110: 47a3 1dbf 1923 e6bc c1b6 cbbd 9424 c0bd
00000120: 5946 1fbf 505b e4be 18f7 6e3d 5a23 dbbd
00000130: dffb 58bf 5dd8 20bf 607c 37bf 9180 4ebf
00000140: dddd efbd abbd 69bf 2ea2 97be 940d 47bd
00000150: aa30 b5be 1394 c4be a4d2 7fbe c334 99be
00000160: 99f9 1fbf 5eda 12be fd5e 7dbd 9eb7 2cbe
00000170: b981 4ebe 3459 1cbf 94d7 ddbd 070e 01bf
00000180: 4b37 d3be af96 a23e be84 c0bd e0ca 3fbf
00000190: c45a a7be 8aff 15be 0eef 44be a0d7 11be
000001a0: ec12 95be ffae e43e a2e8 50be e086 afbe
000001b0: b895 4a3d c3ea 4bbe c580 65be 026a a43e
000001c0: 44d6 70bf 3fd6 cabd 8368 fabd 2661 1abf
000001d0: 6e1d 55be c421 c3be ef34 aabe 8de4 83bd
000001e0: ea53 43bf e59c 6f3e e533 79be 276a 7ebe
000001f0: 617c 583d d9e7 21bf 576d 3dbf 4390 a4be
0.013386689 -0.0126887085 -0.14196827 0.36532083 -0.21346466 -0.70302266 -0.22223519 0.072430946
-0.13625246 0.3821479 -0.24222028 0.45291913 -0.20607519 -0.029505817 -0.035095003 -0.1916757
-0.4684241 -0.2434075 -0.8200181 -0.5833116 -0.53127325 -0.35429627 -0.21534719 -0.44959196
0.509257 -0.18979749 -0.5309733 -1.0618683 -0.24106532 -0.98194593 0.020135168 -0.48947212
-0.20558468 -0.22068585 -0.25392413 -0.74739885 -0.1853514 -0.44516492 -0.31398937 -0.047348533
-0.6801381 0.5775628 -0.22986306 -0.3406701 -0.35912043 0.06470146 -0.06642558 0.10836123
-0.29192016 -0.26251578 -0.42105967 -0.18612102 -0.2641971 -0.35801616 -0.029132064 -0.21413216
-0.5129367 -0.13759612 -0.5485087 -0.3677277 -0.6958429 -0.27482146 -0.537695 0.38668856
-0.51880705 -0.30448213 0.27908677 0.11927632 -0.61577266 -0.028092908 -0.09946967 -0.09381977
-0.62216717 -0.44600916 0.058341116 -0.10700102 -0.84759325 -0.62830144 -0.71674156 -0.80664927
-0.11712239 -0.91305035 -0.2961592 -0.048596933 -0.3538869 -0.38394222 -0.24982697 -0.29923066
-0.6249023 -0.14341113 -0.061858166 -0.1686692 -0.20166673 -0.61073613 -0.10832134 -0.5041203
-0.41253123 0.31755587 -0.094003186 -0.7491894 -0.32686436 -0.14648262 -0.19231817 -0.1424241
-0.29116 0.4466476 -0.20401242 -0.3428259 0.04945919 -0.19913773 -0.22412403 0.32112128
-0.94076943 -0.099041454 -0.12226965 -0.60304487 -0.20812008 -0.381117 -0.3324351 -0.06440077
-0.7629992 0.23399694 -0.24336202 -0.24845181 0.052852992 -0.63244396 -0.73994964 -0.32141313

network_body._body_endoder.seq_layers.2.weight f4 [128, 128]
00000000: 4c7a b73e a92f cb3e 24c7 ecbd 2a84 553f
00000010: 8ba7 81bf ed6d 7abf 3f37 08bf 9f2a f2be
00000020: 0b9b 9ebf 7f2d ef3e 4af9 87bf 5447 433f
00000030: cca6 82bf fa2a bcbf 5ed0 9e3e 8664 9ebf
00000040: 8022 98bf 2c09 21bf 42e0 50bf 4701 4cbf
00000050: 2329 a7bf ffbe 96bf ac06 50bf 26b8 7bbf
00000060: dde1 73bd 288d b4bf 30ab 97bf 3fdb 1abf
00000070: 426e 1f3e f042 0fbf 9c93 683e 5dd3 a2be
00000080: d4a4 96bf 5c21 9ebf 340c 59bf 55f6 a0bf
00000090: 82c5 3bbf db86 cdbe 80c1 94bf 9678 4cbf
000000a0: 4b30 97bf 5539 283e 4206 c2be 0683 01bf
000000b0: 94b6 103f d5ed 26bd 408b cebe c141 dabe
000000c0: 5bcc 39bf fc7d babf 5134 2d3e 1928 f9be
000000d0: 78f9 74be 6f99 76bf d463 58bc 4d41 bdbf
000000e0: 687d b6bf 8791 79bf 7b2a 83bf 769d 25bf
000000f0: e58e 7abf 4ed1 47bf 9121 8dbe 4b7a 4c3f
00000100: 3454 6cbf f292 0cbf f10f 59bf 99e9 ce3e
00000110: d5fd bcbf 5f92 d1be 5015 2ebf 52be 84bf
00000120: ce54 47bf 38b1 73bf 142c bcbf 385f 85bf
00000130: 9fdd 5cbf f5ef 84bf 4992 a4bf 02eb 75be
00000140: d9a2 ec3d 04c4 54bf 4eda a1bf 12e1 0fbf
00000150: b02c 41bf 5629 96bf 66f1 593f 3f05 3ebf
00000160: c18b adbe 85dd dfbe 78fc b43e aaaa cdbe
00000170: d2cf 42bf ec59 8ebf 1364 29be c19c acbf
00000180: 673c 63be 76d6 30be 8cff d5bf 0653 3fbf
00000190: 25b7 43bf a25e 42bf 159a 5ebf 5a90 9b3d
000001a0: ba3d bbbf c42c 3abf 38f7 c1be da4d b5bd
000001b0: 9650 59bf 946e e1bf 639d 65bf 838d 5b3e
000001c0: 64b4 5bbf 2f76 a7bf 0c59 5abf f760 8ebf
000001d0: 061f 70bf fdb1 3abf 0233 cabe 964e 9a3e
000001e0: f6f8 2cbf 5c40 b63e 58a4 49bf 8f5c afbf
000001f0: d521 13be 527e 10bf 8593 80bf 6b50 9dbf
00000200: 69cd 68bf 7889 f3be eb0c 6b3e ae89 083f
00000210: 4381 383f d6d3 19bd 3bb0 35be fd0b e23e
00000220: bbc0 12be 998f a33e 235c 473e 674e 9cbe
00000230: 5c52 853d 6376 a83e 580c eebe 9945 1cbf
00000240: 889e 48be 4787 fc3e 0b50 fdbe ec7b 593e
00000250: 6a7f 8bbf 760e b6be 428d 963d 4b8a 9ebd
00000260: 6717 5fbd 9791 823d 6fc9 3a3d 734a 1bbe
00000270: 50d2 273f e18e 34bf 87e3 e9be 0f53 50be
00000280: 7798 08bf fc37 283f 1123 fdbb 818a d73e
00000290: aac5 933d fb01 5bbd 38c2 243c 91bf 13bf
000002a0: c9f9 183e 812e b33e e368 48be 02df c0be
000002b0: 3df9 113e fb91 fe3e c0d9 19bf 5afa 973e
000002c0: 870e fb3e 7d2b 35bf bdad eabe e539 b53e
000002d0: 4642 ec3e fee6 c4be 7479 2c3e 702d 183f
000002e0: cbaf aabf a865 003f 99bb 023f 1591 8ebe
000002f0: a3a5 b9be fb01 4cbf 146f 90be b956 37bf
00000300: 3b13 a53f 9147 cbbe 00dd 33bf 7a4e a13e
00000310: 18da f6be 486a 443f e64a 433e 58eb 9bbe
00000320: 0248 5cbf be12 83be d0ad 663e a047 ebbd
00000330: 0c3c 1bbf 30d0 5fbe 65ca 56be 00c9 3fbf
00000340: 2658 d2be b33a 00bf d378 223f 818d 1abe
00000350: a6f9 e73e 02e3 80bd 0a22 c4be 18c4 8ebd
00000360: 84ef 11be d8ad 85be 2c4b eabe dbbb 503f
00000370: d73f a93b 3a1b 09be 338b 8f3e 82e3 0c3f
00000380: 94e6 aebc 9efc 26bf a345 793e cdb1 41bf
00000390: f979 82be ef2f 093f 829c fa3e 9a07 a1be
000003a0: 0284 973e a19c 2b3f 1f3a 9fbf 43ad 4cbf
000003b0: 20a8 433f 532c ae3e 17cf 283f bd6a d1be
000003c0: 679d 233f 133c 523f ea14 23be 66f1 1c3d
000003d0: c550 8f3f 036b 63bf 876f 3fbe 2aa2 a2be
000003e0: ac3c 963b 51cb 633e c356 ddbe c080 443e
000003f0: aaaa 2c3f 475e 2d3e c2a9 8fbe 03b1 3ebd
0.35835493 0.396848 -0.115614206 0.8340479 -1.0129255 -0.97823983 -0.532093 -0.47298142
-1.2391065 0.46714398 -1.0622952 0.76280713 -1.0207152 -1.4700615 0.31018347 -1.2374427
-1.1885529 -0.6290462 -0.8159219 -0.7968945 -1.3059429 -1.1777037 -0.8126018 -0.98327863
-0.059541572 -1.4105577 -1.1849117 -0.60490793 0.15569404 -0.55961514 0.22712559 -0.31801882
-1.1769052 -1.235393 -0.84784245 -1.2575175 -0.7334825 -0.4014195 -1.1621552 -0.798715
-1.1811613 0.1642812 -0.378954 -0.5059055 0.5652859 -0.040754158 -0.40340614 -0.4262829
-0.72577447 -1.4569697 0.16914488 -0.48663405 -0.2392329 -0.9632787 -0.013207395 -1.4785553
-1.4257021 -0.9748768 -1.0247339 -0.6469339 -0.9787429 -0.7805375 -0.27564672 0.79874104
-0.92315984 -0.5491172 -0.8478995 0.40412596 -1.4764963 -0.40931985 -0.6800127 -1.0370581
-0.77863777 -0.9519229 -1.4700952 -1.0419683 -0.86275667 -1.0385729 -1.2857143 -0.2401543
0.11554498 -0.83111596 -1.2644746 -0.56202805 -0.7545881 -1.1731365 0.8513397 -0.74226755
-0.33895686 -0.43723693 0.35348868 -0.4016927 -0.7609836 -1.1121192 -0.16542082 -1.3485337
-0.2219101 -0.1726931 -1.6718612 -0.7473606 -0.7645133 -0.7592565 -0.8695386 0.07595892
-1.4628212 -0.72724557 -0.37883925 -0.0885274 -0.8488859 -1.7611871 -0.8969328 0.21440701
-0.8582213 -1.3082942 -0.85292125 -1.1123341 -0.9379734 -0.7292784 -0.3949204 0.3013808
-0.67567384 0.35595977 -0.78766394 -1.3700122 -0.14368375 -0.5644275 -1.0045019 -1.2290167
-0.9093843 -0.47565818 0.22954147 0.5333508 0.7207224 -0.037555538 -0.17743008 0.4414977
-0.14331333 0.31945494 0.19468741 -0.30528566 0.065098494 0.32902822 -0.46493793 -0.610437
-0.19591725 0.49321958 -0.4947513 0.21238679 -1.0898259 -0.35557908 0.073511615 -0.07741221
-0.054465678 0.06375425 0.04560226 -0.15165119 0.65555286 -0.70530516 -0.45681402 -0.20344184
-0.5335764 0.65710425 -0.0077251275 0.42097858 0.07215436 -0.053468686 0.010056071 -0.5771418
0.14939035 0.34996417 -0.19571261 -0.3767014 0.14255233 0.4972075 -0.60097885 0.2968319
0.4903452 -0.7076948 -0.45835677 0.35395733 0.46144313 -0.38457483 0.16843206 0.5944433
-1.3334898 0.50155115 0.510675 -0.27845064 -0.36259183 -0.7969052 -0.28209746 -0.71616703
1.2896494 -0.39703038 -0.70259094 0.31505185 -0.48213267 0.7672467 0.1907154 -0.3045299
-0.86047375 -0.25600237 0.22527242 -0.11488271 -0.606385 -0.21856761 -0.20975645 -0.74916077
-0.41082877 -0.5008957 0.63465613 -0.15093042 0.45307654 -0.06293298 -0.3830722 -0.06970996
-0.14251524 -0.26109195 -0.45760477 0.81536645 0.005165081 -0.13389292 0.28035888 0.5503465
-0.021350183 -0.65229213 0.2434297 -0.7566193 -0.25483683 0.53588766 0.4894753 -0.31451112
0.295929 0.6703587 -1.2439612 -0.79951876 0.76428413 0.34018192 0.65940994 -0.40901747
0.6391205 0.82122916 -0.15925947 0.038316153 1.1196524 -0.8883516 -0.18694888 -0.31764346
0.0045848694 0.22245528 -0.43230256 0.19189739 0.6744791 0.16930495 -0.28059202 -0.04655553

network_body._body_endoder.seq_layers.2.bias f4 [128]
00000000: a29e 053f 15ad 923e 8cc7 13be 7393 853e
00000010: bf37 ae3d 1466 66be 5f2f a1bd fd32 383e
00000020: 7b46 1fbd d0a1 d7bd 81f6 28be 4b50 0abf
00000030: 72f5 4abe 4458 9abe da13 bebd deeb 09bf
00000040: 6abd af3d ec71 0f3e 3dd0 12bd ef4c 15bf
00000050: 1e1b f7be 5438 88bf 63be 353e bde9 80bd
00000060: 4f77 9fbe 7f87 6abf 9af0 66bd 8137 893e
00000070: 2b11 8b3e 6f34 2fbf 52aa 5dbf f30f 4abe
00000080: bbad 233f 8223 05be c29e ffbe 7a0b 53bf
00000090: b5ce 11be 50ff a7bd b97b f9be 2d4c 92bf
000000a0: 4f20 04bf 6b00 5abd 938b 23bf 543c 8ebe
000000b0: 92e5 efbe 7b50 f43c 9cea 0a3d b860 88bf
000000c0: 7356 71be 79ec 90be 0b9d 073d c248 073f
000000d0: e464 bc3e a082 efbe d6ba bdbe f1da e9bd
000000e0: 36a7 47bf 2199 26be 505d 63bf e81a a83d
000000f0: 55ee ea3d 3b92 19bf d392 8fbe a3e6 ad3e
00000100: bcd7 10be ce9d babe 614a 41bd 4f48 07be
00000110: fd4b 6dbf 64de 0f3d f64a abbd 3fcd b6be
00000120: 8c8d 9fbe 0e9a 703e 95b8 2f3d 2583 5abd
00000130: 8342 53bf 08c4 f9bd e206 c5be 4980 eabd
00000140: dc72 b7be ce4b 3c3e e52e 7d3d 3a10 5c3e
00000150: 2d87 003e 137b 953b d5a5 7cbd 72d6 d53d
00000160: 198c eabd 309e 0ebf 6836 96be 2d8f fabe
00000170: 74c6 5bbf 71e4 af3e 51dc 50bc 91a1 6fbe
00000180: bfaa 09bf a971 dc3c f893 2a3e 1d42 0cbf
00000190: 8e8d 47bf 7b96 48be 063b 32bf ee63 ce3e
000001a0: 7c96 36bf e82c d5be 0f8c 203e f34e 31be
000001b0: 6883 82bf 685e e33e 2802 b93e 3d27 dc3e
000001c0: dbe7 cbbe 80d2 a4bd ce02 f9be 8967 24bf
000001d0: d0b0 fcbe 0aec 25bf 0c48 c6bd 8217 f2bd
000001e0: c204 a0be 19f8 fa3a ea0f 2c3d 3649 39bf
000001f0: 1652 eebe ca44 debe 6d11 ef3e 2fb6 62bf
0.5219518 0.28647676 -0.1443159 0.26089057 0.085067265 -0.22499877 -0.078703634 0.179882
-0.038885575 -0.1052891 -0.16500284 -0.5402877 -0.19820192 -0.30145466 -0.0928113 -0.5387553
0.0858105 0.14008301 -0.035843123 -0.58320516 -0.48262876 -1.064219 0.17748408 -0.06294582
-0.31145713 -0.91613 -0.0563818 0.2680016 0.27161536 -0.6843938 -0.86588013 -0.19732647
0.63936967 -0.13001826 -0.4992581 -0.82439387 -0.14239009 -0.08202994 -0.48727205 -1.1429497
-0.516118 -0.053223055 -0.6388485 -0.27780402 -0.46854836 0.029823532 0.033915147 -1.0654516
-0.23568134 -0.28305414 0.033108752 0.52845395 0.36795723 -0.46779346 -0.37056607 -0.11418713
-0.7798952 -0.16269352 -0.8881426 0.08208257 0.114712395 -0.59988755 -0.28041705 0.33965024
-0.14144796 -0.3644852 -0.047190074 -0.13211177 -0.92694074 0.035124198 -0.08363907 -0.35703465
-0.3116268 0.23496267 0.04290064 -0.053347725 -0.82523364 -0.12195593 -0.38481814 -0.1145025
-0.35829818 0.18388292 0.0618123 0.21490565 0.12551565 0.0045617907 -0.061681587 0.10441293
-0.11452503 -0.55710125 -0.29338384 -0.4893736 -0.8584969 0.34353974 -0.01274784 -0.23401476
-0.5377616 0.026909666 0.16658008 -0.5478838 -0.7795037 -0.19588654 -0.6962131 0.40310615
-0.7132337 -0.41635823 0.15678428 -0.17315273 -1.0196352 0.44407964 0.36134458 0.42998686
-0.3982533 -0.08047962 -0.48634952 -0.6422048 -0.49353647 -0.6481329 -0.096817106 -0.1182089
-0.3125363 0.0019147425 0.042007364 -0.72377336 -0.46547002 -0.43411857 0.46692982 -0.8855924

action_model._continuous_distribution.log_sigma f4 [1, 2]
00000000: 8946 5340 cda5 7d40
3.3011801 3.9632447

action_model._continuous_distribution.mu.weight f4 [2, 128]
00000000: 79a4 2f3f 6f9c c1be 6de7 3bbd 11fa 833f
00000010: 31c4 30bf 8924 80be 34d1 52bf 64a1 1d3d
00000020: 8169 87be f50b 33be b335 71bf 61c4 38ba
00000030: 924d 63bd 59d2 52bd b597 92bd be74 87bb
00000040: 347c dcbe 74de 373e f922 ee3e 864b fd3d
00000050: 810a b63c ae66 67be 2be9 803d d3e3 dc3e
00000060: 778f ba3e eac3 9c3e bb3d 44be cbb9 eb3e
00000070: 6a90 cd3e 7738 9fbe ade2 30bd c4f0 a93d
00000080: a616 46bf 1001 de3d 2ce7 5fbc e712 01be
00000090: ab5f a3be d4d0 0e3f 586c cebe 0618 8a3e
000000a0: 06a8 bb3e 93ca 84be dc7c a83e f3e2 ab3e
000000b0: 36b3 8cbe 55b1 3a3e ea54 f73e 1e2c b03d
000000c0: 2cc4 573f 6a7d 0bbf 87d9 423f 686f 673f
000000d0: daa5 0f3f 0335 dfbd 2453 08bf 3c21 3a3d
000000e0: 788d 6dbd 490c 02bf a8f4 31be 0940 07bc
000000f0: 504d 903e 2b52 bc3d c73b 4abd 9ac9 6cbe
00000100: 30b1 42bf 77f5 ccbd 6ce9 8f3d 1782 303b
00000110: 3e55 25be b235 0fbf 9f22 f5bc fd88 ef3e
00000120: 15d1 22be f413 0e3e 2d3c 783d 4855 933e
00000130: d44b 5b3e 3da4 bcbe d79c 923e 924e 103f
00000140: 7a74 1bbf ee8e dd3e 4cac 0cbf b28a 95be
00000150: 12aa 6d3e 5b39 03bf e56b 643e 7bf3 8e3e
00000160: 73ef 09bd 004f 253e ca5f d1bd 908c af3e
00000170: 6aef 95be 082d bc3d 7a6e 03bf 3aed 443e
00000180: 11d9 41bf ee81 31bd 2ca4 e0be f3fc cebe
00000190: 0864 dc3d a10a 00bf d80b af3c b544 ab3e
000001a0: bcf3 7a3e 3921 ef39 f033 57bd 6a1a 393f
000001b0: e0f8 20bd e2f4 a1bd 7006 55bf 76b4 c9be
000001c0: c9e9 8c3d 4190 a7be 7873 053e b581 c5be
000001d0: 8c7d 033f 591e 383e 378c 31bf b96e 35be
000001e0: 2536 9abd f84b 403e b6bc f13d acf0 343e
000001f0: f904 2ebf 7690 0ebf 09a9 523e 2641 21be
00000200: 198e 333f 47ac ae3e 410d 22bf 024b a93e
00000210: 583f a2be 28ae 61bf baf0 babe 33ab 46bf
00000220: 459f 09bf b02c c7bd dd68 c5bd 74cf c7be
00000230: 9536 3f3f fadb 6a3e a2a0 05bf c893 29be
00000240: adf5 9f3f 55a7 d7be 14d7 933d e5f6 e43e
00000250: c1ac 2f3f 56fe 04bf 8bff c3be bd04 d03e
00000260: ae3c bdbd 4893 9b3d 2f1f e9be 7ccf 16bf
00000270: ee74 01bf 2720 633e 83ad 4b3f 7981 193e
00000280: e3e4 8fbe d1e2 273f 00b2 d8bd 4cfc ab3e
00000290: 20ac 20bf 0332 63be 4606 a0bd bf19 ca3e
000002a0: 2e4e 663e 6679 05bf 9f25 ce3d 5cb1 04be
000002b0: 8866 893e 7a46 26bf 19a9 acbe 5bf5 1cbc
000002c0: 7da4 503d e1aa 6a3f 60e5 0b3e 02a8 4bbe
000002d0: 74bc a1be e6a8 1c3e 8355 1f3e 6345 463f
000002e0: 2e0b 233e d7e9 fe3d 98d9 01be d4bd 08bf
000002f0: 9616 2ebe bb46 c3be 0d1a 823f 0459 de3e
00000300: 30b3 0bbf 3b28 b4be 163c 6b3e be02 413f
00000310: 0bf0 45bc 46e5 93be 04f1 123f 3e12 693e
00000320: bd0b 66be 61a9 ab3e 69ec 8dbe 5443 45bf
00000330: 66ca 873e 4ac3 833f 895f 053f b9de b2bd
00000340: d157 7c3e 0c1f 683f 7512 8dbe 0928 a03f
00000350: 3d7f 3a3e 389f 883e ab7a 8c3e 8240 6dbe
00000360: b610 12bf 6235 293f f94e cd3c de81 583e
00000370: 9ec4 5b3e 24a0 c63f bfe2 be3d f12b 98be
00000380: 9232 04be 9f0e ff3e ec83 0d3f dd49 0b3e
00000390: 87d6 a5be ba3d 12bf 2021 083f 9408 223f
000003a0: f90e 43be 560f 92be 8418 f5be 09e2 a83d
000003b0: 4c28 853e 8221 d7be aa35 693f 11e0 9a3e
000003c0: 73bc 27be f7c9 c03d 73e2 0fbe ea3f 913d
000003d0: 2878 2ebe fa37 ab3e 761a 113f 8c48 e8be
000003e0: 64c8 1ebf e0d5 75bf 78d2 d4be c4ed bdbd
000003f0: 64c7 763e d1db cfbe d109 fd3e 6b86 bb3e
0.6861034 -0.37814662 -0.045875 1.0310689 -0.69049364 -0.25027874 -0.8235047 0.038483992
-0.2644768 -0.1748503 -0.94222564 -0.00070483057 -0.0554939 -0.051470134 -0.07157842 -0.00413379
-0.4306351 0.17955953 0.46511057 0.123679206 0.022221806 -0.22597763 0.06294473 0.43142566
0.3643758 0.3061822 -0.19164173 0.46040186 0.40149242 -0.31097767 -0.043184925 0.082978755
-0.7737831 0.108400464 -0.0136659555 -0.12604867 -0.31908926 0.55787396 -0.40317035 0.26971453
0.3665163 -0.25935802 0.3290776 0.33571586 -0.27480477 0.1823171 0.48306972 0.08602165
0.8428371 -0.5448824 0.7611317 0.9040437 0.56112444 -0.10898783 -0.5325186 0.04544185
-0.057996243 -0.50799996 -0.17378485 -0.008255013 0.28183985 0.0919536 -0.049373414 -0.2312378
-0.76051617 -0.10007756 0.070269436 0.0026933008 -0.16145799 -0.5594131 -0.029923735 0.467842
-0.15900071 0.13874799 0.060604263 0.28776002 0.21415645 -0.36844054 0.28635284 0.5636989
-0.60724604 0.4327311 -0.54950404 -0.2920738 0.23209408 -0.5125939 0.22306783 0.27920136
-0.033675622 0.16143417 -0.102233484 0.34286928 -0.2928422 0.091882765 -0.5134045 0.1923112
-0.7572184 -0.0433368 -0.43875253 -0.4042736 0.10761267 -0.5001622 0.021367952 0.33450857
0.2450704 0.00045610385 -0.052539766 0.7230593 -0.039299846 -0.07908036 -0.8321295 -0.39395493
0.068805285 -0.32727244 0.13032329 -0.3857552 0.51363444 0.17980327 -0.69354576 -0.17718019
-0.075298585 0.1877898 0.11803572 0.17669934 -0.6797634 -0.5568918 0.20572294 -0.15747508
0.701387 0.34115812 -0.63301474 0.3306504 -0.31688952 -0.88156366 -0.36511785 -0.7760498
-0.5375865 -0.0972532 -0.09639142 -0.39025462 0.7469266 0.22935477 -0.5219823 -0.1656028
1.2496849 -0.42119852 0.07218757 0.44719616 0.68622977 -0.51950586 -0.382809 0.40628615
-0.09240089 0.07596451 -0.45531604 -0.58910346 -0.50569046 0.22180234 0.7956163 0.14990796
-0.28104314 0.6558047 -0.10580826 0.33590925 -0.6276264 -0.22187047 -0.078136966 0.39472768
0.2249076 -0.52138364 0.100657694 -0.12958282 0.26836038 -0.6495129 -0.3372276 -0.009579982
0.05093812 0.9166699 0.13661718 -0.19888309 -0.3158909 0.15298805 0.15559964 0.77449626
0.15922233 0.12446945 -0.12680662 -0.53414655 -0.17000803 -0.381399 1.01642 0.4342729
-0.54570293 -0.35186943 0.2297214 0.7539481 -0.0120811565 -0.2888586 0.5739901 0.22760865
-0.22465415 0.33527663 -0.2771943 -0.7705586 0.26521605 1.0293972 0.520989 -0.08733887
0.24642874 0.90672374 -0.27553144 1.2512218 0.182126 0.26683974 0.27437338 -0.23169139
-0.5705675 0.6609708 0.025062071 0.2114329 0.21461722 1.5517621 0.09320592 -0.29721025
-0.12909916 0.49815843 0.5527942 0.13602395 -0.32390234 -0.5712544 0.53175545 0.6329434
-0.1904868 -0.28527325 -0.47870266 0.08246238 0.26007307 -0.42017752 0.9109751 0.30249074
-0.16380481 0.09413522 -0.14051227 0.07092269 -0.17038023 0.33441144 0.56681 -0.4536785
-0.6202452 -0.9602947 -0.41566825 -0.09273866 0.24099499 -0.40597394 0.49421552 0.3662599

action_model._continuous_distribution.mu.bias f4 [2]
00000000: afc0 6a3e 9c11 a6bd
0.22925065 -0.081088275

exp_avg f4 [128, 180]
00000000: dfa5 b1b7 00a3 f53a 87e4 53b9 bf55 863b
00000010: a6ef d4b8 2a32 f0b9 fbe9 5cb9 ef2f 46b1
00000020: d2e9 5cb9 0431 99b1 d0e9 5cb9 0000 0000
00000030: d0e9 5cb9 0400 0000 d0e9 5cb9 8a44 a997
00000040: d0e9 5cb9 e026 5097 d0e9 5cb9 7f5e 0517
00000050: d0e9 5cb9 b99f 9695 d0e9 5cb9 fce2 bd8d
00000060: d0e9 5cb9 0400 0000 d0e9 5cb9 0400 0000
00000070: d0e9 5cb9 0400 0080 d0e9 5cb9 0000 0000
00000080: d0e9 5cb9 0000 0000 d0e9 5cb9 0000 0000
00000090: 4e7c 7bb8 21c1 f03a 4acd 56b9 b4fc 863b
000000a0: 716f d5b8 58db fab9 fbe9 5cb9 232c 17b2
000000b0: d2e9 5cb9 5cb6 8eb1 d0e9 5cb9 0000 0000
000000c0: d0e9 5cb9 0400 0000 d0e9 5cb9 d41b b397
000000d0: d0e9 5cb9 0825 af96 d0e9 5cb9 f5db f816
000000e0: d0e9 5cb9 879f 9296 d0e9 5cb9 190f a88d
000000f0: d0e9 5cb9 0400 0000 d0e9 5cb9 0400 0000
00000100: d0e9 5cb9 0400 0080 d0e9 5cb9 0000 0000
00000110: d0e9 5cb9 0000 0000 d0e9 5cb9 0000 0000
00000120: 165f bbb8 61f3 eb3a 39cb 4db9 6aa6 6e3b
00000130: e1bc ecb8 59ae b4b9 fde9 5cb9 12c6 8cb2
00000140: d0e9 5cb9 daa3 b1b1 d0e9 5cb9 0000 0000
00000150: d0e9 5cb9 0400 0000 d0e9 5cb9 6981 9f97
00000160: d0e9 5cb9 bfa4 3997 d0e9 5cb9 fcec e616
00000170: d0e9 5cb9 1bb4 8015 d0e9 5cb9 f8d6 908d
00000180: d0e9 5cb9 0400 0000 d0e9 5cb9 0400 0000
00000190: d0e9 5cb9 0400 0080 d0e9 5cb9 0000 0000
000001a0: d0e9 5cb9 0000 0000 d0e9 5cb9 0000 0000
000001b0: b7cc e5b8 f6c9 e73a 7578 4eb9 7c99 663b
000001c0: 4178 f1b8 02e7 4f38 fde9 5cb9 d159 afb2
000001d0: d0e9 5cb9 4c84 b2b1 d0e9 5cb9 0000 0000
000001e0: d0e9 5cb9 0400 0000 d0e9 5cb9 be37 1d18
000001f0: d0e9 5cb9 1795 2818 d0e9 5cb9 51a0 4a18
00000200: d0e9 5cb9 7e9a 6b95 d0e9 5cb9 9335 3f8d
00000210: d0e9 5cb9 0400 0000 d0e9 5cb9 0400 0000
00000220: d0e9 5cb9 0400 0080 d0e9 5cb9 0000 0000
00000230: d0e9 5cb9 0000 0000 d0e9 5cb9 0000 0000
00000240: 8951 0fb9 c4e7 e33a 0683 4fb9 08ff 5c3b
00000250: a611 f6b8 5f6a 3c39 fee9 5cb9 5d6d 94b2
00000260: d0e9 5cb9 b8cb acb1 d0e9 5cb9 0000 0000
00000270: d0e9 5cb9 0400 0080 d0e9 5cb9 9e01 cd98
00000280: d0e9 5cb9 8b91 a798 d0e9 5cb9 43b9 6e98
00000290: d0e9 5cb9 4755 a194 d0e9 5cb9 bbba 090c
000002a0: d0e9 5cb9 0400 0000 d0e9 5cb9 0400 0000
000002b0: d0e9 5cb9 0400 0080 d0e9 5cb9 0000 0000
000002c0: d0e9 5cb9 0000 0000 d0e9 5cb9 0000 0000
000002d0: 6996 97b9 f7ca a6ba b649 5238 2774 0e3b
000002e0: 9be2 1438 36db b13a c20c 9338 d395 7f33
000002f0: f40c 9338 00ca 5533 080d 9338 0000 0000
00000300: 080d 9338 0400 0000 5514 9338 697a 2535
00000310: 080d 9338 ab44 b02c 080d 9338 b069 7d2c
00000320: 080d 9338 501f c420 080d 9338 2e53 8f21
00000330: 080d 9338 0400 0000 080d 9338 0400 0000
00000340: 080d 9338 0400 0080 080d 9338 0000 0000
00000350: 080d 9338 0000 0000 080d 9338 0000 0000
00000360: 59c9 9cb9 b617 a8ba f6ea 5338 f2dc 0c3b
00000370: 231d 1738 1a6a b13a c80c 9338 8f9f 8133
00000380: f40c 9338 0a1e 5433 080d 9338 0000 0000
00000390: 080d 9338 0400 0080 1709 9338 7603 b436
000003a0: 080d 9338 3f0c 5fad 080d 9338 7870 312c
000003b0: 080d 9338 ea7f ae20 080d 9338 36eb 7e21
000003c0: 080d 9338 0400 0000 080d 9338 0400 0000
000003d0: 080d 9338 0400 0000 080d 9338 0000 0000
000003e0: 080d 9338 0000 0000 080d 9338 0000 0000
000003f0: 49fc a1b9 7364 a9ba 80b2 5538 b5d8 0a3b
-2.1177284e-05 0.0018740594 -0.00020207661 0.004099577 -0.00010153586 -0.00045813742 -0.00021068 -2.884004e-09
-0.0002106794 -4.4584585e-09 -0.00021067937 0.0 -0.00021067937 6e-45 -0.00021067937 -1.0938671e-24
-0.00021067937 -6.725749e-25 -0.00021067937 4.309389e-25 -0.00021067937 -6.0836515e-26 -0.00021067937 -1.1702669e-30
-0.00021067937 6e-45 -0.00021067937 6e-45 -0.00021067937 -6e-45 -0.00021067937 0.0
-0.00021067937 0.0 -0.00021067937 0.0 -5.995883e-05 0.0018368104 -0.00020485107 0.00411948
-0.00010177389 -0.0004784714 -0.00021068 -8.799392e-09 -0.0002106794 -4.153476e-09 -0.00021067937 0.0
-0.00021067937 6e-45 -0.00021067937 -1.1574629e-24 -0.00021067937 -2.8296145e-25 -0.00021067937 4.0205373e-25
-0.00021067937 -2.3688248e-25 -0.00021067937 -1.0357434e-30 -0.00021067937 6e-45 -0.00021067937 6e-45
-0.00021067937 -6e-45 -0.00021067937 0.0 -0.00021067937 0.0 -0.00021067937 0.0
-8.934566e-05 0.001800161 -0.0001962603 0.0036415108 -0.000112885384 -0.00034462175 -0.00021068002 -1.6388217e-08
-0.00021067937 -5.1700058e-09 -0.00021067937 0.0 -0.00021067937 6e-45 -0.00021067937 -1.0307802e-24
-0.00021067937 -5.9984663e-25 -0.00021067937 3.7308062e-25 -0.00021067937 5.1982945e-26 -0.00021067937 -8.926437e-31
-0.00021067937 6e-45 -0.00021067937 6e-45 -0.00021067937 -6e-45 -0.00021067937 0.0
-0.00021067937 0.0 -0.00021067937 0.0 -0.00010957702 0.001768409 -0.00019690565 0.0035186699
-0.000115141745 4.956779e-05 -0.00021068002 -2.0413525e-08 -0.00021067937 -5.1955222e-09 -0.00021067937 0.0
-0.00021067937 6e-45 -0.00021067937 2.0319917e-24 -0.00021067937 2.1788762e-24 -0.00021067937 2.6188827e-24
-0.00021067937 -4.7579745e-26 -0.00021067937 -5.8920907e-31 -0.00021067937 6e-45 -0.00021067937 6e-45
-0.00021067937 -6e-45 -0.00021067937 0.0 -0.00021067937 0.0 -0.00021067937 0.0
-0.00013667917 0.0017387797 -0.00019789868 0.0033721346 -0.000117334814 0.00017968703 -0.00021068004 -1.72792e-08
-0.00021067937 -5.029019e-09 -0.00021067937 0.0 -0.00021067937 -6e-45 -0.00021067937 -5.299289e-24
-0.00021067937 -4.331545e-24 -0.00021067937 -3.0854312e-24 -0.00021067937 -1.6290482e-26 -0.00021067937 1.0610288e-31
-0.00021067937 6e-45 -0.00021067937 6e-45 -0.00021067937 -6e-45 -0.00021067937 0.0
-0.00021067937 0.0 -0.00021067937 0.0 -0.0002891303 -0.0012725283 5.013655e-05 0.0021736713
3.5496992e-05 0.0013569358 7.0118826e-05 5.950808e-08 7.011919e-05 4.9776645e-08 7.0119335e-05 0.0
7.0119335e-05 6e-45 7.013293e-05 6.164542e-07 7.0119335e-05 5.0098445e-12 7.0119335e-05 3.601213e-12
7.0119335e-05 3.3224412e-19 7.0119335e-05 9.712074e-19 7.0119335e-05 6e-45 7.0119335e-05 6e-45
7.0119335e-05 -6e-45 7.0119335e-05 0.0 7.0119335e-05 0.0 7.0119335e-05 0.0
-0.00029904654 -0.0012824449 5.0525145e-05 0.0021493998 3.602834e-05 0.0013535649 7.011887e-05 6.036054e-08
7.011919e-05 4.9387417e-08 7.0119335e-05 0.0 7.0119335e-05 -6e-45 7.011199e-05 5.364821e-06
7.0119335e-05 -1.2678802e-11 7.0119335e-05 2.5215646e-12 7.0119335e-05 2.9561393e-19 7.0119335e-05 8.6369847e-19
7.0119335e-05 6e-45 7.0119335e-05 6e-45 7.0119335e-05 6e-45 7.0119335e-05 0.0
7.0119335e-05 0.0 7.0119335e-05 0.0 -0.0003089628 -0.0012923613 5.09494e-05 0.0021186296

exp_avg_sq f4 [128, 180]
00000000: e946 ea37 ce1b 3738 ff3a 5c35 3d37 523a
00000010: c4d8 3a35 57bb 173a ca2c a135 3589 1d3a
00000020: ec01 d535 bb79 8339 1fde f335 0000 0000
00000030: 6e78 f335 e00c df31 b74a f235 af14 ae34
00000040: 5b0b f335 c4b8 6e32 090a f335 fe3a 5934
00000050: 57ac f335 5417 8c30 bcb4 f335 9a4c 3b31
00000060: 3bdd f335 c685 a630 d5dd f335 8adf 5e30
00000070: 1fde f335 9119 1d29 1fde f335 0000 0000
00000080: 1fde f335 0000 0000 1fde f335 0000 0000
00000090: 87d4 e937 6ca5 3438 16e5 6035 3d57 503a
000000a0: e276 4135 20ff 153a 6160 a435 855f 203a
000000b0: 0c1a d735 ab2f 8239 4965 f635 0000 0000
000000c0: f308 f635 7166 e331 3ad3 f435 85ca c134
000000d0: 9b8f f535 44ec 7632 4a98 f535 5f6e 4734
000000e0: b132 f635 35b5 a530 073a f635 1970 2631
000000f0: 6764 f635 4ebb a630 0165 f635 0015 5f30
00000100: 4b65 f635 d841 1e29 4965 f635 0000 0000
00000110: 4965 f635 0000 0000 4965 f635 0000 0000
00000120: 24fe e937 2b7e 3238 3b24 6035 9cc0 443a
00000130: f409 4935 16d4 163a 6fbc a535 b1fe 233a
00000140: c643 da35 6c42 a939 6525 f935 0000 0000
00000150: 0eb7 f835 9fcf 0732 dc93 f735 29e1 ca34
00000160: 8e44 f835 ea3c 7f32 a73b f835 0814 6534
00000170: c3f0 f835 0b01 af30 2df9 f835 6077 2c31
00000180: 7024 f935 4824 b330 1d25 f935 9d36 6030
00000190: 6725 f935 1f7a 1d29 6525 f935 0000 0000
000001a0: 6525 f935 0000 0000 6525 f935 0000 0000
000001b0: b6e4 e937 361f 3038 1807 6735 c19d 333a
000001c0: 2dd4 5835 96a7 183a 07a6 ae35 08c5 313a
000001d0: e505 e235 9ada a439 af8e 0036 0000 0000
000001e0: 3e65 0036 588f 0532 71cf fe35 f515 4635
000001f0: 15f1 ff35 6129 8132 53f6 ff35 e896 5934
00000200: 4a4d 0036 6274 c430 6256 0036 48d3 9331
00000210: 168e 0036 70f2 bb30 788e 0036 994e 7630
00000220: af8e 0036 eacc 2029 af8e 0036 0000 0000
00000230: af8e 0036 0000 0000 af8e 0036 0000 0000
00000240: 835d e837 c7ad 2d38 bb1e cc36 b471 2c3a
00000250: 1710 ce36 9e9a 1d3a a6bf df36 c22d 303a
00000260: 4719 ec36 b36d 8539 50fa f536 0000 0000
00000270: 5fdf f536 f4c4 3632 88e3 f336 a2e0 8b35
00000280: abee f336 7d3c 2735 8a22 f436 5fbc 1136
00000290: ae01 f536 9872 2f32 8c30 f536 e08e 6633
000002a0: 07fa f536 c391 cf30 34fa f536 d542 7e30
000002b0: 50fa f536 676b 2929 50fa f536 0000 0000
000002c0: 50fa f536 0000 0000 50fa f536 0000 0000
000002d0: 85e7 7338 c916 5139 ab03 ac35 fc49 303b
000002e0: bcb2 ad35 f272 193b fedd c035 5c9a e13a
000002f0: 6a7e 0236 7422 bd39 c9e2 4036 0000 0000
00000300: c9e2 4036 13f4 c32c 215b 4036 4ea6 0f34
00000310: 3322 4036 0708 8f31 b636 4036 91a3 ba33
00000320: c566 4036 4f76 9032 e1c6 4036 e1c3 6733
00000330: c9e2 4036 72bf 5d25 c9e2 4036 27a7 c11a
00000340: c9e2 4036 5fbc 9c0d c9e2 4036 0000 0000
00000350: c9e2 4036 0000 0000 c9e2 4036 0000 0000
00000360: 9776 7838 4cdc 5539 d7e6 ad35 86fa 343b
00000370: 255f b135 40c5 203b 9ba3 be35 b986 e03a
00000380: 1e7b 0236 0006 ac39 83b8 4136 0000 0000
00000390: 83b8 4136 6234 c32c 7332 4136 132b ff33
000003a0: 68ef 4036 08bd 3f32 470a 4136 5c55 be33
000003b0: 7f3a 4136 701c 9132 0c9b 4136 74d5 6833
000003c0: 83b8 4136 2f6d 5325 83b8 4136 80bf c11a
000003d0: 83b8 4136 313a 950d 83b8 4136 0000 0000
000003e0: 83b8 4136 0000 0000 83b8 4136 0000 0000
000003f0: 8789 7c38 cc9c 5a39 1027 9335 1f8e 333b
2.7927994e-05 4.3656495e-05 8.204224e-07 0.00080190954 6.9605835e-07 0.00057881087 1.200847e-06 0.000600952
1.5870296e-06 0.00025076963 1.8169557e-06 0.0 1.813996e-06 6.491618e-09 1.805215e-06 3.2425075e-07
1.8108216e-06 1.3895434e-08 1.8107831e-06 2.0231161e-07 1.8155068e-06 1.0192971e-09 1.8157511e-06 2.7255624e-09
1.8169297e-06 1.211611e-09 1.8169472e-06 8.10808e-10 1.8169557e-06 3.4883178e-14 1.8169557e-06 0.0
1.8169557e-06 0.0 1.8169557e-06 0.0 2.787473e-05 4.3069405e-05 8.3779867e-07 0.000794757
7.20711e-07 0.00057219155 1.2247002e-06 0.0006117749 1.6026329e-06 0.00024831048 1.8357906e-06 0.0
1.8331033e-06 6.6182158e-09 1.8240892e-06 3.6096404e-07 1.8295717e-06 1.4372805e-08 1.8298244e-06 1.8573472e-07
1.8343181e-06 1.2056832e-09 1.8345316e-06 2.42199e-09 1.8357649e-06 1.2131325e-09 1.8357824e-06 8.115677e-10
1.8357908e-06 3.5140158e-14 1.8357906e-06 0.0 1.8357906e-06 0.0 1.8357906e-06 0.0
2.7894108e-05 4.255601e-05 8.3499225e-07 0.00075055077 7.489282e-07 0.0005753649 1.2348299e-06 0.00062559085
1.626199e-06 0.0003228368 1.8562829e-06 0.0 1.8530716e-06 7.905242e-09 1.8445967e-06 3.7789258e-07
1.8497392e-06 1.4856804e-08 1.8494801e-06 2.1334574e-07 1.8547511e-06 1.2733222e-09 1.854996e-06 2.509715e-09
1.856255e-06 1.3034276e-09 1.8562747e-06 8.1568335e-10 1.8562831e-06 3.4966926e-14 1.8562829e-06 0.0
1.8562829e-06 0.0 1.8562829e-06 0.0 2.7882266e-05 4.1990737e-05 8.606453e-07 0.0006851815
8.0775027e-07 0.0005823312 1.301233e-06 0.0006781374 1.6840028e-06 0.00031443388 1.915654e-06 0.0
1.9132417e-06 7.7742115e-09 1.8984848e-06 7.37927e-07 1.9069145e-06 1.5036393e-08 1.907067e-06 2.0264599e-07
1.9118474e-06 1.4293955e-09 1.9123768e-06 4.302283e-09 1.9156191e-06 1.3674946e-09 1.9156414e-06 8.960597e-10
1.915654e-06 3.570487e-14 1.915654e-06 0.0 1.915654e-06 0.0 1.915654e-06 0.0
2.77001e-05 4.1408257e-05 6.0832513e-06 0.00065782224 6.1411515e-06 0.00060121145 6.6682287e-06 0.00067206856
7.0362908e-06 0.0002544947 7.330709e-06 0.0 7.327573e-06 1.0638576e-08 7.2684525e-06 1.0421684e-06
7.269749e-06 6.230037e-07 7.2757875e-06 2.171633e-06 7.3017645e-06 1.0212396e-08 7.3072206e-06 5.3680992e-08
7.330676e-06 1.510266e-09 7.3306965e-06 9.2499636e-10 7.330709e-06 3.7618695e-14 7.330709e-06 0.0
7.330709e-06 0.0 7.330709e-06 0.0 5.8151334e-05 0.00019940281 1.2816066e-06 0.0026899567
1.2941523e-06 0.002341446 1.4369723e-06 0.001721214 1.9445092e-06 0.0003607456 2.8742236e-06 0.0
2.8742236e-06 5.569331e-12 2.8663273e-06 1.3378414e-07 2.8630136e-06 4.1627604e-09 2.8642075e-06 8.6910525e-08
2.867005e-06 1.6817607e-08 2.8725992e-06 5.396203e-08 2.8742236e-06 1.9233559e-16 2.8742236e-06 8.009298e-23
2.8742236e-06 9.659591e-31 2.8742236e-06 0.0 2.8742236e-06 0.0 2.8742236e-06 0.0
5.9238253e-05 0.0002039533 1.2956688e-06 0.0027615144 1.3215218e-06 0.0024531633 1.4203719e-06 0.0017129994
1.9443173e-06 0.00032810867 2.886664e-06 0.0 2.886664e-06 5.548049e-12 2.8788606e-06 1.1882198e-07
2.8749582e-06 1.1160644e-08 2.8765223e-06 8.863091e-08 2.879329e-06 1.6893154e-08 2.884949e-06 5.4210844e-08
2.886664e-06 1.8338326e-16 2.886664e-06 8.0132314e-23 2.886664e-06 9.196843e-31 2.886664e-06 0.0
2.886664e-06 0.0 2.886664e-06 0.0 6.0209564e-05 0.00020848511 1.0963722e-06 0.0027397943

exp_avg f4 [128]
00000000: d0e9 5cb9 050d 9338 e0bb ba39 3420 2bb8
00000010: ca98 b3a1 5b48 c815 fed9 361b 7904 29ba
00000020: 8d14 0b3a 2cf1 5db9 b2ba 6b39 4835 ce27
00000030: 6532 1839 df37 e32e a72a 752f c663 093a
00000040: 1177 0230 5e45 383a fd74 ca15 9f9f 9322
00000050: b577 a837 fa8d 8119 1842 c49b 882c 149e
00000060: 31a7 0539 4cac a99b 4978 6bb9 3a1a 7311
00000070: dda7 23ba 0aa2 d898 6aac deb9 9662 2a1b
00000080: 1977 4fb9 73fe 401b 1031 25ba 5247 91ad
00000090: 9680 bb39 53ae f8b3 a46f a718 f129 71b3
000000a0: e634 1f23 3866 291e 9a48 62b7 4d4a bdae
000000b0: 20b1 ddb0 da6b 0c39 5b62 f939 3f2e e3b8
000000c0: 9cb7 021a c87d 7638 4718 dc26 6f18 a51a
000000d0: 8810 1cb9 7ae3 bf2f ef09 fa38 0b71 87a4
000000e0: 606f b5b9 a42f a137 492d cab1 7cf9 c230
000000f0: 264a 5031 03c1 953a 5277 0fa0 8381 a931
00000100: a232 0f39 f1c4 1e39 8dba 6530 d402 35ba
00000110: 69ec 8c2d 2e91 3938 6fd8 abaf a1ed fcb9
00000120: 2c50 74af 8186 adaf de9c c2ba 810d 4b39
00000130: 3681 13a9 5b22 d62a b897 c329 a8eb caaa
00000140: bb60 c4b3 dcc0 ba1a 2c8d b8ab 343b 3dba
00000150: 4df7 e919 fb9d f32f 3126 0530 c83b 9db0
00000160: 3821 a930 141e d630 93b6 a6b9 58f9 0ca7
00000170: 2b0b 14a6 7241 f52b 5351 e4b9 7558 912c
00000180: a1d2 2dba c7b1 2529 086c a034 0ad7 8a9a
00000190: 602b 0938 33b5 bd1b 6983 eeaf bd12 53b9
000001a0: 3229 7e38 b3da f026 5e6f 2bb9 8603 d539
000001b0: 454c 1e9d 333c ae28 9052 b7af aee1 0a3a
000001c0: f4f0 4414 d9f5 9c36 a4ad ca2f b008 a4b3
000001d0: f5c1 64a9 daaf 31b9 0e53 f3b9 740f db9a
000001e0: e83b 4c24 c875 8eba e5ad a639 ef0b 361b
000001f0: 9474 d638 aa0f 4b18 8190 c124 a378 7039
-0.00021067937 7.011931e-05 0.00035616662 -4.079957e-05 -1.2169955e-18 8.0893513e-26 1.5125124e-22 -0.0006447505
0.00053054915 -0.00021166046 0.00022480896 5.7234253e-15 0.00014514623 1.03326896e-10 2.2297773e-10 0.00052410027
4.746293e-10 0.00070293795 8.1771725e-26 4.0013435e-18 2.0082904e-05 1.3395631e-23 -3.2468192e-22 -7.844264e-21
0.00012746152 -2.807005e-22 -0.00022456156 1.9177402e-28 -0.000624297 -5.599831e-24 -0.00042471598 1.4093925e-22
-0.00019785426 1.5964085e-22 -0.00063015614 -1.6516264e-11 0.00035763223 -1.1580109e-07 4.3281216e-24 -5.615033e-08
8.630609e-18 8.967924e-21 -1.3487554e-05 -8.6079234e-11 -1.6130208e-09 0.00013391618 0.00047566261 -0.000108328175
2.7031688e-23 5.8768113e-05 1.5272147e-15 6.8281875e-23 -0.00014883478 3.490433e-10 0.00011922779 -5.873842e-17
-0.0003460599 1.921488e-05 -5.884122e-09 1.4186265e-09 3.0310132e-09 0.001142532 -1.2152051e-19 4.933271e-09
0.00013656405 0.0001514142 8.357482e-10 -0.00069050235 1.6021144e-11 4.4242646e-05 -3.1258504e-10 -0.00048242233
-2.2220153e-10 -3.1564087e-10 -0.0014847775 0.00019364619 -3.275263e-14 3.8037875e-13 8.6860586e-14 -3.6045928e-13
-9.1445564e-08 7.723938e-23 -1.3113169e-12 -0.00072186 2.419152e-23 4.4313694e-10 4.843939e-10 -1.1440244e-09
1.230581e-09 1.5579098e-09 -0.00031798016 -1.9564072e-15 -5.136295e-16 1.7426462e-12 -0.0004354814 4.1309686e-12
-0.00066308124 3.6791557e-14 2.9880925e-07 -5.7422877e-23 3.270374e-05 3.1384524e-22 -4.338532e-10 -0.00020129509
6.0596685e-05 1.6712624e-15 -0.00016349318 0.0004062915 -2.0950556e-21 1.9343988e-14 -3.334617e-10 0.0005297911
9.942991e-27 4.6777827e-06 3.6866965e-10 -7.6384254e-08 -5.07944e-14 -0.00016945545 -0.00046410452 -9.060124e-23
4.428619e-17 -0.0010868842 0.0003179155 1.5058543e-22 0.000102260296 2.6245043e-24 8.394521e-17 0.00022933124

exp_avg_sq f4 [128]
00000000: 50fa f536 8a02 4836 c9b3 e636 5808 df37
00000010: 8f27 c234 f603 3e2d 383e a533 1bb6 2938
00000020: b892 2b37 2336 5a37 6714 c737 3857 ad37
00000030: 0f34 4d37 5ccc 1d35 e41a 9737 4a31 1038
00000040: c607 0e34 fb18 0837 29e1 9b31 4ac1 3234
00000050: e824 5436 a534 2632 a61b 0833 7d84 f931
00000060: 7eb9 4937 1db2 8c34 dfbe f336 7a2d c126
00000070: ef6e d836 4700 2632 6c48 d637 c710 2533
00000080: 63c6 0a36 662d 6733 1c1f 9236 d0da 9b35
00000090: 3aa7 e736 d054 6833 e6e4 902e 4d99 0f37
000000a0: 08e5 8230 5c68 9837 998c dc36 20ce fd34
000000b0: 006a 3f35 6774 7537 7864 7c37 a0a5 cb36
000000c0: 32da d330 c42f 1137 92f2 0435 0937 7232
000000d0: e5de 3837 aab2 5c35 10f5 e636 f4c6 0834
000000e0: f0af 2336 75c4 2636 5e06 3b34 a141 c735
000000f0: 7791 3735 adca 8736 b40a f733 4a1e 0738
00000100: a89f ab36 5a22 0f37 9065 1437 8f25 9336
00000110: c735 4735 2430 1036 90cb 8135 a17d 7836
00000120: 5f04 5c33 b2ec c935 7e58 3a37 02ba 2837
00000130: 100a 7c35 6800 ef33 3ea6 4334 db72 a135
00000140: 56f6 a736 88c0 2b33 636f 1833 6fbb 6437
00000150: 8dd6 9430 77e7 9635 85f9 1d35 973e 0636
00000160: 278d f134 3fa7 7335 b7ab 4e37 29e3 1d34
00000170: 8cb3 3e34 3d2c f434 a51b 1137 dd91 1e33
00000180: 19f0 c536 de2a a036 3c78 8335 db42 9332
00000190: 95dd 3135 5a69 3a34 159d f735 b9cc 9c36
000001a0: 2847 9236 2c4c 8e36 85f3 9c35 6523 6f36
000001b0: 13da c236 6610 0235 cf88 8f36 5d0c 8537
000001c0: 34a9 2632 93e3 a135 d3d9 fb34 9d6c ff34
000001d0: 8dfd 1e34 8d38 7235 9406 3b37 9335 9534
000001e0: 123f 6834 c08a 1b37 ac62 4e35 bd5e 9233
000001f0: b41f 4836 d6ab 9d31 1b91 dc33 6b2e 9135
7.330709e-06 2.98038e-06 6.875464e-06 2.6587557e-05 3.6164099e-07 1.0801129e-11 7.694729e-08 4.046234e-05
1.0226555e-05 1.3006417e-05 2.373215e-05 2.0663821e-05 1.2231073e-05 5.878444e-07 1.8013125e-05 3.437818e-05
1.3227609e-07 8.112048e-06 4.5366915e-09 1.664786e-07 3.1611944e-06 9.674442e-09 3.1690114e-08 7.261916e-09
1.2023722e-05 2.6206627e-07 7.2641847e-06 1.3404392e-15 6.450216e-06 9.662535e-09 2.5544512e-05 3.8432315e-08
2.0679079e-06 5.382517e-08 4.3547607e-06 1.1612083e-06 6.903804e-06 5.4093846e-08 6.5890224e-11 8.559157e-06
9.52384e-10 1.8168408e-05 6.5728786e-06 4.7274898e-07 7.1307295e-07 1.463024e-05 1.5043763e-05 6.0691527e-06
1.5414285e-09 8.653795e-06 4.952682e-07 1.40987675e-08 1.1019151e-05 8.2216377e-07 6.883063e-06 1.2738366e-07
2.4391302e-06 2.485028e-06 1.7418049e-07 1.4845756e-06 6.838449e-07 4.046908e-06 1.1503781e-07 3.2214717e-05
5.1147836e-06 8.531462e-06 8.845134e-06 4.385314e-06 7.4211533e-07 2.1485694e-06 9.670493e-07 3.7028005e-06
5.1226717e-08 1.5044554e-06 1.1107068e-05 1.0056889e-05 9.389196e-07 1.1129379e-07 1.8221269e-07 1.2028862e-06
5.005665e-06 3.9989146e-08 3.5491563e-08 1.3633499e-05 1.0829396e-09 1.1243236e-06 5.8850156e-07 2.0003988e-06
4.499245e-07 9.076793e-07 1.2318537e-05 1.4704405e-07 1.7760448e-07 4.548073e-07 8.64911e-06 3.6919904e-08
5.8990086e-06 4.773362e-06 9.795253e-07 1.7143455e-08 6.626008e-07 1.7360927e-07 1.8448651e-06 4.672995e-06
4.3594227e-06 4.2407974e-06 1.1693779e-06 3.5634378e-06 5.8070377e-06 4.8452637e-07 4.2776587e-06 1.5860593e-05
9.700944e-09 1.2061668e-06 4.691088e-07 4.7576478e-07 1.4807138e-07 9.023432e-07 1.11476e-05 2.7792393e-07
2.1629629e-07 9.271025e-06 7.6884567e-07 6.8158876e-08 2.9820776e-06 4.588837e-09 1.0270943e-07 1.0816851e-06
