results/physicomimetics/DroneAgent/DroneAgent-5685.onnx (onnx, 100664 bytes, 7 tensors)

network_body._body_endoder.seq_layers.0.weight f4 [128, 56]
0.00957535 -0.07662297 -0.025776261 0.04677907 0.12113696 -0.1412251 -0.113488294 -0.042787615
0.13815483 -0.2032933 -0.22882928 0.032613423 0.00023009894 0.07484107 0.083255045 -0.019565845
-0.022782369 0.09002222 -0.040978584 -0.11080853 -0.015192887 0.2542769 -0.022726357 0.04566508
-0.07080943 0.09080334 0.0861129 -0.12335207 0.03021614 -0.049460202 0.07789443 -0.20710653
-0.06810871 0.3486529 0.060108714 -0.050236452 0.07407364 0.08186985 0.052865714 -0.26449344
0.027259411 -0.0061631673 0.11212178 -0.046027504 -0.01599381 0.055092286 -0.003765996 -0.14236258
0.019060733 0.08834474 -0.029039932 -0.008221597 -0.117912374 0.074744485 0.012935842 0.044666823
-0.019992564 0.28693148 -0.02043121 -0.0007203328 -0.06281921 -0.13789 0.046795838 0.0051313336
0.20566821 0.044405393 0.08074357 -0.12015017 -0.16646625 -0.0015834579 0.038771413 0.21827155
-0.062421147 0.044915587 0.087377675 0.020135278 -0.12900607 -0.017969873 -0.36201447 0.114702426
0.28321695 0.29624996 0.118788324 -0.2989709 0.08251146 -0.18229309 -0.08203207 0.042882066
0.09513999 -0.05280251 0.060497526 -0.07704526 -0.04813351 0.0816231 -0.14030409 0.06041649
0.03277909 -0.15341452 0.03757197 -0.053736124 -0.080472186 0.1467283 0.014596641 -0.037847754
-0.064165324 0.088835396 0.20766346 -0.0625969 0.028984485 -0.21153454 -0.25582233 -0.18758835
0.01927767 -0.108586036 0.021529395 0.009206325 -0.13263173 0.032856096 0.12449729 0.020639936
-0.31060457 -0.013995718 -0.0030992194 0.2149181 0.024603937 0.03870972 -0.060690615 0.07896975
0.048141442 -0.08825156 -0.18259783 0.0017879744 0.032867793 0.015760295 -0.065611355 0.049629573
-0.29280308 -0.026471747 0.10400182 -0.0963475 0.14206831 0.009065926 0.26250842 -0.2275713
-0.00030356317 0.20401812 0.20072536 0.1974048 0.013860283 0.17635456 -0.049822297 0.023381168
-0.2996656 -0.004102876 -0.25733957 0.123051934 -0.10669635 0.017316803 0.08531544 -0.030232962
-0.22539552 0.16129224 0.28561014 -0.18842565 -0.06538732 0.2064189 0.03270726 -0.34689486
-0.14469083 0.1236694 -0.060937457 0.15981282 -0.14925238 -0.06488883 -0.15008561 -0.04792021
-0.08525011 -0.05254676 0.110339865 0.02712366 -0.008869459 -0.020257587 0.08549847 -0.010093403
-0.27197886 0.19170867 0.036152177 -0.0019233753 -0.11399521 -0.085852735 -0.14200832 -0.07077375
-0.022927105 0.05770618 -0.0205805 -0.023918185 0.08246726 -0.17792735 -0.118796825 -0.021626575
0.088258676 -0.2426101 -0.015500302 0.109062076 -0.050269917 -0.12173773 0.080024354 -0.0048579755
0.011815255 -0.02241737 0.2199823 0.08188637 -0.051322285 0.03930713 0.17186181 -0.028394898
0.054446626 0.094461314 -0.18715507 -0.097885095 0.07873105 0.069704816 -0.006275218 -0.12319055
-0.08983318 0.05027718 -0.049403783 0.028573506 0.16464858 0.055448774 0.23481666 -0.072560854
-0.07443741 0.06625338 -0.0005293704 0.16452764 -0.021505147 0.15549795 -0.11308477 -0.017227544
-0.061246283 -0.2643841 -0.11307428 0.10336735 0.031137569 -0.22466415 0.045948993 -0.05633293
0.11172185 -0.12997411 0.10170164 0.25770777 -0.07761152 -0.06447892 0.008260129 -0.09721308
00000000: eee1 1c3c 81ec 9cbd bd28 d3bc 699b 3f3d
00000010: a816 f83d 509d 10be 8d6c e8bd 1142 2fbd
00000020: 7678 0d3e 1e2c 50be 3952 6abe a795 053d
00000030: b746 7139 4646 993d 9f81 aa3d 8d48 a0bc
00000040: 17a2 babc 925d b83d 29d9 27bd 95ef e2bd
00000050: 96eb 78bc 9530 823e a02c babc 4f0b 3b3d
00000060: 8904 91bd 1af7 b93d f65b b03d 03a0 fcbd
00000070: d787 f73c c896 4abd 1d87 9f3d bc13 54be
00000080: 947c 8bbd a282 b23e 8e34 763d bdc4 4dbd
00000090: ecb3 973d 61ab a73d b889 583d af6b 87be
000000a0: 214f df3c 65f4 c9bb 1ba0 e53d 5687 3cbd
000000b0: 7305 83bc 73a8 613d eece 76bb 7fc7 11be
000000c0: 4125 9c3c 16ee b43d 27e5 edbc e1b3 06bc
000000d0: 0b7c f1bd a313 993d dbf0 533c 8ff4 363d
000000e0: 72c7 a3bc afe8 923e 5a5f a7bc b7d4 3cba
000000f0: 5ca7 80bd 0933 0dbe feac 3f3d bf24 a83b
00000100: b09a 523e 6ee2 353d e35c a53d 4b11 f6bd
00000110: 2176 2abe 088c cfba c6ce 1e3d 9482 5f3e
00000120: 51ad 7fbd 68f9 373d 11f3 b23d bdf2 a43c
00000130: 2b1a 04be 8e35 93bc f659 b9be 1be9 ea3d
00000140: d001 913e 13ae 973e 4b47 f33d b712 99be
00000150: c5fb a83d 0aab 3abe 6e00 a8bd 1ba5 2f3d
00000160: c1d8 c23d 7247 58bd 41cc 773d e8c9 9dbd
00000170: a527 45bd 032a a73d e0ab 0fbe 4877 773d
00000180: 5e43 063d b218 1dbe 11e5 193d 691a 5cbd
00000190: 9ace a4bd f23f 163e c026 6f3c 3f06 1bbd
000001a0: 1c69 83bd 55ef b53d bba5 543e ce32 80bd
000001b0: df70 ed3c 839c 58be 25fb 82be 2917 40be
000001c0: 34ec 9d3c 5b62 debd 6a5e b03c 20d6 163c
000001d0: 9dd0 07be 1d94 063d 6ff8 fe3d 1515 a93c
000001e0: 9007 9fbe 4c4e 65bc 461c 4bbb 7e13 5c3e
000001f0: 328e c93c 158e 1e3d b996 78bd e4ba a13d
00000200: f62f 453d 3cbd b4bd edfa 3abe 775a ea3a
00000210: 61a0 063d bc1b 813c 3f5f 86bd 6148 4b3d
00000220: 49ea 95be 47db d8bc e8fe d43d d751 c5bd
00000230: 5b7a 113e 4089 143c 8167 863e 7308 69be
00000240: 8f27 9fb9 20ea 503e f38a 4d3e 7c24 4a3e
00000250: 3e16 633c 4a96 343e 7712 4cbd dd89 bf3c
00000260: c56d 99be 6b71 86bb 03c2 83be a702 fc3d
00000270: 9e83 dabd f8db 8d3c ddb9 ae3d 1eab f7bc
00000280: 15ce 66be cb29 253e 7e3b 923e a7f2 40be
00000290: cae9 85bd 7a5f 533e 0cf8 053d 349c b1be
000002a0: d529 14be 6246 fd3d 8e99 79bd f9a5 233e
000002b0: 9ed5 18be 6fe4 84bd 0bb0 19be fb47 44bd
000002c0: 9c97 aebd 453b 57bd def9 e13d 7032 de3c
000002d0: 3551 11bc 3df3 a5bc d219 af3d cd5e 25bc
000002e0: d040 8bbe 474f 443e 4e14 143d c419 fcba
000002f0: 5276 e9bd 8fd3 afbd a16a 11be d4f1 90bd
00000300: a0d1 bbbc 515d 6c3d 7098 a8bc 12f0 c3bc
00000310: 98e4 a83d 9632 36be c04b f3bd 372a b1bc
00000320: f7c0 b43d c86e 78be fbf4 7dbc f05b df3d
00000330: d4e7 4dbd a251 f9bd cfe3 a33d a72f 9fbb
00000340: c594 413c a2a4 b7bc 0a43 613e 0bb4 a73d
00000350: 5137 52bd 8300 213d 8bfc 2f3e 6b9c e8bc
00000360: 6d03 5f3d ef74 c13d 94a5 3fbe fb77 c8bd
00000370: bf3d a13d 66c1 8e3d 58a0 cdbb 544b fcbd
00000380: 75fa b7bd 72ef 4d3d 9f5b 4abd fc12 ea3c
00000390: a399 283e 411e 633d c773 703e c99a 94bd
000003a0: a472 98bd daaf 873d 72c5 0aba ef79 283e
000003b0: 902b b0bc db3a 1f3e fd98 e7bd c720 8dbc
000003c0: 62dd 7abd 5a5d 87be 7d93 e7bd 43b2 d33d
000003d0: 3714 ff3c 5c0e 66be 0335 3c3d 5cbd 66bd
000003e0: 6dce e43d ef17 05be f348 d03d 46f2 833e
000003f0: caf2 9ebd 860d 84bd 7e55 073c a717 c7bd

network_body._body_endoder.seq_layers.0.bias f4 [128]
-0.010656376 0.0007846136 0.00093914586 0.000918045 0.0026430537 -0.00025799888 -0.00066571654 0.0032258602
0.0041903136 -0.000770722 0.008455468 -0.004223385 0.0015093276 -0.0029136562 -0.00555035 0.0071505466
-0.010535842 -0.005287875 -0.01229159 -0.010045823 -0.0002517217 -0.0112042045 -0.004340646 0.00085510843
-0.004280583 -0.012831689 0.0015708156 -0.0055900696 -0.0060090437 -0.0031574639 -0.0051476588 -0.004842899
0.0010757956 -0.011881354 -0.002725288 0.009372601 -0.0013933424 0.0011358955 -0.005037205 -0.00023809346
0.0001892265 -0.003173795 -0.0035625906 -0.0075230873 -0.006430965 -0.0062197945 0.0026835501 -0.00020076321
-0.0020446093 -5.459604e-05 -0.007068943 -0.0015341373 -0.00030525684 -0.0025031646 0.0049409186 -0.0050789453
-0.0050960314 -0.0017132027 -0.004262314 -0.005940421 0.00464622 0.007450751 0.0010331079 -0.01026515
-0.004744927 -0.008669408 -0.0064198636 -0.012621799 -0.00069181586 -0.0015228916 0.003973962 0.0077017373
0.002041203 0.0016930364 0.002412362 -0.0024550112 -0.0029767551 -0.0139186755 -0.0022700548 -0.0005730945
-0.0025356414 0.0053441543 0.0087891575 -0.006276909 -0.0010261043 -0.0034348373 -0.0028674053 0.0013731106
-0.0016131339 -0.0009264146 -0.0015753806 -0.005266584 0.001455174 -0.002728213 -0.000618568 0.00939048
-0.015746666 -0.0019584622 0.0007978268 -0.0022164974 -0.012991329 -0.003129435 -0.0037944065 -0.009835473
-0.012394282 -0.00081098225 -0.0005739185 0.008085444 0.0063999 -0.0063280733 -0.00015652843 -0.0063475785
-0.0048933933 0.002846485 -0.013432794 0.0035480876 -0.00417158 -0.0026875834 -0.022088068 -0.0051900777
-0.00785651 0.0116306115 0.00427523 -0.00055879937 -0.0019760071 -0.015960926 -0.0025848208 -0.0054788846
00000000: 1598 2ebc 87ae 4d3a 0331 763a f5a8 703a
00000010: 1537 2d3b 0644 87b9 7b83 2eba f468 533b
00000020: e64e 893b 470a 4aba ce88 0a3c 5264 8abb
00000030: a1d4 c53a 0af3 3ebb b6df b5bb 224f ea3b
00000040: 869e 2cbc e945 adbb aa62 49bc 3c97 24bc
00000050: 84f9 83b9 d791 37bc fa3b 8ebb 5b29 603a
00000060: 2244 8cbb 013c 52bc d3e3 cd3a e72c b7bb
00000070: 83e7 c4bb 74ed 4ebb b1ad a8bb 2eb1 9ebb
00000080: b601 8d3a 03aa 42bc bf9a 32bb 8a8f 193c
00000090: d0a0 b6ba 54e2 943a 230f a5bb baa8 79b9
000000a0: 1a6b 4639 72ff 4fbb 5a7a 69bb 3b84 f6bb
000000b0: d8ba d2bb 6bcf cbbb 80de 2f3b f783 52b9
000000c0: dafe 05bb 0dfe 64b8 98a2 e7bb 1b15 c9ba
000000d0: e10a a0b9 220c 24bb 6ee7 a13b 486d a6bb
000000e0: 9cfc a6bb 8b8d e0ba e2aa 8bbb dda7 c2bb
000000f0: 513f 983b 6e25 f43b 5969 873a 292f 28bc
00000100: 557b 9bbb 220a 0ebc b85d d2bb a9cb 4ebc
00000110: fa5a 35ba c39b c7ba 0238 823b db5e fc3b
00000120: b4c5 053b e0e8 dd3a b818 1e3b 41e4 20bb
00000130: aa15 43bb 280b 64bc 33c5 14bb b93b 16ba
00000140: 012d 26bb 041e af3b 6600 103c 87ae cdbb
00000150: 597e 86ba 021b 61bb 14eb 3bbb f2f9 b33a
00000160: cb6f d3ba a2da 72ba 007d ceba 4f93 acbb
00000170: 89bb be3a d2cb 32bb 6527 22ba 87da 193c
00000180: 27ff 80bc 8b59 00bb 4025 513a a842 11bb
00000190: 95d9 54bc 3517 4dbb 94ab 78bb f724 21bc
000001a0: 6311 4bbc 1998 54ba 0573 16ba cf78 043c
000001b0: 41b6 d13b ba5b cfbb c821 24b9 59ff cfbb
000001c0: c258 a0bb 188c 3a3b 3915 5cbc 0887 683b
000001d0: c0b1 88bb 2b22 30bb 09f2 b4bc 8711 aabb
000001e0: 97b8 00bc 528e 3e3c 3b17 8c3b 647c 12ba
000001f0: e67f 01bb 7dc0 82bc 1966 29bb 3788 b3bb

network_body._body_endoder.seq_layers.2.weight f4 [128, 128]
-0.10898547 -0.05193291 -0.15590118 -0.09225668 -0.14925379 -0.11868424 0.004553927 -0.10779
-0.11869802 -0.0024951063 -0.081257604 -0.07908435 0.0030561504 0.015189025 0.0060914904 -0.07729232
0.20970474 -0.04426152 -0.023705661 -0.030609943 0.0354981 0.108197086 -0.090236664 -0.002892888
-0.052195556 -0.10418654 -0.009901429 0.0069050887 0.14446414 0.027229853 -0.09213179 -0.023694782
-0.021736346 0.086464055 -0.17920454 -0.13424626 0.023802103 0.0013087132 -0.017462501 -0.029021597
-0.048862502 0.04896428 0.12068062 -0.060585137 -0.0319091 -0.078520246 0.113729455 0.04075531
0.032052975 -0.13452177 0.002830231 -0.13447104 -0.04895701 -0.0032616626 0.00015995641 0.12002357
0.017875608 0.0060293544 -0.016039992 0.015065552 -0.063284464 0.14723928 0.04799616 -0.12745689
-0.0011165965 -0.15205695 -0.08310892 0.24766861 -0.033069767 0.05541254 0.039037976 0.037348438
0.0741114 -0.031901833 -0.06815971 0.101539545 -0.098373525 0.05774041 0.1717768 0.14289747
-0.09112585 -0.10156966 0.010094423 -0.012842237 0.04644319 0.050113138 -0.017397754 -0.00016090188
0.008372331 -0.080131896 0.03182066 -0.077919945 0.0025842914 -0.09749446 0.034023214 -0.026479067
0.23777604 -0.22121581 -0.12342011 0.02900667 -0.06556109 -0.03298221 -0.016907021 0.0093651675
-0.15699778 0.13651213 -0.104771666 -0.029609112 0.048887018 0.13940552 -0.054040335 0.05217384
-0.03873221 0.009567175 -0.12551163 0.031267326 0.09604923 0.02483433 -0.010547465 -0.0026911034
-0.07017021 -0.08945273 -0.080041856 -0.009876017 0.12468059 0.012040693 0.08875084 0.06578951
-0.01794651 0.066290714 0.056715835 0.11252573 0.069191545 0.12019799 0.15316871 -0.14046662
0.16811647 -0.09329672 0.025360692 0.015100275 -0.03308314 -0.06967228 0.07049208 0.09164835
-0.13278705 -0.103715695 0.0346763 -0.040265273 0.10782914 -0.047773175 0.04699273 0.03469758
-0.06212884 -0.02676628 -0.013779512 0.081800714 -0.0853466 -0.030039933 0.14215848 0.007244931
-0.07412128 -0.11734724 0.0066842926 0.002807948 0.03274448 -0.040519416 0.04613784 -0.019161418
0.16971181 -0.063373804 0.06865911 0.03231702 -0.12689577 0.09182292 -0.026888575 -0.03368715
0.022907346 0.058693126 0.036306325 0.032702662 0.041930385 0.051699307 -0.15772168 0.08766633
-0.10416523 0.10668887 0.11937837 -0.054715976 -0.03128203 0.2061528 -0.21556109 -0.04724615
-0.11099321 -0.055257756 0.10286528 0.06252118 0.022817187 -0.07684939 0.061516907 -0.042373184
0.09845291 -0.045199204 -0.039475836 0.020138094 -0.050958373 -0.034984056 0.0052500935 0.118283905
-0.034811076 -0.12468928 0.1914208 0.01459734 0.003987845 0.10193808 0.03500029 0.04355014
-0.028996391 -0.040654793 0.06545568 0.0029595452 0.16975464 -0.08262777 0.056516033 0.073002145
-0.040405564 0.10399711 -0.015136111 -0.09461374 -0.087295584 0.03010422 0.17667001 0.025833167
-0.056639947 0.0058615995 -0.11168727 0.027544627 0.053743657 -0.03645039 0.08484153 -0.047128458
-0.09533585 0.06432787 0.0761617 -0.0070725325 0.0604819 0.058045775 0.045924615 -0.062442463
0.09325048 0.11509104 -0.079215966 0.011271132 -0.01716851 0.014841094 -0.23805773 -0.13756756
00000000: c633 dfbd 9ab7 54bd 8fa4 1fbe 12f1 bcbd
00000010: fcd5 18be b910 f3bd 1c39 953b 01c1 dcbd
00000020: f317 f3bd f084 23bb 636a a6bd faf6 a1bd
00000030: b249 483b 63db 783c 209b c73b 704b 9ebd
00000040: d7bc 563e 914b 35bd 6032 c2bc b4c1 fabc
00000050: 7566 113d 6f96 dd3d 00ce b8bd 9b96 3dbb
00000060: 02cb 55bd c15f d5bd 9a39 22bc 1544 e23b
00000070: 68ee 133e 2411 df3c 98af bcbd 8f1b c2bc
00000080: 6c10 b2bc 1114 b13d 6581 37be da77 09be
00000090: a1fc c23c 2189 ab3a 850d 8fbc b3be edbc
000000a0: 0c24 48bd c58e 483d 6727 f73d 1f28 78bd
000000b0: 1eb3 02bd 39cf a0bd fdea e83d 0aef 263d
000000c0: fb49 033d 13c0 09be 667b 393b c7b2 09be
000000d0: 2587 48bd 9ec1 55bb f9b9 2739 ebce f53d
000000e0: de6f 923c e491 c53b 4d66 83bc 81d5 763c
000000f0: 499b 81bd e5c5 163e 9f97 443d 0f84 02be
00000100: c35a 92ba d1b4 1bbe 0235 aabd d79c 7d3e
00000110: 2a74 07bd 42f8 623d 49e6 1f3d adfa 183d
00000120: b8c7 973d 7fab 02bd 5197 8bbd f7f3 cf3d
00000130: 0f78 c9bd 3581 6c3d 42e6 2f3e b753 123e
00000140: 31a0 babd c103 d0bd 1463 253c 3f68 52bc
00000150: 373b 3e3d 6f43 4d3d bc85 8ebc c5b7 28b9
00000160: 1a2c 093c 311c a4bd 6156 023d 7e94 9fbd
00000170: 375d 293b 2dab c7bd ed5b 0b3d a1ea d8bc
00000180: 907b 733e 6686 62be afc3 fcbd 659f ed3c
00000190: e544 86bd 5b18 07bd 9880 8abc 5c70 193c
000001a0: 07c4 20be d6c9 0b3e 8792 d6bd cf8e f2bc
000001b0: c13d 483d 52c0 0e3e 6659 5dbd 3db4 553d
000001c0: aaa5 1ebd a4bf 1c3c 1f86 00be 2b12 003d
000001d0: 75b5 c43d 5d71 cb3c 46cf 2cbc 395d 30bb
000001e0: 66b5 8fbd fe32 b7bd fcec a3bd 05cf 21bc
000001f0: 8a58 ff3d 5446 453c 00c3 b53d a7bc 863d
00000200: 8f04 93bc 6dc3 873d dd4e 683d e473 e63d
00000210: 4cb4 8d3d 5d2a f63d 42d8 1c3e 7bd6 0fbe
00000220: b926 2c3e 5a12 bfbd 3ac1 cf3c 2567 773c
00000230: 3082 07bd 57b0 8ebd 275e 903d 21b2 bb3d
00000240: 54f9 07be e568 d4bd bc08 0e3d 33ed 24bd
00000250: 86d5 dc3d cead 43bd 737b 403d 0d1f 0e3d
00000260: cf7a 7ebd f544 dbbc 76c3 61bc 2287 a73d
00000270: 33ca aebd 4e16 f6bc fe91 113e e366 ed3b
00000280: e6cc 97bd c053 f0bd e907 db3b 8d05 383b
00000290: 131f 063d b0f7 25bd 08fb 3c3d 68f8 9cbc
000002a0: efc8 2d3e 20ca 81bd 269d 8c3d da5e 043d
000002b0: f7f0 01be a80d bc3d 6e45 dcbc 89fb 09bd
000002c0: 30a8 bb3c 3468 703d f1b5 143d 3af3 053d
000002d0: 32bf 2b3d a7c2 533d cb81 21be 688a b33d
000002e0: 9554 d5bd b27f da3d a67c f43d dc1d 60bd
000002f0: 9621 00bd b819 533e 0cbc 5cbe 2e85 41bd
00000300: 6850 e3bd f555 62bd 08ab d23d 1b0b 803d
00000310: 1ceb ba3c 3763 9dbd 27f9 7b3d 818f 2dbd
00000320: aea1 c93d cd22 39bd 6ab1 21bd a5f8 a43c
00000330: bab9 50bd 714b 0fbd fa08 ac3b d53e f23d
00000340: 0f96 0ebd 185d ffbd d003 443e ae29 6f3c
00000350: 78ac 823b e9c4 d03d 775c 0f3d a261 323d
00000360: d789 edbc a485 26bd a10d 863d eef4 413b
00000370: 29d4 2d3e c038 a9bd 5b7d 673d 2682 953d
00000380: 4e80 25bd 70fc d43d 73fd 77bc d9c4 c1bd
00000390: 07c8 b2bd 209d f63c fce8 343e 14a0 d33c
000003a0: 4aff 67bd a912 c03b 4cbc e4bd 45a5 e13c
000003b0: 4f22 5c3d 014d 15bd 65c1 ad3d c509 41bd
000003c0: 713f c3bd 55be 833d aafa 9b3d b4c0 e7bb
000003d0: debb 773d 68c1 6d3d 731b 3c3d abc3 7fbd
000003e0: 1cfa be3d dab4 eb3d fb3b a2bd 8eaa 383c
000003f0: faa4 8cbc 0f28 733c 68c5 73be 83de 0cbe

network_body._body_endoder.seq_layers.2.bias f4 [128]
0.00019888124 0.0060280007 -0.0053250394 -0.002656624 -0.004876072 -0.003042782 0.0020732065 0.0016713797
0.00049231714 -0.010321708 0.0035058083 -0.008668162 -0.005712871 -0.003153791 0.0014291388 0.0019432835
0.00071102806 -0.001065035 -0.0049770353 0.010533661 0.0007015206 -0.0026759792 0.003396967 0.006984154
-0.0019653896 -0.0020768829 0.003772944 -0.0018688659 0.000500901 0.007915586 -0.0007276866 -0.008104501
-0.007722693 0.0010335111 -0.0042579696 7.5058942e-06 -0.004620327 0.0017346907 0.0034415906 -0.0071410965
-0.006422944 -0.0030151925 0.0013918201 -0.0027646557 -0.0054643205 -0.0029476397 0.00041821212 -0.00704132
-0.0066853105 -0.0028557025 0.004720593 -0.0063465065 6.2636806e-05 -0.0036041564 -3.672072e-05 -0.009190835
-0.0019015537 -0.0049590194 0.0064285444 -0.0015228932 0.0038360066 0.006006604 0.0051562195 -0.0049556056
-0.0031744908 -0.0003392191 0.0009613122 0.00010682774 0.0038375324 -0.00302713 -0.0064645987 -0.0056669917
-0.0053022783 -0.000566401 0.0012069771 0.0039499127 -0.0038646248 -0.009101747 -0.0032708151 -0.008958005
0.012807955 -0.002094736 0.01101221 -0.0006069777 -0.00072333595 -0.006512415 0.00040561552 -0.0065557393
0.0023991724 -0.008070157 -0.0020312744 -0.0063754795 -0.00538652 0.00041399416 0.004091749 -0.0036949338
-0.0012368469 -0.010702496 0.0070822383 -0.008458513 -0.0023469669 -0.0041279285 0.00017519624 0.01937495
-0.0008258249 0.014443776 -0.0034176689 0.009836996 -0.004352824 0.00968441 0.00018989915 -0.005414846
-0.0014142123 -0.0015990097 -0.0020631424 0.002225172 0.003734603 -0.0019995025 0.0012657692 0.0072285887
-0.012989955 -0.009391946 -0.0008567536 0.003581274 0.001193304 0.009150028 0.0006590929 0.0008221494
00000000: c78a 5039 8986 c53b ab7d aebb c11a 2ebb
00000010: 75c7 9fbb 6969 47bb a2de 073b 3212 db3a
00000020: d80e 013a 621c 29bc b4c1 653b e804 0ebc
00000030: 0933 bbbb d5af 4ebb f151 bb3a c6b5 fe3a
00000040: 4964 3a3a a598 8bba 6616 a3bb 6095 2c3c
00000050: 40e6 373a 7b5f 2fbb a69f 5e3b 55db e43b
00000060: c4cd 00bb 501c 08bb 7f43 773b bcf4 f4ba
00000070: e64e 033a 60b0 013c 39c2 3eba bec8 04bc
00000080: a50e fdbb e176 873a 7086 8bbb 24db fb36
00000090: 1d66 97bb 905e e33a 4f8c 613b dcff e9bb
000000a0: 8f77 d2bb 899a 45bb bc6d b63a 3a2f 35bb
000000b0: 0b0e b3bb 302d 41bb 7b43 db39 e0ba e6bb
000000c0: 7310 dbbb bd26 3bbb 34af 9a3b 5bf6 cfbb
000000d0: e15b 8338 b633 6cbb 9304 1ab8 2895 16bc
000000e0: 8e3d f9ba 457f a2bb 8aa6 d23b d19b c7ba
000000f0: 8365 7b3b 0cd3 c43b 81f5 a83b a262 a2bb
00000100: 1e0b 50bb 38d9 b1b9 9200 7c3a b508 e038
00000110: 1c7f 7b3b d062 46bb fcd4 d3bb 2cb2 b9bb
00000120: bcbe adbb 877a 14ba 6e33 9e3a 456e 813b
00000130: a545 7dbb 7e1f 15bc 2c5b 56bb 99c4 12bc
00000140: 75d8 513c d747 09bb 8e6c 343c 951d 1fba
00000150: 419e 3dba 1966 d5bb cba8 d439 87d1 d6bb
00000160: 6f3b 1d3b b138 04bc 211f 05bb 66e9 d0bb
00000170: 6881 b0bb 5b0d d939 1414 863b b426 72bb
00000180: b21d a2ba 8659 2fbc 1f12 e83b 9395 0abc
00000190: 92cf 19bb 9343 87bb e2b4 3739 37b8 9e3c
000001a0: 2c7c 58ba 96a5 6c3c f8fa 5fbb 5a2b 213c
000001b0: 22a2 8ebb 5cab 1e3c aa1f 4739 056f b1bb
000001c0: 175d b9ba dd95 d1ba c935 07bb 31d4 113b
000001d0: 3ec0 743b 160a 03bb 2be8 a53a ccdd ec3b
000001e0: d2d3 54bc ade0 19bc c397 60ba cfb3 6a3b
000001f0: a368 9c3a 00ea 153c fac6 2c3a 8385 573a

action_model._continuous_distribution.log_sigma f4 [1, 2]
0.035817984 0.052385345
00000000: e1b5 123d 0492 563d

action_model._continuous_distribution.mu.weight f4 [2, 128]
0.027400019 0.047284245 -0.008938693 0.024052901 0.012831672 -0.019337071 -0.0068634856 -0.028744632
0.025675531 -0.00045419327 0.012197375 0.0005631744 0.0030594007 0.026627583 -0.004095273 -0.028670318
-0.018384144 -0.0130519355 -0.02964186 0.0070584957 0.0084050745 -0.01822792 -0.016375422 0.008037732
-0.015089891 -0.0103769675 0.015042027 -0.024342326 0.015062395 -0.0076941107 -0.0054024225 -0.0025659704
0.014985746 -0.01731953 0.0016737333 0.008689706 0.00983578 -0.012900537 0.01252072 -0.011478639
-0.005954512 -0.0034216305 0.016906658 -0.01138054 0.0042094532 -0.018784963 -0.014039364 -0.0124605335
0.0065367357 -0.01121641 0.00071687665 0.00027008768 -0.011792695 -0.031114737 -0.0012344397 0.005243936
-0.002578203 0.01590239 -0.016313178 -0.0060772263 -0.013462292 0.0074049 -0.011282661 -0.0032458904
-0.012853308 -0.020451553 0.022634165 0.018240876 -0.018308656 -0.010104773 -0.0006690667 0.008398937
-0.019576862 0.0036938505 -0.011058251 0.010637095 -0.00557674 -0.0058906483 0.029393058 0.00013838425
-0.019944146 0.0049300664 -0.008693157 0.010868987 0.00330403 0.03263056 0.011099686 -0.023403892
-0.020061322 0.021944098 -0.015965575 -0.0075954404 -0.011718283 -0.0021789412 0.023246665 -0.007169724
-0.014363524 0.009450904 -0.021996677 -0.025904497 -0.009213012 0.00026071363 0.0051127276 0.008035684
0.010418372 0.021046596 0.041599073 -0.022101304 0.002018405 -0.014525409 -0.017424392 -0.010576298
0.016213533 0.00937542 0.012263059 -0.017676104 -0.00073577225 0.0054652668 0.0039401134 0.048864417
-0.010195639 0.0022149042 -0.0024048584 -0.0057291766 -0.023792854 0.0024671112 0.00097048417 0.0045036706
-0.0039570183 -0.040330864 -0.019612966 0.0118200695 0.0020818952 -0.015070796 0.0131587535 0.009358376
-0.0041161967 -0.0021556434 0.056995615 0.0076029734 0.031319667 -0.0047753355 0.017513976 0.00065120414
-0.0035303042 0.01716132 0.015374488 -0.022336464 0.022641996 0.015949653 0.0030416984 -0.0028643536
-0.018639587 0.007446099 -0.009784488 0.022185309 -0.017408963 0.011560435 0.023897393 -0.0011487042
0.0037008198 -0.008508199 -0.025825506 0.012516061 0.0016834779 0.015011956 0.023896957 -0.005184326
-0.0026282244 -0.02681947 0.02115047 0.011257279 -0.0013291581 0.03268415 -0.04358473 -0.0038721836
-0.024749927 0.010524618 0.015843524 0.015426887 -0.0075918348 0.023083247 -0.01602766 0.019172825
-0.019307395 0.019971147 0.0059290132 0.025947466 -0.0154346265 -0.017445095 -0.019226305 -0.034506455
-0.0030961293 0.019458741 0.006363715 0.009667941 -0.014311428 -0.02138282 -0.0069432966 -0.007763921
-0.0070266235 0.010377151 0.033730537 -0.0076418 0.0010261252 -0.0032150396 -0.026167389 -0.00088406185
0.028316408 0.01482151 -0.016001135 0.013074721 -0.007746064 0.012126196 -0.006103147 -0.0031838566
0.003356149 -0.010216759 0.0153675405 0.010698882 0.007994961 0.009407383 -0.010777235 0.020583145
0.0354219 0.002813131 -0.006256835 -0.0127168605 0.022437094 -0.0091088535 0.025255283 -0.037193377
0.0029995006 0.02522807 0.015467353 -0.0051852544 -0.012915912 0.012752871 0.022168556 -0.014428383
0.010800613 0.0037080548 0.009432089 -0.0013039754 0.019768976 -0.028530065 -0.03033661 -0.024956184
0.0048869424 0.003499917 -0.010836511 0.041360125 0.023489194 -0.020931998 0.024902953 0.024257498
00000000: 0176 e03c 20ad 413d 9973 12bc 970a c53c
00000010: ef3b 523c c768 9ebc 17e7 e0bb dd79 ebbc
00000020: 7e55 d23c ca20 eeb9 80d7 473c ffa1 133a
00000030: 3a80 483b 1722 da3c a431 86bb 04de eabc
00000040: 589a 96bc c9d7 55bc 7cd3 f2bc f44a e73b
00000050: 70b5 093c b852 95bc c025 86bc b1b0 033c
00000060: 973b 77bc 2804 2abc d672 763c 8f69 c7bc
00000070: 43c8 763c e11e fcbb ce06 b1bb d729 28bb
00000080: c686 753c b0e1 8dbc 2c61 db3a 455f 0e3c
00000090: 4026 213c c65c 53bc b523 4d3c e710 3cbc
000000a0: 111e c3bb 6f3d 60bb d57f 8a3c 7275 3abc
000000b0: 74ef 893b ece2 99bc 5c05 66bc 4427 4cbc
000000c0: 1d32 d63b 09c5 37bc c7ec 3b3a 8e9a 8d39
000000d0: 2636 41bc 55e4 febc eccc a1ba 53d5 ab3b
000000e0: 12f7 28bb bb45 823c 37a3 85bc 7823 c7bb
000000f0: f290 5cbc cea4 f23b e9da 38bc 01b9 54bb
00000100: ae96 52bc 048a a7bc 496b b93c e46d 953c
00000110: 09fc 95bc 7d8e 25bc 4e64 2fba b29b 093c
00000120: a85f a0bc 8714 723b ab2d 35bc 3647 2e3c
00000130: 16bd b6bb 5706 c1bb b6c9 f03c 3d1b 1139
00000140: e861 a3bc 658c a13b be6d 0ebc d613 323c
00000150: 6d88 583b 9fa7 053d 75db 353c 85b9 bfbc
00000160: a457 a4bc 1cc4 b33c 3dca 82bc 2ce3 f8bb
00000170: 0bfe 3fbc 91cc 0ebb ca6f be3c 01f0 eabb
00000180: fc54 6bbc f7d7 1a3c 6032 b4bc ab35 d4bc
00000190: 2cf2 16bc 64b0 8839 ab88 a73b 1aa8 033c
000001a0: d2b1 2a3c e969 ac3c ca63 2a3d cb0d b5bc
000001b0: 3747 043b fbfb 6dbc 99bd 8ebc 3648 2dbc
000001c0: 3ed2 843c 5d9b 193c ffea 483c 7acd 90bc
000001d0: d7e0 40ba fb15 b33b 111c 813b 0e26 483d
000001e0: 9c0b 27bc ed27 113b d49a 1dbb d1bb bbbb
000001f0: 3be9 c2bc 42af 213b 1768 7e3a 8793 933b
00000200: e0a9 81bb fa31 25bd 5fab a0bc f7a8 413c
00000210: 6870 083b 80eb 76bc d097 573c e053 193c
00000220: 29e1 86bb b245 0dbb 3c74 693d 5d22 f93b
00000230: 0d49 003d 6b7a 9cbb 7879 8f3c 92b5 2a3a
00000240: ad5c 67bb e695 8c3c 47e5 7b3c f6fa b6bc
00000250: b57b b93c d9a8 823c 3b57 473b e1b7 3bbb
00000260: 0cb2 98bc 68fe f33b 1e4f 20bc f7bd b53c
00000270: 3e9d 8ebc fb67 3d3c 77c4 c33c 1e90 96ba
00000280: 7489 723b f965 0bbc 0390 d3bc 2a10 4d3c
00000290: 25a8 dc3a b5f4 753c 8dc3 c33c 47e1 a9bb
000002a0: 4a3e 2cbb 81b4 dbbc c043 ad3c 7370 383c
000002b0: 2537 aeba d1df 053d e785 32bd 76c4 7dbb
000002c0: 5cc0 cabc 736f 2c3c 47ca 813c 0ec1 7c3c
000002d0: edc4 f8bb 1419 bd3c 704c 83bc 5410 9d3c
000002e0: 8b2a 9ebc 889a a33c 2b48 c23b c88f d43c
000002f0: 84e1 7cbc 04e9 8ebc 7c80 9dbc a456 0dbd
00000300: 6ee8 4abb f067 9f3c b686 d03b 4966 1e3c
00000310: 7b7a 6abc 062b afbc 9884 e3bb 7d68 febb
00000320: 973f e6bb ed04 2a3c 0829 0a3d 1168 fabb
00000330: 0c7f 863a 6ab3 52bb fe5c d6bc 63c0 67ba
00000340: d0f7 e73c ebd5 723c d014 83bc 5b37 563c
00000350: b2d2 fdbb f4ac 463c e8fc c7bb 40a8 50bb
00000360: d6f2 5b3b 3164 27bc 23c8 7b3c 5d4a 2f3c
00000370: 4cfd 023c 6d21 1a3c 0093 30bc fc9d a83c
00000380: 8e16 113d 825c 383b 2306 cdbb 615a 50bc
00000390: ffcd b73c 4d3d 15bc 2be4 ce3c 1558 18bd
000003a0: 4593 443b 19ab ce3c c86a 7d3c 11e9 a9bb
000003b0: 439d 53bc 6bf1 503c d59a b53c 0665 6cbc
000003c0: 0ef5 303c d602 733b 0c89 1a3c 27ea aaba
000003d0: 8cf2 a13c e2b7 e9bc 7b84 f8bc e970 ccbc
000003e0: a522 a03b dd5e 653b 9f8b 31bc 3c69 293d
000003f0: 696c c03c 9579 abbc 4701 cc3c a9b7 c63c

action_model._continuous_distribution.mu.bias f4 [2]
0.0018113507 0.0019386838
00000000: d86a ed3a 6f1b fe3a
