results/updatedCode2/DroneAgent/DroneAgent-29970.pt (torch, 661888 bytes, 44 tensors)

network_body.observation_encoder.processors.0.normalizer.running_mean f4 [76]
00000000: 728f 923a 516d 8ebc 9e52 d6bc 5db3 93bd
00000010: 1671 92bc 406e a4bd b62f 00bd dca2 8dbd
00000020: eb5f c8bc 3791 a1bd 19e9 cfbc 4c38 87bd
00000030: aa10 e0bc 30eb 8dbd 9380 d0bd dff0 c5b3
00000040: 3e6d 2ebe bf83 c5b3 e5cc 1cbe a472 c5b3
00000050: bf7d 7abd 110a c6b3 52e2 543d 2cc6 c5b3
00000060: 327c 6a3e 9eab c4b3 d77d 583e 7621 c5b3
00000070: d4ee 043e 8de0 c3b3 abbc b53c ddfa c4b3
00000080: 9aad 27bd aeb7 c5b3 a25c b2bd d507 c5b3
00000090: b9f9 01bb 2654 c5b3 71de 8a3a 8d07 91bc
000000a0: 341f d4bc 0388 92bd 25f4 90bc 29ff a4bd
000000b0: 4130 01bd b3d5 8dbd 2580 c9bc 0a6c a1bd
000000c0: b470 d0bc 7a59 87bd dea2 e4bc a3ba 8dbd
000000d0: 7e50 d0bd 1e07 c7b3 e03f 2fbe 5198 c6b3
000000e0: 8fff 1dbe 5285 c6b3 758f 7ebd 7f1e c7b3
000000f0: e132 543d 29de c6b3 5ae1 6a3e 50c5 c5b3
00000100: 6d71 593e 0436 c6b3 5de1 043e 36f3 c4b3
00000110: 2cf5 b13c 110a c6b3 089e 27bd 14cc c6b3
00000120: c062 b2bd b61f c6b3 1436 a2ba 0a6c c6b3
0.0011181666 -0.01738611 -0.026162442 -0.07211945 -0.01787619 -0.08028841 -0.0312955 -0.069158286
-0.0244598 -0.07889026 -0.025379704 -0.06602535 -0.027351696 -0.06929624 -0.101807736 -9.2173416e-08
-0.1703386 -9.197492e-08 -0.15312536 -9.1943804e-08 -0.061155077 -9.2219246e-08 0.05197365 -9.2095746e-08
0.22898939 -9.158178e-08 0.21141754 -9.179614e-08 0.1298173 -9.121241e-08 0.02218469 -9.172593e-08
-0.040937044 -9.2069385e-08 -0.087090746 -9.174952e-08 -0.0019832684 -9.188834e-08 0.0010594857 -0.017703796
-0.025893785 -0.071548484 -0.017694542 -0.080564804 -0.03154016 -0.069255255 -0.024597237 -0.07881935
-0.025444366 -0.06608863 -0.027909692 -0.06920364 -0.10171603 -9.267954e-08 -0.1711421 -9.2478e-08
-0.15429519 -9.244344e-08 -0.06214853 -9.272207e-08 0.051806334 -9.260504e-08 0.22937527 -9.209418e-08
0.21234675 -9.229919e-08 0.12976594 -9.171201e-08 0.021723352 -9.2219246e-08 -0.040922195 -9.257215e-08
-0.08710241 -9.225862e-08 -0.0012375736 -9.239746e-08

network_body.observation_encoder.processors.0.normalizer.running_variance f4 [76]
00000000: f94a 0f46 d1e9 1046 c0d3 2e47 7e3f 2947
00000010: 7c84 3147 bb01 2947 23c9 2f47 773f 2947
00000020: 8aa0 2f47 6e0e 2747 d04c 2e47 dc7f 2747
00000030: 1623 2f47 6daf 2747 6fe8 bf47 0000 803f
00000040: abb7 cc47 0000 803f a7e0 c347 0000 803f
00000050: 17c0 a247 0000 803f c3ca d447 0000 803f
00000060: b71c fd47 0000 803f 2859 e347 0000 803f
00000070: bea5 fa47 0000 803f 8ab9 f447 0000 803f
00000080: 18b8 d947 0000 803f 9cf6 0448 0000 803f
00000090: b09d ef47 0000 803f 2828 1046 bcb1 1146
000000a0: 32aa 2f47 2242 2a47 f2b2 3247 400f 2a47
000000b0: d0c9 3047 175a 2a47 a2ad 3047 b9e9 2747
000000c0: 5936 2f47 4b6c 2847 6128 3047 279f 2847
000000d0: 87dd c047 0000 803f 43a8 cd47 0000 803f
000000e0: 5bef c447 0000 803f d9bc a347 0000 803f
000000f0: d904 d647 0000 803f 777e fe47 0000 803f
00000100: 8792 e447 0000 803f e20d fc47 0000 803f
00000110: 8f1c f647 0000 803f 73fb da47 0000 803f
00000120: 7bc1 0548 0000 803f 9fea f047 0000 803f
9170.743 9274.454 44755.75 43327.492 45444.484 43265.73 45001.137 43327.465
44960.54 42766.43 44620.812 42879.86 44835.086 42927.426 98256.87 1.0
104815.336 1.0 100289.305 1.0 83328.18 1.0 108949.52 1.0
129593.43 1.0 116402.31 1.0 128331.484 1.0 125299.08 1.0
111472.19 1.0 136154.44 1.0 122683.375 1.0 9226.039 9324.434
44970.195 43586.133 45746.945 43535.25 45257.812 43610.09 45229.633 42985.723
44854.348 43116.293 45096.38 43167.152 98747.055 1.0 105296.52 1.0
100830.71 1.0 83833.695 1.0 109577.695 1.0 130300.93 1.0
117029.055 1.0 129051.766 1.0 126009.12 1.0 112118.9 1.0
136965.92 1.0 123349.24 1.0

network_body.processors.0.normalizer.running_mean f4 [76]
00000000: 728f 923a 516d 8ebc 9e52 d6bc 5db3 93bd
00000010: 1671 92bc 406e a4bd b62f 00bd dca2 8dbd
00000020: eb5f c8bc 3791 a1bd 19e9 cfbc 4c38 87bd
00000030: aa10 e0bc 30eb 8dbd 9380 d0bd dff0 c5b3
00000040: 3e6d 2ebe bf83 c5b3 e5cc 1cbe a472 c5b3
00000050: bf7d 7abd 110a c6b3 52e2 543d 2cc6 c5b3
00000060: 327c 6a3e 9eab c4b3 d77d 583e 7621 c5b3
00000070: d4ee 043e 8de0 c3b3 abbc b53c ddfa c4b3
00000080: 9aad 27bd aeb7 c5b3 a25c b2bd d507 c5b3
00000090: b9f9 01bb 2654 c5b3 71de 8a3a 8d07 91bc
000000a0: 341f d4bc 0388 92bd 25f4 90bc 29ff a4bd
000000b0: 4130 01bd b3d5 8dbd 2580 c9bc 0a6c a1bd
000000c0: b470 d0bc 7a59 87bd dea2 e4bc a3ba 8dbd
000000d0: 7e50 d0bd 1e07 c7b3 e03f 2fbe 5198 c6b3
000000e0: 8fff 1dbe 5285 c6b3 758f 7ebd 7f1e c7b3
000000f0: e132 543d 29de c6b3 5ae1 6a3e 50c5 c5b3
00000100: 6d71 593e 0436 c6b3 5de1 043e 36f3 c4b3
00000110: 2cf5 b13c 110a c6b3 089e 27bd 14cc c6b3
00000120: c062 b2bd b61f c6b3 1436 a2ba 0a6c c6b3
0.0011181666 -0.01738611 -0.026162442 -0.07211945 -0.01787619 -0.08028841 -0.0312955 -0.069158286
-0.0244598 -0.07889026 -0.025379704 -0.06602535 -0.027351696 -0.06929624 -0.101807736 -9.2173416e-08
-0.1703386 -9.197492e-08 -0.15312536 -9.1943804e-08 -0.061155077 -9.2219246e-08 0.05197365 -9.2095746e-08
0.22898939 -9.158178e-08 0.21141754 -9.179614e-08 0.1298173 -9.121241e-08 0.02218469 -9.172593e-08
-0.040937044 -9.2069385e-08 -0.087090746 -9.174952e-08 -0.0019832684 -9.188834e-08 0.0010594857 -0.017703796
-0.025893785 -0.071548484 -0.017694542 -0.080564804 -0.03154016 -0.069255255 -0.024597237 -0.07881935
-0.025444366 -0.06608863 -0.027909692 -0.06920364 -0.10171603 -9.267954e-08 -0.1711421 -9.2478e-08
-0.15429519 -9.244344e-08 -0.06214853 -9.272207e-08 0.051806334 -9.260504e-08 0.22937527 -9.209418e-08
0.21234675 -9.229919e-08 0.12976594 -9.171201e-08 0.021723352 -9.2219246e-08 -0.040922195 -9.257215e-08
-0.08710241 -9.225862e-08 -0.0012375736 -9.239746e-08

network_body.processors.0.normalizer.running_variance f4 [76]
00000000: f94a 0f46 d1e9 1046 c0d3 2e47 7e3f 2947
00000010: 7c84 3147 bb01 2947 23c9 2f47 773f 2947
00000020: 8aa0 2f47 6e0e 2747 d04c 2e47 dc7f 2747
00000030: 1623 2f47 6daf 2747 6fe8 bf47 0000 803f
00000040: abb7 cc47 0000 803f a7e0 c347 0000 803f
00000050: 17c0 a247 0000 803f c3ca d447 0000 803f
00000060: b71c fd47 0000 803f 2859 e347 0000 803f
00000070: bea5 fa47 0000 803f 8ab9 f447 0000 803f
00000080: 18b8 d947 0000 803f 9cf6 0448 0000 803f
00000090: b09d ef47 0000 803f 2828 1046 bcb1 1146
000000a0: 32aa 2f47 2242 2a47 f2b2 3247 400f 2a47
000000b0: d0c9 3047 175a 2a47 a2ad 3047 b9e9 2747
000000c0: 5936 2f47 4b6c 2847 6128 3047 279f 2847
000000d0: 87dd c047 0000 803f 43a8 cd47 0000 803f
000000e0: 5bef c447 0000 803f d9bc a347 0000 803f
000000f0: d904 d647 0000 803f 777e fe47 0000 803f
00000100: 8792 e447 0000 803f e20d fc47 0000 803f
00000110: 8f1c f647 0000 803f 73fb da47 0000 803f
00000120: 7bc1 0548 0000 803f 9fea f047 0000 803f
9170.743 9274.454 44755.75 43327.492 45444.484 43265.73 45001.137 43327.465
44960.54 42766.43 44620.812 42879.86 44835.086 42927.426 98256.87 1.0
104815.336 1.0 100289.305 1.0 83328.18 1.0 108949.52 1.0
129593.43 1.0 116402.31 1.0 128331.484 1.0 125299.08 1.0
111472.19 1.0 136154.44 1.0 122683.375 1.0 9226.039 9324.434
44970.195 43586.133 45746.945 43535.25 45257.812 43610.09 45229.633 42985.723
44854.348 43116.293 45096.38 43167.152 98747.055 1.0 105296.52 1.0
100830.71 1.0 83833.695 1.0 109577.695 1.0 130300.93 1.0
117029.055 1.0 129051.766 1.0 126009.12 1.0 112118.9 1.0
136965.92 1.0 123349.24 1.0

network_body._body_endoder.seq_layers.0.weight f4 [128, 76]
00000000: 011e f9bd 5b7b dd3c a762 4abc 9616 903d
00000010: 48be d2bc dfb9 cb3c 10ed 023d 4124 b73d
00000020: c978 c23c badd 6cbc 7292 443d 9f7c 8dbd
00000030: d82d 813d a64c d4bc 4ff6 b5bd 579e d1bd
00000040: 821e 383c a86f 353d a6cd 7f3d 8f90 153e
00000050: 9608 fb3c 0335 123e 97bd 88bd 9afe a1bd
00000060: 1987 dbbd 3871 b0bd 49a5 443e 6c37 07be
00000070: 947d eabb f661 023e 9e35 3b3e ca1b 3dbb
00000080: 609e 633c 8ee8 01be c282 453c b63a 183c
00000090: 68ea 123e 722a c9bd c91c 323e 182f c03d
000000a0: f13d 003e f7fa 81bd 821b 27be cb74 b3bd
000000b0: 6613 cabc 5262 bb3b 11e1 4cbd 41e1 8a3d
000000c0: be5c 6bbe 06ee 373e c8fa dc3c b2e0 b2bd
000000d0: 74ae 60be 8109 c3bd dc73 42bd 0aaa 093c
000000e0: 7211 09be 4a2b 04be bce1 ba3d 5ca9 2f3c
000000f0: 62b0 ed3b 9c00 883a fde3 ea3d 82fb 89bd
00000100: 37e1 36be b727 96bd 8df4 753e 6dcf 97bd
00000110: 672f cebd b8fe 073e 89e3 90bd 1603 4abe
00000120: 3c88 cbbd 8bba 163e d089 293c c83a b4be
00000130: f1ac 37bd 98d2 363d 1e2f 133e 39aa 9e3c
00000140: 496a 8cbc d9fd c3bc 49a0 52be 8b05 0f3e
00000150: efa9 13be 38f9 0abe 75a8 fabd ce69 0ebe
00000160: d6d8 2e3e 542f 303b e790 c5bb 75fb b83d
00000170: 8af0 45bd 2fd5 2abe 1952 f03a 91e5 18bd
00000180: 6669 fbbd 6d35 e1bd 6efd 12be cc9b b4bd
00000190: 32bd 26bc 079c a13c 51dd e3bd 5294 cd3d
000001a0: 73a5 743c 83f0 dfbd 58b0 533e 73dd 973d
000001b0: b664 0abe 3cfd fc3d 2c40 d8bd 73f3 853d
000001c0: 1e0c d03d fa6a 8cbd 8bd6 f43d 2525 33bd
000001d0: 78f4 4bbd 2f0b f63d 3ed2 243d fa4d 37be
000001e0: 2a7a b83d df32 383e f892 1ebd a044 7f3d
000001f0: 5128 413e 6b08 fabd 9b4f b93d cc55 0ebd
00000200: 4553 1dbc f641 883d 2803 5b3d bcf3 90bd
00000210: 0618 f53d 0cad b4be 38ae acbc 16ec 9abd
00000220: 43fd 7abd 22b3 433d af68 283d 1b21 733d
00000230: 7e8c 8d3d 2c4d 2e3d 04aa 113e cd0d fc3c
00000240: b90e c03b 1d51 46bd 6a33 d23d b80e eabc
00000250: 92ac e2bd c1c8 803e 105a c9bd d496 4d3d
00000260: a846 36be 8605 6e3e b4c9 e93d 1976 6bbd
00000270: 4cc9 1ebd d43a e4bd ae24 20bd ff75 25bd
00000280: f1ef fabd dfda 9abd 221b 9e3c d129 7cbe
00000290: 759d 95bd 60d7 aebd 6e82 d1bc e735 9dbc
000002a0: 364e 833d 9acc 3f3e ecae 79bb 2d14 a5bd
000002b0: 09f5 fb3d ad1c 4ebe 0ea3 0fbe ae68 4a3d
000002c0: 0d2e 103d 9713 9ebd 7460 74bd 3242 42be
000002d0: 4e3f fab9 8863 6ebd 182f 8c3d 8d84 82be
000002e0: 9131 d9bd c66e 1b3d 9f86 bc3d eab7 0cbe
000002f0: 9328 923e b781 9dbd 5fc9 52bd 80b3 87bd
00000300: a20d adbe e6b2 13be ad09 733e 3545 513d
00000310: d118 893e 385f 923d 4135 1dbd 8ea3 0abd
00000320: 3d0a 0e3e 12b0 c5bd 152f bd3d 9db8 49bd
00000330: 46b8 35be 558a 333c 080d f2bd 563b f9bd
00000340: 6901 1a3d d9c4 5e3d 76da b73c b229 d03c
00000350: 2d1b b83b 7042 3fbd a899 403e 3b99 9c3d
00000360: a58f 35bd 52ee 0e3d 192c 55be 6b88 6b3c
00000370: 6bf0 f33a 5f25 b5bc 2cfa 953d b408 293d
00000380: 1021 8e3e a2ac 0f3e b96b 2cbe f36c c33d
00000390: 4e21 933d 92c6 abbd b9d0 38bd 96a5 213d
000003a0: 1ae8 9cbd ad6d 573c 359a 67be b777 1cbe
000003b0: 8b67 083e 6d44 80bd ffe3 b1bd 22bf 2a3d
000003c0: 7271 06be e8ae d23d e37d 19be d2a9 933c
000003d0: ad2a 963d cfe3 db3c c5b9 543d d216 7bbb
000003e0: 6f68 673d 84de a23c 6418 98bd 8b65 f13d
000003f0: 874d fd3d 9f43 a43d 12ff ab3d 7c57 cdbd
-0.12163926 0.02703636 -0.012352622 0.07035558 -0.025725499 0.024868904 0.03196436 0.08942462
0.023739235 -0.014457161 0.047991224 -0.06908535 0.06307572 -0.025915455 -0.0888487 -0.10235279
0.011237742 0.044295937 0.06245198 0.14605926 0.030643743 0.14278035 -0.066767864 -0.079098895
-0.10719127 -0.08615345 0.19203676 -0.13204736 -0.0071560834 0.12732682 0.18282172 -0.0028855675
0.01389274 -0.12686369 0.012055101 0.0092913415 0.14347231 -0.09822549 0.17393793 0.093839824
0.12523629 -0.06346696 -0.16319087 -0.08762511 -0.024667453 0.005718508 -0.050019328 0.06781245
-0.22984597 0.17961892 0.02697505 -0.087342635 -0.21941549 -0.09523297 -0.047473773 0.008402357
-0.13385561 -0.12907138 0.09125087 0.010721531 0.0072536925 0.0010376158 0.114692666 -0.067374244
-0.1785935 -0.07331794 0.2401907 -0.0741261 -0.10067635 0.13280761 -0.07074649 -0.1972774
-0.09938094 0.14719598 0.0103477985 -0.35201097 -0.044842664 0.04463443 0.14373443 0.019368278
-0.017140524 -0.023924755 -0.20568956 0.13966958 -0.14420293 -0.13571632 -0.12239162 -0.13907549
0.17074904 0.0026883679 -0.0060292366 0.090323366 -0.0483251 -0.16682886 0.0018335014 -0.037328307
-0.122759625 -0.10996518 -0.14354488 -0.088187784 -0.010176944 0.01972772 -0.11126197 0.100380555
0.014932024 -0.10934546 0.20672739 0.07415285 -0.1351498 0.12352988 -0.10559115 0.06540575
0.10158561 -0.06856342 0.11954983 -0.043736596 -0.04979369 0.12013852 0.040239565 -0.1790084
0.09007676 0.17988156 -0.03871438 0.062321305 0.18863036 -0.12208637 0.09048387 -0.03474979
-0.009602373 0.06653206 0.053469807 -0.07077739 0.11967473 -0.35288274 -0.021079168 -0.07564561
-0.061276685 0.047778256 0.04111546 0.059357744 0.069115624 0.042554066 0.14225012 0.0307683
0.00586113 -0.0484172 0.10263713 -0.028571472 -0.110680714 0.25153163 -0.09831631 0.05019267
-0.1780039 0.23244295 0.11415425 -0.057485674 -0.03876619 -0.11144033 -0.03909748 -0.040395733
-0.122527964 -0.075612776 0.019300047 -0.24625327 -0.07305423 -0.08537173 -0.025574889 -0.019190742
0.06411402 0.18730393 -0.0038098646 -0.08060489 0.12302596 -0.20128126 -0.14027044 0.049416237
0.035200167 -0.0771858 -0.059662297 -0.18970564 -0.00047730881 -0.05820039 0.0684492 -0.25491753
-0.10605157 0.03794744 0.092053644 -0.13742033 0.2854658 -0.07690757 -0.051461574 -0.06626034
-0.33799464 -0.14423713 0.2373416 0.05109139 0.26776746 0.07147068 -0.038380865 -0.033847384
0.13871093 -0.09652723 0.09237496 -0.049248327 -0.17746076 0.010958274 -0.11818892 -0.121695206
0.037599 0.054386947 0.022443037 0.025410507 0.005618474 -0.04669422 0.18808615 0.07646414
-0.044326443 0.03489525 -0.20817603 0.014375786 0.0018611079 -0.022112546 0.07323107 0.041268066
0.277596 0.14030698 -0.16837968 0.09542265 0.07184087 -0.08387484 -0.04512093 0.039464556
-0.07661457 0.013148707 -0.22617419 -0.15280043 0.13320749 -0.06263051 -0.08686065 0.041686185
-0.13129213 0.10287267 -0.14989428 0.018025313 0.073323585 0.026842026 0.051934976 -0.0038313163
0.05649608 0.019881494 -0.07426527 0.11786946 0.12368303 0.0802071 0.0839826 -0.10026452

network_body._body_endoder.seq_layers.0.bias f4 [128]
00000000: 6dd4 56bb dbd9 35ba 57ec 9ab8 a7ee e2ba
00000010: 48f0 53bb 1e60 c23a 004b 3fba b44c 7cba
00000020: 636e 80bb c3db 8e3a 725f 86ba d251 a33a
00000030: f9e9 dcba 2365 b33a a0a1 503b c9eb 513b
00000040: b5b2 b038 be8e 3abb c81f e639 130c 863b
00000050: b1c8 0f3b 8797 823a 74cc a8ba e098 e8ba
00000060: fbd0 133b 4f2f 7abb b4ca 393b 315a 8ab9
00000070: d48e 383b 3dbc 293b d3d1 dfba 9e65 90b9
00000080: 1745 2b3b 38be 18bb b152 183b 5311 94bb
00000090: 6659 c2ba 1390 2ebb eeb7 143b d5f7 f93a
000000a0: da2b 7a3a 58e7 3a3b d387 bb3a f7e9 303b
000000b0: 1815 2cbb 08a9 5dbb 2b8e a03a 81ed 363a
000000c0: dc8a a23a 4b69 8fbb 578d 70bb df4a f13a
000000d0: d767 223b c1d6 023a d16f 333b aa0c f3ba
000000e0: 6627 dfb9 beb4 c639 a78e 163b 11bc 173b
000000f0: deff a8b9 4f47 ad39 813f c13a 1040 e739
00000100: 9631 40bb 6360 d3ba 4f9b 8a3a 9c49 6a3b
00000110: 8197 063b fec0 323b 3168 773b c4a6 86ba
00000120: 0347 2c3b f1ef 8738 cd2a ee3a 6f8c afba
00000130: b092 49ba fcea 75b9 1857 cdb9 378d 6bbb
00000140: a1d2 943b 9a1b 1cba 80b7 f73a 76cf 7abb
00000150: f3c1 7bbb 197a 5dbb a9a6 87ba f51d 813b
00000160: 5a6e 31bb e135 ccb8 88ce 96ba 0823 1338
00000170: 745f 923a f060 213b 8c64 283b b784 483b
00000180: 1072 983b ff40 643a 1887 873a 2fe3 d0ba
00000190: fc99 3c3b 89ab ad3a f8e3 b239 aea5 80bb
000001a0: b541 2b3a 9638 063b befb 83bb 6a30 abb9
000001b0: 812d 723a 88e7 12bb 8e42 51bb 1828 92ba
000001c0: 8290 633a 1453 3a3b a966 b83a 6cbb 2bba
000001d0: 135f 0bbb da56 043a f873 2d3b 5b91 85ba
000001e0: 0f62 37bb 4a3e 0f3b baa1 243a 4c05 d83a
000001f0: 3655 79bb 5b3d 883b 9b1b b6b9 94e0 f23a
-0.0032780424 -0.0006937065 -7.387314e-05 -0.0017313556 -0.0032339264 0.001482967 -0.00072972476 -0.0009624467
-0.003919409 0.0010899234 -0.0010251834 0.0012460297 -0.0016854397 0.0013686757 0.0031834617 0.0032031408
8.425621e-05 -0.0028466429 0.00043892697 0.004090795 0.002193969 0.0009963372 -0.0012878315 -0.0017745756
0.0022554982 -0.003817517 0.002834958 -0.0002638861 0.0028161304 0.0025899552 -0.0017076082 -0.0002754153
0.002613371 -0.0023306739 0.0023242647 -0.004518667 -0.0014827668 -0.0026636168 0.0022692638 0.0019071052
0.00095432776 0.002851924 0.0014307447 0.0026994923 -0.002625769 -0.0033822674 0.0012249401 0.000697814
0.0012401002 -0.0043765656 -0.003670534 0.0018409154 0.0024781132 0.0004991107 0.002737988 -0.0018543203
-0.0004256323 0.00037900166 0.002297321 0.0023152868 -0.00032234093 0.0003305026 0.0014743657 0.00044107484
-0.002932643 -0.0016126748 0.001057485 0.003574944 0.002053708 0.0027275677 0.0037751312 -0.0010273089
0.0026287443 6.481994e-05 0.0018170715 -0.0013393293 -0.00076893996 -0.00023452559 -0.00039165537 -0.0035942325
0.0045417105 -0.00059550407 0.0018899292 -0.003827063 -0.0038415163 -0.00337947 -0.0010349351 0.0039403387
-0.0027073831 -9.737514e-05 -0.0011505643 3.5080157e-05 0.0011167363 0.002462443 0.0025694696 0.0030596682
0.004652269 0.0008707195 0.0010339944 -0.0015936847 0.0028778305 0.0013249974 0.00034120656 -0.0039260006
0.00065329234 0.0020480505 -0.0040278127 -0.00032651733 0.0009238348 -0.0022415835 -0.0031930539 -0.0011150865
0.0008680896 0.0028430866 0.0014068681 -0.00065510604 -0.0021266385 0.0005048342 0.0026466828 -0.0010190414
-0.0027982031 0.0021857196 0.00062802027 0.0016481071 -0.0038045174 0.0041577048 -0.00034734313 0.0018530064

network_body._body_endoder.seq_layers.2.weight f4 [128, 128]
00000000: 2f70 cdbd aece 0abe 1392 5bbe 60a5 36bd
00000010: 9202 f83b 2682 5c3d 05d8 1e3d f25c 92bd
00000020: 630c b2bc 4383 2f3e da7c eb3c 5b5a 023d
00000030: ec5d 0cbd dca3 c2bb 4ffa 0bbd ede8 003e
00000040: 93c4 8ebc 96b5 b0bd 1774 903d 8d17 acbc
00000050: 82d9 38bc 6023 3e3e a8ae 803d b2af 0bbc
00000060: 9db4 99bd b6e0 f63b 0bd6 a0bc c659 5fbd
00000070: a57a 833c e3e8 0ebe d60a 513e 4ded 32be
00000080: ec33 8abd 2999 573d 4307 8d3c 1107 4f3b
00000090: 0a7b 4d3e 03d9 90bc c97e eabd 171c 703d
000000a0: 68b6 5cbc dd68 96bc 51c0 0dbe 7ca9 5a3d
000000b0: bbd6 2a3e e73c 0ebe 062f 0bbd bd52 153c
000000c0: 54d0 b1bd b70e b2bc db90 a03d 3911 8bbd
000000d0: 71e3 70bc 6e12 11be 1e4c 71bd d4ed 5b3d
000000e0: 007b 183d 3db3 83bd f8e9 853d e1a4 e5bc
000000f0: 9240 4b3d a3f3 12be f5c1 493d 751c 9b3b
00000100: 5bb2 eb3d 6004 963d e196 223e 4ce7 c63c
00000110: ff5c 9c3d 6036 aa3d c65b 79bd 62c6 a4bd
00000120: bd38 10bb 254d 72bd ade7 343d b64c 35bc
00000130: d81b 12bd 0c00 b8bd 3d3c cabc 26c9 65bd
00000140: bfef fd3d 54ab 553d 0887 2d3d afef a23c
00000150: 61e5 a23d 6960 d83c d8ab 40bd 8a9c d23c
00000160: abbf 9bbd ca2f 58bd 59ca 0bbe 382f 833e
00000170: c292 c0bd 5858 1cbe dd8f 8a3c be2c 3bbe
00000180: ba95 a23d 75d8 0dbd 5858 993d deca bfbb
00000190: 8c42 a63d 7769 3f3b 1f37 933c 70fe 513d
000001a0: 04cd f4bc 80c3 f7bd d6c5 833d 952d 063c
000001b0: c9ee 073e b7cb aa3d 4dd7 e83c b35a e5bb
000001c0: d110 cb3c a02e 4abd 74c1 0f3e a8fa 7dbc
000001d0: 22c6 8fbd 8d79 303d 9c8e 1f3e 7612 b73d
000001e0: caf8 043e efba 343d 8b0d 77bd 2d4b 14be
000001f0: 3774 ff3c 709a b53d 0225 90bd d821 dcbd
00000200: 0bcd 8abd 6f92 afbd cba1 5dbc fb28 76bd
00000210: 794d 94bd f163 90bd 7b6a eb3d c0ef 4cbd
00000220: 2590 f2bd a8d9 38bd c478 05be 3996 4cbb
00000230: d86e a03d 1817 efba 3715 273c a8a2 083d
00000240: d728 d4bc 1247 12bc 67e9 01be 9123 003e
00000250: 2bff 993d b186 973c 0dac 5a3c d913 4d3b
00000260: f72a 9dbd 6351 2b3d cbd9 9fbd 8c41 883d
00000270: 8dce 79bc 75c4 c33c 804d c9bd 097c a4bd
00000280: df2e eb3b 3e28 9cbd cd4a a03c 07cd 703d
00000290: 54ee 8e3d 314c 43ba d3cf 35bb c7e5 31bd
000002a0: f18d cebd 98d3 8dbd 37ff 7e3d b428 a83d
000002b0: 535c 273c eb00 9f3d c5cd 95bd 7ab4 043e
000002c0: 53ec 8d3c bbbf 103d e8e1 19bd fc84 4cbb
000002d0: a456 9abb c85e 453d 1220 cc3d e555 16bc
000002e0: 8b51 13be 9535 343d 8d32 7fbd 3a66 023b
000002f0: c434 1cbd 97ba d3bd bd29 3ebc c413 503d
00000300: cff4 b9bb 9c58 d4bd 1756 813d 182a 45be
00000310: d517 1dbe 88f4 9f3d 2ee9 3a3c 1231 513d
00000320: 5c0a 15bc 558a 76be c777 6fbd 14bd e6bd
00000330: 5f42 f9bd b6c6 18bc 934a 1abe 1174 0b3e
00000340: 0723 15bd bb45 cf3d 5fb9 20be 95a5 43bd
00000350: 48b5 eb3d a931 e53d 00c5 a3bc 3b72 9cbd
00000360: 14cc a2bb 028f a23d dfdb e03d df9d 1c3d
00000370: 6dd2 0abe ec0b 1a3e 0706 ff3d b568 753d
00000380: 5845 713d fa03 30bd 8afa ca3d 5f48 b1bd
00000390: bd40 89bd 9826 5ebc 5d1a 143d 6eba f63c
000003a0: c706 823d 5474 113e f2b2 5dbd 4e40 6b3e
000003b0: 7b66 6d3d f619 a03b ba7a 1ebc 2ef6 783d
000003c0: 4340 df3d 17b2 ae3d cd1a 6f3d e597 32be
000003d0: 0548 9a3d 9e0b abbc 113b 8fbd 6458 9cbd
000003e0: b39b b63d 6f1e 613d 3e42 083d 4956 a8bd
000003f0: a537 bf3d 7098 15be 6706 17be 7e6d a3bd
-0.10031163 -0.13555405 -0.21442442 -0.044591308 0.007568666 0.053835057 0.03878023 -0.07146634
-0.021734422 0.17139916 0.028746057 0.03182445 -0.03426926 -0.0059399437 -0.03417426 0.12588854
-0.017427718 -0.08628385 0.070533924 -0.021007324 -0.011282327 0.18568182 0.06283313 -0.008525776
-0.075051524 0.007534112 -0.019633314 -0.054528974 0.016049692 -0.13956027 0.2041429 -0.17473336
-0.067481846 0.0526363 0.017215377 0.0031589905 0.20066467 -0.017681604 -0.114499636 0.05862054
-0.013471223 -0.01836055 -0.13842894 0.05338429 0.16683476 -0.1389042 -0.033980392 0.009113965
-0.086823136 -0.021735532 0.07840129 -0.06790394 -0.014702664 -0.14167187 -0.05891048 0.053693607
0.037226677 -0.06430671 0.065387666 -0.028032722 0.049622126 -0.14350753 0.049257237 0.004733617
0.11508628 0.07325053 0.15877868 0.024280213 0.07634925 0.083111525 -0.060878538 -0.08045651
-0.0022006475 -0.059155602 0.044166256 -0.011065653 -0.035671085 -0.08984384 -0.024686927 -0.056100033
0.123992436 0.052165344 0.042365104 0.01988968 0.07953907 0.02641316 -0.047038883 0.02570941
-0.07604917 -0.05277995 -0.13651408 0.25621963 -0.09402992 -0.15268075 0.016914302 -0.18278787
0.07938714 -0.034630258 0.07487553 -0.005853041 0.081181616 0.002920715 0.01797062 0.05126804
-0.029882915 -0.120978355 0.064342186 0.008189579 0.13274683 0.08339637 0.028422976 -0.0069993376
0.024788292 -0.04936087 0.1403864 -0.015501656 -0.07020213 0.04308467 0.15581745 0.08939068
0.1298553 0.044123586 -0.06031565 -0.14481802 0.031183345 0.08867347 -0.07038309 -0.10748643
-0.0677739 -0.08572852 -0.013527344 -0.060097676 -0.07241339 -0.07050312 0.11494919 -0.05003333
-0.118439 -0.04512945 -0.1303435 -0.003121747 0.07833642 -0.0018241135 0.010197929 0.033358246
-0.02589838 -0.008928077 -0.12686692 0.12513568 0.075193726 0.018496843 0.013346684 0.0031292348
-0.076742105 0.041825663 -0.078052126 0.06653127 -0.015246999 0.023897389 -0.09829235 -0.0803147
0.0071772183 -0.07624863 0.019566918 0.05878928 0.06979051 -0.0007450013 -0.002774228 -0.043432023
-0.10085667 -0.06925124 0.06225511 0.082108885 0.010214883 0.07763847 -0.07314638 0.12959471
0.017324602 0.0353391 -0.037568957 -0.0031207195 -0.0047100354 0.048186094 0.099670544 -0.009175752
-0.14386575 0.043996412 -0.06230407 0.0019897358 -0.03813626 -0.103383236 -0.011606631 0.0508001
-0.0056749354 -0.103684634 0.063152485 -0.19254339 -0.15341122 0.078103125 0.011408133 0.051072188
-0.009096708 -0.24076207 -0.058463838 -0.112665325 -0.121708624 -0.00932472 -0.1506751 0.13618495
-0.036410358 0.10120722 -0.15695713 -0.047765333 0.11509186 0.111911125 -0.019991398 -0.07638975
-0.0049681757 0.07937433 0.10979437 0.038236495 -0.13556834 0.1504361 0.124523215 0.05991431
0.058904022 -0.042972542 0.09911068 -0.08656382 -0.06701801 -0.013559006 0.036157954 0.030118193
0.06348949 0.14204532 -0.054125734 0.22973749 0.05795906 0.0048859073 -0.009672815 0.06078165
0.10900929 0.08530062 0.05837517 -0.17440756 0.07533268 -0.020879563 -0.06993688 -0.07634047
0.08916416 0.054960664 0.0332663 -0.082195826 0.09336785 -0.14608932 -0.14748536 -0.07979868

network_body._body_endoder.seq_layers.2.bias f4 [128]
00000000: 2d1a 57ba dcd0 78bb 71fc ad3a cde2 a2ba
00000010: 860e 253b 4107 183a 9f71 c1ba 6823 0b3b
00000020: 0963 15bb 54ac 1e3b da69 5b3b 18e5 e33a
00000030: 07c7 323b 5e62 1e3b e6a7 41bb 324a e2ba
00000040: 4b4e 14bb 170e 5bba 4936 313b 2598 18bb
00000050: d0f1 243b 1aae 573b 1e86 403a 0946 d5b8
00000060: 82d8 d6ba 9ad4 c5ba 8c3b 9cb8 9837 0cbb
00000070: 1f48 983a d551 f2ba de9c 2dbb c65f a7b8
00000080: 9bba 933a c497 4e3b c8c9 c5ba fd42 b1ba
00000090: 991c 9e39 af29 a339 8f2e 4aba 7f03 2cbb
000000a0: 03aa 0b3b c843 19bb b9d2 223b 33e4 62bb
000000b0: 46f3 363b 4e37 abba ede7 b8ba 7492 193b
000000c0: e7cb dc3a 709d 6a3b 37e6 2a3b 3a9d 363b
000000d0: 805e cbba b0f1 2d3b 8487 0e3b d114 01bb
000000e0: e50a 6c3b b3fe ba3a 23f1 afba 80e8 7539
000000f0: 9f74 24bb ac0a 343b 2ca4 2b3a 6108 243b
00000100: 0b36 28ba cf77 2a3b b904 25bb 6749 56ba
00000110: 0ba2 06bb f5a5 2fbb fc80 97ba 1c99 813b
00000120: b4d6 0cbb 58bd 203b f8f5 e8b9 f09c c03a
00000130: e11b 8aba e5a8 0f3b aaeb df3a 2e43 253b
00000140: b07f bb3a f050 b33a 212a f83a 853a b1ba
00000150: 5799 cd3a bb4f c13a bd27 efba 270d df3a
00000160: 91a5 96ba be17 0f3b c373 7eba ef93 383b
00000170: b7ab 083b 579d 8c3a 4d31 a03a fbd7 a9ba
00000180: 49b1 463a 510e 403b c051 693b 34ac 663a
00000190: 28b7 17ba c7dc 25bb 9b84 173b a90a 483b
000001a0: 2cd2 173b 7ca9 473b edf9 9dba a9b9 e3ba
000001b0: 58bb e9ba 651e 103b 98ad 5dbb 69bc 513a
000001c0: a032 533b 739b 173b 4027 22bb 617e b639
000001d0: 0326 bd3a 6988 62bb fbc0 c83a ac20 433b
000001e0: 18ba 813b b309 1e3b 20f0 52ba 4bb5 0c3b
000001f0: 50b0 faba ef8e 303b 59df 003b f170 50bb
-0.00082054996 -0.0037966287 0.0013274086 -0.0012427211 0.0025185659 0.0005799421 -0.0014758593 0.002123082
-0.0022794625 0.0024211602 0.003347984 0.0017387001 0.0027279274 0.0024167518 -0.0029549538 -0.0017264544
-0.0022629674 -0.00083562866 0.0027040413 -0.0023284045 0.0025168546 0.003291017 0.0007344204 -0.000101696765
-0.0016391429 -0.0015093267 -7.449751e-05 -0.002139544 0.0011618173 -0.0018487523 -0.0026491205 -7.98102e-05
0.0011270823 0.0031523565 -0.0015090043 -0.0013523992 0.00030157415 0.0003112084 -0.0007712626 -0.00262472
0.0021311052 -0.0023386348 0.0024844839 -0.003462088 0.0027915998 -0.0013062747 -0.0014107205 0.002343324
0.0016845436 0.0035799406 0.002607716 0.002786471 -0.0015515834 0.0026541762 0.0021748254 -0.0019696245
0.0036017236 0.001426658 -0.0013423305 0.00023451634 -0.0025093926 0.0027472181 0.0006547596 0.0025029408
-0.00064167444 0.0026011353 -0.0025179817 -0.000817439 -0.0020543362 -0.00268018 -0.0011558826 0.0039550196
-0.0021490278 0.002452692 -0.0004443375 0.0014695209 -0.0010536873 0.0021920737 0.0017083783 0.0025217044
0.0014305022 0.0013680737 0.0018933454 -0.0013521468 0.0015685958 0.0014748493 -0.0018246096 0.001701747
-0.0011493434 0.002183422 -0.0009706581 0.0028164347 0.0020854303 0.0010728043 0.0012221724 -0.0012958044
0.0007579518 0.0029305408 0.0035601705 0.0008799464 -0.0005787485 -0.0025308596 0.002311981 0.0030523932
0.0023166044 0.003046601 -0.0012052633 -0.0017374057 -0.0017832322 0.0021990773 -0.0033825394 0.00080007926
0.003222622 0.0023133426 -0.0024742633 0.00034807905 0.0014430884 -0.003456617 0.0015316302 0.0029774113
0.0039589517 0.0024114668 -0.00080466457 0.0021470364 -0.0019126032 0.0026940664 0.0019664376 -0.00318056

action_model._continuous_distribution.log_sigma f4 [1, 2]
00000000: 261e 9b39 d728 ac3b
0.00029586366 0.005253892

action_model._continuous_distribution.mu.weight f4 [2, 128]
00000000: 5fe5 03bc ca54 b5bc add6 ed3b 69ea 99bc
00000010: f6c4 863c 8f76 9bba 2656 95bc 44ef bd3a
00000020: 9826 1dbc c75c 083c ff2b 863c 4b00 923c
00000030: d42d 6b3c fd5b 593c e1f0 00bd 3ada 10bc
00000040: 2b95 03bd 5c91 9c3b ece9 143c 565f 82bd
00000050: 7ec7 413c 3ff8 293d 92ba 393b bf3c 0a3b
00000060: 9317 4b3b 71ea 26bb cd39 aa3c 469e 14bd
00000070: e44c 993c a7ac b6bc 5db7 e4bb 09b0 99bc
00000080: 06c9 0b3d 4442 143d 16fb 58bc a9aa c9ba
00000090: 2e72 23bd 0593 863a 9b99 28bb 18fa 48bc
000000a0: 3f7a 0f3c c54c bcbc 4726 7f3b 79c2 2bbd
000000b0: 395c 223c 72f2 91bb e9d4 adbc d533 ca3c
000000c0: 9418 033c 4ffb 033d f94f 953c 783d 583c
000000d0: 74c2 89bc 272c b43c 295f 2e3c 6812 6abc
000000e0: 6961 6b3d d92c c43c 0321 2dbd 809e 1cba
000000f0: fd2d d7bc be85 f73c 5cac f6ba 7a47 943c
00000100: ddcf 8bbb 9563 af3c 702a c6bc 91d9 05bc
00000110: 4d1a 49bc e5f6 3abc 216e 16bd d9c1 aa3c
00000120: 1d88 47bc 4436 5c3c 7200 e73b a23d 173b
00000130: 8085 40bc 4acb 5d3c 62d5 ce3c e39a 883c
00000140: f554 7f3c 7242 b838 10fb 613c cae4 05bc
00000150: 44f9 ae3b f58b c33b 10bf d3bb 0b44 613c
00000160: b3d8 c4bb 3ba4 113c aec0 8fbc 4964 023c
00000170: 6ec7 fb3b 0a1b cebb d573 793c e037 82bc
00000180: a5f7 bd3c 81e6 263c 3749 d13c 8c74 293c
00000190: c406 19bb 164a c1ba ab1b 1f3c 4e67 663c
000001a0: 8927 053c ca61 f53c 4d20 68bb 9eaf ccbc
000001b0: 2e31 92bb 5b4c 0c3c d837 acbc 482f 9e3c
000001c0: a568 883c 804e 093c c7ea 59bc 2fd1 99bc
000001d0: 2fbd 9eb9 cb31 d4bc ca15 c33c 0b14 103d
000001e0: ab7a db3c 3ae8 503c dc66 45bb c13a c03c
000001f0: 1b58 bebb 5631 223d ed23 923b 90e0 69bb
00000200: ce4b fbbc f8f8 06bc 4e87 9e3c 5c75 a6bc
00000210: 5c07 55bb fdc6 623b b3e1 583c c6cf 8e3c
00000220: 5136 9fbb 5d63 d6bb 142d 773c 6d7f 51bc
00000230: 97b1 63bb 5cad 893c a355 9dbb 1daa da3c
00000240: b7db 83bc af5a 2a3d 2fe2 8cbc d0d3 2ebc
00000250: e39f 04bc 3a05 5ebc f984 033c edbc 7c3c
00000260: b010 963a e30d 9ab9 58fd 013c 543d 12bb
00000270: 8f32 20bb c4f3 543c 8e80 a03b 030d 11bd
00000280: 6a7d 9a3c e3c2 6b3c dcb8 293c 7db6 e7bc
00000290: c185 bbbc 2f0b 79bc 2e9a 343c 2c34 1f3b
000002a0: f0f7 46bb 74a0 953c d444 25bb 5a32 093a
000002b0: 155c febb 3b5e e33c f36a b33c 518f 02bd
000002c0: 7a44 e8bc 488e 6c3c c0f2 2c39 aa5c fc3b
000002d0: 6a4b cabc 4da4 41bc 3461 8f3c e0e3 8ebb
000002e0: 4409 cbbc b675 3ebc 2099 d6bc c966 57bc
000002f0: 6833 df3c 5546 043d 1486 30bc 78d2 813c
00000300: a9e4 033d 7947 30bd f678 d1bc 8a5b 8bbc
00000310: 221a 6cbc 7872 31bc 47ca 48bd 33f5 6cbc
00000320: a31a f439 2cae 8abc c8ce c53c a174 40bc
00000330: c552 483c 693f 1f3b 5802 b9ba 5399 333b
00000340: 90c9 8abc f972 84bc 9325 2bbc d977 c5bc
00000350: 0b58 0ebc b983 153b 0f1f 813c df19 913c
00000360: 3ef9 95bc caaf c0bb ae7f 983c 9ede c0bc
00000370: 8460 733c ad1a ec3c dbee 2cbc 4d33 383c
00000380: ce2c 873c c14f 343c 92cf 833b 1e24 e33c
00000390: d864 6bbc aebe a639 1763 973c 1ff2 813c
000003a0: c85c 38bc 5b8a 463b e5bd 40bc 33fb c03b
000003b0: f706 f73c 120f 8a39 9c0b 74bc a685 bd3c
000003c0: 9ab1 ab3c 9ee5 febb ccda c93b f7cb f7bc
000003d0: 1345 a1ba c9ed f5ba 7229 d83c 3e15 8ebc
000003e0: 073f 82bb f73a 9dbb 5746 133c 1908 c83c
000003f0: 2334 a0b9 cab0 be3b a5f9 43bc 4ec1 7f3b
-0.008050292 -0.022135157 0.0072582574 -0.018788533 0.01645134 -0.0011860895 -0.018229555 0.0014490862
-0.009591721 0.008322901 0.0163784 0.017822405 0.014354188 0.013266561 -0.03147972 -0.008841092
-0.03212468 0.0047780704 0.009088974 -0.0636584 0.011827348 0.04149651 0.0028339964 0.0021093336
0.0030989393 -0.0025469328 0.020779515 -0.036283754 0.018713422 -0.022299124 -0.0069798664 -0.018760698
0.034127258 0.03619601 -0.013243457 -0.0015385944 -0.039903812 0.0010267204 -0.0025726322 -0.012266658
0.008757173 -0.022985825 0.0038932727 -0.04193351 0.009909683 -0.0044539506 -0.021219688 0.024682919
0.008001465 0.03222209 0.01822661 0.013198249 -0.016816355 0.02199371 0.010642805 -0.014286615
0.057465944 0.023947166 -0.04226781 -0.0005974546 -0.026267046 0.03021514 -0.0018819678 0.018100489
-0.0042667226 0.02140979 -0.024190158 -0.008169548 -0.012274337 -0.011411403 -0.03672612 0.020844387
-0.012178448 0.013440672 0.0070496136 0.0023077508 -0.011750579 0.013537237 0.025248233 0.016675418
0.01558422 8.78618e-05 0.013792768 -0.008172223 0.0053397734 0.005967612 -0.0064619854 0.013749133
-0.006007278 0.008889253 -0.017547932 0.00795848 0.007683686 -0.0062898444 0.01522537 -0.015895784
0.023189375 0.010186792 0.025547607 0.010342728 -0.002334998 -0.0014746811 0.009711186 0.014062716
0.008127102 0.029953856 -0.0035419643 -0.024986085 -0.004461429 0.008563126 -0.021022722 0.019309655
0.01665146 0.008380532 -0.013300604 -0.018776504 -0.0003027706 -0.02590265 0.0238141 0.035175364
0.026791891 0.01275068 -0.0030121123 0.023465516 -0.005808843 0.03959783 0.004459849 -0.0035686828
-0.030675795 -0.00823807 0.019351628 -0.020319633 -0.0032505607 0.003460347 0.013237405 0.017433058
-0.00485877 -0.0065426067 0.015086431 -0.012786728 -0.0034743303 0.016806297 -0.0048014685 0.026692444
-0.01609598 0.04159039 -0.017197696 -0.010670617 -0.008094761 -0.013551051 0.008027309 0.015425903
0.0011449065 -0.00029383515 0.007933937 -0.0022314386 -0.0024444198 0.012997571 0.0048981374 -0.0354128
0.01885863 0.014389726 0.010359015 -0.02828526 -0.022890927 -0.01520042 0.011023087 0.0024292571
-0.0030360185 0.018264987 -0.0025218027 0.0005233638 -0.007762442 0.027754894 0.021901583 -0.03187496
-0.028352965 0.014438219 0.0001649363 0.007701476 -0.024694163 -0.0118189575 0.017502405 -0.004360661
-0.024784692 -0.011624744 -0.026196063 -0.0131470645 0.027246192 0.032293636 -0.010774154 0.01584743
0.03220049 -0.04303691 -0.025570374 -0.017011423 -0.014410527 -0.010830514 -0.04902103 -0.014462757
0.00046559153 -0.016928755 0.024146453 -0.0117465565 0.012226765 0.002429927 -0.0014115078 0.002740462
-0.016941816 -0.016168104 -0.01044597 -0.024105 -0.008687983 0.0022814109 0.01576188 0.017712532
-0.018307324 -0.0058803307 0.01861557 -0.023543652 0.014854554 0.028821314 -0.010554994 0.0112427
0.016500857 0.011005343 0.004022547 0.027727183 -0.014367305 0.00031804055 0.018479867 0.015862523
-0.0112525895 0.0030294869 -0.011764024 0.0058893203 0.030154688 0.0002633264 -0.014895346 0.023135018
0.02095871 -0.0077788373 0.006160116 -0.030248625 -0.0012303911 -0.0018762882 0.02638695 -0.017344113
-0.0039747986 -0.004798289 0.008988938 0.024417924 -0.00030556423 0.0058194147 -0.011961375 0.003902513

action_model._continuous_distribution.mu.bias f4 [2]
00000000: 568c 513b cc77 ec38
0.0031974516 0.00011275671

exp_avg f4 [128, 76]
00000000: da6c 6fb7 da99 14b7 2f8b ae36 76b9 a1b6
00000010: e11e 4537 b47f 0db7 e925 d9b6 6503 abb6
00000020: e5d6 0037 9bca e735 c378 df34 f86b eb35
00000030: 0e24 9eb5 7e1b a9b4 ac16 bab6 b58b c8ab
00000040: f413 a1b6 62b6 b0ad 691f 1236 b7cb adad
00000050: 00a0 1f37 76c8 052d 9660 6037 0e0f 28ae
00000060: 8ad0 bc36 860d 552d 998a 73b5 ae03 45ad
00000070: e18e beb6 c30c 8bad c737 b2b5 0123 d22d
00000080: c4ff c736 731d 1d2c c6dc 1036 2545 8fae
00000090: 4372 82b2 9744 04ae f1a4 23b7 48cd 06b7
000000a0: b484 0b37 aaa8 43b6 3bae c2b6 f317 8c36
000000b0: 0382 d336 cbbd 5bb6 6fa8 6b37 02dd c2b6
000000c0: 4c6f 9235 ad42 cfb6 13fa 8bb6 5992 d7b5
000000d0: c0fe bbb6 8fad 2dad 6235 d8b6 43db a3ad
000000e0: 9078 a535 0e89 33ae 0ff4 1e37 b901 e9ac
000000f0: fb75 5637 1533 ddac 6fe1 9d36 4b07 bb2d
00000100: bc99 f535 6233 0eae a0d0 d2b6 3a6a 5d2d
00000110: 0e8c 0fb5 ca80 9d2d 46f6 bf36 eeae 942c
00000120: d1f3 cd35 127c 7dae ec4c 03b5 4535 9fad
00000130: 1002 3eb8 a004 ca36 2add ea37 d450 67b7
00000140: 2f5c bd37 4781 15b7 5f19 a137 504b 37b6
00000150: 869a 0438 627f e7b7 e5b1 ce37 fc65 fdb6
00000160: e3ca 0338 1b79 1ab8 fd83 ad36 77d5 aa2d
00000170: 0891 40b7 64a1 b22c 0894 5536 34e0 e6ae
00000180: e0dd afb6 9a74 93ae 8f66 8136 a717 eaae
00000190: d04c 7b36 a6f5 622e ae11 9136 e783 e8ad
000001a0: a8b1 8636 40b8 c42d 417f ff36 8791 d82d
000001b0: bf18 cb37 2b07 3bad e031 bf37 080e 2caf
000001c0: d819 9c37 51fc f12d d0f8 2bb8 8b2b 5736
000001d0: d042 f337 0f75 98b6 5afa cd36 579b ffb6
000001e0: 7705 0a38 83a5 54b7 8479 6138 3e56 7eb7
000001f0: ac5c ce37 36e5 d9b7 ea5f 4037 e4ab fcb7
00000200: 43ee ae36 3e97 5f2d 45d8 50b7 cbf8 752e
00000210: 2ea5 ecb5 ed16 deae 36d1 97b6 9c13 b1ae
00000220: c194 3336 999d 0fae bd53 5035 7afd 012e
00000230: dc99 1b37 451e 51ae 1a5b b936 f083 f02d
00000240: 75d3 2e37 9b88 1aad 7554 a837 210c 852d
00000250: dbd2 b137 eb78 e5ae 1b7c aa37 3262 f12d
00000260: 7877 8136 0cda c0b7 d579 5637 3136 5937
00000270: 41a1 5137 4166 2537 ea37 0538 dc66 db37
00000280: 6d23 edb7 bf26 bd37 e855 5eb7 176d c1b7
00000290: 3fa9 ae36 b894 aab6 caaa 8d36 61ff 14ae
000002a0: 83f5 0ab4 d757 8c2d 30c0 c3b7 a3b0 342f
000002b0: ef9b 03b8 e395 b6ae 5fc5 78b7 b263 24ac
000002c0: aa7b 6f37 bbd2 49ae 8073 f237 62f7 64ae
000002d0: 41ee d737 9af9 a7ae e793 b837 2506 61ae
000002e0: b533 8eb6 d930 8c2d 959c abb6 a86d af2e
000002f0: c03e 1336 109c 3cad 1e51 5a37 7105 bab7
00000300: f53d 8fb7 d5c3 16b7 bd71 2837 6847 1cb7
00000310: e6e1 9bb5 52c3 6a37 3016 13b7 ad64 0437
00000320: 95bd 2835 325e b536 99b9 e937 2a87 3438
00000330: 8be2 5b36 2bd0 862e 0b49 b536 330e a7ad
00000340: 9763 95b7 ca70 732f 68c4 f9b7 7d88 a42e
00000350: 6fd3 87b7 3c20 b82d 9706 2f37 6cd9 e8ae
00000360: ddb2 9837 25e5 cc2d 65d9 e837 c5c1 e3ae
00000370: 2749 8437 4c61 d3ad 801d 3635 2a39 a4ac
00000380: 2cc6 a5b6 64e5 ae2e 727a d636 e86f c6ad
00000390: 7a60 2638 e9f2 a837 eb32 4db7 f111 5eb6
000003a0: e1ed 95b7 300c d636 eb9c a536 3b08 7337
000003b0: 6a06 c336 5619 c7b6 dcb3 15b6 4269 fdb6
000003c0: 87da 89b7 ad24 7337 16cb abb7 809a 422d
000003d0: caef 63b7 f98e b12e 5815 fbb7 e031 8f2d
000003e0: b72c a4b6 b69c 0d2f a3d1 2c37 1709 f72e
000003f0: 1940 8137 36a7 9eae 8f8e a037 3e03 ac2e
-1.4270854e-05 -8.857309e-06 5.201807e-06 -4.8197644e-06 1.1749305e-05 -8.433988e-06 -6.4715173e-06 -5.0965923e-06
7.679429e-06 1.7269807e-06 4.1624853e-07 1.7540287e-06 -1.1782411e-06 -3.1498706e-07 -5.5458713e-06 -1.4249631e-12
-4.8004968e-06 -2.0089878e-11 2.1773978e-06 -1.975829e-11 9.514391e-06 7.604686e-12 1.3373929e-05 -3.821215e-11
5.6271138e-06 1.2110651e-11 -9.072624e-07 -1.1198971e-11 -5.6790745e-06 -1.5808138e-11 -1.3278267e-06 2.388978e-11
5.960437e-06 2.232739e-12 2.158618e-06 -6.51517e-11 -1.5185952e-08 -3.0074245e-11 -9.7539605e-06 -8.034818e-06
8.315943e-06 -2.915544e-06 -5.8019336e-06 4.175113e-06 6.3034254e-06 -3.2744017e-06 1.4046308e-05 -5.8073792e-06
1.0910239e-06 -6.176843e-06 -4.1716353e-06 -1.6061341e-06 -5.602691e-06 -9.872449e-12 -6.443516e-06 -1.8628326e-11
1.2328546e-06 -4.0821617e-11 9.474358e-06 -6.6224496e-12 1.2782863e-05 -6.286869e-12 4.7052085e-06 2.1262677e-11
1.8298665e-06 -3.23327e-11 -6.282775e-06 1.2585983e-11 -5.347546e-07 1.7906027e-11 5.7209136e-06 4.225834e-12
1.534465e-06 -5.7635736e-11 -4.891324e-07 -1.8099864e-11 -4.530145e-05 6.0206075e-06 2.7997961e-05 -1.3787492e-05
2.2573482e-05 -8.911192e-06 1.920451e-05 -2.7312963e-06 3.1615164e-05 -2.7596663e-05 2.4639952e-05 -7.55186e-06
3.1421787e-05 -3.682925e-05 5.1711672e-06 1.942156e-11 -1.14778595e-05 5.0769822e-12 3.182564e-06 -1.04990155e-10
-5.241236e-06 -6.705499e-11 3.856439e-06 -1.06452895e-10 3.7446625e-06 5.160463e-11 4.323395e-06 -2.6433923e-11
4.014193e-06 2.2364444e-11 7.6144065e-06 2.4620984e-11 2.4211009e-05 -1.0631311e-11 2.27922e-05 -1.5648294e-10
1.8608684e-05 2.7510579e-11 -4.10013e-05 3.2062842e-06 2.899897e-05 -4.5435804e-06 6.138621e-06 -7.617676e-06
3.2906853e-05 -1.2674721e-05 5.375735e-05 -1.515966e-05 2.4600267e-05 -2.597515e-05 1.14664235e-05 -3.0120784e-05
5.2133414e-06 1.2709665e-11 -1.244812e-05 5.5927523e-11 -1.7631444e-06 -1.00994636e-10 -4.524506e-06 -8.0525114e-11
2.6759665e-06 -3.265441e-11 7.7607893e-07 2.9556337e-11 9.274543e-06 -4.7547983e-11 5.5240353e-06 2.7343433e-11
1.0420442e-05 -8.784219e-12 2.0066489e-05 1.5125736e-11 2.1198231e-05 -1.0435194e-10 2.032337e-05 2.7442135e-11
3.8584076e-06 -2.298972e-05 1.278376e-05 1.2946825e-05 1.2494916e-05 9.858574e-06 3.1761745e-05 2.6154732e-05
-2.8269098e-05 2.2548598e-05 -1.3252233e-05 -2.3058192e-05 5.205307e-06 -5.083708e-06 4.22201e-06 -3.3878126e-11
-1.2941568e-07 1.5955166e-11 -2.3335306e-05 1.6433659e-10 -3.137806e-05 -8.303027e-11 -1.4827906e-05 -2.3361144e-12
1.4274303e-05 -4.5889275e-11 2.8902432e-05 -5.2060918e-11 2.5740943e-05 -7.638619e-11 2.2003382e-05 -5.1164534e-11
-4.2379493e-06 1.593785e-11 -5.1144257e-06 7.9775575e-11 2.1941232e-06 -1.0721216e-11 1.3012699e-05 -2.2175462e-05
-1.707578e-05 -8.986292e-06 1.0040062e-05 -9.31495e-06 -1.1614145e-06 1.3992963e-05 -8.767049e-06 7.8912535e-06
6.2860755e-07 5.405186e-06 2.786219e-05 4.3041226e-05 3.2765408e-06 6.1305926e-11 5.4027237e-06 -1.8992008e-11
-1.780856e-05 2.2140792e-10 -2.9774572e-05 7.482102e-11 -1.619171e-05 2.0932693e-11 1.0432347e-05 -1.05887604e-10
1.8203102e-05 2.3293876e-11 2.7757787e-05 -1.0357185e-10 1.576969e-05 -2.4031131e-11 6.784321e-07 -4.667507e-12
-4.9404534e-06 7.953352e-11 6.3919515e-06 -2.255969e-11 3.9667335e-05 2.0140275e-05 -1.2230807e-05 -3.309102e-06
-1.7872955e-05 6.379116e-06 4.935651e-06 1.4485845e-05 5.8121996e-06 -5.9336116e-06 -2.2307422e-06 -7.552241e-06
-1.6433432e-05 1.4492468e-05 -2.0479358e-05 1.1061929e-11 -1.3586085e-05 8.074425e-11 -2.993147e-05 1.6279367e-11
-4.8927864e-06 1.287955e-10 1.0300809e-05 1.1233874e-10 1.5407846e-05 -7.214711e-11 1.913987e-05 7.8222304e-11

exp_avg_sq f4 [128, 76]
00000000: 56da 352e 4f55 3b2e d084 b02d 3f24 0f2e
00000010: 0240 e82d c4fc 222e 7685 d52d 1f6b 182e
00000020: 1957 152e 4edf 1e2e dc27 d12d d58a 0f2e
00000030: e34d dc2d 591e 2f2e 3b60 2d2e 3a2a ff1a
00000040: d5a1 1e2e 4841 9b1b 3c66 0b2e f3c8 b91b
00000050: 2e47 222e 5bd5 211b 78fd 3c2e 8fad b21b
00000060: f312 252e 7f80 ae1b 2fe2 b12d e6b5 b81b
00000070: ff7a 7f2d 4771 811b 0053 b82d 5f1d 8e1b
00000080: d33f f92d 513f 421b 58e9 0a2e b2d2 001c
00000090: 811d ee2d 57e1 c71b f7dd 1d2e d400 492e
000000a0: 7c49 d62d c0e1 ce2d 91f0 042e 5eeb 9b2d
000000b0: 59eb 192e 0398 4e2e e1b2 e92d 30e6 4d2e
000000c0: 2f55 c92d d024 612e 53ed b32d b4af c82d
000000d0: c316 2a2e 1922 cc1a bbdf 272e 284a 4a1b
000000e0: e6f6 0c2e 3712 531b c426 1a2e ff04 d41a
000000f0: 7f78 322e c339 af1b cc9c 132e ba4f 6f1b
00000100: 6be0 b22d 6cff a31b 11dd 792d 5465 8a1b
00000110: 76cc b12d 96dc af1b f4ba e52d df79 e91a
00000120: 4a9d fb2d 80f5 dc1b bb58 e42d 0d66 731b
00000130: 07a5 732f 65a3 002f 722b 952f ef98 b42e
00000140: 3464 972f 89dc a72e 1720 d02e c1c9 092f
00000150: 5212 472f b4cb d42e 5a75 472f 40d0 b52e
00000160: 230c 732f 448f 242f bc1e 0a2f ea98 e51b
00000170: c624 1d2f 0001 911c fe56 222f 3900 f51c
00000180: 4468 162f a82e 481c e650 0f2f 91fd ab1c
00000190: 3955 ef2e efd5 bf1c 2ae1 212f e3c5 f31c
000001a0: 1a24 1d2f 1198 9b1c 90f7 462f 6399 491c
000001b0: 5c9f 772f af50 1e1c 14b2 532f e1a1 241d
000001c0: 0604 332f 4026 a51c 2013 752f bb08 012f
000001d0: d04a 332f 4197 dd2e 10c5 7c2f 6ad3 b22e
000001e0: acad 362f 8c67 d02e 58b9 522f 1950 0f2f
000001f0: 07dc 972f 2a69 132f e9c5 552f 4f5b cd2e
00000200: db51 082f 2d53 0e1c cf33 152f 42e8 661c
00000210: bd27 2b2f f3d9 8d1c a6e3 142f fc0c 1e1c
00000220: 0a69 0a2f 0bf9 7e1c 0203 d72e d0df 891c
00000230: 3ee6 1e2f 2531 a61c 90bd 212f 5dc3 b21c
00000240: c9ec 3f2f 1003 881c 9307 6b2f 33fd 3a1c
00000250: 65de 402f cd20 f41c ac79 2c2f c473 a31c
00000260: adfb e02f 3126 b02f 5fc3 f62f ab40 c12f
00000270: 4153 ab2f d086 652f 207e aa2f 0e08 422f
00000280: c75e ab2f 5051 8a2f 21c0 d42f f061 4f2f
00000290: c9c3 bd2f fe9b 6d2f c86a 972f b001 a31c
000002a0: 6ff0 ac2f 41e9 f01c fd6b fe2f f498 5d1d
000002b0: e8da f62f 64c7 de1c d0ca b32f a3a6 991c
000002c0: b32b c72f 76d6 091d 248b c52f 8404 241d
000002d0: 3e05 a22f ca29 091d b454 8a2f acca db1c
000002e0: ce49 b12f 398f 9c1c 5b66 b82f 5d35 821d
000002f0: db99 ac2f 87e9 b01c dc29 0d30 9f8b 982f
00000300: 386d aa2f dd06 6d2f b19e ec2f def4 872f
00000310: c7e1 942f ad12 932f d423 ae2f 935c a02f
00000320: b55c ec2f d004 8c2f c9dd bd2f 55d3 782f
00000330: 738e 912f e452 a11c ff69 a42f bfe7 d81c
00000340: de11 f92f d772 2a1d 689a f62f c065 951c
00000350: b031 b22f 1410 9d1c 7ac2 be2f dfc9 fa1c
00000360: 662c b42f 90a2 ca1c 0385 a12f cd4e c51c
00000370: b5f9 8c2f 81fb b61c 1588 b82f c22a 871c
00000380: 4244 ba2f 5be5 f81c 2731 9c2f 3052 661c
00000390: 2389 d02f 6120 982f 4a9f 8e2f b522 302f
000003a0: 884b a22f 1216 832f f17d 722f d79d 822f
000003b0: f83e 412f 8ec0 c22f 0190 b62f f670 6e2f
000003c0: b5f6 5f2f ec20 912f 3a87 4b2f c142 951c
000003d0: 7aa2 452f 9f29 161d 1e33 4b2f 19a4 251d
000003e0: fe6b 382f 1e84 201d eb60 2a2f 3973 4e1d
000003f0: d051 e72e fe2c 501d bb4a d42e 8f57 541d
4.1348557e-11 4.2594647e-11 2.0067864e-11 3.254663e-11 2.6403772e-11 3.7059036e-11 2.4274565e-11 3.465594e-11
3.3956036e-11 3.6123375e-11 2.377825e-11 3.2637743e-11 2.5045693e-11 3.9817347e-11 3.9421116e-11 1.0553375e-22
3.6068776e-11 2.5684786e-22 3.1695743e-11 3.0735543e-22 3.6897756e-11 1.3386547e-22 4.2971376e-11 2.955979e-22
3.7533487e-11 2.8868924e-22 2.0223016e-11 3.0557796e-22 1.4522382e-11 2.1414464e-22 2.0955238e-11 2.351091e-22
2.8336366e-11 1.6067763e-22 3.1584818e-11 4.2623965e-22 2.707057e-11 3.306741e-22 3.589481e-11 4.5702844e-11
2.4361617e-11 2.3519742e-11 3.022699e-11 1.7725984e-11 3.4997203e-11 4.697399e-11 2.6568471e-11 4.681605e-11
2.2888883e-11 5.1191773e-11 2.0455337e-11 2.2815395e-11 3.867374e-11 8.442751e-23 3.8170116e-11 1.673301e-22
3.2051604e-11 1.7459396e-22 3.5049977e-11 8.7689217e-23 4.0579536e-11 2.898865e-22 3.3563194e-11 1.9795378e-22
2.0335919e-11 2.713115e-22 1.4203098e-11 2.2895667e-22 2.021337e-11 2.9093872e-22 2.611731e-11 9.6563435e-23
2.8605247e-11 3.6554598e-22 2.5960003e-11 2.0133463e-22 2.2159351e-10 1.1699582e-10 2.7133812e-10 8.212619e-11
2.7537939e-10 7.633456e-11 9.464445e-11 1.2531755e-10 1.8105453e-10 9.676829e-11 1.8140636e-10 8.26792e-11
2.2105033e-10 1.4966611e-10 1.2561946e-10 3.798369e-22 1.4292131e-10 9.595554e-22 1.476472e-10 1.6212798e-21
1.3679463e-10 6.623475e-22 1.3034515e-10 1.1381376e-21 1.08836e-10 1.269462e-21 1.4722859e-10 1.6131544e-21
1.4291893e-10 1.0296348e-21 1.8095947e-10 6.670357e-22 2.2521135e-10 5.2382096e-22 1.9253604e-10 2.1788909e-21
1.6281385e-10 1.0928671e-21 2.2289415e-10 1.1735583e-10 1.6306534e-10 1.00767845e-10 2.2989277e-10 8.1320575e-11
1.6614504e-10 9.4771385e-11 1.9165236e-10 1.303423e-10 2.762308e-10 1.3406934e-10 1.9442549e-10 9.3385404e-11
1.2398209e-10 4.709136e-22 1.3569877e-10 7.6400803e-22 1.5566477e-10 9.386936e-22 1.3541399e-10 5.2294597e-22
1.2588344e-10 8.436343e-22 9.777602e-11 9.123754e-22 1.4451815e-10 1.0997662e-21 1.4710211e-10 1.1829552e-21
1.7455472e-10 9.000517e-22 2.1375816e-10 6.186949e-22 1.7541309e-10 1.6155044e-21 1.5686535e-10 1.081636e-21
4.092419e-10 3.204135e-10 4.488596e-10 3.5152445e-10 3.1163874e-10 2.0875324e-10 3.1012437e-10 1.7647059e-10
3.1172062e-10 2.515983e-10 3.869909e-10 1.8861335e-10 3.4518013e-10 2.1610444e-10 2.7542613e-10 1.0786871e-21
3.1457456e-10 1.5942162e-21 4.627906e-10 2.9328181e-21 4.4902682e-10 1.4742269e-21 3.2704017e-10 1.0167765e-21
3.622894e-10 1.8242673e-21 3.5932957e-10 2.1707554e-21 2.9471353e-10 1.8153403e-21 2.516224e-10 1.4544594e-21
3.2248554e-10 1.0360236e-21 3.3542133e-10 3.446589e-21 3.139594e-10 1.1707068e-21 5.1354987e-10 2.7747846e-10
3.1000424e-10 2.1557463e-10 4.3040907e-10 2.4730346e-10 2.7081468e-10 2.6752414e-10 3.1675873e-10 2.9169608e-10
4.2994022e-10 2.546927e-10 3.4536488e-10 2.2630549e-10 2.6476563e-10 1.0675513e-21 2.990674e-10 1.4353586e-21
4.5305532e-10 2.2558683e-21 4.4856852e-10 9.886295e-22 3.2413316e-10 1.0393545e-21 3.4698983e-10 1.6595795e-21
3.2773356e-10 1.340926e-21 2.938024e-10 1.3056736e-21 2.564328e-10 1.2108762e-21 3.3566097e-10 8.944603e-22
3.3881703e-10 1.647055e-21 2.841116e-10 7.620684e-22 3.793242e-10 2.7671646e-10 2.594283e-10 1.6019437e-10
2.9521297e-10 2.3844443e-10 2.2054515e-10 2.3759014e-10 1.7575619e-10 3.5425213e-10 3.3207928e-10 2.1686106e-10
2.036938e-10 2.639874e-10 1.8510785e-10 9.877248e-22 1.7974769e-10 1.9873852e-21 1.8480903e-10 2.1922405e-21
1.6773069e-10 2.1244127e-21 1.5495842e-10 2.7323442e-21 1.05191966e-10 2.7551831e-21 9.6539186e-11 2.8103233e-21

exp_avg f4 [128]
00000000: 3c81 7cb6 a12d eeb6 9581 4b37 dcde eb37
00000010: a04f 3f37 9f76 b4b6 50dd 0db7 bb14 1937
00000020: c7be 3f37 8f0a 0737 25ac b0b6 9ac6 7db7
00000030: fe3a 45b7 515c 0837 f4cd 82b6 3c77 4ab8
00000040: 461e 8737 5019 a537 b868 bdb6 ae90 08b7
00000050: 28bb 09b8 5517 0637 82de 0736 eb66 0ab5
00000060: f3f6 2cb8 a73b dc37 0171 18b8 8f42 2637
00000070: bd60 99b5 6c71 3b37 fd08 9fb6 ff43 c136
00000080: 774d b2b7 b0e6 82b7 9d12 e4b7 3528 1f37
00000090: ab3b a0b6 7bfb 55b6 d27e 2fb7 cbab 45b6
000000a0: 7857 4437 9c71 b2b6 c528 33b7 b1a6 55b7
000000b0: e5e5 08b6 eb0e 8c37 8ca0 b5b6 6f03 8237
000000c0: 93db e036 ed9c 8037 1ff3 7137 715e 3437
000000d0: d7bf 06b7 f910 b437 e6c0 a8b7 bdd2 c235
000000e0: 98b1 8737 15c1 0f37 ed04 17b7 8d9e fbb6
000000f0: 8e57 75b7 c387 0ab8 69dc bfb6 6bcc 28b7
00000100: 60cd 0537 49f8 d6b4 6677 6b36 ec27 45b7
00000110: b184 36b7 f625 73b7 172e 7cb7 7e26 c3b6
00000120: a2ff 26b8 7872 92b7 d90b 0cb5 fa2a 6f36
00000130: ed77 19b7 dc37 40b7 97a6 42b7 cd73 9637
00000140: 5f84 01b8 f6e0 ad37 b13e a6b6 178f 9036
00000150: 9427 be37 0810 9e35 ef6c 3737 4628 08b8
00000160: e577 8036 c8b5 3a36 654c 0e38 0d7d d336
00000170: 8e34 3fb6 9957 0b37 0492 58b7 8616 3eb7
00000180: 90fb c8b7 87cc 2237 e74b 3137 b181 9e35
00000190: 3233 b136 64a3 99b6 625f d9b6 7efb 8637
000001a0: e46a ba37 77e4 a335 3468 9636 b3f3 3eb7
000001b0: 62e1 10b8 4d81 ebb6 3ed8 4f37 a6ff a536
000001c0: f641 25b7 d5bf cfb6 2bc3 69b4 6a8f c536
000001d0: ecdc 82b6 3dbb a436 cecd 87b7 34c2 2638
000001e0: 3a17 1f37 76a8 9936 103f b137 ed7a 7eb6
000001f0: db44 6137 2f82 d6b7 15f1 e936 2e82 39b7
-3.762615e-06 -7.0982646e-06 1.2129914e-05 2.811796e-05 1.1403026e-05 -5.3782273e-06 -8.455783e-06 9.124337e-06
1.1428906e-05 8.049085e-06 -5.265249e-06 -1.5126216e-05 -1.175585e-05 8.127726e-06 -3.898278e-06 -4.82716e-05
1.6107351e-05 1.968132e-05 -5.64483e-06 -8.139918e-06 -3.2837648e-05 7.992455e-06 2.0246084e-06 -5.155877e-07
-4.1237985e-05 2.6253821e-05 -3.6344867e-05 9.909868e-06 -1.1427543e-06 1.1172477e-05 -4.7396156e-06 5.759764e-06
-2.1255326e-05 -1.560463e-05 -2.7188386e-05 9.4865e-06 -4.775318e-06 -3.1885854e-06 -1.04603405e-05 -2.9455284e-06
1.1702876e-05 -5.3180393e-06 -1.0678724e-05 -1.27346e-05 -2.0399395e-06 1.6696247e-05 -5.4129105e-06 1.5498807e-05
6.701282e-06 1.5331863e-05 1.4421325e-05 1.0750825e-05 -8.031689e-06 2.1465576e-05 -2.0116986e-05 1.4515459e-06
1.6175953e-05 8.56842e-06 -9.001448e-06 -7.4988407e-06 -1.4623523e-05 -3.3028202e-05 -5.7179027e-06 -1.0061175e-05
7.975235e-06 -4.0041257e-07 3.5087228e-06 -1.175141e-05 -1.087894e-05 -1.4492767e-05 -1.5031102e-05 -5.815934e-06
-3.981556e-05 -1.745786e-05 -5.2171305e-07 3.563879e-06 -9.147433e-06 -1.1457098e-05 -1.1602088e-05 1.7935317e-05
-3.0879277e-05 2.0727963e-05 -4.9544838e-06 4.3081923e-06 2.2668195e-05 1.1776583e-06 1.0933013e-05 -3.2462434e-05
3.828655e-06 2.782197e-06 3.3926586e-05 6.302848e-06 -2.8491809e-06 8.305441e-06 -1.29086e-05 -1.1330127e-05
-2.3959e-05 9.703573e-06 1.05676945e-05 1.1809663e-06 5.280971e-06 -4.5787765e-06 -6.478208e-06 1.6091155e-05
2.2222703e-05 1.2210938e-06 4.482479e-06 -1.1381623e-05 -3.454218e-05 -7.0185984e-06 1.2388509e-05 4.9471446e-06
-9.850124e-06 -6.191413e-06 -2.1770818e-07 5.887753e-06 -3.9000206e-06 4.9093783e-06 -1.618909e-05 3.975835e-05
9.482546e-06 4.5793668e-06 2.112941e-05 -3.7920502e-06 1.3427077e-05 -2.557141e-05 6.9720068e-06 -1.1057169e-05
