results/updatedCode2/DroneAgent/DroneAgent-20142.pt (torch, 225750 bytes, 20 tensors)

network_body.observation_encoder.processors.0.normalizer.running_mean f4 [76]
0.0022765326 -0.006379743 0.010925577 -0.008402688 0.005992886 -0.0059287194 0.0070511857 -0.004105869
0.0032936558 -0.005601271 0.0072430763 -0.004824221 0.009953283 -0.007584819 -0.043934304 -8.441475e-08
-0.08202671 -8.516691e-08 -0.0892421 -8.487108e-08 -0.08027116 -8.433602e-08 -0.04921206 -8.538021e-08
-0.009911163 -8.522124e-08 0.04378472 -8.496317e-08 0.08325507 -8.503866e-08 0.074283585 -8.492945e-08
0.07485923 -8.413497e-08 0.032094236 -8.510194e-08 0.010483899 -8.460095e-08 0.0034533122 -0.0077187903
0.011707031 -0.009089991 0.0066302735 -0.0066640014 0.0068032024 -0.0023491913 0.0018011952 -0.0048312494
0.006329205 -0.004921973 0.008308508 -0.009142249 -0.046056066 -8.93879e-08 -0.08583545 -9.019926e-08
-0.09270495 -8.985976e-08 -0.0825786 -8.9319826e-08 -0.048810996 -9.038807e-08 -0.0075846193 -9.034538e-08
0.04727621 -8.999362e-08 0.08858254 -9.005861e-08 0.0777676 -8.991383e-08 0.07526001 -8.909186e-08
0.030899694 -9.00969e-08 0.008620588 -8.9649994e-08
00000000: e131 153b 2a0d d1bb 3101 333c 6eab 09bc
00000010: f95f c43b b445 c2bb a20d e73b 878a 86bb
00000020: 60da 573b de8a b7bb 5457 ed3b 8014 9ebb
00000030: 1813 233c 138a f8bb 75f4 33bd 8047 b5b3
00000040: 9ffd a7bd 01e5 b6b3 90c4 b6bd 5f42 b6b3
00000050: 3565 a4bd 381c b5b3 9692 49bd 445a b7b3
00000060: 6e62 22bc df02 b7b3 9b57 333d ff74 b6b3
00000070: a281 aa3d 7f9e b6b3 fe21 983d 7562 b6b3
00000080: cc4f 993d b0ad b4b3 3f75 033d 49c1 b6b3
00000090: a9c4 2b3c ddad b5b3 f750 623b e8ed fcbb
000000a0: d9ce 3f3c 30ee 14bc c442 d93b b25d dabb
000000b0: 66ed de3b e4f4 19bb 1516 ec3a 754f 9ebb
000000c0: 3865 cf3b 8148 a1bb 6920 083c 5fc9 15bc
000000d0: 49a5 3cbd 85f5 bfb3 7fca afbd 91b3 c1b3
000000e0: 18dc bdbd edf8 c0b3 f81e a9bd 18d0 bfb3
000000f0: 0aee 47bd 5e1b c2b3 6688 f8bb e603 c2b3
00000100: b3a4 413d 8442 c1b3 c36a b53d 3f66 c1b3
00000110: 9f44 9f3d a716 c1b3 ec21 9a3d c552 bfb3
00000120: 5b21 fd3c 4b7b c1b3 5e3d 0d3c 9b85 c0b3

network_body.observation_encoder.processors.0.normalizer.running_variance f4 [76]
4342.492 4458.2114 13328.051 12135.699 13072.743 12121.618 13320.113 12135.056
13034.102 12089.8 13164.303 12184.623 13282.217 12188.438 65298.7 1.0
83050.59 1.0 76797.71 1.0 56721.08 1.0 72753.05 1.0
75569.67 1.0 60250.117 1.0 74968.97 1.0 72685.31 1.0
55282.973 1.0 73102.9 1.0 78492.086 1.0 4667.503 4782.6094
14087.989 12864.558 13859.934 12876.415 14103.8 12908.381 13807.515 12841.53
13965.079 12910.588 14041.096 12887.452 69180.016 1.0 87852.81 1.0
81241.37 1.0 59987.16 1.0 77089.88 1.0 80205.98 1.0
63815.92 1.0 79284.625 1.0 76801.16 1.0 58545.766 1.0
77509.69 1.0 83303.63 1.0
00000000: f0b3 8745 b151 8b45 3440 5046 cc9e 3d46
00000010: f942 4c46 7966 3d46 7420 5046 399c 3d46
00000020: 68a8 4b46 33e7 3c46 36b1 4d46 7e62 3e46
00000030: de88 4f46 c171 3e46 b312 7f47 0000 803f
00000040: 4c35 a247 0000 803f dbfe 9547 0000 803f
00000050: 1491 5d47 0000 803f 8618 8e47 0000 803f
00000060: d698 9347 0000 803f 1e5a 6b47 0000 803f
00000070: 7c6c 9247 0000 803f a8f6 8d47 0000 803f
00000080: f9f2 5747 0000 803f 73c7 8e47 0000 803f
00000090: 0b4e 9947 0000 803f 06dc 9145 e074 9545
000000a0: f51f 5c46 3b02 4946 bc8f 5846 a931 4946
000000b0: 335f 5c46 86b1 4946 0fbe 5746 1fa6 4846
000000c0: 5134 5a46 5aba 4946 6264 5b46 cf5d 4946
000000d0: 021e 8747 0000 803f 6896 ab47 0000 803f
000000e0: afac 9e47 0000 803f 2953 6a47 0000 803f
000000f0: f190 9647 0000 803f fda6 9c47 0000 803f
00000100: ec47 7947 0000 803f 50da 9a47 0000 803f
00000110: 9400 9647 0000 803f c4b1 6447 0000 803f
00000120: d862 9747 0000 803f d1b3 a247 0000 803f

network_body.processors.0.normalizer.running_mean f4 [76]
0.0022765326 -0.006379743 0.010925577 -0.008402688 0.005992886 -0.0059287194 0.0070511857 -0.004105869
0.0032936558 -0.005601271 0.0072430763 -0.004824221 0.009953283 -0.007584819 -0.043934304 -8.441475e-08
-0.08202671 -8.516691e-08 -0.0892421 -8.487108e-08 -0.08027116 -8.433602e-08 -0.04921206 -8.538021e-08
-0.009911163 -8.522124e-08 0.04378472 -8.496317e-08 0.08325507 -8.503866e-08 0.074283585 -8.492945e-08
0.07485923 -8.413497e-08 0.032094236 -8.510194e-08 0.010483899 -8.460095e-08 0.0034533122 -0.0077187903
0.011707031 -0.009089991 0.0066302735 -0.0066640014 0.0068032024 -0.0023491913 0.0018011952 -0.0048312494
0.006329205 -0.004921973 0.008308508 -0.009142249 -0.046056066 -8.93879e-08 -0.08583545 -9.019926e-08
-0.09270495 -8.985976e-08 -0.0825786 -8.9319826e-08 -0.048810996 -9.038807e-08 -0.0075846193 -9.034538e-08
0.04727621 -8.999362e-08 0.08858254 -9.005861e-08 0.0777676 -8.991383e-08 0.07526001 -8.909186e-08
0.030899694 -9.00969e-08 0.008620588 -8.9649994e-08
00000000: e131 153b 2a0d d1bb 3101 333c 6eab 09bc
00000010: f95f c43b b445 c2bb a20d e73b 878a 86bb
00000020: 60da 573b de8a b7bb 5457 ed3b 8014 9ebb
00000030: 1813 233c 138a f8bb 75f4 33bd 8047 b5b3
00000040: 9ffd a7bd 01e5 b6b3 90c4 b6bd 5f42 b6b3
00000050: 3565 a4bd 381c b5b3 9692 49bd 445a b7b3
00000060: 6e62 22bc df02 b7b3 9b57 333d ff74 b6b3
00000070: a281 aa3d 7f9e b6b3 fe21 983d 7562 b6b3
00000080: cc4f 993d b0ad b4b3 3f75 033d 49c1 b6b3
00000090: a9c4 2b3c ddad b5b3 f750 623b e8ed fcbb
000000a0: d9ce 3f3c 30ee 14bc c442 d93b b25d dabb
000000b0: 66ed de3b e4f4 19bb 1516 ec3a 754f 9ebb
000000c0: 3865 cf3b 8148 a1bb 6920 083c 5fc9 15bc
000000d0: 49a5 3cbd 85f5 bfb3 7fca afbd 91b3 c1b3
000000e0: 18dc bdbd edf8 c0b3 f81e a9bd 18d0 bfb3
000000f0: 0aee 47bd 5e1b c2b3 6688 f8bb e603 c2b3
00000100: b3a4 413d 8442 c1b3 c36a b53d 3f66 c1b3
00000110: 9f44 9f3d a716 c1b3 ec21 9a3d c552 bfb3
00000120: 5b21 fd3c 4b7b c1b3 5e3d 0d3c 9b85 c0b3

network_body.processors.0.normalizer.running_variance f4 [76]
4342.492 4458.2114 13328.051 12135.699 13072.743 12121.618 13320.113 12135.056
13034.102 12089.8 13164.303 12184.623 13282.217 12188.438 65298.7 1.0
83050.59 1.0 76797.71 1.0 56721.08 1.0 72753.05 1.0
75569.67 1.0 60250.117 1.0 74968.97 1.0 72685.31 1.0
55282.973 1.0 73102.9 1.0 78492.086 1.0 4667.503 4782.6094
14087.989 12864.558 13859.934 12876.415 14103.8 12908.381 13807.515 12841.53
13965.079 12910.588 14041.096 12887.452 69180.016 1.0 87852.81 1.0
81241.37 1.0 59987.16 1.0 77089.88 1.0 80205.98 1.0
63815.92 1.0 79284.625 1.0 76801.16 1.0 58545.766 1.0
77509.69 1.0 83303.63 1.0
00000000: f0b3 8745 b151 8b45 3440 5046 cc9e 3d46
00000010: f942 4c46 7966 3d46 7420 5046 399c 3d46
00000020: 68a8 4b46 33e7 3c46 36b1 4d46 7e62 3e46
00000030: de88 4f46 c171 3e46 b312 7f47 0000 803f
00000040: 4c35 a247 0000 803f dbfe 9547 0000 803f
00000050: 1491 5d47 0000 803f 8618 8e47 0000 803f
00000060: d698 9347 0000 803f 1e5a 6b47 0000 803f
00000070: 7c6c 9247 0000 803f a8f6 8d47 0000 803f
00000080: f9f2 5747 0000 803f 73c7 8e47 0000 803f
00000090: 0b4e 9947 0000 803f 06dc 9145 e074 9545
000000a0: f51f 5c46 3b02 4946 bc8f 5846 a931 4946
000000b0: 335f 5c46 86b1 4946 0fbe 5746 1fa6 4846
000000c0: 5134 5a46 5aba 4946 6264 5b46 cf5d 4946
000000d0: 021e 8747 0000 803f 6896 ab47 0000 803f
000000e0: afac 9e47 0000 803f 2953 6a47 0000 803f
000000f0: f190 9647 0000 803f fda6 9c47 0000 803f
00000100: ec47 7947 0000 803f 50da 9a47 0000 803f
00000110: 9400 9647 0000 803f c4b1 6447 0000 803f
00000120: d862 9747 0000 803f d1b3 a247 0000 803f

network_body._body_endoder.seq_layers.0.weight f4 [128, 76]
0.16854176 0.07101141 -0.06463754 -0.16840573 -0.15021354 -0.276801 0.067332976 0.20472832
0.099789605 -0.07863233 -0.16239896 0.110400245 -0.065103605 -0.00294581 0.15298165 -0.005170326
-0.018878462 -0.17787041 0.042607542 -0.039806698 -0.21015084 -0.071355484 -0.033170793 -0.07759438
0.017754845 0.066242196 0.099748366 -0.025612677 -0.048485037 0.011989779 0.05340344 -0.021023154
0.1175558 -0.07545269 -0.04293565 0.1875911 -0.13898112 -0.37044436 -0.018171484 0.063556716
0.14289252 0.041214272 -0.118925154 0.03757276 0.0038373217 -0.058174208 -0.27930248 0.06618683
0.047641616 -0.2877374 -0.034477677 0.08755561 0.06508095 -0.077383645 0.01891068 0.12901402
-0.18438037 -0.20352288 0.03606783 -0.25072494 -0.18877903 0.03235691 0.23416394 -0.10878849
0.13786237 -0.16745117 0.149205 0.12098235 -0.014292355 0.06578028 0.020688422 0.17365952
0.1506623 0.14847083 -0.048162304 0.09077669 -0.033367638 -0.10209173 0.2533798 -0.08576395
0.045876786 -0.06903236 0.15172102 -0.07474083 0.09958528 0.17891636 -0.030998651 0.08418727
0.031515915 0.3193401 0.032407273 0.011671817 -0.037800536 0.15068768 -0.06864684 0.08230876
0.027380932 -0.06528484 -0.037347358 -0.06107812 0.009231081 0.04406042 0.062054425 -0.026552789
-0.09150942 0.04607977 0.035007894 -0.12458415 0.0109903235 0.09575618 -0.17805846 -0.09524891
-0.07623778 -0.2022748 0.006047202 0.054837633 0.13903838 -0.112725414 0.07800484 -0.022984978
-0.11162079 0.00045752313 -0.032164115 -0.18642253 0.10960546 -0.10407005 0.19250074 0.08302469
-0.06359078 -0.057548735 -0.09984253 0.12562838 0.15755662 -0.04309946 -0.11087941 0.03225864
-0.11031862 0.072097 -0.03075791 0.07784725 0.038110685 0.15788944 -0.007834711 -0.11972624
-0.0048808763 -0.07646455 0.08834141 0.07021095 0.090982154 -0.047678765 -0.045157183 0.10536987
-0.23601338 -0.13809182 -0.026318608 0.13836466 0.032479055 -0.21190773 0.102281004 -0.09701857
0.011550456 0.019005245 -0.2438545 0.11342664 -0.008799861 -0.17480896 -0.03601674 0.011591653
0.083530165 0.11003638 -0.04926004 -0.086360246 0.11913545 0.22928843 -0.0020935016 0.0642499
-0.20152198 -0.052390043 -0.12919523 0.25544333 0.10542465 -0.07783751 -0.114279345 -0.005643319
0.14856833 0.013203322 -0.024821514 -0.023487026 -0.030987687 -0.06813625 -0.07838803 -0.11262688
0.112134755 0.03821978 0.13137777 0.16174917 0.26882985 -0.20086439 -0.08313347 0.20523526
-0.14890346 0.117318414 -0.17732432 0.21189277 -0.19302414 -0.11109507 0.10369645 0.10705274
0.023707464 0.0689209 -0.05274608 -0.11912441 0.060168155 0.15432173 -0.12650065 -0.06747348
-0.054038413 0.14873122 -0.041689467 0.08427375 -0.0014101743 0.043623425 0.2049147 -0.055902693
-0.13911119 0.035076357 -0.21798037 0.036294457 -0.1632176 0.093848065 0.21629417 -0.16662462
-0.060151525 -0.16364796 -0.22594507 -0.12791575 -0.27075344 -0.13366367 -0.080650784 -0.015172504
-0.07102264 -0.113767244 -0.18508239 0.059928197 -0.032743987 0.047168814 -0.04527927 -0.05146871
-0.1805662 0.14374258 -0.025014762 -0.20692249 -0.06211871 -0.051554073 0.08047918 0.05141609
00000000: 3696 2c3e 6e6e 913d b060 84bd 8d72 2cbe
00000010: 94d1 19be dcb8 8dbe dfe5 893d 4da4 513e
00000020: 7e5e cc3d fd09 a1bd ea4b 26be 8619 e23d
00000030: 0a55 85bd 7e0e 41bb 39a7 1c3e d76b a9bb
00000040: 01a7 9abc a923 36be 3f85 2e3d 590c 23bd
00000050: c831 57be d322 92bd 19de 07bd cde9 9ebd
00000060: 9c72 913c fda9 873d df48 cc3d add1 d1bc
00000070: 3f98 46bd c770 443c 91bd 5a3d c038 acbc
00000080: 18c1 f03d f186 9abd 4bdd 2fbd e217 403e
00000090: 1151 0ebe e2aa bdbe 5ddc 94bc 062a 823d
000000a0: 6b52 123e 4cd0 283d 088f f3bd e5e5 193d
000000b0: 937b 7b3b 1448 6ebd bc00 8fbe f68c 873d
000000c0: db23 433d 5152 93be 7738 0dbd 5b50 b33d
000000d0: 2949 853d 517b 9ebd 92ea 9a3c 401c 043e
000000e0: 35ce 3cbe 4d68 50be dcbb 133d 055f 80be
000000f0: 4a4f 41be ae88 043d acc8 6f3e 80cc debd
00000100: cb2b 0d3e 5278 2bbe 32c9 183e 98c5 f73d
00000110: 7b2a 6abc d0b7 863d c47a a93c cdd3 313e
00000120: 3847 1a3e bd08 183e d645 45bd 21e9 b93d
00000130: 81ac 08bd 7815 d1bd ffba 813e 03a5 afbd
00000140: 4ce9 3b3d d760 8dbd c15c 1b3e b811 99bd
00000150: 5ef3 cb3d da35 373e e2f0 fdbc 606a ac3d
00000160: d516 013d 8c80 a33e 7dbd 043d 263b 3f3c
00000170: bcd4 1abd df4d 1a3e b796 8cbd 7f91 a83d
00000180: fa4d e03c 0fb4 85bd 8bf9 18bd 0d2d 7abd
00000190: f63d 173c b378 343d c82c 7e3d 3c85 d9bc
000001a0: 4a69 bbbd 24be 3c3d 7064 0f3d fa25 ffbd
000001b0: c210 343c d11b c43d f554 36be dc11 c3bd
000001c0: 8e22 9cbd 2021 4fbe 9b27 c63b 6d9d 603d
000001d0: 1460 0e3e 95dc e6bd 00c1 9f3d fe4a bcbc
000001e0: 7199 e4bd b7df ef39 85be 03bd 8ce5 3ebe
000001f0: d478 e03d ae22 d5bd ea1e 453e d908 aa3d
00000200: e23b 82bd 39b8 6bbd 3e7a ccbd baa4 003e
00000210: 8656 213e 0f89 30bd be14 e3bd a321 043d
00000220: bbee e1bd 98a7 933d 03f8 fbbc 616e 9f3d
00000230: f319 1c3d c5ad 213e 295d 00bc 0833 f5bd
00000240: c2ef 9fbb 7299 9cbd 57ec b43d c2ca 8f3d
00000250: da54 ba3d cf4a 43bd bdf6 38bd 29cc d73d
00000260: 7ead 71be f167 0dbe 1f9a d7bc 77af 0d3e
00000270: c208 053d 57fe 58be b478 d13d acb1 c6bd
00000280: 203e 3d3c e3b0 9b3c feb4 79be 3a4c e83d
00000290: 4b2d 10bc 1f01 33be 4a86 13bd ebea 3d3c
000002a0: dd11 ab3d c15a e13d e5c4 49bd a4dd b0bd
000002b0: 49fd f33d 96ca 6a3e 2133 09bb 7495 833d
000002c0: c75b 4ebe f196 56bd c14b 04be 78c9 823e
000002d0: e1e8 d73d 4669 9fbd 4a0b eabd 97eb b8bb
000002e0: 4c22 183e bf52 583c 7d56 cbbc dd67 c0bc
000002f0: e4d9 fdbc 058b 8bbd e789 a0bd eca8 e6bd
00000300: e8a6 e53d 588c 1c3d e587 063e 93a1 253e
00000310: 11a4 893e 65af 4dbe e141 aabd 3129 523e
00000320: 267a 18be a344 f03d 8294 35be 6bfa 583e
00000330: 1fa8 45be d085 e3bd ce5e d43d 783e db3d
00000340: 2836 c23c 6726 8d3d 460c 58bd 80f7 f3bd
00000350: e272 763d 8406 1e3e 6389 01be 892f 8abd
00000360: 6257 5dbd ff4c 183e 93c2 2abd b797 ac3d
00000370: 99d5 b8ba 7aae 323d 29d5 513e 39fa 64bd
00000380: 2a73 0ebe 3aac 0f3d 3f36 5fbe 7fa9 143d
00000390: 8422 27be 6a33 c03d 387c 5d3e a59f 2abe
000003a0: 7261 76bd 5593 27be 255e 67be 59fc 02be
000003b0: 32a0 8abe 21df 08be 3d2c a5bd 1896 78bc
000003c0: 5174 91bd cdfe e8bd 3d86 3dbe 4577 753d
000003d0: 8f1e 06bd 1634 413d c176 39bd dbd0 52bd
000003e0: 59e6 38be 4131 133e c2eb ccbc 7de3 53be
000003f0: 3070 7ebd 5d2a 53bd 45d2 a43d ae99 523d

network_body._body_endoder.seq_layers.0.bias f4 [128]
0.0 0.0 0.0 0.0 0.0 0.0 0.0 0.0
0.0 0.0 0.0 0.0 0.0 0.0 0.0 0.0
0.0 0.0 0.0 0.0 0.0 0.0 0.0 0.0
0.0 0.0 0.0 0.0 0.0 0.0 0.0 0.0
0.0 0.0 0.0 0.0 0.0 0.0 0.0 0.0
0.0 0.0 0.0 0.0 0.0 0.0 0.0 0.0
0.0 0.0 0.0 0.0 0.0 0.0 0.0 0.0
0.0 0.0 0.0 0.0 0.0 0.0 0.0 0.0
0.0 0.0 0.0 0.0 0.0 0.0 0.0 0.0
0.0 0.0 0.0 0.0 0.0 0.0 0.0 0.0
0.0 0.0 0.0 0.0 0.0 0.0 0.0 0.0
0.0 0.0 0.0 0.0 0.0 0.0 0.0 0.0
0.0 0.0 0.0 0.0 0.0 0.0 0.0 0.0
0.0 0.0 0.0 0.0 0.0 0.0 0.0 0.0
0.0 0.0 0.0 0.0 0.0 0.0 0.0 0.0
0.0 0.0 0.0 0.0 0.0 0.0 0.0 0.0
00000000: 0000 0000 0000 0000 0000 0000 0000 0000
00000010: 0000 0000 0000 0000 0000 0000 0000 0000
00000020: 0000 0000 0000 0000 0000 0000 0000 0000
00000030: 0000 0000 0000 0000 0000 0000 0000 0000
00000040: 0000 0000 0000 0000 0000 0000 0000 0000
00000050: 0000 0000 0000 0000 0000 0000 0000 0000
00000060: 0000 0000 0000 0000 0000 0000 0000 0000
00000070: 0000 0000 0000 0000 0000 0000 0000 0000
00000080: 0000 0000 0000 0000 0000 0000 0000 0000
00000090: 0000 0000 0000 0000 0000 0000 0000 0000
000000a0: 0000 0000 0000 0000 0000 0000 0000 0000
000000b0: 0000 0000 0000 0000 0000 0000 0000 0000
000000c0: 0000 0000 0000 0000 0000 0000 0000 0000
000000d0: 0000 0000 0000 0000 0000 0000 0000 0000
000000e0: 0000 0000 0000 0000 0000 0000 0000 0000
000000f0: 0000 0000 0000 0000 0000 0000 0000 0000
00000100: 0000 0000 0000 0000 0000 0000 0000 0000
00000110: 0000 0000 0000 0000 0000 0000 0000 0000
00000120: 0000 0000 0000 0000 0000 0000 0000 0000
00000130: 0000 0000 0000 0000 0000 0000 0000 0000
00000140: 0000 0000 0000 0000 0000 0000 0000 0000
00000150: 0000 0000 0000 0000 0000 0000 0000 0000
00000160: 0000 0000 0000 0000 0000 0000 0000 0000
00000170: 0000 0000 0000 0000 0000 0000 0000 0000
00000180: 0000 0000 0000 0000 0000 0000 0000 0000
00000190: 0000 0000 0000 0000 0000 0000 0000 0000
000001a0: 0000 0000 0000 0000 0000 0000 0000 0000
000001b0: 0000 0000 0000 0000 0000 0000 0000 0000
000001c0: 0000 0000 0000 0000 0000 0000 0000 0000
000001d0: 0000 0000 0000 0000 0000 0000 0000 0000
000001e0: 0000 0000 0000 0000 0000 0000 0000 0000
000001f0: 0000 0000 0000 0000 0000 0000 0000 0000

network_body._body_endoder.seq_layers.2.weight f4 [128, 128]
-0.08033119 -0.0009834901 0.11354098 -0.00080834853 -0.034106113 0.012893295 0.023327092 0.0775663
-0.0062984633 -0.032953758 0.03803366 -0.08435403 -0.11052836 0.16593501 -0.07600357 0.1355937
-0.06528957 0.026265055 0.24124348 -0.10650054 -0.003590157 -0.03343861 0.08014125 -0.14297737
-0.12034335 0.1304706 -0.0931351 -0.07499725 -0.020340998 -0.075804815 -0.15756597 -0.13910271
0.008133893 0.08159248 -0.1415627 0.021828415 0.030725867 -0.034539796 -0.03430348 -0.014461455
0.008460134 -0.04495844 -0.020421976 -0.0040871566 -0.02766784 0.061638992 -0.0485859 0.012169159
-0.041195594 -0.09427863 0.058932308 -0.0073991683 -0.052534465 -0.07575904 0.15926437 0.017762136
-0.033751395 -0.0037028799 -0.08521142 0.017721605 -0.00091398874 0.050651517 -0.06990168 -0.062123436
-0.070244506 -0.02573059 0.07886344 -0.018426094 -0.10081137 -0.023441697 -0.00016699481 0.103858724
0.031720784 -0.13860725 -0.021280307 0.08840609 0.19277334 0.045766197 -0.054339036 -0.069572106
-0.076888576 -0.18265386 -0.01026885 -0.019111238 0.2348855 -0.086582 -0.056368444 0.03709392
0.00042775666 0.06655851 -0.102428585 -0.03892303 -0.12012784 -0.019368911 -0.041018993 0.019100033
0.12993394 -0.044437744 -0.13871787 -0.02046891 0.01304016 -0.06305297 0.07673201 0.048901316
-0.14550407 -0.08241266 -0.18284793 -0.09342758 0.016577013 -0.15578334 -0.03285964 0.16733272
0.013556769 0.07830381 0.081316926 0.13470145 -0.06334618 -0.040079538 0.008881444 -0.0584884
-0.00033588902 0.012924934 -0.06339294 0.008090784 -0.024519974 -0.0071312063 -0.044011775 0.1669206
-0.0019739752 -0.10006916 -0.1677644 0.09440469 -0.05620414 -0.022220423 0.022774648 0.032316446
-0.11423066 -0.06637349 -0.106499545 0.07394749 0.13096909 -0.024814412 -0.043062508 -0.02113115
-0.010182289 -0.16260953 -0.09016378 -0.07601312 0.02280724 -0.01394942 -0.08345259 -0.023189364
0.023885878 -0.003730683 0.060562782 0.07529754 0.08748396 -0.08198281 -0.056371998 -0.07329035
-0.12405069 0.017420145 0.04489064 -0.073783696 0.07736583 -0.033182282 0.16240545 0.105048046
0.011788962 0.025249906 -0.14549929 0.022630505 -0.12984602 -0.04654162 -0.05686295 0.01922808
0.15206775 -0.1315377 0.04077644 0.06629341 0.054591857 -0.14082493 0.073146544 -0.002807265
-0.12023692 -0.064818524 -0.020956434 -0.051293515 0.07289755 0.019150542 0.043920092 0.098313086
0.07055734 -0.19973576 0.08662346 0.050850935 -0.025772879 0.16491704 0.066457845 0.22630778
0.13680865 0.03396759 0.027756974 -0.102521636 0.19278164 0.0170662 0.03994492 0.12906465
-0.03293097 0.042073634 0.0022807294 0.04922018 -0.049723994 -0.015773125 -0.026033936 0.003171224
-0.05111156 -0.034401525 -0.08580034 -0.016152907 0.014219045 0.12888414 -0.10590133 0.06678501
0.023174776 -0.03369686 0.14064261 0.038277913 0.0662386 -0.06770979 0.05571483 0.062171753
0.041734822 -0.006704014 0.023017606 0.054324932 0.05970499 0.000100359764 0.013748979 0.036963273
-0.037307024 0.13586271 -0.04316311 -0.022237938 0.014196439 0.04574792 0.01927491 0.0671757
-0.011242914 0.0034311195 0.18753242 -0.10784591 -0.0041804085 -0.05429591 -0.020120174 -0.017470995
00000000: ae84 a4bd 74e8 80ba 2c88 e83d 5ae7 53ba
00000010: dab2 0bbd 663e 533c 7518 bf3c 15db 9e3d
00000020: 5763 cebb 85fa 06bd 2fc9 1b3d cec1 acbd
00000030: b15c e2bd deea 293e c2a7 9bbd 13d9 0a3e
00000040: 8ab6 85bd d029 d73c 8808 773e f51c dabd
00000050: d748 6bbb edf6 08bd 1821 a43d a968 12be
00000060: 9376 f6bd 169a 053e 9ebd bebd 2998 99bd
00000070: 2aa2 a6bc 8e3f 9bbd f958 21be f170 0ebe
00000080: 0544 053c f519 a73d d0f5 10be 81d1 b23c
00000090: d0b4 fb3c 9a79 0dbd ce81 0cbd bdef 6cbc
000000a0: 609c 0a3c 5726 38bd fd4b a7bc 8eed 85bb
000000b0: aaa7 e2bc 2b79 7c3d 0202 47bd 2761 473c
000000c0: b6bc 28bd 2815 c1bd 0163 713d b974 f2bb
000000d0: 612e 57bd 8e27 9bbd 3316 233e e681 913c
000000e0: e73e 0abd 04ac 72bb 5383 aebd e62c 913c
000000f0: bf98 6fba f777 4f3d 9d28 8fbd 2575 7ebd
00000100: 5adc 8fbd f5c8 d2bc 2883 a13d 52f2 96bc
00000110: 3176 cebd cd08 c0bc 541b 2fb9 e2b3 d43d
00000120: a7ed 013d 0fef 0dbe 0a54 aebc 410e b53d
00000130: 6066 453e 5675 3b3d 9c92 5ebd d27b 8ebd
00000140: c277 9dbd 9d09 3bbe ae3e 28bc 2c8f 9cbc
00000150: d385 703e e751 b1bd 99e2 66bd cbef 173d
00000160: 8744 e039 d44f 883d 14c6 d1bd c16d 1fbd
00000170: 9605 f6bd 8dab 9ebc 8803 28bd ac77 9c3c
00000180: 670d 053e 5a04 36bd 0f0c 0ebe 6aae a7bc
00000190: 65a6 553c ea21 81bd ac25 9d3d bf4c 483d
000001a0: 05ff 14be f8c7 a8bd 7d3c 3bbe f656 bfbd
000001b0: 84cc 873c ab85 1fbe d497 06bd 4559 2b3e
000001c0: 361d 5e3c bf5d a03d 7d89 a63d 2def 093e
000001d0: a4bb 81bd 712a 24bd 7a83 113c 8891 6fbd
000001e0: 431a b0b9 1ac3 533c 28d4 81bd 358f 043c
000001f0: 1dde c8bc e5ac e9bb b145 34bd 3ced 2a3e
00000200: cf5d 01bb 0ff1 ccbd 6eca 2bbe 3f57 c13d
00000210: 5036 66bd 9b07 b6bc e691 ba3c 405e 043d
00000220: c4f1 e9bd d3ee 87bd 6f1c dabd c871 973d
00000230: c31c 063e 9847 cbbc 5062 30bd 3c1b adbc
00000240: 9ed3 26bc 1d83 26be caa7 b8bd c4ac 9bbd
00000250: 40d6 ba3c 1c8c 64bc 31e9 aabd 9ff7 bdbc
00000260: 51ac c33c 797e 74bb ae10 783d 9935 9a3d
00000270: ca2a b33d 9ae6 a7bd 53e6 66bd 4019 96bd
00000280: 4a0e febd b1b4 8e3c 3fdf 373d e81b 97bd
00000290: fa71 9e3d 25ea 07bd 9d4d 263e 6e23 d73d
000002a0: 7e26 413c e4d8 ce3c c4fd 14be 9c63 b93c
000002b0: 5bf6 04be 6da2 3ebd 20e9 68bd 3584 9d3c
000002c0: a6b7 1b3e d2b1 06be 3205 273d d7c4 873d
000002d0: b69b 5f3d 6934 10be dbcd 953d 17fa 37bb
000002e0: c63e f6bd 93bf 84bd d4ac abbc 2619 52bd
000002f0: 504b 953d 99e1 9c3c 8ee5 333d 5f58 c93d
00000300: 5e80 903d 8887 4cbe a467 b13d 1249 503d
00000310: a521 d3bc 03e0 283e 0d1b 883d 3abd 673e
00000320: 9117 0c3e 9a21 0b3d 9862 e33c ddf6 d1bd
00000330: 8d68 453e 6ace 8b3c 499d 233d 8629 043e
00000340: a0e2 06bd 6755 2c3d 4a78 153b 199b 493d
00000350: 63ab 4bbd a436 81bc 1f45 d5bc 4fd4 4f3b
00000360: 5b5a 51bd 9de8 0cbd 17b8 afbd 1a53 84bc
00000370: fff6 683c 34fa 033e cce2 d8bd 94c6 883d
00000380: 07d9 bd3c b805 0abd 9e04 103e 4dc9 1c3d
00000390: 1aa8 873d 6eab 8abd 3c35 643d cfa7 7e3d
000003a0: 22f2 2a3d 58ad dbbb 6b8f bc3c d283 5e3d
000003b0: 388d 743d 3d78 d238 6643 613c cd66 173d
000003c0: 40cf 18bd 981f 0b3e cdcb 30bd 562c b6bc
000003d0: 2e98 683c 2c62 3b3d 6be6 9d3c 6a93 893d
000003e0: 3334 38bc a2dc 603b 8008 403e 51de dcbd
000003f0: cffb 88bb 6365 5ebd 10d3 a4bc 551f 8fbc

network_body._body_endoder.seq_layers.2.bias f4 [128]
0.0 0.0 0.0 0.0 0.0 0.0 0.0 0.0
0.0 0.0 0.0 0.0 0.0 0.0 0.0 0.0
0.0 0.0 0.0 0.0 0.0 0.0 0.0 0.0
0.0 0.0 0.0 0.0 0.0 0.0 0.0 0.0
0.0 0.0 0.0 0.0 0.0 0.0 0.0 0.0
0.0 0.0 0.0 0.0 0.0 0.0 0.0 0.0
0.0 0.0 0.0 0.0 0.0 0.0 0.0 0.0
0.0 0.0 0.0 0.0 0.0 0.0 0.0 0.0
0.0 0.0 0.0 0.0 0.0 0.0 0.0 0.0
0.0 0.0 0.0 0.0 0.0 0.0 0.0 0.0
0.0 0.0 0.0 0.0 0.0 0.0 0.0 0.0
0.0 0.0 0.0 0.0 0.0 0.0 0.0 0.0
0.0 0.0 0.0 0.0 0.0 0.0 0.0 0.0
0.0 0.0 0.0 0.0 0.0 0.0 0.0 0.0
0.0 0.0 0.0 0.0 0.0 0.0 0.0 0.0
0.0 0.0 0.0 0.0 0.0 0.0 0.0 0.0
00000000: 0000 0000 0000 0000 0000 0000 0000 0000
00000010: 0000 0000 0000 0000 0000 0000 0000 0000
00000020: 0000 0000 0000 0000 0000 0000 0000 0000
00000030: 0000 0000 0000 0000 0000 0000 0000 0000
00000040: 0000 0000 0000 0000 0000 0000 0000 0000
00000050: 0000 0000 0000 0000 0000 0000 0000 0000
00000060: 0000 0000 0000 0000 0000 0000 0000 0000
00000070: 0000 0000 0000 0000 0000 0000 0000 0000
00000080: 0000 0000 0000 0000 0000 0000 0000 0000
00000090: 0000 0000 0000 0000 0000 0000 0000 0000
000000a0: 0000 0000 0000 0000 0000 0000 0000 0000
000000b0: 0000 0000 0000 0000 0000 0000 0000 0000
000000c0: 0000 0000 0000 0000 0000 0000 0000 0000
000000d0: 0000 0000 0000 0000 0000 0000 0000 0000
000000e0: 0000 0000 0000 0000 0000 0000 0000 0000
000000f0: 0000 0000 0000 0000 0000 0000 0000 0000
00000100: 0000 0000 0000 0000 0000 0000 0000 0000
00000110: 0000 0000 0000 0000 0000 0000 0000 0000
00000120: 0000 0000 0000 0000 0000 0000 0000 0000
00000130: 0000 0000 0000 0000 0000 0000 0000 0000
00000140: 0000 0000 0000 0000 0000 0000 0000 0000
00000150: 0000 0000 0000 0000 0000 0000 0000 0000
00000160: 0000 0000 0000 0000 0000 0000 0000 0000
00000170: 0000 0000 0000 0000 0000 0000 0000 0000
00000180: 0000 0000 0000 0000 0000 0000 0000 0000
00000190: 0000 0000 0000 0000 0000 0000 0000 0000
000001a0: 0000 0000 0000 0000 0000 0000 0000 0000
000001b0: 0000 0000 0000 0000 0000 0000 0000 0000
000001c0: 0000 0000 0000 0000 0000 0000 0000 0000
000001d0: 0000 0000 0000 0000 0000 0000 0000 0000
000001e0: 0000 0000 0000 0000 0000 0000 0000 0000
000001f0: 0000 0000 0000 0000 0000 0000 0000 0000

action_model._continuous_distribution.log_sigma f4 [1, 2]
0.0 0.0
00000000: 0000 0000 0000 0000

action_model._continuous_distribution.mu.weight f4 [2, 128]
-0.033931 0.026252557 0.039929785 0.009528304 -0.027986988 0.008980946 -0.010247926 0.011887277
-0.017525822 0.04010167 0.012801868 0.0050315033 -0.0057837777 0.009234658 -0.012284444 0.04384541
-0.01719266 -0.023218486 0.018348737 0.0132247405 -0.013479277 -0.006472181 0.007433869 -0.011687652
-0.0051747365 0.003028923 -0.018989393 0.017325116 0.0074314736 -0.012535443 0.02179416 0.017766982
0.013854156 -0.018838266 0.012920283 0.0025625338 0.019590024 -0.0021998056 -0.025927529 -0.03479549
0.009262888 0.014711613 0.01576185 0.013806774 -0.019551387 -0.0218748 0.016185021 -0.0048522432
-0.0023989487 0.01629083 0.0019862482 -0.025022363 -0.021805953 0.007797129 -0.0053548976 -0.014420404
0.007927681 0.018760618 -0.02964432 0.00665704 0.009202957 -0.018639075 0.028897632 0.0011122031
-0.031986255 0.017953854 -0.040854763 0.01056886 -0.0029889727 -0.02065724 -0.0012368382 -0.04639762
-0.013028957 -0.019202389 0.042256817 0.00037522923 -0.01956813 0.016369818 0.0028667264 0.018863935
-0.011541135 0.028730992 0.017901203 0.005541564 -0.004586009 -0.035459705 -0.009505795 0.008180436
-0.0008412624 -0.030806845 -0.013736402 0.0013317734 0.04601695 0.0074128285 0.009800636 0.019542474
0.008646557 -0.017362636 0.0013031698 -0.027376642 -0.011887165 -0.022734107 -0.011090002 -0.009503404
-0.021533255 0.029713426 0.013036892 -0.0052538724 -0.005859173 0.011086966 -0.0121525675 -0.0059279962
-0.004885158 0.011619784 0.012898688 -0.010286427 0.012910636 -0.04728609 -0.04738105 -0.032243297
0.0025787828 0.00042321114 -0.025481153 0.027921049 -0.006100912 -0.02485933 0.011767752 0.034772675
0.0028547272 0.012746661 -0.033559732 -0.025658697 -0.012956279 0.014860513 0.022171844 -0.006406871
0.015719607 -1.5576614e-05 0.018289434 -0.0013856862 0.005746597 0.0037686233 0.009524118 0.022038823
-0.015317841 -0.026140103 0.009256267 0.015880326 0.004121601 0.04729779 -0.020593144 -0.008701499
0.013257605 -0.007274004 0.034593605 -0.0025116873 -0.0065403515 -0.014776982 -0.002100631 -0.02278496
-0.0013330298 0.015297316 0.02165867 -0.017192356 -0.042900253 -0.017962148 0.008884063 -0.007829844
0.0017206821 0.014974429 0.031933468 -0.01058993 0.04313104 0.021005021 0.009735341 -0.0036431958
0.016944313 0.01658014 -0.019570269 -0.022351237 0.008607934 0.00988384 0.014740588 -0.0121127935
0.003047131 -0.023179596 0.009142121 -0.007986776 -0.022030994 -0.0008342303 -0.005166345 0.009191434
-0.033849914 -0.010581142 0.030263528 -0.006747813 -0.004269421 -0.015975079 -0.030178025 0.010324897
-0.011965182 -0.048389837 -0.007045045 0.027927253 0.0172877 0.0003023087 -0.0119114 -0.011890286
0.018392753 0.017096216 0.018014573 -0.018597765 0.031160189 0.04987477 -0.034818105 -0.01046207
0.00075391046 -0.02553307 0.0028661478 0.0019707175 0.015766928 0.011385557 -0.0076200697 0.013490689
-0.003176309 -0.007615433 0.0050527076 0.00861075 -0.01635584 -0.0047855508 -0.023190973 0.03906456
-0.0029342428 -0.0154928565 0.021862913 -0.0014508243 -0.0030388236 0.016837334 -0.0010217059 0.0456705
-0.040429156 0.013548535 0.013678448 0.028202837 -0.0029289525 -0.0069003305 0.032124005 -0.014094415
0.005579021 0.016714245 -0.043403875 0.0037045048 0.009176744 0.013925927 0.014785214 -0.0070546493
00000000: 3bfb 0abd 9a0f d73c 6a8d 233d 9b1c 1c3c
00000010: f844 e5bc d124 133c ebe6 27bc dac2 423c
00000020: 5092 8fbc a641 243d edbe 513c 4fdf a43b
00000030: d885 bdbb f74c 173c b144 49bc 3f97 333d
00000040: 9fd7 8cbc b234 bebc 1750 963c 95ac 583c
00000050: 2fd8 5cbc 9714 d4bb d097 f33b 917d 3fbc
00000060: d690 a9bb e580 463b a58f 9bbc 67ed 8d3c
00000070: b883 f33b 7561 4dbc ab89 b23c 108c 913c
00000080: 8bfc 623c b552 9abc 98af 533c 2ff0 273b
00000090: 427b a03c 9d2a 10bb f865 d4bc b785 0ebd
000000a0: 5ec3 173c fa08 713c ff1e 813c cf35 623c
000000b0: 3b2a a0bc c832 b3bc 7396 843c 91ff 9ebb
000000c0: ae37 1dbb 5974 853c b72b 023b b3fb ccbc
000000d0: 66a2 b2bc 0f7f ff3b 2378 afbb 8f43 6cbc
000000e0: 1be3 013c deaf 993c a5d8 f2bc 4d23 da3b
000000f0: 00c8 163c f9b0 98bc baba ec3c 58c7 913a
00000100: 0504 03bd f613 933c 5357 27bd 0329 2d3c
00000110: a4e2 43bb 5f39 a9bc 671d a2ba 6e0b 3ebd
00000120: 6877 55bc 544e 9dbc 7c15 2d3d 6aba c439
00000130: 584d a0bc ff19 863c b0df 3b3b 8a88 9a3c
00000140: 0717 3dbc 425d eb3c 8ba5 923c 0296 b53b
00000150: 3b46 96bb 323e 11bd 32be 1bbc 3c07 063c
00000160: 2a88 5cba a35e fcbc a50e 61bc e68e ae3a
00000170: 457c 3c3d 50e7 f23b d992 203c 8a17 a03c
00000180: 4aaa 0d3c 163c 8ebc 1fcf aa3a fb44 e0bc
00000190: 62c2 42bc e13c babc d7b2 35bc 2ab4 1bbc
000001a0: 8266 b0bc 9269 f33c b098 553c ad28 acbb
000001b0: 4efe bfbb 1ba6 353c 901b 47bc a33f c2bb
000001c0: ad13 a0bb e860 3e3c 0555 533c 6788 28bc
000001d0: 2287 533c 0faf 41bd a212 42bd 8c11 04bd
000001e0: cc00 293b 70e2 dd39 dabd d0bc afba e43c
000001f0: 29ea c7bb cba5 cbbc 87cd 403c cb6d 0e3d
00000200: 6016 3b3b 5fd7 503c ee75 09bd 3032 d2bc
00000210: 9346 54bc 8279 733c baa1 b53c bbf0 d1bb
00000220: 68c6 803c 86aa 82b7 b9d3 953c ea9f b5ba
00000230: f34d bc3b 02fb 763b 0c0b 1c3c c38a b43c
00000240: aff7 7abc c523 d6bc 99a7 173c 7517 823c
00000250: 7f0e 873b 54bb 413d f4b2 a8bc bb90 0ebc
00000260: 6d36 593c c55a eebb 06b2 0d3d 1f9b 24bb
00000270: 7250 d6bb 281b 72bc bdaa 09bb 86a7 babc
00000280: 0fb9 aeba 98a1 7a3c 866d b13c fcd6 8cbc
00000290: 2db8 2fbd 5b25 93bc 768e 113c bf48 00bc
000002a0: 8388 e13a 4f57 753c abcc 023d 6381 2dbc
000002b0: 2caa 303d b912 ac3c fb80 1f3c afc2 6ebb
000002c0: cdce 8a3c 13d3 873c d451 a0bc f119 b7bc
000002d0: 4b08 0d3c d4ef 213c 8282 713c bd74 46bc
000002e0: 60b2 473b 23e3 bdbc d6c8 153c f7da 02bc
000002f0: 587a b4bc 3fb0 5aba 714a a9bb ab97 163c
00000300: 35a6 0abd 875c 2dbc 38eb f73c c21c ddbb
00000310: 80e6 8bbb 2bde 82bc e837 f7bc c229 293c
00000320: 9c09 44bc 6c34 46bd 1fda e6bb b2c7 e43c
00000330: ef9e 8d3c 307f 9e39 0828 43bc 79cf 42bc
00000340: 66ac 963c 5d0d 8c3c 4c93 933c 575a 98bc
00000350: a743 ff3c 7d49 4c3d 6e9d 0ebd 1a69 2bbc
00000360: 13a2 453a bb2a d1bc fbd5 3b3b 2727 013b
00000370: a529 813c 7d8a 3a3c c7b1 f9bb 0d08 5d3c
00000380: 9f29 50bb e28a f9bb 2f91 a53b 1a14 0d3c
00000390: affc 85bc 1cd0 9cbb fffa bdbc 2902 203d
000003a0: 6d4c 40bb c0d5 7dbc da19 b33c 9629 beba
000003b0: 0027 47bb 73ee 893c c3ea 85ba fd10 3b3d
000003c0: 0b99 25bd adfa 5d3c 921b 603c a309 e73c
000003d0: abf3 3fbb 2b1c e2bb 7694 033d 43ec 66bc
000003e0: 38d0 b63b 50ec 883c 43c8 31bd 47c7 723b
000003f0: 0e5a 163c 9229 643c af3d 723c b02a e7bb

action_model._continuous_distribution.mu.bias f4 [2]
0.0 0.0
00000000: 0000 0000 0000 0000

network_body.observation_encoder.processors.0.normalizer.running_mean f4 [76]
0.0022765326 -0.006379743 0.010925577 -0.008402688 0.005992886 -0.0059287194 0.0070511857 -0.004105869
0.0032936558 -0.005601271 0.0072430763 -0.004824221 0.009953283 -0.007584819 -0.043934304 -8.441475e-08
-0.08202671 -8.516691e-08 -0.0892421 -8.487108e-08 -0.08027116 -8.433602e-08 -0.04921206 -8.538021e-08
-0.009911163 -8.522124e-08 0.04378472 -8.496317e-08 0.08325507 -8.503866e-08 0.074283585 -8.492945e-08
0.07485923 -8.413497e-08 0.032094236 -8.510194e-08 0.010483899 -8.460095e-08 0.0034533122 -0.0077187903
0.011707031 -0.009089991 0.0066302735 -0.0066640014 0.0068032024 -0.0023491913 0.0018011952 -0.0048312494
0.006329205 -0.004921973 0.008308508 -0.009142249 -0.046056066 -8.93879e-08 -0.08583545 -9.019926e-08
-0.09270495 -8.985976e-08 -0.0825786 -8.9319826e-08 -0.048810996 -9.038807e-08 -0.0075846193 -9.034538e-08
0.04727621 -8.999362e-08 0.08858254 -9.005861e-08 0.0777676 -8.991383e-08 0.07526001 -8.909186e-08
0.030899694 -9.00969e-08 0.008620588 -8.9649994e-08
00000000: e131 153b 2a0d d1bb 3101 333c 6eab 09bc
00000010: f95f c43b b445 c2bb a20d e73b 878a 86bb
00000020: 60da 573b de8a b7bb 5457 ed3b 8014 9ebb
00000030: 1813 233c 138a f8bb 75f4 33bd 8047 b5b3
00000040: 9ffd a7bd 01e5 b6b3 90c4 b6bd 5f42 b6b3
00000050: 3565 a4bd 381c b5b3 9692 49bd 445a b7b3
00000060: 6e62 22bc df02 b7b3 9b57 333d ff74 b6b3
00000070: a281 aa3d 7f9e b6b3 fe21 983d 7562 b6b3
00000080: cc4f 993d b0ad b4b3 3f75 033d 49c1 b6b3
00000090: a9c4 2b3c ddad b5b3 f750 623b e8ed fcbb
000000a0: d9ce 3f3c 30ee 14bc c442 d93b b25d dabb
000000b0: 66ed de3b e4f4 19bb 1516 ec3a 754f 9ebb
000000c0: 3865 cf3b 8148 a1bb 6920 083c 5fc9 15bc
000000d0: 49a5 3cbd 85f5 bfb3 7fca afbd 91b3 c1b3
000000e0: 18dc bdbd edf8 c0b3 f81e a9bd 18d0 bfb3
000000f0: 0aee 47bd 5e1b c2b3 6688 f8bb e603 c2b3
00000100: b3a4 413d 8442 c1b3 c36a b53d 3f66 c1b3
00000110: 9f44 9f3d a716 c1b3 ec21 9a3d c552 bfb3
00000120: 5b21 fd3c 4b7b c1b3 5e3d 0d3c 9b85 c0b3

network_body.observation_encoder.processors.0.normalizer.running_variance f4 [76]
4342.492 4458.2114 13328.051 12135.699 13072.743 12121.618 13320.113 12135.056
13034.102 12089.8 13164.303 12184.623 13282.217 12188.438 65298.7 1.0
83050.59 1.0 76797.71 1.0 56721.08 1.0 72753.05 1.0
75569.67 1.0 60250.117 1.0 74968.97 1.0 72685.31 1.0
55282.973 1.0 73102.9 1.0 78492.086 1.0 4667.503 4782.6094
14087.989 12864.558 13859.934 12876.415 14103.8 12908.381 13807.515 12841.53
13965.079 12910.588 14041.096 12887.452 69180.016 1.0 87852.81 1.0
81241.37 1.0 59987.16 1.0 77089.88 1.0 80205.98 1.0
63815.92 1.0 79284.625 1.0 76801.16 1.0 58545.766 1.0
77509.69 1.0 83303.63 1.0
00000000: f0b3 8745 b151 8b45 3440 5046 cc9e 3d46
00000010: f942 4c46 7966 3d46 7420 5046 399c 3d46
00000020: 68a8 4b46 33e7 3c46 36b1 4d46 7e62 3e46
00000030: de88 4f46 c171 3e46 b312 7f47 0000 803f
00000040: 4c35 a247 0000 803f dbfe 9547 0000 803f
00000050: 1491 5d47 0000 803f 8618 8e47 0000 803f
00000060: d698 9347 0000 803f 1e5a 6b47 0000 803f
00000070: 7c6c 9247 0000 803f a8f6 8d47 0000 803f
00000080: f9f2 5747 0000 803f 73c7 8e47 0000 803f
00000090: 0b4e 9947 0000 803f 06dc 9145 e074 9545
000000a0: f51f 5c46 3b02 4946 bc8f 5846 a931 4946
000000b0: 335f 5c46 86b1 4946 0fbe 5746 1fa6 4846
000000c0: 5134 5a46 5aba 4946 6264 5b46 cf5d 4946
000000d0: 021e 8747 0000 803f 6896 ab47 0000 803f
000000e0: afac 9e47 0000 803f 2953 6a47 0000 803f
000000f0: f190 9647 0000 803f fda6 9c47 0000 803f
00000100: ec47 7947 0000 803f 50da 9a47 0000 803f
00000110: 9400 9647 0000 803f c4b1 6447 0000 803f
00000120: d862 9747 0000 803f d1b3 a247 0000 803f

network_body.processors.0.normalizer.running_mean f4 [76]
0.0022765326 -0.006379743 0.010925577 -0.008402688 0.005992886 -0.0059287194 0.0070511857 -0.004105869
0.0032936558 -0.005601271 0.0072430763 -0.004824221 0.009953283 -0.007584819 -0.043934304 -8.441475e-08
-0.08202671 -8.516691e-08 -0.0892421 -8.487108e-08 -0.08027116 -8.433602e-08 -0.04921206 -8.538021e-08
-0.009911163 -8.522124e-08 0.04378472 -8.496317e-08 0.08325507 -8.503866e-08 0.074283585 -8.492945e-08
0.07485923 -8.413497e-08 0.032094236 -8.510194e-08 0.010483899 -8.460095e-08 0.0034533122 -0.0077187903
0.011707031 -0.009089991 0.0066302735 -0.0066640014 0.0068032024 -0.0023491913 0.0018011952 -0.0048312494
0.006329205 -0.004921973 0.008308508 -0.009142249 -0.046056066 -8.93879e-08 -0.08583545 -9.019926e-08
-0.09270495 -8.985976e-08 -0.0825786 -8.9319826e-08 -0.048810996 -9.038807e-08 -0.0075846193 -9.034538e-08
0.04727621 -8.999362e-08 0.08858254 -9.005861e-08 0.0777676 -8.991383e-08 0.07526001 -8.909186e-08
0.030899694 -9.00969e-08 0.008620588 -8.9649994e-08
00000000: e131 153b 2a0d d1bb 3101 333c 6eab 09bc
00000010: f95f c43b b445 c2bb a20d e73b 878a 86bb
00000020: 60da 573b de8a b7bb 5457 ed3b 8014 9ebb
00000030: 1813 233c 138a f8bb 75f4 33bd 8047 b5b3
00000040: 9ffd a7bd 01e5 b6b3 90c4 b6bd 5f42 b6b3
00000050: 3565 a4bd 381c b5b3 9692 49bd 445a b7b3
00000060: 6e62 22bc df02 b7b3 9b57 333d ff74 b6b3
00000070: a281 aa3d 7f9e b6b3 fe21 983d 7562 b6b3
00000080: cc4f 993d b0ad b4b3 3f75 033d 49c1 b6b3
00000090: a9c4 2b3c ddad b5b3 f750 623b e8ed fcbb
000000a0: d9ce 3f3c 30ee 14bc c442 d93b b25d dabb
000000b0: 66ed de3b e4f4 19bb 1516 ec3a 754f 9ebb
000000c0: 3865 cf3b 8148 a1bb 6920 083c 5fc9 15bc
000000d0: 49a5 3cbd 85f5 bfb3 7fca afbd 91b3 c1b3
000000e0: 18dc bdbd edf8 c0b3 f81e a9bd 18d0 bfb3
000000f0: 0aee 47bd 5e1b c2b3 6688 f8bb e603 c2b3
00000100: b3a4 413d 8442 c1b3 c36a b53d 3f66 c1b3
00000110: 9f44 9f3d a716 c1b3 ec21 9a3d c552 bfb3
00000120: 5b21 fd3c 4b7b c1b3 5e3d 0d3c 9b85 c0b3

network_body.processors.0.normalizer.running_variance f4 [76]
4342.492 4458.2114 13328.051 12135.699 13072.743 12121.618 13320.113 12135.056
13034.102 12089.8 13164.303 12184.623 13282.217 12188.438 65298.7 1.0
83050.59 1.0 76797.71 1.0 56721.08 1.0 72753.05 1.0
75569.67 1.0 60250.117 1.0 74968.97 1.0 72685.31 1.0
55282.973 1.0 73102.9 1.0 78492.086 1.0 4667.503 4782.6094
14087.989 12864.558 13859.934 12876.415 14103.8 12908.381 13807.515 12841.53
13965.079 12910.588 14041.096 12887.452 69180.016 1.0 87852.81 1.0
81241.37 1.0 59987.16 1.0 77089.88 1.0 80205.98 1.0
63815.92 1.0 79284.625 1.0 76801.16 1.0 58545.766 1.0
77509.69 1.0 83303.63 1.0
00000000: f0b3 8745 b151 8b45 3440 5046 cc9e 3d46
00000010: f942 4c46 7966 3d46 7420 5046 399c 3d46
00000020: 68a8 4b46 33e7 3c46 36b1 4d46 7e62 3e46
00000030: de88 4f46 c171 3e46 b312 7f47 0000 803f
00000040: 4c35 a247 0000 803f dbfe 9547 0000 803f
00000050: 1491 5d47 0000 803f 8618 8e47 0000 803f
00000060: d698 9347 0000 803f 1e5a 6b47 0000 803f
00000070: 7c6c 9247 0000 803f a8f6 8d47 0000 803f
00000080: f9f2 5747 0000 803f 73c7 8e47 0000 803f
00000090: 0b4e 9947 0000 803f 06dc 9145 e074 9545
000000a0: f51f 5c46 3b02 4946 bc8f 5846 a931 4946
000000b0: 335f 5c46 86b1 4946 0fbe 5746 1fa6 4846
000000c0: 5134 5a46 5aba 4946 6264 5b46 cf5d 4946
000000d0: 021e 8747 0000 803f 6896 ab47 0000 803f
000000e0: afac 9e47 0000 803f 2953 6a47 0000 803f
000000f0: f190 9647 0000 803f fda6 9c47 0000 803f
00000100: ec47 7947 0000 803f 50da 9a47 0000 803f
00000110: 9400 9647 0000 803f c4b1 6447 0000 803f
00000120: d862 9747 0000 803f d1b3 a247 0000 803f

network_body._body_endoder.seq_layers.0.weight f4 [128, 76]
-0.10882222 -0.056395747 -0.06761179 0.047936227 -0.34442854 -0.00430739 -0.13868897 0.07692876
0.042343117 -0.05845067 -0.14093453 -0.006345594 0.023492655 0.006557247 0.046799306 -0.0382007
-0.073870376 0.18205091 0.15889812 0.030920174 -0.06510789 0.015376039 -0.25964442 -0.046137363
-0.010263127 -0.05281752 0.13329704 -0.08616915 0.17417653 -0.052244212 0.022997087 -0.163215
0.06726192 -0.08140223 0.05984734 -0.030190619 -0.07416986 0.010575448 -0.08593816 -0.038528048
0.046566166 -0.27031967 0.057568394 -0.11392041 0.11681682 -0.050664462 0.041173533 0.0584423
0.15818131 -0.06763973 0.012762284 -0.07301042 0.09912936 0.2248892 -0.058519352 -0.031146934
0.0019793278 0.11433745 -0.027337262 -0.01376472 -0.0007106244 -0.068666115 -0.009530883 0.098412715
0.104826115 -0.09031875 0.070529796 0.09571944 -0.08285157 0.026856476 -0.06466331 0.032379277
0.0035605324 0.10139622 -0.143082 0.062141757 0.12369546 -0.109663114 -0.11107404 0.16236827
-0.06470236 0.06706394 -0.10501423 -0.2932337 -0.21741173 0.0768284 0.00573095 0.030243943
0.10786215 -0.035644963 0.12161273 -0.23859684 0.082491644 0.023796095 0.106187955 -0.08290332
0.00065360445 -0.1074481 0.048935913 -0.09500151 -0.15148267 -0.0684887 -0.108133145 -0.1294384
0.14260022 -0.22220282 -0.064553864 -0.09442251 -0.061520126 -0.246861 0.14058033 0.124607645
0.09549741 0.2170579 -0.020123545 -0.15477914 -0.086978346 0.13532154 -0.052061386 -0.13664654
0.030760333 -0.06354219 -0.1850496 -0.047669 0.026870036 0.012410075 -0.13715851 0.03323015
-0.20379089 -0.08735178 -0.010721401 0.17072214 0.23718108 -0.18036333 -0.0015199196 -0.06535443
-0.0053327987 0.023545975 0.024204241 0.026927406 0.19164091 -0.09724092 -0.2277197 -0.10893521
-0.13877821 0.086567014 0.088294335 -0.08566957 0.11219413 -0.03648383 -0.30360106 -0.24235064
0.13218665 -0.083189644 0.046862368 -0.20570593 0.09974352 -0.085339226 0.031856284 -0.10090864
0.056517422 -0.025770312 0.20175165 -0.09999594 -0.10271479 0.11180265 0.08720306 0.2958671
-0.21289131 0.06844363 0.019313676 0.11836524 -0.019952383 0.0041098366 -0.017175118 -0.008603796
-0.018620824 -0.01858793 0.17132106 -0.13608886 0.06828318 0.13863012 -0.026460465 -0.11555023
-0.22239356 -0.14727165 -0.062542036 0.06892539 0.13483582 -0.032116454 -0.089332424 0.13280347
0.113527335 -0.15762699 0.051714897 0.1261292 -0.124400444 -0.026222369 0.039354384 0.027916888
0.027008608 -0.036136683 0.010238893 -0.16170141 0.104586765 -0.029489899 -0.13987936 -0.019810684
0.004849154 -0.07823436 0.06576014 0.0382742 0.007133795 -0.042591076 -0.012072856 -0.13209626
0.14059582 0.014775936 -0.112175144 0.102291025 0.15544142 0.16416545 0.078787744 0.012924975
-0.1699618 -0.14306931 -0.07931705 -0.03762073 0.050313756 -0.031556636 0.18829365 -0.03736748
-0.031383622 -0.104461424 -0.19893645 -0.15485202 0.064201 0.083216265 -0.008278926 -0.07178354
0.049314722 0.2741703 0.004923785 -0.09665898 0.09948979 -0.11389215 -0.10231344 0.013311129
-0.080551706 -0.016101578 -0.12822026 0.02406642 -0.13266979 0.19517557 -0.025262306 0.046284422
00000000: 2fde debd 3aff 66bd 0d78 8abd c758 443d
00000010: f058 b0be 0225 8dbb 7b04 0ebe d38c 9d3d
00000020: fa6f 2d3d f869 6fbd 2451 10be b3ee cfbb
00000030: ab73 c03c 2dde d63b a1b0 3f3d 5678 1cbd
00000040: 5a49 97bd 8e6b 3a3e 30b6 223e 4e4c fd3c
00000050: 4957 85bd c8eb 7b3c 1df0 84be 88fa 3cbd
00000060: ad26 28bc 2f57 58bd 057f 083e 7479 b0bd
00000070: 555b 323e 07fe 55bd 6364 bc3c d521 27be
00000080: 9ec0 893d 36b6 a6bd 7c22 753d 5152 f7bc
00000090: 5ee6 97bd a544 2d3c 5900 b0bd 96cf 1dbd
000000a0: 2abc 3e3d 5767 8abe d6cc 6b3d 1b4f e9bd
000000b0: a83d ef3d 8a85 4fbd 94a5 283d 3161 6f3d
000000c0: 48fa 213e b386 8abd e618 513c 7d86 95bd
000000d0: 5504 cb3d 5b49 663e fdb1 6fbd db27 ffbc
000000e0: 9cb7 013b c129 ea3d 65f2 dfbc 6c85 61bc
000000f0: 3249 3aba d2a0 8cbd 6c27 1cbc 9b8c c93d
00000100: 13af d63d 09f9 b8bd ed71 903d 8e08 c43d
00000110: 15ae a9bd 1d02 dc3c 336e 84bd 22a0 043d
00000120: d257 693b d2a8 cf3d 1684 12be 5b88 7e3d
00000130: 0c54 fd3d 0e97 e0bd c97a e3bd de43 263e
00000140: ac82 84bd d258 893d b311 d7bd ba22 96be
00000150: 2ea1 5ebe 3558 9d3d b1ca bb3b 25c2 f73c
00000160: d5e6 dc3d 7400 12bd 1810 f93d bb52 74be
00000170: 61f1 a83d 07f0 c23c 1279 d93d 37c9 a9bd
00000180: a756 2b3a c00d dcbd 0671 483d 2790 c2bd
00000190: 461e 1bbe ce43 8cbd e974 ddbd 808b 04be
000001a0: cb05 123e 2389 63be d134 84bd 9760 c1bd
000001b0: 87fc 7bbd 21c9 7cbe 4af4 0f3e 4b32 ff3d
000001c0: 2594 c33d 6d44 5e3e 22da a4bc 6c7e 1ebe
000001d0: b421 b2bd bb91 0a3e 523e 55bd 12ed 0bbe
000001e0: 18fd fb3c 6822 82bd a47d 3dbe 9240 43bd
000001f0: 8d1e dc3c a153 4b3c 4873 0cbe 561c 083d
00000200: 8fae 50be 7de5 b2bd d1a8 2fbc c9d1 2e3e
00000210: 99df 723e 2ab1 38be 0a38 c7ba 8bd8 85bd
00000220: c2be aebb 7de3 c03c f947 c63c dd96 dc3c
00000230: 843d 443e 3f26 c7bd 5a2f 69be 6c19 dfbd
00000240: e01b 0ebe 0c4a b13d a9d3 b43d 8773 afbd
00000250: 09c6 e53d 1270 15bd 9971 9bbe c42a 78be
00000260: f05b 073e 555f aabd c1f2 3f3d 93a4 52be
00000270: 5546 cc3d 55c6 aebd bc7b 023d 30a9 cebd
00000280: d07e 673d 431c d3bc fc97 4e3e acca ccbd
00000290: 225c d2bd caf8 e43d 8597 b23d e47b 973e
000002a0: 2e00 5abe 2d2c 8c3d b737 9e3c 7a69 f23d
000002b0: 2e73 a3bc cfab 863b d5b2 8cbc f0f6 0cbc
000002c0: b38a 98bc b745 98bc ca6e 2f3e e15a 0bbe
000002d0: 0dd8 8b3d 0ef5 0d3e 9ec3 d8bc 99a5 ecbd
000002e0: 23bb 63be 61ce 16be 0a16 80bd c128 8d3d
000002f0: 6712 0a3e 8b8c 03bd ebf3 b6bd a2fd 073e
00000300: 0581 e83d f868 21be 00d3 533d 0328 013e
00000310: a9c5 febd 4bd0 d6bc 1032 213d f5b1 e43c
00000320: 2841 dd3c 0f04 14bd 08c1 273c 0e95 25be
00000330: 9631 d63d cd94 f1bc 893c 0fbe 044a a2bc
00000340: a7e5 9e3b 5639 a0bd 41ad 863d 68c5 1c3d
00000350: 9cc2 e93b fb73 2ebd 3acd 45bc 3e44 07be
00000360: 5af8 0f3e c416 723c 15bc e5bd f57d d13d
00000370: 092c 1f3e fd1a 283e 785b a13d 46c3 533c
00000380: 770a 2ebe c380 12be fa70 a2bd 3218 1abd
00000390: cc15 4e3d 8841 01bd 0dd0 403e a50e 19bd
000003a0: 1d8c 00bd dfef d5bd ffb5 4bbe 8791 1ebe
000003b0: d07b 833d 4a6d aa3d 55a4 07bc 4003 93bd
000003c0: 3cfe 493d 0d60 8c3e b457 a13b 25f5 c5bd
000003d0: 4ec1 cb3d 4a40 e9bd b589 d1bd ec16 5a3c
000003e0: 4bf8 a4bd 75e7 83bc 2c4c 03be f126 c53c
000003f0: 97da 07be 1bdc 473e e5f2 cebc bc94 3d3d

network_body._body_endoder.seq_layers.0.bias f4 [128]
0.0 0.0 0.0 0.0 0.0 0.0 0.0 0.0
0.0 0.0 0.0 0.0 0.0 0.0 0.0 0.0
0.0 0.0 0.0 0.0 0.0 0.0 0.0 0.0
0.0 0.0 0.0 0.0 0.0 0.0 0.0 0.0
0.0 0.0 0.0 0.0 0.0 0.0 0.0 0.0
0.0 0.0 0.0 0.0 0.0 0.0 0.0 0.0
0.0 0.0 0.0 0.0 0.0 0.0 0.0 0.0
0.0 0.0 0.0 0.0 0.0 0.0 0.0 0.0
0.0 0.0 0.0 0.0 0.0 0.0 0.0 0.0
0.0 0.0 0.0 0.0 0.0 0.0 0.0 0.0
0.0 0.0 0.0 0.0 0.0 0.0 0.0 0.0
0.0 0.0 0.0 0.0 0.0 0.0 0.0 0.0
0.0 0.0 0.0 0.0 0.0 0.0 0.0 0.0
0.0 0.0 0.0 0.0 0.0 0.0 0.0 0.0
0.0 0.0 0.0 0.0 0.0 0.0 0.0 0.0
0.0 0.0 0.0 0.0 0.0 0.0 0.0 0.0
00000000: 0000 0000 0000 0000 0000 0000 0000 0000
00000010: 0000 0000 0000 0000 0000 0000 0000 0000
00000020: 0000 0000 0000 0000 0000 0000 0000 0000
00000030: 0000 0000 0000 0000 0000 0000 0000 0000
00000040: 0000 0000 0000 0000 0000 0000 0000 0000
00000050: 0000 0000 0000 0000 0000 0000 0000 0000
00000060: 0000 0000 0000 0000 0000 0000 0000 0000
00000070: 0000 0000 0000 0000 0000 0000 0000 0000
00000080: 0000 0000 0000 0000 0000 0000 0000 0000
00000090: 0000 0000 0000 0000 0000 0000 0000 0000
000000a0: 0000 0000 0000 0000 0000 0000 0000 0000
000000b0: 0000 0000 0000 0000 0000 0000 0000 0000
000000c0: 0000 0000 0000 0000 0000 0000 0000 0000
000000d0: 0000 0000 0000 0000 0000 0000 0000 0000
000000e0: 0000 0000 0000 0000 0000 0000 0000 0000
000000f0: 0000 0000 0000 0000 0000 0000 0000 0000
00000100: 0000 0000 0000 0000 0000 0000 0000 0000
00000110: 0000 0000 0000 0000 0000 0000 0000 0000
00000120: 0000 0000 0000 0000 0000 0000 0000 0000
00000130: 0000 0000 0000 0000 0000 0000 0000 0000
00000140: 0000 0000 0000 0000 0000 0000 0000 0000
00000150: 0000 0000 0000 0000 0000 0000 0000 0000
00000160: 0000 0000 0000 0000 0000 0000 0000 0000
00000170: 0000 0000 0000 0000 0000 0000 0000 0000
00000180: 0000 0000 0000 0000 0000 0000 0000 0000
00000190: 0000 0000 0000 0000 0000 0000 0000 0000
000001a0: 0000 0000 0000 0000 0000 0000 0000 0000
000001b0: 0000 0000 0000 0000 0000 0000 0000 0000
000001c0: 0000 0000 0000 0000 0000 0000 0000 0000
000001d0: 0000 0000 0000 0000 0000 0000 0000 0000
000001e0: 0000 0000 0000 0000 0000 0000 0000 0000
000001f0: 0000 0000 0000 0000 0000 0000 0000 0000
