results/updatedCode2/DroneAgent/DroneAgent-17999820.onnx (onnx, 112382 bytes, 9 tensors)

network_body.observation_encoder.processors.0.normalizer.running_mean f4 [76]
-0.0012267464 -0.005796659 0.0006040878 0.00064163445 0.0006150164 0.0006460928 0.00061371946 0.0006798451
0.0006368007 0.00062481326 0.0006729319 0.00062255654 0.00061207113 0.00062853174 7.9230376e-05 -1.779727e-08
-4.688189e-05 -1.7748738e-08 -0.0011472338 -1.7735237e-08 -0.0007723632 -1.7772539e-08 -0.00020718348 -1.7801742e-08
0.0006401628 -1.7813155e-08 0.001161069 -1.7808556e-08 0.0011248795 -1.7749997e-08 -0.00029435006 -1.77267e-08
0.00033742795 -1.7754372e-08 0.0010854094 -1.778734e-08 0.0006339929 -1.7799534e-08 -0.0012585529 -0.005859509
0.00061542523 0.00065927993 0.0006207023 0.000662911 0.0006234998 0.0006969672 0.0006478528 0.00064057315
0.00068301114 0.00063869776 0.0006224428 0.00064456667 8.252726e-05 -1.799096e-08 -4.6503894e-05 -1.7941824e-08
-0.0011671413 -1.7927837e-08 -0.00078227295 -1.7966038e-08 -0.00020897544 -1.7995362e-08 0.00065275404 -1.8007261e-08
0.0011778938 -1.8002543e-08 0.0011453098 -1.794278e-08 -0.00030322096 -1.791953e-08 0.00033959 -1.794727e-08
0.0010900327 -1.7980955e-08 0.0006435734 -1.7993276e-08
00000000: c7ca a0ba e6f1 bdbb a55b 1e3a 5c33 283a
00000010: 0d39 213a 8e5e 293a 04e2 203a a237 323a
00000020: f9ee 263a 82ca 233a b267 303a 1033 233a
00000030: 6673 203a 0dc4 243a 7c28 a638 9ce0 98b2
00000040: 0ca3 44b8 e375 98b2 c75e 96ba 3358 98b2
00000050: 6b78 4aba 3aaa 98b2 643f 59b9 72ea 98b2
00000060: 99d0 273a 8b03 99b2 032f 983a 6ef9 98b2
00000070: b170 933a a878 98b2 ff52 9ab9 6d45 98b2
00000080: d0e8 b039 4782 98b2 4c44 8e3a c6ca 98b2
00000090: 8b32 263a 97e5 98b2 07f6 a4ba 2001 c0bb
000000a0: 7d54 213a 87d3 2c3a a0b6 223a 34c7 2d3a
000000b0: 5d72 233a adb4 363a aad4 293a 23ec 273a
000000c0: 1a0c 333a 486e 273a 6e2b 233a 23f8 283a
000000d0: 7c12 ad38 8a8a 9ab2 2d0d 43b8 7d1e 9ab2
000000e0: c3fa 98ba bbff 99b2 7311 4dba bc53 9ab2
000000f0: 6b20 5bb9 3894 9ab2 951d 2b3a 63ae 9ab2
00000100: 8f63 9a3a 03a4 9ab2 381e 963a 9720 9ab2
00000110: a1f9 9eb9 77ed 99b2 000b b239 772a 9ab2
00000120: 6edf 8e3a 8a74 9ab2 7bb5 283a a28f 9ab2

network_body._body_endoder.seq_layers.0.weight f4 [128, 76]
-0.20228532 -0.033787325 0.057097703 0.032068 -0.103225306 -0.24716112 -0.054589953 0.12527378
-0.12010454 0.031048624 -0.17818353 -0.14912648 0.21340962 -0.13325663 -0.0575718 0.054358058
-0.11241037 -0.027061861 0.043249495 -0.08080754 0.18678191 0.07282409 0.10212069 0.19163604
-0.07319849 -0.15149397 0.026897486 0.039826054 -0.37762526 0.12979664 -0.069089934 0.2774691
0.18740846 -0.27771926 -0.036962416 -0.043055877 0.10534104 0.06190402 0.20811325 0.18946461
0.049306408 0.11752937 0.021326108 -0.09565663 0.012647204 0.16357453 -0.07185757 -0.02142938
-0.06190978 0.006840763 -0.018692728 -0.055210948 0.17877017 0.033732537 0.061816286 -0.17626563
0.23082343 0.029335357 0.13817503 -0.040064525 0.110417955 0.1100217 -0.017327145 -0.23216261
-0.05461306 -0.14694756 -0.02114696 0.022632439 -0.39599922 0.15381216 0.09155745 -0.26786798
0.013022794 0.055203553 0.10900049 -0.009008039 -0.083372995 -0.16788769 -0.08478938 0.07925085
0.09971874 0.03428477 -0.11982909 -0.059857134 -0.055019315 -0.16375804 -0.092116885 0.07982053
-0.100409195 0.289745 -0.05140479 0.15736742 -0.099842176 -0.012720064 -0.027442705 -0.039274532
0.009605114 -0.06507856 -0.17058083 -0.17160887 -0.0058693704 0.14874631 -0.030422542 0.044809096
-0.18783243 0.05970569 0.08777154 -0.09098624 -0.059763763 -0.016041428 0.14619236 0.031262845
0.006990937 0.177226 -0.06613383 -0.212397 -0.055414096 -0.19880356 -0.119266585 -0.16208187
-0.1133977 -0.021088356 -0.025623478 -0.047494933 0.12648466 0.13316993 0.0036534334 0.112812765
-0.06355317 0.0242817 -0.081516914 0.059166 0.03925623 0.16226125 0.1001993 -0.027309356
0.04826816 0.11400509 0.067660585 -0.023006326 -0.10872272 0.057282206 0.1390029 -0.15195978
-0.17370605 -0.21223032 0.06462315 0.13028987 0.13208264 -0.037739683 -0.07665126 -0.13521825
0.066013455 0.111493096 0.016115576 0.066748194 -0.24667865 -0.17185004 -0.0636176 0.20810941
-0.07282408 0.07554073 -0.06710915 -0.011673441 -0.009025286 0.064272314 -0.13340384 0.09788802
-0.19157183 -0.089911796 0.14260578 -0.07381932 0.19950633 0.14031349 0.117350966 -0.057210073
-0.16967502 -0.06173066 -0.38833904 0.08774807 0.06977623 0.07799862 0.12544063 -0.016645871
0.16976786 -0.3262783 -0.07067963 -0.021986594 -0.092240825 0.0100064585 0.04879885 0.06442559
-0.062941834 -0.02268206 -0.028417971 0.23391283 0.18306006 0.016950902 -0.015665036 -0.091639504
-0.05017325 0.00930996 -0.021353662 -0.11712118 -0.18564561 -0.021411873 -0.04377399 -0.18599953
-0.042556703 0.024706747 0.18832164 0.027779037 0.2907623 0.16823512 -0.03860036 -0.14237858
-0.054152824 0.047332313 -0.16658983 -0.06245415 -0.10247848 0.16074823 -0.04451057 -0.1536453
0.065499105 0.118539095 0.19333418 0.19456604 0.06682234 -0.0858535 -0.13287596 0.061582915
0.020212939 -0.06632334 0.07896656 -0.04031537 -0.07852861 0.13217118 -0.04216267 0.19933867
-0.016937647 -0.11187369 -0.09301218 0.031405117 0.048979357 0.20317191 -0.030390054 0.025188284
0.023175905 0.2993385 -0.09774614 -0.065410115 0.051965494 -0.09780624 -0.04511408 -0.109946474
00000000: e223 4fbe 9464 0abd 48df 693d bc59 033d
00000010: ca67 d3bd ce17 7dbe b799 5fbd c547 003e
00000020: 5ef9 f5bd af59 fe3c be75 36be 9db4 18be
00000030: 0d88 5a3e 6d74 08be 68d0 6bbd 8ea6 5e3d
00000040: 6837 e6bd d6b0 ddbc 6226 313d 6c7e a5bd
00000050: c243 3f3e cc24 953d a724 d13d 3d3c 443e
00000060: 17e9 95bd 3c21 1bbe 1e58 dc3c a520 233d
00000070: 1958 c1be 69e9 043e 067f 8dbd 6e10 8e3e
00000080: 01e8 3f3e 3831 8ebe e765 17bd 5c5b 30bd
00000090: 0bbd d73d 128f 7d3d a41b 553e 0303 423e
000000a0: 84f5 493d 3db3 f03d 17b4 ae3c a0e7 c3bd
000000b0: 3836 4f3c 1580 273e 102a 93bd ab8c afbc
000000c0: 1c95 7dbd 7b28 e03b 7e21 99bc e024 62bd
000000d0: 870f 373e 212b 0a3d 1333 7d3d fa7e 34be
000000e0: fa5c 6c3e b450 f03c c17d 0d3e b31a 24bd
000000f0: cf22 e23d 0f53 e13d a8f1 8dbc 09bc 6dbe
00000100: f2b1 5fbd 6c79 16be 643c adbc aa67 b93c
00000110: 69c0 cabe ef80 1d3e 7982 bb3d fe25 89be
00000120: 8f5d 553c 1f1d 623d a63b df3d 7496 13bc
00000130: 76bf aabd c0ea 2bbe 0ea6 adbd 454e a23d
00000140: 5739 cc3d 306e 0c3d f468 f5bd c12c 75bd
00000150: ef5b 61bd 30b0 27be c7a7 bcbd f278 a33d
00000160: 56a3 cdbd 7559 943e d48d 52bd ed24 213e
00000170: 0e7a ccbd d167 50bc 86cf e0bc 55de 20bd
00000180: c55e 1d3c e847 85bd beac 2ebe 3cba 2fbe
00000190: d953 c0bb f450 183e b238 f9bc be89 373d
000001a0: 2557 40be f48d 743d 91c1 b33d fe56 babd
000001b0: d9ca 74bd 5069 83bc 73b3 153e 780d 003d
000001c0: 3b14 e53b bc7a 353e 2c71 87bd 997e 59be
000001d0: e4f9 62bd 2993 4bbe 0a42 f4bd caf8 25be
000001e0: 0e3d e8bd 7dc1 acbc 54e8 d1bc 0c8a 42bd
000001f0: 3285 013e b35d 083e 716e 6f3b 610a e73d
00000200: 2a28 82bd 6aea c63c 57f2 a6bd 0c58 723d
00000210: 24cb 203d d027 263e 4a35 cd3d dfb7 dfbc
00000220: d6b4 453d 807b e93d a291 8a3d c377 bcbc
00000230: 04aa debd bfa0 6a3d c756 0e3e 589b 1bbe
00000240: 00e0 31be e852 59be 2459 843d b56a 053e
00000250: ac40 073e ed94 1abd 56fb 9cbd a776 0abe
00000260: 1032 873d 7e56 e43d d004 843c 47b3 883d
00000270: 5499 7cbe 75f9 2fbe f249 82bd a21a 553e
00000280: cb24 95bd 19b5 9a3d 8670 89bd f641 3fbc
00000290: cbde 13bc 34a1 833d 049b 08be 8479 c83d
000002a0: 682b 44be ad23 b8bd 4007 123e 952e 97bd
000002b0: 634b 4c3e 57ae 0f3e b455 f03d 1c55 6abd
000002c0: 4abf 2dbe 4ad9 7cbd 60d4 c6be 43b5 b33d
000002d0: d7e6 8e3d bebd 9f3d 8273 003e ec5c 88bc
000002e0: a0d7 2d3e f30d a7be 7bc0 90bd 3b1d b4bc
000002f0: c2e8 bcbd 21f2 233c 4ee1 473d 90f1 833d
00000300: a6e7 80bd bacf b9bc cecc e8bc d886 6f3e
00000310: 1974 3b3e 9edc 8a3c f653 80bc 7ead bbbd
00000320: 7782 4dbd cd88 183c e0ed aebc 3bdd efbd
00000330: e219 3ebe f467 afbc 5b4c 33bd a976 3ebe
00000340: f04f 2ebd ce65 ca3c 63d7 403e dd90 e33c
00000350: ccde 943e d445 2c3e 691b 1ebd b1cb 11be
00000360: 5acf 5dbd 87df 413d 8696 2abe eccf 7fbd
00000370: 3de0 d1bd 2f9b 243e b750 36bd 3255 1dbe
00000380: 6524 863d a0c4 f23d 65f9 453e 523c 473e
00000390: 27da 883d f6d3 afbd a310 08be 5e3e 7c3d
000003a0: 9b95 a53c 88d4 87bd 38b9 a13d bb21 25bd
000003b0: 9cd3 a0bd e257 073e c4b2 2cbd 701f 4c3e
000003c0: d2c0 8abc 081e e5bd 2b7d bebd a7a2 003d
000003d0: 949e 483d 4c0c 503e 90f4 f8bc a957 ce3c
000003e0: 65db bd3c e542 993e 212f c8bd bdf5 85bd
000003f0: c5d9 543d a34e c8bd 8bc9 38bd 9e2b e1bd

network_body._body_endoder.seq_layers.0.bias f4 [128]
-0.07981286 -0.047897678 0.03174716 0.0055873813 -0.027960138 -0.03624293 0.03992733 0.0133923115
0.02477354 -0.009744068 0.028169999 -0.058514424 -0.027545614 0.05508202 0.0040699146 -0.01425191
0.0007460062 -0.055721104 -0.019571552 0.04689951 0.050005846 -0.009097154 -0.011485264 -0.034979526
0.020018088 -0.0059906133 0.012310383 -0.009741084 0.042225074 0.026703171 -0.013859188 0.014027433
0.026435915 -0.029935347 0.015951559 0.013391317 -0.030791624 0.03208807 0.020106759 -0.0465987
0.014754348 0.011712668 -0.014445326 -0.01959125 -0.021980332 0.021349378 -0.013656377 -0.011663721
-0.0125298165 -0.0011225978 -0.033672154 -0.019166114 0.04046564 -0.0062435847 -0.010805326 0.05230157
0.031859204 -0.038325373 0.00628226 0.009436485 -0.007855262 0.051137786 -0.04067567 -0.012476892
0.049750708 -0.039657004 0.016594082 0.1031849 -0.052208114 -0.01206513 0.01852425 -0.038452208
-0.08444873 -0.03494974 0.06308675 -0.02325257 0.03740498 -0.013712504 -0.0011011 0.029429387
0.039479177 0.02932832 -0.056875326 -0.031239046 -0.0027829907 0.013704407 -0.024123646 -0.034375917
-0.073301494 0.009628 0.008179973 0.034838367 0.010962302 0.04856937 -0.022536442 0.053469826
-0.013230874 -0.05076057 0.062234115 0.0011254341 -0.01801374 -0.02551448 -0.029685583 0.013520781
-0.023157384 -0.033247396 -0.046581615 -0.020484827 0.034211267 -0.11070766 0.017403973 -0.051646482
-0.004920019 0.019256912 0.0095501 0.0035536005 0.028750923 0.036977828 0.021389866 0.05438827
-0.047407944 -0.0059228693 0.02792997 0.019628588 -0.0916682 -0.030798031 0.0021235829 0.010332172
00000000: ed74 a3bd 5b30 44bd 4f09 023d 5a16 b73b
00000010: a90c e5bc 7773 14bd d78a 233d 6d6b 5b3c
00000020: e1f1 ca3c 95a5 1fbc c5c4 e63c d2ac 6fbd
00000030: 57a7 e1bc af9d 613d eb5c 853b d880 69bc
00000040: a18f 433a d03b 64bd 8554 a0bc b319 403d
00000050: eed2 4c3d 3b0c 15bc b02c 3cbc b146 0fbd
00000060: f9fc a33c e84c c4bb 7db1 493c 1199 1fbc
00000070: 33f4 2c3d 9cc0 da3c a611 63bc 51d3 653c
00000080: 2290 d83c f93a f5bc d8ac 823c 4167 5b3c
00000090: b73e fcbc c86e 033d eeb6 a43c 47de 3ebd
000000a0: 39bc 713c 7ee6 3f3c 17ac 6cbc d47d a0bc
000000b0: 1910 b4bc e4e4 ae3c ffbe 5fbc 3119 3fbc
000000c0: dc49 4dbc 2224 93ba d0eb 09bd 4102 9dbc
000000d0: 4dbf 253d fc96 ccbb d208 31bc 2c3a 563d
000000e0: cc7e 023d 11fb 1cbd 6bdb cd3b 7d9b 1a3c
000000f0: 5bb3 00bc db75 513d 889b 26bd e16b 4cbc
00000100: 66c7 4b3d 626f 22bd 50f0 873c 9b52 d33d
00000110: 2dd8 55bd d3ac 45bc 2bc0 973c 1080 1dbd
00000120: 75f3 acbd 7527 0fbd a033 813d 2c7c bebc
00000130: f735 193d 69aa 60bc c952 90ba e615 f13c
00000140: ebb4 213d f241 f03c 1af6 68bd 07e9 ffbc
00000150: d662 36bb 7388 603c f49e c5bc c3cd 0cbd
00000160: 181f 96bd c2be 1d3c 4b05 063c adb2 0e3d
00000170: 3a9b 333c adf0 463d 589e b8bc 2d03 5b3d
00000180: 4fc6 58bc 51ea 4fbd 33e9 7e3d 4d83 933a
00000190: 8d91 93bc be03 d1bc 2e2f f3bc 4486 5d3c
000001a0: 8eb4 bdbc 6c2e 08bd 5dcc 3ebd cccf a7bc
000001b0: 1d21 0c3d b3ba e2bd c792 8e3c 438b 53bd
000001c0: 1c38 a1bb acc0 9d3c 0678 1c3c 86e3 683b
000001d0: 0e87 eb3c 1076 173d cd39 af3c 3cc6 5e3d
000001e0: d52e 42bd a114 c2bb 64cd e43c 22cc a03c
000001f0: 8abc bbbd 274c fcbc cf2b 0b3b 4548 293c

network_body._body_endoder.seq_layers.2.weight f4 [128, 128]
0.018040767 -0.15965353 0.06563048 0.036312487 -0.13524884 -0.11792527 -0.20153049 0.10683427
-0.0896445 0.07769319 0.23283143 -0.17063828 -0.024012284 0.04166693 0.15443005 -0.072688036
-0.10065995 -0.12492861 -0.17671406 0.15054499 0.06088561 0.09746277 0.14594053 0.17434642
0.081077285 -0.13319057 0.036841188 -0.10074682 -0.3031202 -0.10172188 0.23333287 -0.18116422
0.08062029 -0.020122368 0.0036730848 -0.05534916 0.01168777 0.097420685 0.08241771 -0.11059007
0.1427212 -0.030422967 -0.1342883 -0.025686111 -0.03040144 -0.072101794 -0.02441941 0.0242714
0.07706198 -0.15656026 0.023411756 -0.0030759084 0.031194713 0.015871428 0.1252395 -0.05836996
-0.12827744 0.010606112 0.07758847 -0.06649916 -0.07783717 0.042312026 -0.17768294 0.08804858
-0.025564194 0.011703078 0.10650382 0.28346723 0.058547862 -0.0076098396 -0.10665924 0.10024587
0.0052046953 -0.18196452 -0.030844796 0.10832556 0.11383593 -0.015075952 -0.15086193 -0.053947303
0.16259724 -0.11741449 -0.13530464 0.08685672 0.14142196 0.0032153437 0.17605047 0.046299636
0.024913264 0.030784255 -0.08350462 -0.07409937 -0.00570649 -0.14383656 -0.0015546943 -0.11141592
0.036583006 -0.08717419 0.11340063 -0.058893893 0.06025596 -0.091046095 -0.12196399 -0.16909857
-0.05263913 -0.15799023 0.028392762 0.09222893 -0.112268135 -0.10071411 0.109783545 0.05045538
-0.03310756 -0.12711097 -0.0042248284 -0.026776066 -0.11911666 0.037448984 0.097204514 0.00517099
-0.046717275 0.14940304 -0.12631892 0.15634306 0.056394715 -0.116785936 0.20341918 0.13990718
0.0048485026 0.124944426 0.24999985 -0.11006691 -0.071538575 -0.06168417 0.10264649 0.17332928
-0.012922923 -0.0659742 0.16614856 -0.027394248 0.09903081 0.09048892 0.043272197 0.028857712
-0.23418818 0.015374679 -0.16814509 0.012811922 -0.12753142 0.13168828 0.00039529733 -0.038693413
0.11944647 -0.030523572 0.0978943 -0.04180056 -0.07634564 -0.12881067 -0.040020358 0.006460395
0.0759411 0.04659315 -0.04787274 -0.035473682 0.055663675 -0.02355233 0.06136796 -0.08200546
-0.06495202 0.10440753 -0.062101107 0.09813777 0.07389081 -0.03072435 0.027523976 0.053889994
-0.0684656 -0.008670428 0.06926888 0.14175043 -0.031164164 -0.12709388 -0.05880285 0.028630834
-0.10883187 -0.060285784 -0.04810626 0.043900136 -0.11265385 -0.10346199 0.003743524 0.015734965
-0.059161685 -0.055762853 0.08711699 -0.037381038 0.014141465 0.0038095156 -0.08995188 0.07178177
-0.061399676 0.18878078 -0.22892056 0.08533634 0.12853788 0.14494868 -0.00045340846 -0.02991216
0.04089453 0.036550444 -0.12306829 -0.041288305 -0.034818087 0.086853966 -0.08941135 -0.09195459
-0.05967 0.026844665 -0.040087815 -0.11768496 -0.0070779114 -0.0851126 -0.011282084 0.015925571
0.1484346 -0.077931024 -0.1842702 0.02022948 0.08910643 -0.040467147 -0.046596073 0.0098260585
0.06619634 -0.13002768 0.028143143 -0.11143787 -0.21005735 0.12042738 0.016427955 -0.14464678
-0.02533678 -0.002617601 0.04183757 0.0040118364 -0.0015614646 0.20083725 -0.30374435 -0.17209229
-0.15557542 0.07562616 0.16306542 -0.14685293 0.10952093 -0.1771294 -0.14003572 0.0722245
00000000: 3bca 933c 377c 23be 4669 863d 67bc 143d
00000010: ac7e 0abe ce82 f1bd 025e 4ebe edcb da3d
00000020: 8997 b7bd 9b1d 9f3d 5d6b 6e3e cdbb 2ebe
00000030: 69b5 c4bc f1aa 2a3d e922 1e3e 77dd 94bd
00000040: ce26 cebd 92da ffbd 88f4 34be 7728 1a3e
00000050: 3063 793d 909a c73d 6f71 153e de87 323e
00000060: d90b a63d 1c63 08be c9e6 163d 5954 cebd
00000070: 9232 9bbe 9053 d0bd d0ee 6e3e 1d83 39be
00000080: 401c a53d aad7 a4bc 23b8 703b cdb5 62bd
00000090: 0f7e 3f3c 7f84 c73d 9eca a83d 0c7d e2bd
000000a0: 8225 123e 9639 f9bc df82 09be ae6b d2bc
000000b0: 710c f9bc 1baa 93bd 370b c8bc d1d4 c63c
000000c0: acd2 9d3d 5551 20be 03ca bf3c 2e95 49bb
000000d0: 0e8c ff3c cc04 823c c93e 003e 5715 6fbd
000000e0: 295b 03be 42c5 2d3c b4e6 9e3d b630 88bd
000000f0: 1869 9fbd 604f 2d3d 84f2 35be d052 b43d
00000100: 006c d1bc 44be 3f3c ad1e da3d 9e22 913e
00000110: e2cf 6f3d f65b f9bb 2970 dabd b54d cd3d
00000120: 268c aa3b e854 3abe 3aae fcbc cbd9 dd3d
00000130: d022 e93d 2001 77bc 8d7b 1abe d9f7 5cbd
00000140: e47f 263e 0277 f0bd 4d8d 0abe f0e1 b13d
00000150: ebd0 103e 84b8 523b 9346 343e b0a4 3d3d
00000160: e716 cc3c 432f fc3c 7804 abbd 69c1 97bd
00000170: 82fd babb e449 13be e2c6 cbba 082e e4bd
00000180: 10d8 153d 6288 b2bd 973e e83d b93a 71bd
00000190: f4ce 763d 6076 babd 42c8 f9bd 2d28 2dbe
000001a0: 219c 57bd 31c8 21be f097 e83c 85e2 bc3d
000001b0: d6ec e5bd 3343 cebd 32d6 e03d 4daa 4e3d
000001c0: cb9b 07bd 6129 02be 6e70 8abb 7b59 dbbc
000001d0: 6ff3 f3bd 1b64 193d 2913 c73d 6871 a93b
000001e0: 9d5a 3fbd 1cfd 183e bf59 01be 6518 203e
000001f0: 25fe 663d 772d efbd 1e4d 503e d443 0f3e
00000200: 30e0 9e3b dde2 ff3d f6ff 7f3e c36a e1bd
00000210: d182 92bd 8aa8 7cbd 5338 d23d 3b7d 313e
00000220: abba 53bc 7b1d 87bd d922 2a3e e769 e0bc
00000230: aad0 ca3d 4152 b93d 303e 313d 0267 ec3c
00000240: 07cf 6fbe 14e6 7b3c 3a2e 2cbe 18e9 513c
00000250: 9997 02be 4bd9 063e e93f cf39 fc7c 1ebd
00000260: 5aa0 f43d 920c fabc cf7c c83d 1037 2bbd
00000270: 1a5b 9cbd f2e6 03be 63ec 23bd b9b1 d33b
00000280: 0287 9b3d 75d8 3e3d 3516 44bd da4c 11bd
00000290: 98ff 633d d1f0 c0bc f85c 7b3d 7bf2 a7bd
000002a0: 9105 85bd 9dd3 d53d bb5d 7ebd 75fc c83d
000002b0: 1154 973d a2b1 fbbc f679 e13c c1bb 5c3d
000002c0: b137 8cbd 690e 0ebc d8dc 8d3d 0627 113e
000002d0: fd4b ffbc e624 02be 42db 70bd 368b ea3c
000002e0: 3ee3 debd 3aee 76bd 120b 45bd a1d0 333d
000002f0: 10b7 e6bd e1e3 d3bd e955 753b 9de6 803c
00000300: 8653 72bd 9767 64bd 646a b23d dc1c 19bd
00000310: 9ab1 673c 11a9 793b b138 b8bd 5202 933d
00000320: 3a7e 7bbd c04f 413e 276a 6abe d2c4 ae3d
00000330: 6f9f 033e 6d6d 143e 74b7 edb9 590a f5bc
00000340: 0681 273d ebb5 153d 3a0b fcbd ed1d 29bd
00000350: 699d 0ebd 7ee0 b13d 4c1d b7bd b052 bcbd
00000360: 8868 74bd 58e9 db3c 1f33 24bd d004 f1bd
00000370: d3ed e7bb 844f aebd 7dd8 38bc 5876 823c
00000380: 3dff 173e 4d9a 9fbd 54b1 3cbe 4bb8 a53c
00000390: 6f7d b63d e1c0 25bd 86db 3ebd 7afd 203c
000003a0: f291 873d fa25 05be 738c e63c 8a39 e4bd
000003b0: 4619 57be a1a2 f63d eb93 863c 491e 14be
000003c0: 148f cfbc 0f8c 2bbb df5d 2b3d b975 833b
000003d0: 0faa ccba 48a8 4d3e 6184 9bbe f638 30be
000003e0: 2a4f 1fbe e3e1 9a3d 9ffa 263e 9d60 16be
000003f0: 824c e03d 6961 35be 8665 0fbe 70ea 933d

network_body._body_endoder.seq_layers.2.bias f4 [128]
0.00671832 -0.037929077 -0.021373456 0.0052429866 0.017850293 0.037769224 0.00313058 0.041800763
0.00634794 -0.00091417035 -0.020733532 0.005146248 0.012346126 -0.017913884 0.037913255 0.02936649
0.013666302 0.024311984 0.017100248 -0.050508708 0.049163703 0.032860596 -0.0108970385 0.045961767
-0.019973902 -0.010828461 -0.016252093 0.0067324573 -0.011032258 -0.01533363 -0.019979494 0.022994982
-0.015806448 -0.003871037 -0.0033844018 0.02244926 -0.027631568 -0.02219227 -0.008699899 -0.019547086
-0.005856768 0.029303981 0.02449734 0.013702919 -0.03001205 -0.009701727 0.008882611 -0.0037851909
0.010862492 -0.04065577 0.04235288 -0.002488541 0.010263153 0.0010726782 0.012921378 0.00058388064
-0.0075332457 -0.042730603 0.02807142 -0.0045755287 -0.009154074 7.335977e-05 0.01009587 -0.010985868
-0.030196149 -0.0044502844 0.0004102825 -0.005749145 0.029329121 -0.008685965 -0.0077126264 0.010160557
-0.013616514 0.028103486 -0.029755583 -0.022138158 0.04498898 -0.043051414 0.027621984 -0.011496304
0.02676982 0.040731672 0.013869785 0.027078861 0.017808225 0.009840943 0.012805232 0.006281082
0.018380523 -0.010997351 0.014273443 0.010552174 0.0055306638 -0.008518496 -0.011977106 -0.010682135
0.014584359 0.034770727 -0.05182823 0.020308174 -0.01385526 -0.012498189 0.021464532 -0.018233249
0.009579415 0.015676575 -0.026446544 -0.004853102 -0.0051036538 0.002377602 0.0038971342 0.018521728
-0.0011604679 0.013317678 0.0010191479 0.024620732 -0.028378421 0.02843225 0.0077153207 -0.0010658426
-0.007849945 -0.03948117 -0.00852521 -0.002705071 0.008963366 0.011590068 0.018353805 -0.03337198
00000000: 5a25 dc3b 855b 1bbd 6317 afbc 5ccd ab3b
00000010: c73a 923c e7b3 1a3d 6b2a 4d3b 4737 2b3d
00000020: 6102 d03b efa4 6fba 5ed9 a9bc dba1 a83b
00000030: 6847 4a3c 23c0 92bc ee4a 1b3d fe91 f03c
00000040: a0e8 5f3c ed29 c73c d215 8c3c 38e2 4ebd
00000050: e15f 493d d598 063d 7e89 32bc 6842 3c3d
00000060: 4fa0 a3bc db69 31bc 1c23 85bc f29b dc3b
00000070: a5c0 34bc e839 7bbc 09ac a3bc f95f bc3c
00000080: 867c 81bc 39b1 7dbb d7cc 5dbb 83e7 b73c
00000090: 995b e2bc 90cc b5bc 058a 0ebc 3621 a0bc
000000a0: 22ea bfbb e70e f03c a5ae c83c 3582 603c
000000b0: d5db f5bc fef3 1ebc 5f88 113c f710 78bb
000000c0: 98f8 313c aa86 26bd 377a 2d3d ca16 23bb
000000d0: c926 283c 1c99 8c3a 30b4 533c 910f 193a
000000e0: 72d9 f6bb 4906 2fbd 09f6 e53c 51ee 95bb
000000f0: f8fa 15bc bad8 9938 2669 253c 12fe 33bc
00000100: ea5d f7bc b1d3 91bb 2f1b d739 5363 bcbb
00000110: a043 f03c 944f 0ebc 33ba fcbb 7778 263c
00000120: cd17 5fbc 4839 e63c fbc1 f3bc 155b b5bc
00000130: 5d46 383d ae56 30bd 8047 e23c fe5a 3cbc
00000140: 624c db3c 41d6 263d 183e 633c 7dd4 dd3c
00000150: 8ee2 913c e83b 213c 09cd 513c 89d1 cd3b
00000160: c092 963c 3c2e 34bc 29db 693c 07e3 2c3c
00000170: 923a b53b 2991 0bbc a03b 44bc 1f04 2fbc
00000180: 3cf3 6e3c c06b 0e3d d749 54bd 545d a63c
00000190: 2c01 63bc 34c5 4cbc 63d6 af3c e55d 95bc
000001a0: fbf2 1c3c 296c 803c 6ca6 d8bc c506 9fbb
000001b0: 8d3c a7bb 8bd1 1b3b 1067 7f3b e1ba 973c
000001c0: d71a 98ba 6432 5a3c ee94 853a 6bb1 c93c
000001d0: dd79 e8bc c0ea e83c cdd0 fc3b beb3 8bba
000001e0: 0e9d 00bc 02b7 21bd 53ad 0bbc 8f47 31bb
000001f0: 15db 123c 45e4 3d3c b85a 963c 0fb1 08bd

action_model._continuous_distribution.log_sigma f4 [1, 2]
-0.21968037 -0.34659493
00000000: e4f3 60be e474 b1be

action_model._continuous_distribution.mu.weight f4 [2, 128]
0.07757727 0.025872827 0.017335372 -0.051817805 -0.00381912 -0.08197693 0.03771192 0.10028957
0.009235792 -0.049864184 0.0068381135 0.0032456573 -0.042396117 0.044481352 0.011053345 0.05415341
-0.004542698 0.064411916 -0.008757443 0.0062336237 -0.078935824 -0.025072418 -0.04377753 -0.11825974
-0.03806902 -0.015258689 -0.03908012 -0.005227554 0.05113788 -0.0023687067 0.006558612 -0.06196948
-0.0066172234 -0.030958146 -0.017738447 -0.04924559 -0.014115847 0.0305918 0.010984076 0.016151628
-0.049761597 0.022331947 0.031548124 -0.047964998 0.02281037 -0.021766987 -0.04964821 -0.012876549
-0.062155634 0.009688001 -0.0882025 -0.036772497 -0.04584254 0.044650704 -0.044435482 -0.04223851
-0.045979783 0.01748266 -0.07564798 -0.013418152 0.0181915 0.042863086 0.034805413 -0.030529307
0.009319199 0.049489755 -0.011201162 -0.010542671 -0.064115085 0.033712137 0.007337198 0.07179272
0.0012741743 -0.0647373 -0.0030321267 0.027181244 -0.011403213 -0.0022283266 -0.029570775 0.0071362513
-0.09505329 -0.11669318 -0.05857241 -0.0679269 -0.06311812 0.07199369 -0.027487198 0.05371227
0.020567132 0.021235 0.04742659 -0.03322909 0.029218625 0.039130725 -0.0007951059 0.042590193
-0.089629576 -0.07259348 -0.0048754592 -0.02686621 -4.036759e-06 0.025636494 0.094584405 0.028081242
-0.075564615 0.06994877 -0.0076230504 -0.015755089 0.0008742947 -0.03931742 0.011319008 -0.0343215
0.06650719 0.04595698 0.06557756 -0.07511278 0.013494642 0.029226568 -0.03793809 -0.006373546
-0.037738472 0.011299267 -0.0010523415 0.060301557 -0.0671923 -0.05435939 -0.019840954 0.0031119736
-0.0476387 -0.0011525715 -0.02968079 0.005282192 -0.09494483 0.0051418943 -0.058216073 0.06724466
-0.10259407 -0.042381823 -0.045132484 -0.09458705 -0.006431442 -0.027160425 0.10077607 0.08373109
-0.07880362 0.049600784 0.08508008 0.01594487 0.040694922 -0.09473103 -0.021613196 0.02918908
0.012976937 0.002849121 -0.0015134679 0.024078136 0.019307025 -0.08989758 -0.04288281 -0.024540694
0.02283544 0.03928637 0.015526957 0.03737337 0.02342805 0.032524623 -0.035858147 0.0133295
-0.06375196 0.10169516 0.10519219 -0.038295493 0.05746931 0.032726645 0.049084548 0.03457023
0.057922635 0.030018568 0.10466322 -0.04583751 0.06728053 -0.05207227 -0.05598973 -0.023633417
0.017225489 -0.006637426 0.12837976 0.063854404 -0.019863766 -0.05688115 0.042198163 0.018836666
0.0047852388 -0.023732988 0.07072728 -0.035118345 -0.03173783 0.010435248 -0.065719336 0.02908626
-0.06433222 0.010608394 -0.005018677 -0.0048483647 0.1314442 -0.007263859 -0.113321885 -0.06501404
-0.0074404655 0.05002682 0.05173264 -0.030843426 0.0036332346 0.038214326 -0.12380295 -0.02884867
0.09633194 -0.06289459 -0.069837354 0.0070778234 -0.055600334 -0.039593566 -0.0221035 0.02605435
-0.018955871 0.08898144 -0.010295897 0.08520585 0.017874414 -0.053604018 0.049642187 -0.006557196
0.045754287 -0.028463412 -0.00969946 -0.072302185 0.035782207 -0.05981125 0.06199955 -0.11124932
-0.027787808 0.05184085 -0.046474364 -0.033907697 -0.030313153 0.10422161 0.030715289 -0.06534722
0.02846954 0.0020949927 -0.0006813084 0.0029585816 -0.06806537 -0.0070651034 -0.082615905 0.043231577
00000000: d5e0 9e3d 40f3 d33c e902 8e3c e83e 54bd
00000010: 334a 7abb 85e3 a7bd d077 1a3d 9e64 cd3d
00000020: b851 173c 633e 4cbd 4112 e03b 18b5 543b
00000030: 8da7 2dbd 1432 363d 1719 353c f7cf 5d3d
00000040: eada 94bb 65ea 833d 617b 0fbc 6d43 cc3b
00000050: 1ba9 a1bd ac64 cdbc 1150 33bd 2a32 f2bd
00000060: 43ee 1bbd 95ff 79bc 7a12 20bd e74b abbb
00000070: f475 513d 4e3c 1bbb a0e9 d63b b6d3 7dbd
00000080: 4bd5 d8bb f09b fdbc 3850 91bc beb5 49bd
00000090: 2746 67bc a89b fa3c 8ef6 333c 6b50 843c
000000a0: d1d2 4bbd 7df1 b63c 9b38 013d f276 44bd
000000b0: d0dc ba3c ae50 b2bc ec5b 4bbd 29f8 52bc
000000c0: e896 7ebd 6cba 1e3c 83a3 b4bd c29e 16bd
000000d0: 63c5 3bbd a8e3 363d fb01 36bd 4a02 2dbd
000000e0: 4c55 3cbd cc37 8f3c 54ed 9abd cfd7 5bbc
000000f0: 5706 953c 3491 2f3d 1f90 0e3d 9918 fabc
00000100: 8eaf 183c c5b5 4a3d 1485 37bc 2bbb 2cbc
00000110: c54e 83bd bd15 0a3d e16c f03b 1008 933d
00000120: 3202 a73a fd94 84bd a5b6 46bb 33ab de3c
00000130: 8bd4 3abc 1e09 12bb 693e f2bc 37d7 e93b
00000140: 4dab c2bd d5fc eebd a0e9 6fbd 421d 8bbd
00000150: 1344 81bd 6e71 933d d52c e1bc 6601 5c3d
00000160: 677c a83c 06f5 ad3c 6242 423d 3a1b 08bd
00000170: e65b ef3c 8a47 203d a76e 50ba 0e73 2e3d
00000180: b68f b7bd e4ab 94bd 51c2 9fbb 8716 dcbc
00000190: 7f73 87b6 a003 d23c 78b5 c13d a20a e63c
000001a0: 9fc1 9abd 4d41 8f3d c8ca f9bb d110 81bc
000001b0: ed30 653a 4e0b 21bd 5c73 393c b494 0cbd
000001c0: ec34 883d 633d 3c3d 874d 863d bbd4 99bd
000001d0: a218 5d3c 8e6c ef3c f864 1bbd 2ed9 d0bb
000001e0: a893 1abd 9020 393c b9ee 89ba c4fe 763d
000001f0: 1e9c 89bd f4a7 5ebd 7f89 a2bc 41f2 4b3b
00000200: cc20 43bd e211 97ba 2125 f3bc 3d16 ad3b
00000210: 6f72 c2bd 567d a83b fa73 6ebd 91b7 893d
00000220: d71c d2bd 9098 2dbd d7dc 38bd dbb6 c1bd
00000230: d9be d2bb 8a7f debc af63 ce3d 357b ab3d
00000240: cb63 a1bd 312a 4b3d 773e ae3d d19e 823c
00000250: b8af 263d 5802 c2bd 280e b1bc f01d ef3c
00000260: 389d 543c 52b8 3a3b 8e5f c6ba 833f c53c
00000270: c429 9e3c 391c b8bd e3a5 2fbd 9109 c9bc
00000280: 6311 bb3c bfea 203d c764 7e3c d214 193d
00000290: 2fec bf3c 8a38 053d fedf 12bd fa63 5a3c
000002a0: 6390 82bd 8d45 d03d 016f d73d bcdb 1cbd
000002b0: f064 6b3d 600c 063d e10c 493d 8399 0d3d
000002c0: 4940 6d3d 80e9 f53c ac59 d63d 1dc0 3bbd
000002d0: 60ca 893d bc49 55bd 7d55 65bd de9a c1bc
000002e0: 781c 8d3c c47e d9bb fc75 033e 19c6 823d
000002f0: 56b9 a2bc 35fc 68bd fbd7 2c3d 5a4f 9a3c
00000300: 7ecd 9c3b af6b c2bc 77d9 903d 41d8 0fbd
00000310: 87ff 01bd 9af8 2a3c dc97 86bd 4f46 ee3c
00000320: 9cc0 83bd d4ce 2d3c b773 a4bb 08df 9ebb
00000330: 4f99 063e aa05 eebb 4e15 e8bd 1526 85bd
00000340: 26cf f3bb ece8 4c3d 9be5 533d 5aab fcbc
00000350: 901b 6e3b a086 1c3d 678c fdbd 0c54 ecbc
00000360: ae49 c53d e1ce 80bd e306 8fbd 16ed e73b
00000370: 2dbd 63bd dd2c 22bd 6612 b5bc ef6f d53c
00000380: 5849 9bbc e73b b63d 1fb0 28bc 6880 ae3d
00000390: 5d6d 923c e38f 5bbd 9b55 4b3d bfdd d6bb
000003a0: d968 3b3d 1a2c e9bc 7cea 1ebc 2b13 94bd
000003b0: 5d90 123d a4fc 74bd 3df3 7d3d afd6 e3bd
000003c0: 42a3 e3bc 1257 543d e75b 3ebd cce2 0abd
000003d0: 4a53 f8bc 2472 d53d a19e fb3c c3d4 85bd
000003e0: f438 e93c 254c 093b d599 32ba c3e4 413b
000003f0: db65 8bbd 6282 e7bb 8732 a9bd 9813 313d

action_model._continuous_distribution.mu.bias f4 [2]
-0.0075718826 0.008373383
00000000: 8e1d f8bb 8430 093c

onnx::Div_51 f4 [76]
0.6352151 0.61353314 0.12709484 0.12838942 0.12711619 0.12837201 0.12709795 0.12839244
0.12710303 0.12836312 0.12712507 0.12841512 0.12709688 0.12837188 0.34861845 0.00023570344
0.39740092 0.00023570344 0.3918241 0.00023570344 0.34350038 0.00023570344 0.3908569 0.00023570344
0.39535794 0.00023570344 0.34738088 0.00023570344 0.3951121 0.00023570344 0.4005988 0.00023570344
0.35234237 0.00023570344 0.40251994 0.00023570344 0.39791566 0.00023570344 0.6385786 0.6167914
0.12762354 0.12892367 0.12764348 0.12890795 0.12762466 0.12892833 0.12763007 0.12889741
0.12765117 0.12894785 0.1276224 0.12890811 0.35049286 0.00023570344 0.39955553 0.00023570344
0.39392513 0.00023570344 0.34531954 0.00023570344 0.3929517 0.00023570344 0.3975074 0.00023570344
0.34925228 0.00023570344 0.39724675 0.00023570344 0.4027877 0.00023570344 0.35426039 0.00023570344
0.40473363 0.00023570344 0.40007737 0.00023570344
00000000: 759d 223f 8210 1d3f 2625 023e 8478 033e
00000010: bf2a 023e f473 033e f725 023e 4f79 033e
00000020: 4c27 023e 9f71 033e 132d 023e 417f 033e
00000030: af25 023e eb73 033e 1e7e b23e 2927 7739
00000040: 2278 cb3e 2927 7739 2b9d c83e 2927 7739
00000050: 48df af3e 2927 7739 651e c83e 2927 7739
00000060: 5b6c ca3e 2927 7739 e8db b13e 2927 7739
00000070: 224c ca3e 2927 7739 491b cd3e 2927 7739
00000080: 3866 b43e 2927 7739 1817 ce3e 2927 7739
00000090: 9abb cb3e 2927 7739 e379 233f 0be6 1d3f
000000a0: bfaf 023e 9104 043e f9b4 023e 7200 043e
000000b0: 0ab0 023e ca05 043e 75b1 023e affd 033e
000000c0: fdb6 023e e80a 043e 72af 023e 7d00 043e
000000d0: cd73 b33e 2927 7739 8b92 cc3e 2927 7739
000000e0: 8eb0 c93e 2927 7739 b9cd b03e 2927 7739
000000f0: f730 c93e 2927 7739 1786 cb3e 2927 7739
00000100: 32d1 b23e 2927 7739 ed63 cb3e 2927 7739
00000110: 303a ce3e 2927 7739 9e61 b53e 2927 7739
00000120: 3f39 cf3e 2927 7739 f1d6 cc3e 2927 7739
