results/random_orientation_leader_path/DroneAgent/DroneAgent-999964.onnx (onnx, 87862 bytes, 7 tensors)

network_body._body_endoder.seq_layers.0.weight f4 [128, 31]
0.100552835 -0.2033505 0.23834912 0.11214876 0.32154012 -0.18411544 -0.3694013 0.23191613
0.19306786 0.30972394 0.3208853 -0.056447197 0.1418296 0.1756602 0.15985328 0.021499582
-0.048754226 -0.28929693 -0.024139408 -0.010666848 -0.297752 0.103996 0.21640812 0.09318887
-0.45694086 -0.09192959 -0.40561244 0.13281056 -0.27319923 -0.08308987 0.2779427 0.2993054
-0.0855045 -0.34157848 -0.0182609 -0.31732145 0.06310611 -0.019502893 -0.012806534 -0.045614187
0.081056945 -0.38172078 -0.15672508 0.41469783 -0.11624927 0.1869626 0.24637847 -0.12692793
-0.16911809 0.2681368 0.15186894 -0.41652393 -0.0022077323 0.2774495 0.014090358 -0.038985353
-0.14103217 -0.08587444 0.06570446 0.21158397 -0.0047283834 -0.16395645 -0.0041468237 -0.07695524
0.2952344 0.09377137 0.040240012 -0.09778269 0.113407746 0.0133905 0.029732803 -0.1124198
-0.03108848 0.05189611 0.008929923 -0.05432466 0.07127161 -0.021699164 0.00526347 -0.019823773
0.30293754 -0.23075299 0.071050465 -0.07812777 -0.12092439 -0.24189457 -0.3981976 0.18399185
-0.024891574 -0.22861125 -0.43615636 -0.6484334 0.14248411 0.5543635 0.24870703 -0.1278671
-0.24757628 -0.2512821 0.23576541 0.2889869 0.3619848 0.33391666 -0.3287158 -0.35422403
0.2559216 0.25649637 -0.11826599 0.38134962 -0.060665175 -0.13832204 -0.18249203 0.2875417
0.2307006 0.0073588323 0.063936144 0.055669222 0.05581276 -0.018762792 -0.01132108 0.09318861
0.20043603 -0.28390017 -0.02372456 0.5637886 -0.3559729 0.44616744 -0.44790712 0.3852478
0.061071686 0.052934546 -0.1517934 -0.26597115 -0.126758 0.2826018 0.0096313525 -0.04807048
-0.1330061 -0.18264368 0.3193356 -0.19351606 -0.07537607 -0.21947105 -0.45814264 -0.17016044
0.14034173 -0.3036491 0.10487286 0.08115748 0.27816918 -0.09975903 -0.14074555 -0.23907645
0.16468789 0.15645103 0.2244159 0.07516486 -0.4119902 0.4662554 -0.43812937 0.103957705
0.19757763 0.22119306 -0.05870081 0.08729756 0.14728247 -0.17647743 0.09056209 0.36837453
-0.05486363 -0.14910312 -0.06533486 0.05080474 -0.3097044 -0.04342885 -0.020129275 -0.06206146
-0.41426456 0.21139479 -0.105760954 -0.16830084 -0.095763065 0.22149616 -0.05530626 0.038839698
-0.06970882 -0.024175726 -0.122060314 -0.06142623 0.02721514 0.0151924435 0.38872105 -0.358205
0.38037786 0.019674836 -0.19924045 0.19459313 -0.023687283 -0.2747276 0.16752256 0.012109673
-0.025005022 -0.062379695 -0.146581 0.2888135 0.04811311 -0.14766757 0.086429566 0.103048354
-0.13264862 0.3710802 -0.10005388 0.17226593 -0.13774735 0.1468954 -0.016186938 0.41488877
-0.2872648 -0.2503877 0.42843726 0.30235064 0.28346658 -0.18790345 0.18033552 -0.025791626
-0.016633032 -0.25923792 -0.22709474 0.008647671 -0.055749558 0.06084737 -0.2194891 -0.050714932
-0.2778254 0.36245972 0.29520068 0.288579 0.07400348 0.21988975 0.0016475616 -0.011584578
-0.06297152 -0.08743985 -0.033936195 0.36819926 0.16899787 -0.56721073 -0.5028676 -0.3032937
-0.04715691 0.09785585 0.09955862 0.23898949 0.07941191 -0.27190658 -0.021027451 -0.3387107
00000000: a5ee cd3d 1d3b 50be cb11 743e 40ae e53d
00000010: e8a0 a43e c288 3cbe 2b22 bdbe 6c7b 6d3e
00000020: 95b3 453e 2394 9e3e 144b a43e 2d35 67bd
00000030: c73b 113e 44e0 333e 94b0 233e e41f b03c
00000040: 83b2 47bd ba1e 94be 02c0 c5bc 01c4 2ebc
00000050: f372 98be dbfb d43d 179a 5d3e ced9 be3d
00000060: 27f4 e9be 9545 bcbd 6fac cfbe 7eff 073e
00000070: c5e0 8bbe 062b aabd 814e 8e3e 8f3e 993e
00000080: fc1c afbd 60e3 aebe e297 95bc f577 a2be
00000090: c73d 813d 88c4 9fbc 7fd2 51bc f1d5 3abd
000000a0: 2f01 a63d e870 c3be 8a7c 20be 4653 d43e
000000b0: 1914 eebd 2073 3f3e a34a 7c3e 65f9 01be
000000c0: 4b2d 2dbe 3a49 893e 8883 1b3e a042 d5be
000000d0: 9aaf 10bb dc0d 8e3e 3fdb 663c 1baf 1fbd
000000e0: bd6a 10be f0de afbd 0f90 863d 78a9 583e
000000f0: 8ef0 9abb 33e4 27be 14e2 87bb b59a 9dbd
00000100: f728 973e 340b c03d b6d2 243d 4a42 c8bd
00000110: 5242 e83d d463 5b3c 3592 f33c 5a3c e6bd
00000120: 45ad febc 0491 543d d04e 123c 8983 5ebd
00000130: daf6 913d 72c2 b1bc 3079 ac3b 7765 a2bc
00000140: a11a 9b3e 834a 6cbe e882 913d 7401 a0bd
00000150: 35a7 f7bd 36b3 77be 8ee0 cbbe 5c68 3c3e
00000160: 6ae9 cbbc 1119 6abe e34f dfbe bbff 25bf
00000170: 5be7 113e c4ea 0d3f 0ead 7e3e 98ef 02be
00000180: a384 7dbe 0ca8 80be 7d6c 713e 17f6 933e
00000190: 1256 b93e 20f7 aa3e 704d a8be da5c b5be
000001a0: 2808 833e 7e53 833e 7035 f2bd 4240 c33e
000001b0: 0c7c 78bd 4ba4 0dbe 31df 3abe aa38 933e
000001c0: c73c 6c3e 5c22 f13b f4f0 823d 6905 643d
000001d0: ec9b 643d 6db4 99bc 0d7c 39bc acd9 be3d
000001e0: 1a3f 4d3e 5d5b 91be 025a c2bc 7354 103f
000001f0: 1442 b6be 0f70 e43e 1554 e5be 333f c53e
00000200: 4e26 7a3d e5d1 583d bb6f 1bbe 5f2d 88be
00000210: d9cc 01be 2fb1 903e d2cc 1d3c 8de5 44bd
00000220: c032 08be f206 3bbe f57f a33e 1329 46be
00000230: c55e 9abd 05bd 60be ac91 eabe 8a3e 2ebe
00000240: beb5 0f3e e577 9bbe 95c7 d63d e535 a63d
00000250: 316c 8e3e 764e ccbd 9a1f 10be 75d0 74be
00000260: f1a3 283e b334 203e 48cd 653e 09f0 993d
00000270: 61f0 d2be 07b9 ee3e 7e52 e0be c7e7 d43d
00000280: ca51 4a3e 6f80 623e 4370 70bd 10c9 b23d
00000290: 37d1 163e 80b6 34be 9e78 b93d 969b bc3e
000002a0: b0b8 60bd 7dae 18be 48ce 85bd a218 503d
000002b0: 9391 9ebe 73e2 31bd 26e6 a4bc 2834 7ebd
000002c0: 7c1a d4be e077 583e 3399 d8bd 0e57 2cbe
000002d0: 6d1f c4bd e4cf 623e d188 62bd 6016 1f3d
000002e0: 7fc3 8ebd 2c0c c6bc c2fa f9bd 129a 7bbd
000002f0: 49f2 de3c bae9 783c 7206 c73e a566 b7be
00000300: e3c0 c23e 1f2d a13c b005 4cbe 6c43 473e
00000310: d50b c2bc 19a9 8cbe 098b 2b3e a667 463c
00000320: 55d7 ccbc da81 7fbd 5419 16be 5ddf 933e
00000330: 4112 453d 2b36 17be fc01 b13d 040b d33d
00000340: 0ad5 07be 39fe bd3e 0ce9 ccbd 7b66 303e
00000350: a40d 0dbe bf6b 163e 789a 84bc 4d6c d43e
00000360: 5f14 93be d132 80be 215c db3e b4cd 9a3e
00000370: 8822 913e c369 40be e0a9 383e f648 d3bc
00000380: ff41 88bc d5ba 84be 868b 68be f6ae 0d3c
00000390: a659 64bd 183b 793d c0c1 60be 76ba 4fbd
000003a0: 213f 8ebe 5294 b93e 8b24 973e a0c0 933e
000003b0: 238f 973d c72a 613e fef2 d73a 3ecd 3dbc
000003c0: 36f7 80bd aa13 b3bd ae00 0bbd 9d84 bc3e
000003d0: c70d 2d3e b934 11bf eebb 00bf 5049 9bbe
000003e0: 9b27 41bd a668 c83d 64e5 cb3d a9b9 743e
000003f0: b6a2 a23d 5737 8bbe c341 acbc 7d6b adbe

network_body._body_endoder.seq_layers.0.bias f4 [128]
0.094882235 -0.04937441 4.312296e-05 0.1781011 0.07028938 0.10131411 -0.008864128 -0.11813818
-0.051216155 0.054042462 0.09244316 0.054470576 -0.04263107 0.084811315 -0.052662864 0.10440156
-0.07731451 -0.029928515 0.002245129 0.23335676 -0.14742655 -0.04374784 -0.053781312 -0.02981489
-0.070560716 0.083757944 0.13856052 0.0337598 -0.049888816 -0.09173274 0.031380434 0.037449062
0.019532794 0.23692502 -0.53899705 0.08805376 0.040647425 0.004263231 0.12795553 -0.10722098
0.19074231 -0.009187795 -0.13936155 -0.09375273 0.18856154 -0.08719432 0.038514562 -0.09669542
0.0026972382 0.16171405 0.046990655 0.03391416 0.044037808 -0.07202413 0.08761272 -0.085631326
-0.05644077 -0.10477406 -0.014530435 0.12592952 0.18329924 0.056599453 0.07610641 0.13688073
-0.2364204 0.024063654 0.10533113 0.005289739 0.07256691 0.14377107 -0.024432635 0.017255971
0.20757504 -0.12337996 0.039008476 -0.07790113 0.068713285 -0.03810825 -0.30755243 0.07566675
0.073291115 -0.037637565 0.17322983 0.090975046 -0.13953093 0.22862497 0.2364008 -0.018919507
-0.056785937 -0.048973985 0.0071200873 -0.10399304 0.079681665 0.03887383 -0.012811842 -0.4443503
0.13904826 -0.03582493 0.08559644 -0.04438362 -0.080622755 0.11723428 -0.05179852 0.10014335
-0.012624268 -0.21375911 -0.033597372 0.13184224 0.23789357 -0.42771634 -0.09683594 0.04631451
0.10108532 0.04784435 -0.035875674 0.22006907 -0.058435168 -0.0009662937 0.10768822 0.02477282
0.0588304 0.13454637 -0.08805841 0.083287306 -0.20309545 0.13029137 -0.108053595 0.18257533
00000000: 9e51 c23d d23c 4abd edde 3438 2260 363e
00000010: e1f3 8f3d c67d cf3d d93a 11bc 6ef2 f1bd
00000020: 08c8 51bd a15b 5d3d d752 bd3d 8a1c 5f3d
00000030: eb9d 2ebd 8eb1 ad3d 04b5 57bd 7cd0 d53d
00000040: 1257 9ebd a52c f5bc 0423 133b 13f5 6e3e
00000050: fcf6 16be ef30 33bd cb49 5cbd 5b3e f4bc
00000060: 2382 90bd 4989 ab3d cfe2 0d3e b747 0a3d
00000070: 3758 4cbd 60de bbbd c588 003d 3064 193d
00000080: 3d03 a03c 799c 723e b6fb 09bf 8855 b43d
00000090: ea7d 263d 93b2 8b3b c606 033e ac96 dbbd
000000a0: f451 433e 6888 16bc cbb4 0ebe 6e01 c0bd
000000b0: 4716 413e f092 b2bd 72c1 1d3d 4008 c6bd
000000c0: 26c4 303b 5e98 253e 4679 403d 93e9 0a3d
000000d0: fd60 343d 6381 93bd 4c6e b33d 7a5f afbd
000000e0: 702e 67bd c893 d6bd 1011 6ebc abf3 003e
000000f0: ccb2 3b3e d4d4 673d addd 9b3d 762a 0c3e
00000100: 3018 72be 2421 c53c d9b7 d73d 8c55 ad3b
00000110: f69d 943d b938 133e f326 c8bc 655c 8d3c
00000120: 8d8e 543e a2ae fcbd 5ac7 1f3d a18a 9fbd
00000130: 8db9 8c3d 6517 1cbd 8377 9dbe 2bf7 9a3d
00000140: a719 963d d929 1abd 2963 313e 2051 ba3d
00000150: 32e1 0ebe aa1c 6a3e 0d13 723e 15fd 9abc
00000160: 5f98 68bd f298 48bd 9f4f e93b 4efa d4bd
00000170: 2430 a33d 2a3a 1f3d c3e8 51bc e281 e3be
00000180: ab62 0e3e 29bd 12bd 304d af3d 99cb 35bd
00000190: 8b1d a5bd 8718 f03d af2a 54bd f517 cd3d
000001a0: 05d6 4ebc abe3 5abe 669d 09bd a701 073e
000001b0: 5f9a 733e a3fd dabe ec51 c6bd 49b4 3d3d
000001c0: d205 cf3d 70f8 433d 5ff2 12bd c959 613e
000001d0: b759 6fbd df4e 7dba a48b dc3d 5ef0 ca3c
000001e0: 25f8 703d 86c6 093e f857 b4bd 8992 aa3d
000001f0: 41f8 4fbe 1a6b 053e 344b ddbd 07f5 3a3e

network_body._body_endoder.seq_layers.2.weight f4 [128, 128]
-0.09269307 0.07216196 -0.2017196 0.026436014 0.016231153 -0.17135106 -0.07571875 -0.2078933
0.21735905 0.007229083 -0.2121807 -0.07317334 -0.07235536 -0.1694515 0.01696404 0.16718733
-0.2655067 -0.12708595 0.082533695 0.057492502 -0.04254618 0.1170035 -0.12546745 0.09040158
0.06522646 -0.18489566 -0.11091314 -0.06871347 -0.13226114 -0.027461093 -0.21221268 -0.20329246
0.026621172 -0.34126124 -0.012249643 0.20063542 0.06307662 -0.3087475 0.16990161 -0.12824896
-0.15559258 0.13720909 -0.09265434 0.13978717 -0.3202448 -0.06765246 0.20349112 -0.086680055
-0.14441772 -0.16261388 -0.16979663 0.13460709 0.03552964 -0.35060212 -0.09912422 -0.15050231
-0.15314211 -0.16429731 -0.33502707 -0.12391798 -0.09155713 -0.30717796 -0.16774924 -0.124622725
-0.077876486 -0.0805656 -0.2483525 -0.03733326 -0.057464905 -0.076960325 -0.15668648 -0.50993216
-0.23545724 -0.10488799 0.03579077 -0.09099894 -0.12280077 0.01652917 0.17019069 0.054063126
-0.20343715 -0.10036233 -0.2451263 -0.07695497 -0.0015162763 -0.049942423 -0.2311787 -0.30765948
-0.029169826 -0.029473094 0.14063862 -0.08039399 0.07966981 -0.18604718 0.06925622 0.09677279
0.05864813 -0.28717136 -0.19460334 0.1540806 -0.082216986 -0.0014657697 -0.28793746 0.0488985
-0.11952778 0.16712976 -0.18583915 -0.26264372 -0.5439879 0.19920553 -0.1221561 -0.17207325
-0.092064105 0.051126275 -0.021976588 -0.0063355505 0.124937914 -0.14358601 0.20247415 -0.26176757
0.009444223 -0.12888396 -0.04319737 0.15176469 -0.18540017 -0.24704309 -0.25749347 -0.239865
0.07139324 -0.16602468 0.1327079 -0.30273628 -0.25724033 -0.06325396 -0.046559166 0.032289807
-0.19637305 -0.2839933 -0.092888206 -0.17026843 -0.10621241 -0.06660602 -0.094495006 -0.04114579
0.09264378 -0.2299529 -0.30431408 0.11014673 -0.08934369 -0.01324979 -0.2129704 -0.040462404
0.103405245 -0.14244413 0.2812741 -0.10337516 0.009550069 -0.11163894 0.18088138 -0.17657663
-0.24124509 -0.36614987 -0.10788614 0.0666067 -0.17813362 -0.17896427 -0.2581728 -0.3127349
-0.28597304 0.024202097 -0.25803253 -0.0652263 -0.070507824 -0.20878753 -0.13602135 -0.09232797
0.06004402 -0.33589414 0.020580823 -0.34463808 0.09701292 -0.13751547 0.011998088 -0.14580667
-0.0894307 -0.11947259 0.08579508 -0.040201534 -0.41930184 0.1904407 0.009365443 -0.031055467
0.07920113 0.08393811 -0.20025559 -0.2685472 -0.16575839 -0.12781782 0.01035015 -0.31371877
-0.14956181 0.11962173 0.0074172625 -0.04970326 -0.22738749 -0.21141055 -0.14493427 -0.16367503
-0.1545261 0.15478817 -0.0440255 -0.24040435 -0.123455115 -0.04097062 0.1121798 0.07196921
0.013918563 0.16917928 -0.24683757 0.10998465 0.021909889 -0.3707099 -0.16147628 -0.04846608
-0.18162684 -0.23444074 -0.09765901 -0.22454248 -0.32467884 0.13248125 0.20285304 -0.5422118
-0.2274183 -0.0399728 -0.28291282 0.02955112 0.019667698 -0.13878968 -0.12595357 -0.0602103
-0.17665972 0.035209753 -0.12251304 -0.28800917 -0.0073876297 -0.32261616 0.25245738 0.059977036
-0.14543429 -0.07238314 -0.067053236 0.27244756 0.0074791554 -0.05563337 0.029215535 0.16575347
00000000: ddd5 bdbd a6c9 933d 958f 4ebe 5790 d83c
00000010: 32f7 843c a776 2fbe 6f12 9bbd fbe1 54be
00000020: 5f93 5e3e f2e1 ec3b e645 59be e7db 95bd
00000030: 0c2f 94bd b284 2dbe 2cf8 8a3c 2833 2b3e
00000040: 7ff0 87be d222 02be 6d07 a93d 427d 6b3d
00000050: e744 2ebd 889f ef3d 8a7a 00be 7724 b93d
00000060: 7395 853d 4a55 3dbe 6e26 e3bd a6b9 8cbd
00000070: 776f 07be 16f6 e0bc 484e 59be e62b 50be
00000080: a514 da3c cbb9 aebe bab2 48bc 5f73 4d3e
00000090: 512e 813d 2714 9ebe b0fa 2d3e b253 03be
000000a0: a953 1fbe 8a80 0c3e 8fc1 bdbd 5e24 0f3e
000000b0: 20f7 a3be 5f8d 8abd fa5f 503e 5085 b1bd
000000c0: 3de2 13be 4184 26be 2bdf 2dbe 71d6 093e
000000d0: 8787 113d 1f82 b3be a401 cbbd 471d 1abe
000000e0: 49d1 1cbe 8e3d 28be ab88 abbe b6c8 fdbd
000000f0: 4e82 bbbd 6e46 9dbe 75c6 2bbe 333a ffbd
00000100: b57d 9fbd 94ff a4bd 1e50 7ebe c3ea 18bd
00000110: 5260 6bbd 609d 9dbd 6c72 20be ea8a 02bf
00000120: b41b 71be 84cf d6bd 5899 123d a75d babd
00000130: f87e fbbd 2f68 873c 7846 2e3e 4c71 5d3d
00000140: d451 50be c48a cdbd 6402 7bbe 919a 9dbd
00000150: cabd c6ba 6d90 4cbd 1cba 6cbe 8b85 9dbe
00000160: 8ff5 eebc 8f71 f1bc 9203 103e 9ba5 a4bd
00000170: ed29 a33d 2783 3ebe 34d6 8d3d d030 c63d
00000180: 0639 703d 2008 93be 1946 47be 4ec7 1d3e
00000190: 6161 a8bd 121f c0ba 8a6c 93be cb49 483d
000001a0: fbca f4bd 1024 2b3e 9e4c 3ebe 3d79 86be
000001b0: ca42 0bbf 89fc 4b3e fa2c fabd f833 30be
000001c0: 1b8c bcbd c969 513d 3f08 b4bc 739a cfbb
000001d0: 73df ff3d 3608 13be 6255 4f3e 6606 86be
000001e0: f1bb 1a3c 28fa 03be baef 30bd 3468 1b3e
000001f0: 8bd9 3dbe ddf8 7cbe 2fd6 83be 2c9f 75be
00000200: 9e36 923d 6002 2abe 94e4 073e 4000 9bbe
00000210: 01b5 83be 4b8b 81bd d3b4 3ebd 5142 043d
00000220: 0416 49be 9267 91be 2c3c bebd d95a 2ebe
00000230: e485 d9bd bd68 88bd 9986 c1bd 7d88 28bd
00000240: 06bc bd3d c678 6bbe 0ecf 9bbe 9c94 e13d
00000250: d3f9 b6bd a615 59bc ea14 5abe e8bb 25bd
00000260: 21c6 d33d e0dc 11be 2903 903e 5bb6 d3bd
00000270: e577 1c3c f5a2 e4bd f838 393e 81d0 34be
00000280: f408 77be ff77 bbbe 69f3 dcbd 1869 883d
00000290: a968 36be 6942 37be 3a2f 84be ca1e a0be
000002a0: 0f6b 92be 7a43 c63c d71c 84be 5e95 85bd
000002b0: 6866 90bd 66cc 55be 2e49 0bbe 7216 bdbd
000002c0: b8f0 753d 51fa abbe 1d99 a83c 6774 b0be
000002d0: b6ae c63d dbd0 0cbe a193 443c 584e 15be
000002e0: 7127 b7bd 0cae f4bd 55b5 af3d 5daa 24bd
000002f0: bbae d6be e302 433e 8471 193c 0968 febc
00000300: 3434 a23d bee7 ab3d cd0f 4dbe 057f 89be
00000310: 91bc 29be ade2 02be ad93 293c bf9f a0be
00000320: bb26 19be 3dfc f43d 820c f33b a595 4bbd
00000330: 44d8 68be 027c 58be a669 14be 6d9a 27be
00000340: 173c 1ebe ca80 1e3e 1554 34bd 8f2c 76be
00000350: 09d6 fcbd cfd0 27bd 86be e53d 9864 933d
00000360: af0a 643c 553d 2d3e fdc2 7cbe a23f e13d
00000370: 5e7c b33c b0cd bdbe 0a5a 25be 5e84 46bd
00000380: 63fc 39be 3c11 70be 7201 c8bd 77ee 65be
00000390: 4e3c a6be 2aa9 073e b5b8 4f3e 64ce 0abf
000003a0: 58e0 68be 85ba 23bd f3d9 90be 3115 f23c
000003b0: 271e a13c e21e 0ebe f9f9 00be 139f 76bd
000003c0: 49e6 34be 1a38 103d 1ee8 fabd f075 93be
000003d0: ee13 f2bb f22d a5be 1842 813e 7baa 753d
000003e0: baec 14be 9d3d 94bd 3553 89bd 3f7e 8b3e
000003f0: b413 f53b d1df 63bd 6b55 ef3c 47bb 293e

network_body._body_endoder.seq_layers.2.bias f4 [128]
-0.14702587 -0.08245973 -0.08730556 -0.29824257 -0.21526824 -0.36706164 -0.19650301 -0.43309668
-0.21320331 -0.032981884 -0.2877687 -0.3522688 -0.31186903 -0.13156195 -0.046860754 -0.3173137
-0.29282835 -0.17610867 -0.37679365 -0.31644306 -0.49498847 -0.17044845 -0.20240548 -0.24919978
-0.17176083 -0.0882898 -0.13966489 -0.33585978 -0.048460353 -0.045351386 -0.3761636 -0.31541276
0.005968221 -0.14291236 -0.31231 -0.3184301 -0.28397465 -0.32523155 -0.28960255 0.0012917053
-0.52823377 -0.20291956 -0.20323306 -0.14555341 -0.13211331 -0.09702163 -0.36694497 0.03929783
-0.04669233 -0.29787275 0.0051584113 -0.30246678 -0.006338868 -0.06288047 -0.25539473 -0.37619385
-0.26182395 -0.20489335 -0.18929729 -0.036114044 -0.30245066 -0.04850175 -0.34685537 -0.13803424
-0.21722704 -0.20430368 -0.29463592 0.044673964 -0.21970221 -0.29575357 -0.20920935 -0.32707965
-0.20299828 -0.18299901 -0.24742462 -0.26199752 -0.0818501 -0.3162758 -0.44176474 -0.12166517
-0.35524663 -0.36532906 -0.0881797 -0.08684312 -0.21056707 -0.36668828 -0.27473128 -0.1570329
-0.052299336 -0.33369306 -0.07700754 -0.1282287 0.004246023 -0.1477169 0.013339874 -0.0702563
-0.25713688 -0.31824645 -0.24926497 0.035222676 -0.20880823 -0.26391616 -0.28139094 -0.13527082
-0.43956146 -0.23015241 -0.22547588 -0.22533107 -0.2410626 -0.26444265 0.010427872 -0.24478695
-0.16339006 -0.3277128 -0.26818216 -0.16390665 -0.3747634 -0.25547397 -0.105261914 -0.15784252
-0.4365481 -0.16815196 -0.011974826 -0.13736162 -0.19685075 -0.059580978 -0.07131199 -0.046639204
00000000: f38d 16be a6e0 a8bd 42cd b2bd 40b3 98be
00000010: 476f 5cbe 81ef bbbe 1638 49be d9be ddbe
00000020: f851 5abe 0318 07bd 6b56 93be 935c b4be
00000030: 4cad 9fbe 2db8 06be 10f1 3fbd f176 a2be
00000040: 99ed 95be d555 34be 19eb c0be d304 a2be
00000050: 216f fdbe 0a8a 2ebe 6243 4fbe 3a2e 7fbe
00000060: 12e2 2fbe 48d1 b4bd 5004 0fbe d0f5 abbe
00000070: 5d7e 46bd 60c2 39bd 8498 c0be c87d a1be
00000080: 1191 c33b 9e57 12be 19e7 9fbe 4509 a3be
00000090: 2065 91be c084 a6be c946 94be 704e a93a
000000a0: 543a 07bf 25ca 4fbe 541c 50be f40b 15be
000000b0: b648 07be 47b3 c6bd 36e0 bbbe c3f6 203d
000000c0: 7540 3fbd c782 98be e407 a93b eddc 9abe
000000d0: 47b6 cfbb 7ac7 80bd 19c3 82be 7b9c c0be
000000e0: ca0d 86be 90cf 51be 26d7 41be 52ec 13bd
000000f0: d0da 9abe c5a9 46bd 0797 b1be d958 0dbe
00000100: c470 5ebe fc34 51be 85da 96be 0cfc 363d
00000110: 9ef9 60be 036d 97be fa3a 56be fc76 a7be
00000120: c8de 4fbe 1864 3bbe e15c 7dbe 8a24 86be
00000130: 06a1 a7bd e7ee a1be fd2e e2be 972b f9bd
00000140: e3e2 b5be 690c bbbe 8f97 b4bd ceda b1bd
00000150: e59e 57be 91be bbbe 94a9 8cbe 3ccd 20be
00000160: d437 56bd d1d9 aabe 21b6 9dbd 624e 03be
00000170: 3922 8b3b 1943 17be 7d8f 5a3c 89e2 8fbd
00000180: 72a7 83be 33f1 a2be 513f 7fbe a745 103d
00000190: d3d1 55be 0520 87be 7912 90be 6f84 0abe
000001a0: 330e e1be 13ad 6bbe 26e3 66be 30bd 66be
000001b0: 1dd9 76be 0765 87be aad9 2a3c 6ea9 7abe
000001c0: b94f 27be f9c9 a7be 2c4f 89be 25d7 27be
000001d0: fde0 bfbe 7ccd 82be 8f93 d7bd 78a1 21be
000001e0: 3c83 dfbe 0730 2cbe 1032 44bc 86a8 0cbe
000001f0: 3e93 49be 2f0b 74bd 050c 92bd c008 3fbd

action_model._continuous_distribution.log_sigma f4 [1, 2]
-1.3901527 -0.9748367
00000000: 86f0 b1bf e68e 79bf

action_model._continuous_distribution.mu.weight f4 [2, 128]
-0.014636012 -0.049060445 -0.0064103566 0.021921998 0.05153467 -0.068196066 -0.09302299 0.053955913
0.007480413 -0.014666157 -0.030716322 0.001644661 -0.018502962 -0.059849627 -0.059167903 -0.07933411
0.11192551 -0.118889876 -0.08764041 -0.06541909 -0.054573495 0.025551062 -0.06870547 0.051493555
-0.13851373 0.04607961 0.0066827293 -0.069195814 -0.112066634 0.049999226 -0.012845976 0.0068738163
-0.03440567 -0.0693882 -0.030781254 -0.111052744 -0.13312612 -0.015326144 -0.05700722 0.014516502
0.00020448267 -0.0010285955 -0.06437274 -0.033337448 -0.03903627 -0.04747419 -0.081838876 -0.047582638
-0.10771643 0.076282516 0.03648129 -0.08686664 -0.079850286 0.13183527 -0.07180689 -0.023046253
-0.035485107 -0.050014522 -0.104018465 0.009726057 -0.07245355 0.014480424 -0.034085456 -0.069447584
-0.04005806 0.009596698 -0.010758297 -0.01906459 -0.12009316 -0.08069416 0.117830195 -0.10651187
-0.01848395 -0.017420594 0.089334294 -0.004354833 -0.0020930336 -0.09083855 0.009308745 -0.13649091
-0.028385513 -0.012981848 0.05718333 -0.013137596 0.010389394 -0.1134991 -0.025276413 0.0001460939
0.0028321163 -0.13224386 -0.0051335827 -0.027778305 -0.022313649 0.008436482 -0.112042926 0.017969532
-0.10207274 -0.06254006 -0.18754013 0.00027886996 0.02731515 -0.20564473 -0.098179035 -0.07384106
-0.08197704 -0.103933945 -0.12797351 0.029425569 0.016153596 -0.029852027 -0.04101381 -0.047829464
-0.12225637 -0.0056051016 0.1266482 0.16185534 0.022865718 -0.07503715 0.013757946 -0.13861604
0.038777664 -0.111483485 -0.015875727 -0.017018484 -0.079103395 0.019982541 -0.04650808 -0.033786915
0.040246077 0.08464069 0.078544326 -0.0060932357 0.02178824 -0.11181237 0.03206391 -0.051761843
-0.00793509 0.023546012 -0.026016613 0.00082813547 -0.009167106 0.066486984 0.059855677 0.00045918475
-0.026167711 -0.02611112 -0.06269689 -0.025979696 -0.07057244 0.015409488 0.051346842 -0.092279464
-0.058534727 -0.020545078 0.07935588 -0.0068122055 -0.02250452 -0.088252716 -0.019982016 -0.009885801
-0.023458535 0.18117757 0.0069646677 0.044148926 -0.052850522 -0.0297876 0.0054896087 -0.10769041
-0.026265806 -0.014284874 -0.105098344 -0.063709036 0.042667888 -0.092727624 -0.029226488 0.063263
-0.027692482 -0.043427147 -0.011479465 -0.015783956 -0.11256078 0.041274678 -0.0009982999 -0.001081695
-0.095265664 -0.054322865 0.024922393 -0.045500133 -0.022289388 0.015196694 -0.063986756 -0.0068101836
-0.030368857 -0.094011195 0.014261333 0.13290761 -0.037461106 -0.08933561 -0.013128124 -0.058578093
0.11971507 -0.0300432 0.06729879 0.00085512444 -0.058474436 -0.093574725 0.0128233265 -0.041102175
0.014043079 0.006953434 -0.049151897 0.08286298 -0.0059718178 0.041906543 -0.012612063 0.032259937
-0.05344734 -0.044877622 -0.027575491 -0.03694609 -0.06484206 0.011951373 0.032049976 0.041859213
-0.005131026 -0.11400261 -0.11166389 0.09427044 -0.059648465 -0.12546887 -0.032925155 0.054678045
0.053189985 -0.0015420698 -0.078948274 0.06513958 -0.012267746 0.036561593 0.055881348 -0.039726883
0.0009754043 -0.087708704 -0.03399044 -0.06460549 -0.06834361 0.039795265 -0.20506075 -0.06278493
0.02374892 0.021322746 0.05421467 0.06867817 -0.038744282 -0.087811425 -0.112777255 0.06421661
00000000: e2cb 6fbc 9bf3 48bd f80d d2bb c395 b33c
00000010: 0516 533d 61aa 8bbd d682 bebd e000 5d3d
00000020: 411e f53b 524a 70bc cca0 fbbc aa91 d73a
00000030: 8693 97bc e224 75bd 0b5a 72bd ec79 a2bd
00000040: 3439 e53d 897c f3bd d17c b3bd 72fa 85bd
00000050: 7588 5fbd 7650 d13c 74b5 8cbd e8ea 523d
00000060: 8bd6 0dbe f9bd 3c3d ccfa da3b 89b6 8dbd
00000070: 3183 e5bd fdcb 4c3d ee77 52bc c03d e13b
00000080: f6ec 0cbd 671b 8ebd f828 fcbc 9f6f e3bd
00000090: 3752 08be 821a 7bbc 6780 69bd 9fd6 6d3c
000000a0: 666a 5639 f0d1 86ba dbd5 83bd d98c 08bd
000000b0: 7fe4 1fbd 4c74 42bd 249b a7bd 03e6 42bd
000000c0: 6f9a dcbd 023a 9c3d 686d 153d 23e7 b1bd
000000d0: 8c88 a3bd d3ff 063e 7e0f 93bd 7fcb bcbc
000000e0: d558 11bd 07dc 4cbd a207 d5bd 0a5a 1f3c
000000f0: 8762 94bd 4d3f 6d3c 319d 0bbd 893a 8ebd
00000100: ec13 24bd 783b 1d3c 9143 30bc 582d 9cbc
00000110: 67f3 f5bd fb42 a5bd f550 f13d e522 dabd
00000120: a76b 97bc a2b5 8ebc e6f4 b63d fdb2 8ebb
00000130: 472b 09bb 9009 babd b583 183c 46c4 0bbe
00000140: bc88 e8bc d1b1 54bc 1139 6a3d 123f 57bc
00000150: 4738 2a3c 3772 e8bd 7b10 cfbc c830 1939
00000160: 079b 393b ef6a 07be 9d37 a8bb 548f e3bc
00000170: 1dcb b6bc 2c39 0a3c c376 e5bd d734 933c
00000180: 830b d1bd 0115 80bd 850a 40be 4b35 9239
00000190: 05c4 df3c 8894 52be 1712 c9bd fb39 97bd
000001a0: 94e3 a7bd 52db d4bd 7d0b 03be e40d f13c
000001b0: 8c54 843c 3d8c f4bc 19fe 27bd d4e8 43bd
000001c0: 8c61 fabd 00ab b7bb 11b0 013e 68bd 253e
000001d0: e350 bb3c 14ad 99bd 0269 613c 5df1 0dbe
000001e0: 54d5 1e3d 7451 e4bd d00d 82bc 596a 8bbc
000001f0: f600 a2bd 6db2 a33c 427f 3ebd 2664 0abd
00000200: 12d9 243d 1958 ad3d d9db a03d c4a9 c7bb
00000210: 407d b23c e2fd e4bd 7255 033d 3a04 54bd
00000220: 2e02 02bc 91e3 c03c cb20 d5bc 3b17 593a
00000230: a131 16bc 542a 883d 3a2b 753d bcbe f039
00000240: ab5d d6bc fde6 d5bc 3a67 80bd 5fd3 d4bc
00000250: 4988 90bd 1478 7c3c 1151 523d 04fd bcbd
00000260: 1cc2 6fbd 274e a8bc 5685 a23d ec38 dfbb
00000270: 665b b8bc d7bd b4bd 53b1 a3bc 0ef8 21bc
00000280: 1d2c c0bc 9d86 393e de37 e43b 81d5 343d
00000290: ca79 58bd 2005 f4bc 2de2 b33b ca8c dcbd
000002a0: 632b d7bc 1b0b 6abc cd3d d7bd e279 82bd
000002b0: 86c4 2e3d fbe7 bdbd 636c efbc 0890 813d
000002c0: 58db e2bc aae0 31bd 5e14 3cbc 5b4d 81bc
000002d0: 4486 e6bd a30f 293d 63d9 82ba a9c7 8dba
000002e0: a51a c3bd a781 5ebd 0c2a cc3c 595e 3abd
000002f0: 3c98 b6bc 8efb 783c 7d0b 83bd f627 dfbb
00000300: 1cc8 f8bc f188 c0bd 5ea8 693c ef18 083e
00000310: d170 19bd 97f5 b6bd 5817 57bc 95ef 6fbd
00000320: 2d2d f53d 281d f6bc f3d3 893d 6e2a 603a
00000330: e482 6fbd 1ba4 bfbd ee18 523c c15a 28bd
00000340: f114 663c a2d9 e33b 8053 49bd 11b4 a93d
00000350: 3daf c3bb 32a6 2b3d d4a2 4ebc ff22 043d
00000360: 99eb 5abd 99d1 37bd ffe5 e1bc c954 17bd
00000370: eacb 84bd b1cf 433c d646 033d 9174 2b3d
00000380: 2a22 a8bb 337a e9bd 0ab0 e4bd dc10 c13d
00000390: f351 74bd e97a 00be 87dc 06bd 16f6 5f3d
000003a0: bedd 593d 471f caba a2af a1bd e667 853d
000003b0: a8fe 48bc 9cc1 153d d7e3 643d a8b8 22bd
000003c0: 46b2 7f3a 9fa0 b3bd 8f39 0bbd e24f 84bd
000003d0: bcf7 8bbd 5c00 233d 72fb 51be 6395 80bd
000003e0: 188d c23c 0aad ae3c 3410 5e3d 24a7 8c3d
000003f0: 53b2 1ebd 7ad6 b3bd c3f7 e6bd ff83 833d

action_model._continuous_distribution.mu.bias f4 [2]
-0.019192176 -0.09872634
00000000: e938 9dbc 0931 cabd
