results/inf_sensing_1/DroneAgent/DroneAgent-960.onnx (onnx, 100664 bytes, 7 tensors)

network_body._body_endoder.seq_layers.0.weight f4 [128, 56]
0	0x3df779a7	0.1208375
1	0xbe02f561	-0.12788917
2	0x3d9327cf	0.07185327
3	0x3dc9ffef	0.098632686
4	0xbe7f955b	-0.24959318
5	0x3c9acead	0.018897379
6	0x3e0ed817	0.13949619
7	0x3da6b1a6	0.081393525
8	0xbd59e01d	-0.053192247
9	0xbb528015	-0.00321198
10	0xbc735534	-0.014851857
11	0x3a31ca9c	0.00067822053
12	0xbe3eff84	-0.18652159
13	0x3cf52044	0.029922612
14	0x3c63174a	0.013860533
15	0xbe132766	-0.14370498
16	0x3d635433	0.05550022
17	0x3c5c4e4a	0.0134464
18	0x3e06f87c	0.13180727
19	0x3e475a60	0.19468069
20	0xbdc3d929	-0.095629044
21	0x3e3c5293	0.18390875
22	0xbd659d94	-0.05605848
23	0xbe2ef679	-0.1708621
24	0xbdafe033	-0.085876845
25	0x3d22e594	0.039769724
26	0x3dbfd7d0	0.09367335
27	0xbe84c145	-0.25928703
28	0xbd905a00	-0.07048416
29	0x3e0cabfe	0.13737485
30	0xbe02d260	-0.12775564
31	0xbe476afe	-0.19474408
32	0xbd82d5a0	-0.06388402
33	0xbdac6076	-0.08416836
34	0x3dec574e	0.115400895
35	0x3d4bcdcb	0.049756806
36	0xbe015ee8	-0.1263386
37	0xbe9f1ec0	-0.31078148
38	0x3d115652	0.035482712
39	0xbc80a08a	-0.015701551
40	0x3d2b8c02	0.04188157
41	0x3dde2924	0.10847691
42	0x3dc11594	0.09427944
43	0xbe57c632	-0.210717
44	0x3cef8e28	0.02924259
45	0x3d639280	0.055559635
46	0x3d8beb2a	0.06831963
47	0x3e8d7e1f	0.27635285
48	0x3cf1a949	0.029499667
49	0x3dbcae51	0.09212936
50	0x3cf21fcc	0.029556178
51	0xbe0a761f	-0.13521622
52	0x3e077a2f	0.13230203
53	0x3b6f72e0	0.0036536977
54	0x3e6f6932	0.23379973
55	0x3db502a4	0.08838394
56	0xbdf2f198	-0.118624866
57	0x3d75b215	0.059984285
58	0xbd24cea9	-0.04023615
59	0xbdabcf55	-0.08389155
60	0x3cb0f669	0.021601873
61	0x3d99f9a2	0.07518317
62	0xbd7b500d	-0.06135564
63	0xbe622efa	-0.22088233
64	0xbcba2e55	-0.022727171
65	0xbe62ab18	-0.2213558
66	0x3eadc4d4	0.3393923
67	0x3b79ba61	0.0038105475
68	0xbd070d7d	-0.032971848
69	0xbdc60f02	-0.09670831
70	0xbe488afe	-0.19584271
71	0x3e96feaf	0.29491183
72	0xbd925d68	-0.07146722
73	0x3c3847c0	0.011247575
74	0x3d7d6e7c	0.061872944
75	0x3da48092	0.08032335
76	0x3d11415a	0.035462715
77	0xbdf1f5ed	-0.11814485
78	0xbb45f802	-0.0030207639
79	0x3dce7243	0.100803874
80	0xbeb21bd6	-0.34786862
81	0x3d14c753	0.036322903
82	0xbdfa72ad	-0.12228904
83	0xbe3a27a4	-0.18179184
84	0x3dc5a54b	0.09650668
85	0x3b9cfd5c	0.004790945
86	0x3dd427ee	0.103591785
87	0xbe7a74f9	-0.24458684
88	0x3d9cc089	0.07653911
89	0x3e38eead	0.18059798
90	0x3c7ea39c	0.015541937
91	0xbc664e03	-0.014056685
92	0xbe47d0dc	-0.19513267
93	0x3da9b305	0.082860984
94	0x3d7d0d47	0.06178024
95	0x3e5c88f3	0.21536617
96	0x3ee51657	0.44743606
97	0x3b86d735	0.00411501
98	0x3d7830f8	0.060593575
99	0x3d8f9f75	0.07012836
100	0x3de329c6	0.11091952
101	0xbdf112f1	-0.11771191
102	0x3eb16617	0.346482
103	0x3e51419e	0.20435187
104	0xbc899e25	-0.016799042
105	0xbd19b53d	-0.037526358
106	0xbdf4783c	-0.119369954
107	0x3e520fc0	0.2051382
108	0x3dd1a221	0.10236002
109	0xbd29bb40	-0.04143834
110	0xbbc6c339	-0.006065753
111	0xbd0dc8ec	-0.034615442
112	0xbda8515a	-0.082186416
113	0x3bf1bcfd	0.0073772655
114	0x3c71078b	0.014711271
115	0x3d98dd9b	0.07464143
116	0xbdfa0dd4	-0.12209669
117	0xbda41b8d	-0.080130674
118	0x3dea2379	0.11432547
119	0xbddeed0f	-0.10885059
120	0x3dac23c2	0.08405258
121	0x3e252204	0.16126257
122	0xbe4eaeb2	-0.20183828
123	0x3c180779	0.009279125
124	0x3d267dd1	0.04064733
125	0x3c81d6c3	0.015849477
126	0x3d845668	0.06461793
127	0xbceb3ed1	-0.028716477
128	0xbdb16125	-0.08661107
129	0xbe172388	-0.14759648
130	0x3d361f51	0.04446346
131	0x3dd63050	0.10458434
132	0x3a7c780b	0.0009630925
133	0x3cd20bfe	0.025640484
134	0xbdb9a07a	-0.090638116
135	0x3de5acc5	0.11214594
136	0x3e91e0ad	0.28491727
137	0x3e0c251f	0.13686036
138	0x3cb4e6dd	0.02208274
139	0x3e263047	0.16229354
140	0x3e47301a	0.19451943
141	0xbe242be1	-0.16032363
142	0xbd82e4cb	-0.06391295
143	0xbe4e284e	-0.20132563
144	0x3a05e1ba	0.0005107183
145	0x3dd52086	0.10406594
146	0x3da27308	0.07932097
147	0xbd84d3d7	-0.06485718
148	0x3deb988e	0.11503707
149	0x3d0f5c53	0.035000157
150	0x3d4f8d47	0.050671842
151	0xbd8ede37	-0.06975978
152	0xbdbd67b2	-0.09248294
153	0xbcec94ba	-0.028879512
154	0xbda33d3c	-0.07970664
155	0xbe750bbf	-0.23930262
156	0x3e536664	0.20644528
157	0x3db6022a	0.088871315
158	0xbea03761	-0.3129225
159	0xbd8303ba	-0.06397195
160	0x3df0b5a8	0.11753398
161	0xbc808897	-0.015690131
162	0x3eb42848	0.35186982
163	0x3e679319	0.22614707
164	0xbc94dab0	-0.018170685
165	0xbd087a22	-0.0333196
166	0x3e118d19	0.1421398
167	0x3e648f89	0.2232038
168	0xbe4d0229	-0.20020355
169	0xbe647179	-0.22308911
170	0xbdd41066	-0.1035469
171	0x3e341a89	0.17588247
172	0x3e028fcc	0.12750167
173	0xbe83d073	-0.25744972
174	0x3e604383	0.21900754
175	0xbe55aff7	-0.20867907
176	0x3e159d4d	0.14610787
177	0x3e7baf69	0.24578632
178	0xbd8d8992	-0.06911005
179	0xbd4fb06e	-0.050705366
180	0xbd3e506e	-0.046463422
181	0x3e207386	0.15669069
182	0xbde521b8	-0.11188072
183	0xbdac0a18	-0.08400363
184	0x3d885be3	0.06658151
185	0xbe29c7c9	-0.16580118
186	0x3c318127	0.010834015
187	0x3abc0e04	0.0014347439
188	0xbe52a00b	-0.20568864
189	0x3d644d67	0.05573788
190	0xbdad9604	-0.08475879
191	0x3c36b0c6	0.0111505445
192	0x3e5e62e3	0.2171741
193	0x3e185e1d	0.14879651
194	0x3e5fd639	0.21859063
195	0x3e5b845e	0.21437213
196	0x3d7dffbf	0.062011477
197	0x3dff9c48	0.1248098
198	0x3d8fff33	0.07031097
199	0x3cca1573	0.02466843
200	0x3e463ce7	0.1935917
201	0xbd845e30	-0.06463277
202	0x3e5f41b2	0.21802405
203	0xbdc05232	-0.093906775
204	0x3b5a3640	0.0033296496
205	0xbc6f280a	-0.014596948
206	0xbe79fb03	-0.2441216
207	0x3df61268	0.120152295
208	0xbe1ea61f	-0.15493058
209	0x3d766f68	0.06016484
210	0x3dbd9d28	0.09258491
211	0xbcf82e40	-0.030295491
212	0xbd50f197	-0.051011648
213	0x3e15a238	0.14612663
214	0xbd94ac5e	-0.07259439
215	0x3dc34a20	0.095356226
216	0x3dbbcd4a	0.09170015
217	0xbdac003c	-0.08398482
218	0x3e394d80	0.1809597
219	0xbe332635	-0.17495044
220	0xbd4aee7f	-0.049543854
221	0x3df19860	0.11796641
222	0x3e34a752	0.17641953
223	0xbd81d427	-0.06339293
224	0x3e01b602	0.12667087
225	0x3ce36ef1	0.027762862
226	0x3e09d490	0.13459992
227	0xbdecbbd0	-0.1155926
228	0x3e4eda8b	0.20200555
229	0xbe4dc0a6	-0.20093021
230	0xbe3f4a40	-0.18680668
231	0x3c0b713c	0.008510884
232	0xbd8d7d41	-0.06908656
233	0xbdfb97db	-0.122848235
234	0xbcf1d1cc	-0.029518984
235	0x3c0c5baf	0.008566781
236	0x3d7f8066	0.06237831
237	0xbe2d9e74	-0.16954976
238	0x3d713aeb	0.05889408
239	0xbb9a9ef1	-0.0047186543
240	0xbe242524	-0.16029793
241	0xbc26951d	-0.010167387
242	0xbcbd6a74	-0.02312205
243	0x3db54e4c	0.088528246
244	0xbd9b17d6	-0.07572906
245	0x3e2baa87	0.1676427
246	0x3cf6035f	0.030030904
247	0x3db91699	0.09037513
248	0x3cd574c8	0.026056662
249	0x3cc0647a	0.023485411
250	0xbd605f7d	-0.054778565
251	0xbd181bf8	-0.037136048
252	0x3e3e5b30	0.18589473
253	0xbbf7b2db	-0.007559163
254	0x3d13471d	0.03595649
255	0xba178980	-0.0005780682

network_body._body_endoder.seq_layers.0.bias f4 [128]
0	0x3be063b4	0.006847823
1	0x3b4e4261	0.003147267
2	0x3bd67950	0.0065452233
3	0x3be7cd05	0.007074001
4	0xbb06eb94	-0.0020587193
5	0x3c009466	0.007847881
6	0x3bdc69be	0.0067264726
7	0x3bc3362c	0.0059573855
8	0x3b4ab710	0.0030931868
9	0x3bef40ce	0.0073014265
10	0xba42fdc2	-0.00074383256
11	0xbc250058	-0.010070883
12	0xbbb3d505	-0.0054880404
13	0xbbe77755	-0.007063786
14	0xbbd35c54	-0.0064502154
15	0xbc218d8b	-0.009860407
16	0xbb857fe6	-0.0040740846
17	0xbbd03eef	-0.0063551585
18	0x3c0a9c15	0.008460064
19	0x3bc972da	0.0061477246
20	0xbbd706b7	-0.00656208
21	0xbb8d4867	-0.0043116095
22	0x391daa1d	0.00015036059
23	0xbc52fb34	-0.012877274
24	0x3c0ed262	0.008717151
25	0xbbc74bc4	-0.00608203
26	0xba714a9d	-0.00092045387
27	0x3bae64d0	0.0053220764
28	0x3ba5f498	0.0050645582
29	0x3c122c4e	0.008921696
30	0x3ba98d35	0.005174304
31	0xbbe1b127	-0.0068875733
32	0xbaf50669	-0.0018693927
33	0x3a627b3a	0.0008639578
34	0xbbc752ac	-0.0060828533
35	0xbb9296ff	-0.0044735665
36	0x3badf061	0.0053081964
37	0xbc02e715	-0.007989665
38	0xbb55bf8c	-0.0032615392
39	0x3bb8ebfb	0.0056433654
40	0xbb4c08cb	-0.003113317
41	0x3bffefb1	0.007810556
42	0x3b219c1a	0.0024659694
43	0x3b028696	0.0019916645
44	0xbc18574e	-0.009298159
45	0x3b918630	0.004441045
46	0xbbb3d8ad	-0.0054884763
47	0x3bb07db8	0.0053860806
48	0x3bdb7d77	0.006698306
49	0xbb09f094	-0.0021047937
50	0xbba52fa8	-0.0050410815
51	0xbb2a3441	-0.0025971087
52	0x3c1628dc	0.009165015
53	0x3c02b933	0.007978725
54	0xbb89c02c	-0.004203817
55	0x3bfed8a5	0.007777291
56	0x3bef455a	0.0073019685
57	0x3bdde350	0.0067714825
58	0x3be2f97f	0.006926715
59	0x3c01cae6	0.00792191
60	0x3bdece39	0.006799486
61	0x3bf843be	0.007576435
62	0xbc5bc79c	-0.01341429
63	0xbc0f7e07	-0.008758075
64	0xbc00b1bc	-0.007854875
65	0x3b4264df	0.0029662175
66	0xbb082742	-0.0020775353
67	0xbbb71120	-0.0055867583
68	0x3c124c82	0.008929374
69	0x3becc97a	0.0072261663
70	0xbc0a445d	-0.008439151
71	0xbb645db5	-0.0034845893
72	0x3be572b6	0.0070022
73	0x3be6f739	0.007048514
74	0xbb829230	-0.003984712
75	0x3bc07f17	0.0058745253
76	0xbbdb900e	-0.0067005223
77	0x39e330ba	0.00043333118
78	0xbbee55da	-0.007273418
79	0x3bfefd26	0.0077816425
80	0xbc07681f	-0.0082645705
81	0x39ffa720	0.00048761908
82	0xba319cb8	-0.0006775367
83	0xbb6ca837	-0.0036111006
84	0x3beb46ff	0.0071800943
85	0xbbd1c925	-0.006402152
86	0x3c2ee7be	0.010675369
87	0x3bb56c79	0.0055366126
88	0xbc0145d1	-0.007890181
89	0xbbd4f932	-0.006499433
90	0xbc1a917f	-0.009434103
91	0x3bcdf9e0	0.006285891
92	0x38adc46f	8.2858714e-05
93	0x3bbf4d50	0.005838074
94	0xbc09a4c8	-0.008401103
95	0xbc10c507	-0.0088360375
96	0xbad0053e	-0.0015870703
97	0xbbcae188	-0.006191436
98	0xbc16713c	-0.009182271
99	0xbbb3b025	-0.0054836445
100	0xbb45e4e4	-0.0030196244
101	0xbc04326c	-0.008068662
102	0xbbf2b2c3	-0.007406564
103	0x394b26c0	0.00019374024
104	0xbc14b253	-0.009075719
105	0x3b95dcd2	0.004573443
106	0xbbe7615b	-0.007061166
107	0xbc0f7c80	-0.00875771
108	0x3c086f40	0.008327305
109	0xbb759cca	-0.0037477487
110	0xbaf9dd68	-0.0019063177
111	0x3c1f5011	0.009723679
112	0x3bade72d	0.0053070993
113	0xbbd8edb7	-0.0066201347
114	0x3bbbad96	0.00572748
115	0x3bc27f51	0.0059355875
116	0xbc048614	-0.008088607
117	0xbb4f73e5	-0.0031654772
118	0x3a71743c	0.00092107407
119	0xbc18eee6	-0.009334302
120	0x3b4b33e0	0.0031006262
121	0xba12f60b	-0.0005606121
122	0xbbed47aa	-0.007241209
123	0x3b75e52f	0.0037520637
124	0x3bfdd30c	0.007746106
125	0xbb40ce40	-0.002941981
126	0xbb80dc2e	-0.0039324975
127	0xbb6ede73	-0.0036448508

network_body._body_endoder.seq_layers.2.weight f4 [128, 128]
0	0xbcf75dcd	-0.030196095
1	0xbb35ca28	-0.0027738903
2	0x3e09d50a	0.13460174
3	0x3d940503	0.072275184
4	0xbdacf63c	-0.08445403
5	0xbdc51ac9	-0.096242495
6	0x3d9505cf	0.072764985
7	0x3d6644e3	0.05621804
8	0x3e01bd09	0.12669767
9	0xbe1b1bb6	-0.1514729
10	0x3dd3c7ac	0.10340819
11	0xbe0dcfa2	-0.13848737
12	0x3a47ec51	0.00076264614
13	0x3e580565	0.21095808
14	0xb9e2db58	-0.00043269503
15	0xbc51a749	-0.012796232
16	0x3cc6d990	0.024273664
17	0x3d3891f8	0.04506108
18	0xbd77daec	-0.060511515
19	0xbe2ac656	-0.16677222
20	0x3bea02df	0.0071414555
21	0x3b5323ac	0.0032217307
22	0x3c1f08fd	0.009706733
23	0xbd891fde	-0.06695531
24	0xbda2c399	-0.079474635
25	0xbde7325a	-0.11288901
26	0x3b5e1af4	0.0033890577
27	0xbda05800	-0.07829285
28	0xbd311420	-0.043232083
29	0xbdb8fbb3	-0.09032383
30	0xbdbdf416	-0.09275071
31	0xbdd27e86	-0.10278039
32	0x3aafcb56	0.0013412039
33	0xbad00a7e	-0.0015872268
34	0x3d0c32ef	0.03422826
35	0xbcbf4d1c	-0.023352198
36	0x3abbfeff	0.0014342963
37	0x3caa68e1	0.020801963
38	0xbce1df9d	-0.027572447
39	0xbc2f0499	-0.0106822485
40	0x3d1891d6	0.037248455
41	0x3d307580	0.043080807
42	0xbd5f18a9	-0.054466877
43	0x3d5afb33	0.05346222
44	0x3e412ccb	0.18864743
45	0x3cf8e77f	0.030383823
46	0xbd8e9286	-0.06961541
47	0xbda18824	-0.07887295
48	0x3bc1b8c6	0.0059119193
49	0x3de5d754	0.11222711
50	0x3e0eacbb	0.13933079
51	0x3cb4b0bc	0.02205693
52	0xbe39eccf	-0.18156742
53	0x3d980e5e	0.07424615
54	0xbd92741e	-0.07151054
55	0x3d3e8883	0.046516906
56	0xbdd30688	-0.1030398
57	0xbda4e812	-0.080520764
58	0xbd393ed5	-0.045225937
59	0xbdcebcff	-0.10094642
60	0xbd2f2ca3	-0.04276718
61	0x3e09c113	0.13452558
62	0x3d527ae0	0.051386714
63	0xbc5e2609	-0.013558873
64	0x3c5fa5a4	0.013650332
65	0xbda65ea9	-0.08123524
66	0x3a8759fe	0.0010326502
67	0xbd6d0d21	-0.05787385
68	0x3e1c0dac	0.1523959
69	0x3dc132ff	0.09433555
70	0xbcda7fdd	-0.026672298
71	0xbdfeaef7	-0.12435716
72	0x3d4fb0e6	0.050705813
73	0xbe413131	-0.18866421
74	0xbd6f4775	-0.058417756
75	0x3bc1310c	0.0058957394
76	0x3d97d32c	0.07413325
77	0x3e188809	0.14895643
78	0x3db21147	0.08694702
79	0x3cad1826	0.021129679
80	0x3dfdae97	0.12386816
81	0x3d02203a	0.031769015
82	0xbdf6f0e7	-0.12057667
83	0x3e0716b8	0.1319226
84	0x3d67fdbd	0.056638468
85	0x3dda6ad2	0.106649056
86	0x3ddc4717	0.10755747
87	0xbe327767	-0.17428361
88	0xbc93aafa	-0.018025864
89	0x3d64bad2	0.05584223
90	0x3d8bca35	0.06825677
91	0xbdc8cc6d	-0.09804616
92	0x3dc8e87c	0.09809968
93	0xbcc13f57	-0.023589773
94	0x3cf92317	0.03041224
95	0xbca6ee3e	-0.020377275
96	0xbcb7afc5	-0.02242268
97	0xbd88ea42	-0.06685306
98	0xbddfd615	-0.10929505
99	0x3d0910dd	0.033463348
100	0xbe1d675d	-0.15371461
101	0x3d71d2ff	0.059039112
102	0x3ddba1c7	0.10724216
103	0xba992d98	-0.0011686562
104	0x3d1ec4fd	0.03876208
105	0x3dcb50f2	0.099275485
106	0xbd116f5b	-0.035506587
107	0x3df982e9	0.12183172
108	0xbb1e381e	-0.0024142335
109	0xbdcfd423	-0.10147884
110	0x3d335863	0.043785464
111	0x3e1eb236	0.1549767
112	0x3e1faffe	0.1559448
113	0x3dedc745	0.11610273
114	0xbd15fea6	-0.036619805
115	0x3db9b047	0.09066825
116	0x3b86583c	0.004099874
117	0xbd391cdb	-0.045193534
118	0x3b5f3aa5	0.0034062054
119	0x3ddab609	0.10679252
120	0x3c217151	0.009853677
121	0x3c75b542	0.0149968285
122	0xbd99d5ff	-0.0751152
123	0xbe037519	-0.12837638
124	0xbe0f147f	-0.13972662
125	0x3de0c36d	0.109747745
126	0xbd9aee9a	-0.07565041
127	0xbdd94a78	-0.10609907
128	0x3d26a8a2	0.040688165
129	0xbd5c7b73	-0.053828668
130	0xbdbf7d23	-0.0935004
131	0x3cf29d5b	0.029616049
132	0x3de7aecb	0.11312636
133	0xbd559ee6	-0.05215349
134	0x3dde252d	0.108469345
135	0xbd6bc584	-0.057561412
136	0xbce105cd	-0.027468586
137	0x3de9ca2b	0.114155136
138	0xbd5a4638	-0.053289622
139	0x3c7e0893	0.015504974
140	0x3d4aea9c	0.049540147
141	0x3cee8412	0.02911571
142	0x3d0c085e	0.034187667
143	0x3d46bf01	0.048522
144	0x3d5ac373	0.05340905
145	0x3d47d356	0.04878553
146	0xbd1bc109	-0.03802589
147	0x3dd6ed29	0.104944535
148	0xbc2650f2	-0.010151135
149	0x3d5dce7a	0.05415199
150	0x3da49357	0.08035915
151	0x3d6230a1	0.055222157
152	0xbd0e77a7	-0.034782078
153	0x3d3583e6	0.04431524
154	0xbe39beb8	-0.1813916
155	0xbc84e77c	-0.016223662
156	0x3da4cee9	0.080472775
157	0xbb40c41e	-0.002941377
158	0x3d338b62	0.043834098
159	0xbcf48d39	-0.029852496
160	0x3d894765	0.067030706
161	0x3cb05a72	0.021527503
162	0x3cd07409	0.025445955
163	0x3d1f2559	0.038853977
164	0x3cc56a48	0.02409853
165	0x3cfbf54c	0.030756615
166	0x3db62b83	0.08895018
167	0xbafd15fe	-0.0019308922
168	0x3e56524a	0.20929828
169	0xbe65b00d	-0.2243044
170	0xbd5eb7af	-0.054374393
171	0xbd184cd4	-0.037182644
172	0xbdf8f011	-0.12155164
173	0x3d99682e	0.07490574
174	0xbdfd68af	-0.123734824
175	0x3d67cdfc	0.056592926
176	0xbdc2cbda	-0.09511538
177	0x3db240bc	0.08703753
178	0x39dfe774	0.0004270632
179	0xbcc6349a	-0.024195004
180	0xbdf345fa	-0.11878581
181	0x3d660f72	0.056167074
182	0x3d4d77bb	0.050163012
183	0x3d297cee	0.041378908
184	0xbdc2166f	-0.09476935
185	0xbc2e714f	-0.010647132
186	0xbd21a678	-0.039465398
187	0x3ce4e33e	0.027940389
188	0xbd91a7ee	-0.07112108
189	0xb8f3efd8	-0.00011631817
190	0xbd849ec5	-0.064755954
191	0x3d6d4567	0.057927515
192	0x3d7571dc	0.059923038
193	0x3d74434a	0.059634484
194	0x3e921a85	0.28535858
195	0xbd7afd13	-0.061276507
196	0xbd71b2a9	-0.059008274
197	0xbb812941	-0.0039416854
198	0xbce23135	-0.027611354
199	0xbd396ac2	-0.045267828
200	0xbd28f3eb	-0.041248243
201	0xbd528c5f	-0.0514034
202	0x3db4d560	0.088297606
203	0xbe1133f4	-0.14179975
204	0xbbfe11d3	-0.0077535897
205	0xbd131c0b	-0.035915416
206	0x3dd29de7	0.10284024
207	0x3d9beba3	0.076133035
208	0x3cf93471	0.030420514
209	0x38b86a2f	8.793582e-05
210	0xbcb665ae	-0.022265282
211	0xbe5fd7ba	-0.21859637
212	0x3d365355	0.044513065
213	0x3e31eb6c	0.17374963
214	0x3e15807b	0.14599793
215	0x3d187cd3	0.037228417
216	0x3cddaeac	0.02706083
217	0xbdda9fd3	-0.10675015
218	0x3e3b2efa	0.18279639
219	0x3d8a9c56	0.067681
220	0x3c4f2429	0.012642899
221	0x3cb8de18	0.02256684
222	0x3bd3c826	0.0064630685
223	0xbdcb0f1f	-0.099149935
224	0xbdb73feb	-0.08947738
225	0xbb5cf2ec	-0.0033714129
226	0xbe0b9874	-0.13632375
227	0x3d490738	0.04907915
228	0xbd5a7338	-0.053332537
229	0x3d2fba3f	0.042902227
230	0x3e2cd350	0.16877484
231	0x3d03d8e5	0.03218927
232	0x3d2ce722	0.042212613
233	0xbc52dfd3	-0.012870747
234	0xbd0b1300	-0.033953667
235	0x3dd56978	0.10420507
236	0xbd79e607	-0.061010387
237	0xbd0bd759	-0.03414092
238	0x3d8e2592	0.0694076
239	0x3dc3d0d3	0.095613144
240	0xbd0101ef	-0.031495985
241	0x3da690b2	0.08133067
242	0x3e1e7334	0.15473634
243	0xbc08b06e	-0.008342845
244	0x3d1ef445	0.038807172
245	0x3d8017a5	0.0625451
246	0xbe00d7f0	-0.12582374
247	0x3c68b6ce	0.01420374
248	0x3cf06f87	0.029350055
249	0x3d430add	0.047617782
250	0x3e097c65	0.13426359
251	0x3d645f25	0.0557548
252	0xbcb190eb	-0.021675548
253	0x3db380ff	0.087648384
254	0xbd67afae	-0.056564026
255	0xba3b506f	-0.00071454694

network_body._body_endoder.seq_layers.2.bias f4 [128]
0	0xbc15ca7a	-0.009142512
1	0xbbf8ecf5	-0.007596607
2	0xba5db149	-0.00084568985
3	0x3a8b338a	0.0010620218
4	0xbbdcf41b	-0.006742967
5	0xbbb5a14b	-0.0055429093
6	0xbbc94cce	-0.006143189
7	0x3c036ae9	0.008021095
8	0x3a1424df	0.0005651246
9	0xbad16bff	-0.001597762
10	0xbc159b50	-0.009131268
11	0xbb2f184a	-0.0026717358
12	0x3ac1c10e	0.0014782266
13	0x3b834f5c	0.004007263
14	0x3c0339fd	0.008009431
15	0xbc175c38	-0.009238295
16	0xbbdd44fd	-0.006752609
17	0x3880a5c8	6.134395e-05
18	0xbbf449b1	-0.0074550738
19	0x3bde4f5e	0.0067843636
20	0xbbb7b122	-0.0056058327
21	0xbc1bafa1	-0.009502322
22	0x3b9ae25e	0.004726692
23	0x3bef2fc9	0.0072993976
24	0xbc0d190b	-0.008611928
25	0xba40747e	-0.00073415774
26	0x3c006d6c	0.007838588
27	0x3990acca	0.00027594558
28	0xbb878d99	-0.004136753
29	0x3c051287	0.008122093
30	0xbba86e44	-0.005140098
31	0xbbfe13fe	-0.007753848
32	0xbc1779c7	-0.009245343
33	0xbbd4f9d7	-0.00649951
34	0x3c057654	0.008145887
35	0xbc04aef4	-0.008098353
36	0x3bfbcb22	0.0076841274
37	0xbbebf2c0	-0.007200569
38	0x3c1838d4	0.009290893
39	0xbc1cb243	-0.009563985
40	0xbc2a9b29	-0.01041297
41	0x3bd5de8f	0.006526775
42	0x3bfcdb3d	0.007716565
43	0x3b940dfe	0.0045182696
44	0xb9a20721	-0.0003090436
45	0xbbf0c991	-0.0073482473
46	0xbc0b1c27	-0.008490599
47	0x3bf5462b	0.0074851713
48	0xbbf0b7e0	-0.0073461384
49	0x3c16a493	0.009194511
50	0xbbcabcd5	-0.0061870613
51	0x3b60cc88	0.0034301598
52	0x3b3fe255	0.0029279192
53	0xbbb4488a	-0.0055018114
54	0x3be4018c	0.006958192
55	0xbbb4719e	-0.0055067083
56	0xbbe5261a	-0.0069930675
57	0x3bc602bf	0.006042808
58	0x3c0be648	0.00853879
59	0x3c0ad52f	0.0084736785
60	0xbc084942	-0.008318247
61	0x3c226b2d	0.009913248
62	0x3c0838c3	0.008314314
63	0x3bc9223e	0.006138115
64	0x3bdc1ef5	0.0067175576
65	0x3c100865	0.008791064
66	0x39e203e6	0.00043108984
67	0x3a551746	0.0008128773
68	0xbb8baca5	-0.004262524
69	0x3a2f576e	0.0006688748
70	0x3b8354f2	0.004007929
71	0xbb3c8759	-0.0028767197
72	0xbbfe0ffd	-0.007753371
73	0x3c0fdce7	0.008780695
74	0x3bc8471a	0.0061119916
75	0xba7a5ebe	-0.0009550861
76	0x3baa37c3	0.0051946356
77	0xba965c35	-0.0011471572
78	0xbb944e24	-0.0045259167
79	0xbbd52266	-0.0065043448
80	0xba64a5b9	-0.00087222044
81	0xbba50cde	-0.0050369343
82	0xbbe3097c	-0.006928621
83	0xbab8e448	-0.0014106119
84	0x3c0354e9	0.00801585
85	0x3b94198e	0.004519648
86	0x3c039df9	0.008033269
87	0x3bf55901	0.0074874167
88	0xbbf67636	-0.007521416
89	0x3c1a13f8	0.009404175
90	0x3c15280d	0.009103787
91	0x39846b5b	0.00025256988
92	0xbbed5fe3	-0.0072440966
93	0xbba18a65	-0.004929828
94	0xbc14815b	-0.009064044
95	0x3b084953	0.0020795658
96	0xbc1fa1d1	-0.00974317
97	0x3bb513a3	0.0055260225
98	0xbb220441	-0.0024721774
99	0xbb84baf8	-0.0040506087
100	0x3bb4876a	0.0055093067
101	0xbc00853b	-0.007844265
102	0x3b9b16e4	0.0047329534
103	0xbc085484	-0.008320931
104	0x3c3de58e	0.011590375
105	0x3c226dc2	0.009913864
106	0x3a88172b	0.0010382881
107	0x3bcc9e1b	0.0062444336
108	0x3bfc11c6	0.0076925484
109	0xbbf9a4b5	-0.0076185116
110	0x3b9c2964	0.0047656763
111	0xbbd15d79	-0.0063893166
112	0x3b274da2	0.002552845
113	0xbbe14f54	-0.0068759117
114	0xbbda8643	-0.0066688373
115	0x3ad0e4ed	0.0015937366
116	0x3b3d86f2	0.0028919545
117	0xb9f7b644	-0.0004724731
118	0xbc053ef1	-0.008132682
119	0x3bc1feaa	0.005920251
120	0xbc21048a	-0.009827742
121	0x3bfcef1b	0.0077189333
122	0x3b0c1239	0.0021373166
123	0x3c1aed82	0.00945604
124	0x3bb12b8e	0.0054068035
125	0xbbc080ce	-0.0058747297
126	0xbbda270d	-0.0066574872
127	0xbbfa95a9	-0.0076472354

action_model._continuous_distribution.log_sigma f4 [1, 2]
0	0xbb5317e9	-0.0032210296
1	0x3b8aab70	0.0042318627

action_model._continuous_distribution.mu.weight f4 [2, 128]
0	0xbcdad2fa	-0.02671193
1	0xbca5e41f	-0.020250378
2	0xba84cff7	-0.0010132779
3	0xbbfff3a8	-0.0078110285
4	0xbd207357	-0.039172497
5	0xbc305e91	-0.010764734
6	0xbc7485a3	-0.01492444
7	0x3cb719ed	0.02235123
8	0xbbdc3df9	-0.006721255
9	0xbbad1c98	-0.0052829497
10	0xbcdb1fb8	-0.026748523
11	0xbc5ce4d3	-0.01348229
12	0x3c2de132	0.010612773
13	0x3c47b24d	0.012188506
14	0x3c45f959	0.012083375
15	0xbc9c729b	-0.019097617
16	0xbd1c7aac	-0.038202927
17	0x3ba247ee	0.0049524223
18	0xbd0a9e1a	-0.033842184
19	0x3c011e1c	0.007880714
20	0xb992d347	-0.00028004704
21	0xbc920ed6	-0.01782934
22	0x3c9f9b79	0.019483315
23	0x3c8a9480	0.016916513
24	0xbd159321	-0.036517266
25	0xbacd384c	-0.0015657037
26	0x3c470638	0.012147479
27	0xbbcc91b3	-0.0062429546
28	0xbbcb4876	-0.0062037064
29	0xbad5aba5	-0.0016301764
30	0x3ab02970	0.0013440084
31	0xbcc614a9	-0.024179773
32	0xbc872522	-0.016497198
33	0xbccc1191	-0.02491072
34	0x3d07c4ea	0.033146776
35	0xbcd4ae76	-0.025962096
36	0x3be1bdbf	0.0068890746
37	0xbd0dfab9	-0.034662936
38	0x3d10ed80	0.035382748
39	0xbd1bb3b1	-0.038013164
40	0xbb55a520	-0.0032599643
41	0x3bf4405f	0.0074539627
42	0x3ca3fd04	0.020018108
43	0x3bd065f4	0.00635981
44	0x3be79c72	0.0070682103
45	0xbd1716c7	-0.036886957
46	0xbd29fe8b	-0.041502517
47	0xb9e25429	-0.00043168783
48	0xbcce1b45	-0.025159488
49	0x3c8ca70e	0.017169502
50	0xbbbcb67b	-0.005759058
51	0x3c975d97	0.018477244
52	0x3a50c67b	0.0007964146
53	0xbc4d390f	-0.012525811
54	0x3cd196cd	0.025584603
55	0xbc6a772a	-0.0143106375
56	0xbca5ce57	-0.020239992
57	0x3c24ae69	0.010051348
58	0x3d1b9626	0.03798499
59	0x3cdd1b94	0.02699069
60	0xbca14c04	-0.019689567
61	0x3c95df3c	0.018294923
62	0x3cbf1e7f	0.023329971
63	0xbb8d1ab9	-0.004306164
64	0x3b68f8dc	0.0035548722
65	0x3d4589a4	0.048226967
66	0xbbe991c6	-0.0071279733
67	0x3bd9eeaf	0.0066507678
68	0xbb78957b	-0.0037930894
69	0x3c1130d8	0.008861743
70	0x3c714352	0.014725523
71	0xbc4ba9bb	-0.012430604
72	0xbcedb3b4	-0.029016353
73	0x3c34a698	0.011026047
74	0x3a36de10	0.0006975839
75	0x3bd200c1	0.0064087813
76	0x3bc14627	0.0058982554
77	0x3bc1e1de	0.005916818
78	0xbc2e2ace	-0.010630323
79	0xbc729719	-0.014806532
80	0xbc027b5e	-0.007963983
81	0xbc691dc1	-0.014228285
82	0xbce6807b	-0.028137436
83	0xbc2853b1	-0.01027386
84	0x3cbc2f2e	0.022971716
85	0x3c17e4f3	0.009270894
86	0x3c832ddf	0.016013084
87	0x3cbbd008	0.022926345
88	0xbcdbb7a8	-0.026820973
89	0x3d0229e3	0.031778228
90	0x3cdfa3ca	0.02729978
91	0xbb125760	-0.0022329912
92	0xbcd15e82	-0.02555776
93	0xbbd78409	-0.006577019
94	0xbcd2da14	-0.025738753
95	0x3b0e78a5	0.002173939
96	0xbc544c10	-0.012957588
97	0x3c5aa6f8	0.0133454725
98	0xbb038719	-0.0020069538
99	0xbc8a5f84	-0.016891249
100	0x3b7762f3	0.0037748187
101	0xbd1305bf	-0.03589415
102	0xbb17777c	-0.002311199
103	0x3a97ac3f	0.0011571719
104	0x3c14b1cb	0.009075592
105	0x3c83153a	0.016001333
106	0xbbace60f	-0.0052764486
107	0x3bed2f9d	0.007238342
108	0x3bb42800	0.0054979324
109	0xbca1bd23	-0.019743508
110	0x3c220ed1	0.009891228
111	0xbc109504	-0.008824591
112	0xbb26feb2	-0.00254814
113	0xbca95d6e	-0.020674434
114	0xba934d57	-0.0011238259
115	0xbb53699d	-0.0032258995
116	0xbb4ed70e	-0.0031561288
117	0x3ba2636d	0.0049557
118	0xbcc00c4a	-0.02344336
119	0x3c8434ac	0.016138397
120	0xbd566d75	-0.05235048
121	0x3cafb540	0.021448731
122	0x3c2bda10	0.010489002
123	0x3d988488	0.07447153
124	0x3bc8ec85	0.006131711
125	0xbc8ae400	-0.016954422
126	0xbc5016fc	-0.012700792
127	0xbc03b994	-0.008039851
128	0x3b3183cc	0.0027086614
129	0xbca4e9ec	-0.020131074
130	0xbb92c451	-0.004478969
131	0xbc165f7f	-0.0091780415
132	0xbd3261ea	-0.04355041
133	0x3c83e440	0.016100049
134	0x3c468280	0.012116075
135	0x3c0f2dab	0.008738915
136	0x3d0554bc	0.032551512
137	0xbccbbe57	-0.024871035
138	0x3b4840a3	0.0030556105
139	0xbca92097	-0.020645423
140	0xbd191049	-0.037369046
141	0xbb6d0fd8	-0.0036172774
142	0x3b9d5fc0	0.004802674
143	0xbb0d8c9f	-0.002159871
144	0x3d0ee3d4	0.034885243
145	0xbcbf35e9	-0.023341136
146	0x3cc8a98f	0.024494914
147	0xbbc458b6	-0.0059920205
148	0xbcbbe634	-0.022936918
149	0x3b0f0c2a	0.0021827319
150	0xbcb76cef	-0.02239081
151	0xbc025a13	-0.007956046
152	0xbbbc958f	-0.0057551335
153	0x3c2135e7	0.0098395115
154	0xbbaecf50	-0.005334772
155	0x3c27086c	0.010194879
156	0x3d0003ca	0.031253614
157	0xba063517	-0.00051196053
158	0xbc9b77fb	-0.01897811
159	0xbc476095	-0.012169023
160	0x3bdd5703	0.0067547574
161	0x3ccaae81	0.024741413
162	0xbcb14be6	-0.021642637
163	0x3c422cf3	0.011851537
164	0x3c48c9cb	0.012255142
165	0xbd148250	-0.03625709
166	0x3adc7731	0.001682019
167	0x3bc7bedf	0.0060957517
168	0x3b37791b	0.0027995768
169	0xbb04921f	-0.0020228697
170	0xbca28d7b	-0.019842854
171	0xb9491c6a	-0.00019179439
172	0xbd6e4bbd	-0.0581777
173	0xbc89cd7f	-0.016821621
174	0x3c1f6691	0.009729044
175	0x3a1b6681	0.0005928055
176	0xbc5dce14	-0.013537902
177	0x3c4ea7fe	0.012613295
178	0x3baf9c37	0.0053591984
179	0xbd06620a	-0.03280834
180	0xbd191e8f	-0.03738266
181	0xbc207e4c	-0.0097957365
182	0xbcb3cdec	-0.021948777
183	0x3ceca091	0.028885158
184	0xbc6180b9	-0.0137636
185	0x3cd069db	0.0254411
186	0x3c677403	0.01412678
187	0xbc01ec8b	-0.007929931
188	0x3c220824	0.009889636
189	0x39f7c9b5	0.00047261795
190	0xbbd4dec8	-0.006496284
191	0xbb4564b4	-0.0030119838
192	0x3c103816	0.008802434
193	0xba8af9bf	-0.0010602995
194	0x3c9f1bf1	0.019422503
195	0xbc80147e	-0.015634771
196	0x3c91e230	0.01780805
197	0x3b0e0243	0.0021668829
198	0x3cb941c6	0.022614371
199	0x3d05e78a	0.032691516
200	0xbcabc26b	-0.02096673
201	0x3b4e0a43	0.0031439222
202	0x3b08fb7e	0.0020901854
203	0xbca59ffe	-0.020217892
204	0x3c1e397c	0.00965726
205	0xbc197b1f	-0.009367733
206	0xbc3ffdb2	-0.0117182005
207	0x3c4dc8cc	0.012560081
208	0x3c93f1ba	0.0180596
209	0xbcb40a4d	-0.021977568
210	0xbc985ce5	-0.018598983
211	0x3cb43835	0.021999458
212	0xbbfb3ee6	-0.00766741
213	0x3bdcff8c	0.0067443307
214	0xbb9df91c	-0.004820956
215	0xbc39622a	-0.011314908
216	0x3c845261	0.016152563
217	0x3bac87e5	0.0052652233
218	0xbb20cc1f	-0.0024535728
219	0x3cea8a76	0.028630476
220	0x3cb202cc	0.02172985
221	0x3c1a3126	0.009411132
222	0xbb972187	-0.004612151
223	0x3cd87253	0.026421702
224	0xbbb305a3	-0.0054633184
225	0xbc0e95c7	-0.008702702
226	0xbc0fd077	-0.008777729
227	0x3cb76600	0.022387505
228	0x3c3f5a82	0.011679294
229	0xbd0c4725	-0.034247536
230	0x3c5c9ea0	0.0134655535
231	0x3ab56cbd	0.0013841611
232	0x3bd764f8	0.0065733157
233	0x3b9ed956	0.004847686
234	0x3ce272a7	0.027642561
235	0x3c8b7ee2	0.017028276
236	0x39979107	0.00028909018
237	0xbb00a4f1	-0.0019629563
238	0xbbfe003f	-0.007751494
239	0xbc9f7c81	-0.019468548
240	0xbcea16f1	-0.028575392
241	0x3c81676b	0.015796384
242	0x3c13bad9	0.009016716
243	0x3cfe1976	0.031018
244	0x3ba82993	0.005131909
245	0xbd132333	-0.03592224
246	0xbac29e5b	-0.0014848219
247	0xbc40aa90	-0.011759415
248	0xbac4e48e	-0.0015021728
249	0x3c0bafce	0.008525802
250	0xbb8bfa4c	-0.004271781
251	0xbb09c5d0	-0.0021022446
252	0xbcdd2e67	-0.026999665
253	0xbc9ab477	-0.01888488
254	0x3bd393a6	0.00645681
255	0x3c313d66	0.010817861

action_model._continuous_distribution.mu.bias f4 [2]
0	0x3c19019c	0.009338763
1	0xb8bf766c	-9.1296475e-05
