results/inf_sensing_1/DroneAgent/DroneAgent-499986.onnx (onnx, 100664 bytes, 7 tensors)

network_body._body_endoder.seq_layers.0.weight f4 [128, 56]
00000000: 8f1c 9b3e 4599 6cbd 0ff0 93bd f577 b93e
00000010: 0e60 943d 6787 8fbd 7ec8 b73e c806 1dbe
00000020: 858d a33b efcf 6fbe 729e b6bd fdc6 933d
00000030: 2aa1 233e 2f32 40bd 0c38 193e 1871 2dbe
00000040: d014 80be bb8b 12bd 79ca 44be 8ede 58be
00000050: 0156 a9bc 1f0a 593d f0f0 0c3e b1cf 543d
00000060: 68d3 bebd 00e3 103d 8417 28be e058 00be
00000070: 2732 bfbd 0bbe 9bbc b1b9 9e3d 36c7 b23e
00000080: 70d8 27be 2aea 68be d7da b9bc f109 3dbc
00000090: 5462 38be be70 2bbd cdf6 073e fad6 66be
000000a0: cf91 d33d 3698 b93d c915 9ebe 4f15 59be
000000b0: 3ddc 353e 2ed4 64be c484 1f3d 9cd2 35bb
000000c0: 5db6 443e 8426 933e b131 c5bc ed2f c0bd
000000d0: f6aa 17bd 32f5 84be fe86 fbbd 46c1 763e
000000e0: c74d dfbd da2d a23d 1727 4e3d 47c7 dfbc
000000f0: 6132 933d 298d 57be 7d63 5fbc 513a 4cbe
00000100: 79e3 80bd 0cc6 ca3c 51c3 9f3b 059c 933d
00000110: c9fb bbbc 3383 34be 41a8 b5bd 0417 4cbe
00000120: 245e a03e b7a8 26be 0da5 0b3d 3b33 50be
00000130: b753 c93c 3850 e6bd ccec b3be bea0 90bd
00000140: 63e9 3b3d d284 92be cb4e 643d c97d 18bb
00000150: f19e b9be 23e3 d23c 8580 a3bd e8be 6ebe
00000160: 621c 723e 7b33 8cbd ac78 05bf c5d8 98bd
00000170: 7e39 513e af47 673d dfeb 98bc eae4 363e
00000180: aca6 30bc b544 2e3e d81a d6bd 17f1 bebe
00000190: be34 0fbe d45d e73d e600 c8bc 713b ac3d
000001a0: da63 20bd e64c 4e3e 23cf 09be fb82 1b3d
000001b0: 5a07 c73d c053 88be e0af bb3d c3a8 3fbd
000001c0: a02d 95be ef0b 0cbe eb6e a33d 7886 c1bb
000001d0: 123f 8bbe b696 9b3c 2cc4 bebd c97f 833d
000001e0: d3ff d4bd f36e 5bbd 94bc 493e 2fd2 4f3d
000001f0: 726b b13d b7c9 86bd 6caf 7a3c 1d12 79bd
00000200: 336a 893d 2c38 603e 78c5 96bc d53e c5bd
00000210: 1e04 92bd 2042 523d 3d29 1f3e 6ec0 783e
00000220: 802e 7a3e 48eb 4abe 4355 863e 2214 c9bd
00000230: 4c5b 4a3e 00af a9bd 76b3 5b3e e694 c93e
00000240: 7a02 453c 755c 62bd dd11 67be 57b0 a1bc
00000250: 76e3 5dbc 49e9 0d3d e69f 513e a9ed 883d
00000260: ed2d 133e 7659 fa3d ef85 1bbc ac97 39be
00000270: ead0 cd3b 7ea7 c2bd b590 87bd cb41 46bd
00000280: 33a6 2fbe 2f66 5ebe 842b 29bd 2465 79be
00000290: 4988 783a 8064 23be 631e 1f3c 2f18 2fbd
000002a0: c788 acbd d3ac 65bc 31a4 163e fa67 63bd
000002b0: fb44 babd 9e2e b7bd ca0a 29bd 334d ee3d
000002c0: 195f 9ebe b013 be3b a98d 23bd 6eb4 70bd
000002d0: ed0a a83e a194 5abe 7c1f 22bd 7768 153d
000002e0: 926a cdbd d19a febc bc83 1cbe 8511 34bd
000002f0: 07c4 a1bd b2da 583e 0e8d 393b 18a8 6cbe
00000300: 8d5c ac3d 2b5c 333e 41b3 983d f4f7 953d
00000310: c0e1 3ebe 7e43 d13c 2567 3e3d c0f4 44be
00000320: 5cc0 11be 0839 40bc 9a16 b2be e72b 2dbd
00000330: 95b1 d33d 0372 cb3d 3a00 5f3e c881 4cbe
00000340: 75c1 243b 4ed6 353d 62d6 fd3d 9a0b 24be
00000350: 1c21 163e fbdb 3b3e 5ac9 06be ddf3 ee3d
00000360: 224f f0bd 3a92 4aba d8dd 08be bd51 463e
00000370: 44ed c13d 50f9 2dbd bca0 433e 8289 14be
00000380: 8664 6cbb d26f a73c 8733 a8bc a39f ccbd
00000390: b759 113e 134f 563d ddfa c1bd 1394 d83d
000003a0: 0940 34bd aa58 2cbe deaa 36be 15c0 b6bd
000003b0: 577b 123e 3906 423e 6903 0d3e fadc ffbd
000003c0: 5e84 fabc 7b59 43be 9feb 583e e63f c3bd
000003d0: 0c46 08be c2fc 1ebe 9e3b 87be fcc1 f3bd
000003e0: 1b0c d93d bee5 9abe b5e4 0e3e 4231 aa3e
000003f0: 03ae 48be b17d db3b d6ea b9bd 6d94 1ebe
0.30295226 -0.057763357 -0.07223522 0.36224332 0.072448835 -0.07008248 0.3589515 -0.15334618
0.0049912357 -0.23419164 -0.0891694 0.072156884 0.15979448 -0.04692286 0.14962786 -0.16937673
-0.2501588 -0.03577779 -0.19217862 -0.21178648 -0.020670893 0.052988168 0.13763785 0.051955882
-0.09317666 0.035372734 -0.1641522 -0.12533903 -0.09335738 -0.019011518 0.077502616 0.3491761
-0.16391158 -0.22745577 -0.022687359 -0.011538015 -0.18006259 -0.041855566 0.13277741 -0.22542945
0.10330545 0.09062235 -0.30875996 -0.21199535 0.17759795 -0.22346565 0.038944975 -0.0027743941
0.19210191 0.28740323 -0.024071546 -0.09384141 -0.037028275 -0.2596832 -0.12281607 0.24097165
-0.10903507 0.07918902 0.050330248 -0.027316703 0.071873434 -0.21049942 -0.01363456 -0.19944121
-0.06293387 0.02475264 0.0048755785 0.07207493 -0.022947209 -0.17628174 -0.088699825 -0.19930655
0.31321824 -0.16275297 0.03409295 -0.20332043 0.024576051 -0.11245769 -0.351416 -0.07061909
0.04587687 -0.2861696 0.055739205 -0.0023268333 -0.36254075 0.025743073 -0.079834975 -0.23315012
0.2364364 -0.068457566 -0.52137256 -0.074632205 0.20432088 0.056464847 -0.01866716 0.17860761
-0.010781925 0.17018397 -0.10454339 -0.37293312 -0.13984963 0.11297193 -0.02441449 0.08409775
-0.039157726 0.20146522 -0.13457923 0.03796671 0.09718199 -0.26626396 0.09164405 -0.046791803
-0.29136372 -0.13676427 0.0798014 -0.0059059225 -0.27196556 0.018992763 -0.093147606 0.064208575
-0.10400357 -0.053572606 0.19700843 0.050737556 0.08663072 -0.06581443 0.015300613 -0.06080829
0.06709709 0.21896428 -0.018404707 -0.09631125 -0.071296915 0.051332593 0.15543075 0.24292156
0.24431801 -0.19816315 0.26236925 -0.09818293 0.1976139 -0.08285332 0.21455178 0.39371413
0.012024516 -0.055263955 -0.22565408 -0.019737406 -0.013543 0.034646306 0.20471153 0.06685955
0.14372988 0.122240946 -0.0094923815 -0.18124264 0.006281008 -0.09504603 -0.066193976 -0.04840259
-0.17153244 -0.21718667 -0.041301265 -0.24354988 0.0009480757 -0.15956306 0.009711835 -0.042747673
-0.08424526 -0.014018255 0.14711072 -0.05551908 -0.09095188 -0.089444384 -0.041270055 0.11635818
-0.3093193 0.005800687 -0.03993002 -0.05876582 0.32820836 -0.2134576 -0.039580807 0.03647658
-0.10030092 -0.031079682 -0.15284628 -0.04396202 -0.078987174 0.21177176 0.0028312835 -0.23110998
0.0841609 0.17515628 0.07456065 0.07322684 -0.18640804 0.025544878 0.046485085 -0.1923399
-0.14233536 -0.011732347 -0.3478287 -0.042278197 0.103366055 0.099338554 0.2177743 -0.19971383
0.0025139723 0.04439383 0.12394406 -0.1602005 0.14661068 0.18345635 -0.13162747 0.11667607
-0.117338434 -0.0007727478 -0.13365877 0.19367118 0.09469083 -0.04247409 0.19104284 -0.1450558
-0.0036070659 0.020439062 -0.020532383 -0.09991386 0.1419438 0.052321505 -0.094716765 0.10575118
-0.04400638 -0.16830698 -0.17838618 -0.089233555 0.14304863 0.18947686 0.13770832 -0.1249332
-0.030580696 -0.19077103 0.21183632 -0.09533672 -0.13307971 -0.15526107 -0.26412672 -0.11902234
0.10598012 -0.30253404 0.13954432 0.33240706 -0.1959763 0.006698333 -0.090779945 -0.15486307

network_body._body_endoder.seq_layers.0.bias f4 [128]
00000000: 6fd2 fa3b 5bf7 ecbc db74 75bc 0388 c1bd
00000010: 3503 f0bc a09b 88bd c7f6 35bd 185d 0cbe
00000020: 8aee 92bd 9c71 4dbd 6a22 1ebd 05fd 23be
00000030: 0872 cc3d 32e8 54bd 32bd 3a3c b3a9 d4bc
00000040: bd8e 9fbd cab1 31bd 04f3 8d3c 6ea4 edbd
00000050: 7ab0 f9bd 9dc5 9a3c cd6d 6f3b 84b5 ca3b
00000060: 1832 8fbd d101 e7bc 5a7e 6ebd 44f9 96bd
00000070: f0c0 eebc 4d8f 1cbe ffb0 823d c683 0bbc
00000080: 9949 38bd b5fc 71bd f2bb c8bd e560 70bb
00000090: 3be5 0abd 36d6 883c 0543 453a ae50 bcbc
000000a0: f6c7 96bd 431c 5dbc 3913 c63c c9e0 f33c
000000b0: cf86 7fbc ae29 fbbc 288b 10bd 66d1 36bd
000000c0: 9fe2 443d 1721 36bd 35f2 7ebc 58c8 2b3d
000000d0: 4f49 aebd 7c0c c9bd 10ca fbbd 4f19 15bd
000000e0: 7c0f 863c 700a c13c e2ea 4abd 2999 40bd
000000f0: aa79 b5bc c41a 86bd a081 38bd b65f 54bd
00000100: 8ff7 a0bd a0b5 b3bc e59a 30bd d5ca 17be
00000110: 84f6 84bc c0d2 2bbd 873c c2bd b642 0fbc
00000120: 80e2 29bd e256 11bb b93d 82bd 00f3 e3bc
00000130: 337a 38bd 4ed1 f2bb 457e 5f3c aac6 17bd
00000140: 8a49 27bd 9e86 acbc 15b2 e9bd b0cc 8abd
00000150: a56a 303a 9710 813d f719 a3bc e453 b8bd
00000160: 3461 fb3c c3ec a93c d94c 0ebd b7e6 e1bc
00000170: 182e febd 6d88 143c bdb3 d3bd 1824 bd3d
00000180: 76c2 c7bd c526 14bb 60e4 2d3b 6084 7cbd
00000190: 536e 81bd 38bd 81bd 7073 2cbd bfc0 afbd
000001a0: f334 e93a c85c 22bd 0758 c6bd a841 c43d
000001b0: 9bff 53bd 6331 8bbd 6120 80bd 3326 e1bb
000001c0: d10e fc3a 6c86 66bb db79 76bd 2894 c0bc
000001d0: 569d 9cbd cd22 733c eae5 87bd 03c8 bd3c
000001e0: 3df9 52bd f53e e3bd 5f6a a53d 9914 a2bd
000001f0: 565a 2a3d f0b8 08be f21c 62bc 3dba 693c
0.00765448 -0.028926542 -0.014981474 -0.0944977 -0.029298404 -0.06670308 -0.0444248 -0.13707387
-0.07174404 -0.050157174 -0.03860704 -0.16014488 0.09982687 -0.05197925 0.011397647 -0.025959825
-0.07790897 -0.043382443 0.017327793 -0.11603628 -0.12191863 0.018893057 0.0036533952 0.006186189
-0.069919765 -0.028199108 -0.058225967 -0.073717624 -0.029144734 -0.1528904 0.063814156 -0.008515304
-0.044992063 -0.05907889 -0.09801473 -0.0036678847 -0.033910017 0.016703706 0.00075249403 -0.02298769
-0.07362358 -0.013495508 0.024179088 0.029770272 -0.015596106 -0.030659523 -0.03528896 -0.04463329
0.048067685 -0.04446515 -0.015560676 0.04193911 -0.08510076 -0.09816834 -0.122944 -0.03640109
0.016364805 0.023564547 -0.049540408 -0.047021065 -0.02215274 -0.06548074 -0.045045495 -0.05184909
-0.07859718 -0.021937191 -0.04311647 -0.14823468 -0.016230829 -0.041949034 -0.09484201 -0.0087439325
-0.041475773 -0.002217703 -0.06359429 -0.027825832 -0.045038413 -0.007410205 0.013640945 -0.037054695
-0.040841617 -0.021060284 -0.114109196 -0.06777322 0.00067297585 0.063019924 -0.019909842 -0.09000376
0.030685998 0.02074278 -0.034741256 -0.027575834 -0.124111354 0.00906573 -0.10337017 0.092354
-0.09753887 -0.0022606116 0.0026533827 -0.06164968 -0.06319871 -0.06334919 -0.042102277 -0.08581685
0.0017792269 -0.039639264 -0.09684759 0.095828354 -0.051757436 -0.06796529 -0.06256176 -0.006871009
0.001923049 -0.0035175337 -0.060174804 -0.023508146 -0.07647197 0.01483984 -0.066356495 0.023166662
-0.051507223 -0.110959925 0.08076929 -0.07914085 0.041590057 -0.13351798 -0.013800846 0.014265594

network_body._body_endoder.seq_layers.2.weight f4 [128, 128]
00000000: d470 103d 8c98 26bd 3098 333e 6aee 33bd
00000010: 2602 5d3d 796d 05be 1e6b 263e 9697 ef3d
00000020: 63c2 1e3e 09a7 703d efcd 60bb 4f89 f23c
00000030: 8ba5 1dbd ba86 e1bc b3e5 febb ae76 ea3c
00000040: e635 5c3d a296 033d 9e04 193d 8a80 fd3b
00000050: 3765 df3d 616e 68be 7282 113e 14eb 60be
00000060: 7dd7 883c 7dc7 abbc e23f a03c 71a4 c2bc
00000070: dff5 b13c 2e86 c53d f29d 9e3c 1427 933d
00000080: 63d7 fd3d 74b4 1c3c 1afd 22bd e314 06be
00000090: cc4c a63c 4928 923d b0fd 3fbd 140f 9c3d
000000a0: bc66 6fbe 577b 45bd 59e2 aa3d efd1 3e3d
000000b0: c5b9 3dbe 0157 45bd cb51 74be 8a02 f1bc
000000c0: 16ee 523d e43f 3e3c 8c3c 86bd f9b0 65bd
000000d0: 9872 82bc 0ce6 7ebd 6113 90bd 3eb3 913c
000000e0: 6dbf 153d 52c2 533d 82a8 c53d 2641 aa3c
000000f0: 3cf7 1c3d f85e b43d be9f 1cbd ac19 5bbe
00000100: 9260 8abd 2507 773d 8952 00be 042a 95bd
00000110: cf29 e7bd 4e57 243b e7bd 7dbd ba08 c5bd
00000120: 347b 513e 29a9 093d 9d8e 0a3d 87ca 9abd
00000130: 85e8 603e 1492 033a 92f2 143e ff81 c03d
00000140: de89 c03d 2266 c9bd 70ae 05be 8705 893d
00000150: 6844 4a3d 158b 4b3d 12c9 dabd b0ef 583d
00000160: f41c 91bd 2127 41bd c066 4e3d ca8d 5fbd
00000170: f1b0 593e 8ef8 513c db8b 29be 8dd9 1d3b
00000180: ef76 1f3d 7749 bebd c1d6 cb3c acdf 813d
00000190: 6265 5e3d 973a c43d 5660 ff3b 0670 41bc
000001a0: 9da0 bcbd ad1f 1fbe d16d e13c d68e b2bd
000001b0: 8864 a2bd 81b4 0dbe cb13 7b3e 05e8 07bc
000001c0: c89d 6d3d b2b0 103d 2130 683d 7e24 f3bd
000001d0: 9843 9e3d 963a 5cbd e7ee 48ba 48c2 61bd
000001e0: 56d8 683d 1c78 96be e801 d63c 3a13 6bbd
000001f0: 13b8 223e 32fb 053d efc6 15bd 6c57 ccbd
00000200: 12af 61bd 6369 9d3c 4cab 3abc ad9c 633d
00000210: e0be 62bd 078a 223d d868 0cbe 4de4 27be
00000220: 637a 01bd 53a1 d3bd add9 09bd f6d0 d63d
00000230: 5688 183e 26ca c33d cba5 c43d 695b ccbc
00000240: 496e 4e3d 7a1c 893d e6ab 9ebd 9f4e 8dbd
00000250: 3f5b bebd ae73 3fbe bfe2 81bd 6ae4 0d3e
00000260: 7746 14be b172 31bd 95cb 55bb e5e2 1abe
00000270: 4466 de3d dbc2 273e 233e 723d 8032 bf3c
00000280: 4b4b 6fbd 6f9a b7bd 1b6d da3d a6af 28bd
00000290: 422f 35be 0529 a5bc 5eb4 1f3d 3f77 903c
000002a0: d625 143e 89e3 323d 3b7a 283d 7f83 f7bd
000002b0: f135 d5bc 946b 433d 2265 42be b3d9 083d
000002c0: 172a 00be e79e 2bbd 0864 dc3d 29f8 01be
000002d0: c369 ce3d 96e0 e93d 600e 36bd 6be6 75bd
000002e0: fce4 a83d 9f78 553b bc2f 953d 0e2d a7bd
000002f0: 07df 7d3d fde3 523d c2cf 873d 29ee cbbd
00000300: 9b52 38bd 94d3 b33d 8e94 4d3c d39c cabd
00000310: b2f0 07be c4a5 dfbc 7e01 d0bc b2cf 17bc
00000320: 6ab8 10be 1e71 00bd a599 c93d 04a6 373d
00000330: 411b ba3d 6a2b 58bd fb30 15bc fb93 b63d
00000340: be88 49bc 4c4e 7b3c 4934 ff3d 2335 3b3e
00000350: fe32 853d 76e9 c93d 494a 6e3d 3b5b aabd
00000360: b0cb 6cbd 9dc3 aa3d 2e25 343d 659b 783d
00000370: f5e8 07bd 49e5 2e3d fa4e 0a3e 7e6b 57bd
00000380: 1f6f 08be d300 6f3c a4b0 71bd 6e78 53ba
00000390: ae16 6c3d 4ab7 d0bd 060f 10be 0e60 2bbe
000003a0: 8f5b 08be f03a 7abd c18b 12be cca7 01be
000003b0: f2c5 cabd 058b a03d 3b04 94bd 81a4 46be
000003c0: 3e7b 8cbc d8ef 09be 943c 91bc d9bb 9d3d
000003d0: fffb 293e 60f1 b4bd e20a 813d 10f1 c2bb
000003e0: e847 debc 1438 b7bd d1bc ca3a ebb1 b53d
000003f0: d431 313d 857f d9bd 30e1 503d 1161 a6bc
0.03526385 -0.040672824 0.17538524 -0.04392854 0.053957127 -0.13030042 0.162518 0.116988346
0.1550384 0.058753047 -0.0034302433 0.02960649 -0.038487952 -0.027530063 -0.007778847 0.028621044
0.05376234 0.032126077 0.03735792 0.0077362703 0.10907977 -0.22698356 0.14209917 -0.21964675
0.016704315 -0.020969147 0.019561712 -0.023760052 0.021723686 0.09644733 0.019362424 0.07185188
0.123945974 0.009564508 -0.039792158 -0.13093905 0.020300291 0.0713659 -0.046872795 0.076200634
-0.23379034 -0.04821333 0.08343954 0.046586927 -0.18527897 -0.048178677 -0.23859327 -0.029420156
0.051496588 0.011611912 -0.06554517 -0.056076977 -0.015923783 -0.06223111 -0.07034946 0.017785665
0.03655951 0.05169899 0.09651281 0.020783018 0.03832172 0.08807176 -0.03823828 -0.21396512
-0.067567006 0.060309548 -0.12531485 -0.072834045 -0.11287271 0.0025076452 -0.061948683 -0.09620805
0.20457155 0.03360859 0.033827413 -0.0755816 0.21963699 0.0005019021 0.14545658 0.09399795
0.09401296 -0.098339334 -0.13054824 0.066905074 0.049381644 0.049693186 -0.10682882 0.05296296
-0.070856005 -0.047156457 0.05039096 -0.05457858 0.21258904 0.012815608 -0.16557257 0.002408597
0.038931783 -0.09291356 0.024882676 0.0634149 0.054295905 0.095814876 0.0077934666 -0.011806494
-0.09210322 -0.15539427 0.027518185 -0.0871865 -0.07929331 -0.13838388 0.24519269 -0.008295064
0.0580118 0.03532476 0.056686524 -0.11872195 0.07727736 -0.05376681 -0.0007664994 -0.05511692
0.05684694 -0.2938851 0.026123956 -0.057391383 0.15890531 0.03271026 -0.03656667 -0.09977612
-0.0550986 0.019215291 -0.011393379 0.05556934 -0.055357814 0.039682414 -0.1371187 -0.16395684
-0.031610858 -0.103335045 -0.033654857 0.10489075 0.14895758 0.09560041 0.09601935 -0.024945932
0.050398145 0.066948846 -0.07747631 -0.068997614 -0.092947476 -0.18696472 -0.063420765 0.13856664
-0.14480005 -0.04332227 -0.0032622565 -0.15125616 0.10859349 0.16382925 0.05914129 0.02333951
-0.058421414 -0.08965003 0.106653415 -0.041183136 -0.17693809 -0.020161161 0.03899037 0.017634986
0.14467558 0.043674026 0.041132193 -0.12085628 -0.026026698 0.047710016 -0.18983892 0.03341074
-0.12516056 -0.041899588 0.10761267 -0.12692322 0.10078766 0.114197895 -0.044447303 -0.060034197
0.082468 0.0032573116 0.07284495 -0.081628904 0.061980274 0.051486958 0.066314235 -0.09957535
-0.045000654 0.0878059 0.012547625 -0.09893193 -0.13275412 -0.027300723 -0.025391337 -0.009265827
-0.14132848 -0.031357877 0.098437585 0.04483606 0.090872295 -0.052775778 -0.009105916 0.08914944
-0.012300668 0.015338492 0.124611445 0.18281989 0.065038666 0.09858982 0.058176313 -0.08318182
-0.05781144 0.083380915 0.04398077 0.06069507 -0.03318115 0.042699132 0.1350669 -0.052592747
-0.1332364 0.014587599 -0.05900635 -0.00080669567 0.057638817 -0.101912096 -0.14068231 -0.1673586
-0.13316177 -0.061091363 -0.14311124 -0.12661666 -0.09901036 0.07839016 -0.072273694 -0.19398691
-0.01714861 -0.134704 -0.017729081 0.07701845 0.16600035 -0.08835101 0.06300904 -0.005949147
-0.027133897 -0.08946243 0.0015467649 0.08871826 0.04326041 -0.106200255 0.050996006 -0.020309957

network_body._body_endoder.seq_layers.2.bias f4 [128]
00000000: ffd4 1dbb 2604 78bd 01e2 373b 9f0a e0bc
00000010: d75c dcbc d5cd c5bd 1bf7 0fbb 2293 9cbb
00000020: d05b 95bd aefd 49bd b6ef f9bd c69e 5dbd
00000030: ac02 d7bd 066c 27bd 2f1d 18bd c94e b7bd
00000040: 8e91 8fbd bcbb a0bd b74f dcbd 76d8 04bd
00000050: e37d 5cbc e3d3 8cbd e47e d3bc cd81 bdbd
00000060: 2c79 90bd d041 fd3c 5690 6fbd f103 50bd
00000070: 78df 8abd 2750 c2bd 6416 f7bd 97ef 473d
00000080: aa7c c6bc adc3 ba3c 29cc ec3c 68e7 15be
00000090: 0d87 5aba 4a4f a5bd dc0c 183c 3efd 2ebd
000000a0: e172 a7bd 4d66 9bbd e7c6 a7bc 902f 9abd
000000b0: d582 fabd b08c b6bd 0ab7 d7bd 9445 303a
000000c0: 2395 10bd 8377 a2bd f0ef 9cbd e66e 04be
000000d0: eb2d 1ebc a1e8 cfbd a6a2 bebd 6bed 10bd
000000e0: 4478 03bc 6c64 6cbd 1c0d 3abd 0df8 c2bd
000000f0: 44e0 57bd 07e9 87bc 1c9a 68bd 7c56 81bd
00000100: 3fb5 b1bd 7019 15bd 0019 6cbd 329e abbc
00000110: 4539 debc 63a3 74bd 72ac cdbb a431 a1bd
00000120: d6f1 1ebe 0764 a4bd f3f3 35bd d3db 2c3d
00000130: 1653 ffbd 09be 57bd e02f 5cbc 1da6 63bd
00000140: bc09 84bb 777f c4bc ce57 bbbc c066 e3bd
00000150: 29a2 43bd 8a68 87bd dfe6 f8bc 8826 9cbd
00000160: 7e6f 863b e7dc 9ebc af67 ddbd c72b ddbc
00000170: 0c74 2fbd 1870 7fbd 9f66 13be ee1a 7abd
00000180: 3073 e53a 8f56 c3bd cabc 99bd 814e d5bd
00000190: d3d5 dbbd 517f babb ebd8 eabc 4b5e afbd
000001a0: f52f 58bd 7e5d 10bc d4d9 86bd 42a9 babd
000001b0: 7c84 83bd 5d32 13be 626b 7bbd 29c9 97bd
000001c0: d2a2 ddbd 4a35 bfbc 067c 95bd 0485 58bd
000001d0: 63eb 37bd 0791 b1bd 0e7d 5dbd 724d 20bd
000001e0: 52c7 4fbd 14d3 68bd 2ff8 56bd 78c2 84bd
000001f0: 507c 6cbd 605d 63bd 79f4 3dbd 5ace 02bd
-0.0024083254 -0.06055083 0.0028058293 -0.027348815 -0.026899738 -0.096584 -0.0021967355 -0.004778282
-0.072929025 -0.049314193 -0.12203924 -0.054106496 -0.104985565 -0.040874504 -0.037137207 -0.08950574
-0.07010184 -0.078483075 -0.10757392 -0.032432996 -0.013457748 -0.06876352 -0.025817342 -0.09253273
-0.07054362 0.03091517 -0.05848726 -0.05078501 -0.067809045 -0.09487944 -0.120648175 0.048812475
-0.024229366 0.022798384 0.028905945 -0.14639056 -0.0008336164 -0.08071764 0.00928041 -0.04272198
-0.08176208 -0.07587872 -0.020480586 -0.07528603 -0.122319855 -0.08913553 -0.10532959 0.0006724235
-0.035298478 -0.07932951 -0.07662952 -0.1293293 -0.009654502 -0.10151792 -0.093083665 -0.03538267
-0.008024279 -0.057712957 -0.04542266 -0.09519968 -0.05270411 -0.016590608 -0.056787595 -0.06315324
-0.08677148 -0.036401212 -0.05764103 -0.020949457 -0.027126918 -0.05972613 -0.0062766606 -0.07870796
-0.1552194 -0.08026891 -0.0444221 0.04220183 -0.12467019 -0.052671466 -0.013439149 -0.05557834
-0.0040294807 -0.023986561 -0.022869017 -0.111035824 -0.04776207 -0.06611736 -0.030383525 -0.07624537
0.0041026464 -0.019392444 -0.10810792 -0.026998414 -0.04283528 -0.06236276 -0.14394616 -0.06106084
0.0017505642 -0.09537994 -0.07506712 -0.10415364 -0.10734143 -0.005691447 -0.028667888 -0.08562907
-0.05278011 -0.008811353 -0.06584516 -0.091143146 -0.06421754 -0.14374681 -0.061381705 -0.07411415
-0.10822071 -0.02334084 -0.07299046 -0.05286123 -0.044902217 -0.0867024 -0.05407434 -0.039136358
-0.050727196 -0.056841925 -0.05248278 -0.064824045 -0.05773574 -0.05550897 -0.046375725 -0.031935073

action_model._continuous_distribution.log_sigma f4 [1, 2]
00000000: ac4e a0bf deeb 75bf
-1.2524009 -0.9606303

action_model._continuous_distribution.mu.weight f4 [2, 128]
00000000: 2e9e 7fba f184 f4bb 7f58 83bb 44f4 0bbc
00000010: 7d3f 82bb e13a 80bc d2ad 00bc fbce 763b
00000020: f567 073d c1f8 923d 02bf 02bb a240 063c
00000030: e210 be3b bd5b 3d3d d879 283c 2e40 b8bb
00000040: 9f35 333b 00ea 64bc 0015 84bd bf7a 10bc
00000050: fd49 6f3c 0a63 e2bc afae d33c e2e2 c53c
00000060: b4ff c1bb ce53 de3c bcb9 2a3c 2a94 9dba
00000070: ee28 46bc 759f ed3a 7ab4 b9bc a6bb 033c
00000080: d853 cc3b 9e3c 843b 90b6 17bb 7f2b 44bd
00000090: 7c61 faba 43b1 c4bc 8e4d 463d 7714 a73c
000000a0: f8c6 aabc f65f e93b eae9 4dbc 2400 a2bb
000000b0: 2400 1fbb 8725 253b b3b7 763b ef15 213b
000000c0: 6703 853d 072b 90bb 7d9b c0bc 874f 8dbc
000000d0: f609 063d 202d 83bc beb2 82bc 8556 213b
000000e0: 50c6 853b e3c4 1a3c ce54 bebc 9129 b23c
000000f0: 44b1 4f3c 91a7 f3bb 477c 9b3b 1fb1 283c
00000100: 4eee 05bc 54a2 8abb 1511 393d a8a2 47bc
00000110: 46f9 473d 57d7 32bc c999 463d 8490 48bb
00000120: c1a2 683b 7567 00bb 9d6e 21bc 2a92 14bc
00000130: 0757 04bc e201 1e3c f399 43bb ef66 38bc
00000140: 32d4 56bc 86e1 9c3c e956 5aba 31b4 22bd
00000150: 4948 f83c ccd9 70bc 1d8e 133c bb93 8a3c
00000160: 067e 7c3c db8f 60b8 0be2 a4bc f578 e83b
00000170: a476 443c b761 583b 3405 80bc 64d0 2e3b
00000180: eb6f d8bb fc5e aebc 4f7c a43b 5e7b 82bc
00000190: 414c 843b e81d dc3a b1e0 37bc c3b0 f33c
000001a0: 8da1 753b 1bc2 0d3c 1f65 94bb d4ed bbbb
000001b0: af70 3b3a 6173 513c 20dc b7bb f8c1 bbbb
000001c0: 2fa2 acbc af8d a7ba ba2f 0c3d b980 6b3c
000001d0: c597 05bc 4e13 e6bb 1c48 a5bc a918 803b
000001e0: ff47 e639 512c c93a 96aa 8f3c b80d aebb
000001f0: aeb5 4d3d f2f4 943c 2f67 99bb 0007 b6bb
00000200: ec65 9abb 3509 673c 66e4 9cbb b612 bfbc
00000210: 352a 1b3c f36b d0bb c93d cf3a b6ad ae3b
00000220: 4dda 70bd 3f48 953c f7f9 c43b 7be4 35bc
00000230: a887 763d 3d12 003d e1c1 4dbc c9d0 4bba
00000240: 6077 b53b fd45 4bbc e230 8ebd 57a0 e2bc
00000250: 453e 1b3d 1473 11bd 985a 843c 338e adbc
00000260: 608c 743b af88 f33c 8978 373b 5b5c c1bc
00000270: d08b 1f3c 3260 683a 768d 1cbd abb1 fb38
00000280: ba0f 70bc 880f 113c 9168 a93b 0b4d 44bd
00000290: f1b2 6eba 4dfd 96bc b43c ea3c 251e d9bc
000002a0: ba92 263c 18c5 eb3b df42 5c3c 67f8 8a3b
000002b0: 2419 b9bb 2227 e6bb 7fe2 113c 3487 4e3c
000002c0: 57a9 973b 1a85 0a3d 277d a83c 1045 14bd
000002d0: 33ad 2b3d 1c85 873c 2b25 bdbc 622c 703c
000002e0: 2c7c 033c bb89 0bbc 46ff b43c d37b 113d
000002f0: 0bc0 dcbb b5d4 1439 4371 06bb f9ce dd3c
00000300: d9a5 4abc 2447 0fbc 7243 933d 7e8f 653c
00000310: 7c18 313d cba8 e73b d1b7 623d 51cd 733b
00000320: 72ef 833b 5c59 b5bb efbf f3ba 53bb 0abc
00000330: 183d 8dbb 42e4 813c 011d 01bc 8fd3 393c
00000340: 2f98 8bbb 5af9 323d 0c17 22bc 9dcf efbc
00000350: 674d 983c 8aff 993c 439a afbc ccc6 213a
00000360: 605f 693c 626e 03bc 5708 6cbc af17 843c
00000370: 1bbb 54bc 2473 1dbc 62ec 783c 69b8 5d3c
00000380: 30f2 713c 6b0c 653c eceb 9b3c a578 0ebd
00000390: d7e5 913a 78c8 8e3b cb13 ecbc 3700 513c
000003a0: 664c 5c3b d388 723d 7505 b53c c8cd c5bb
000003b0: be44 4abb a9f7 cf3b 971d c239 cafe 803c
000003c0: 1538 72bc bc7e b7bb 5bdd 48bd e734 383d
000003d0: 4f78 b2bb 0395 a8bb ec50 15bd 71c2 713c
000003e0: efcb a039 5204 93ba efdc 72bc b220 7fbc
000003f0: 1ddf b13d 19a8 58bd aa60 b63b 3d41 66bb
-0.00097510486 -0.007462137 -0.0040083523 -0.008542124 -0.0039748535 -0.015653076 -0.007853942 0.003765999
0.033058126 0.07176352 -0.0019950275 0.008194121 0.0058003524 0.046230067 0.010282956 -0.005622885
0.0027345193 -0.013971806 -0.06449318 -0.008818327 0.0146050425 -0.027635116 0.025840132 0.024156038
-0.0059203748 0.02713957 0.010420259 -0.0012022306 -0.012094719 0.0018129187 -0.022669066 0.008040344
0.006235581 0.0040355464 -0.0023149587 -0.047893044 -0.0019102539 -0.024010306 0.048413806 0.0203955
-0.020846829 0.007122035 -0.0125679765 -0.0049438644 -0.0024261558 0.002519937 0.0037646114 0.0024579724
0.064947896 -0.0043996605 -0.023511643 -0.017249836 0.032724343 -0.016012728 -0.015954372 0.002461822
0.0040824786 0.0094463555 -0.023233797 0.021748336 0.012676541 -0.007435747 0.0047450396 0.010296135
-0.008174492 -0.004230777 0.045182306 -0.012184776 0.04882171 -0.010915599 0.048486505 -0.0030603716
0.00354974 -0.0019592915 -0.009853032 -0.009068051 -0.00807739 0.009644004 -0.00298464 -0.01125501
-0.013112115 0.019150507 -0.00083289907 -0.039722625 0.030307906 -0.014700364 0.00900605 0.016916147
0.015410906 -5.3539738e-05 -0.020127317 0.0070944973 0.011991177 0.0033017227 -0.015627481 0.0026674503
-0.0066051385 -0.021285526 0.0050197016 -0.015927967 0.0040374105 0.0016793581 -0.011223004 0.029747372
0.0037480325 0.008652235 -0.004528656 -0.0057351384 0.0007150275 0.012783856 -0.0056109577 -0.00572991
-0.021073429 -0.0012783314 0.034225203 0.014373952 -0.00815386 -0.0070213443 -0.020175986 0.0039091897
0.0004392266 0.001534829 0.017537396 -0.005311694 0.05022209 0.018183205 -0.00468149 -0.0055550337
-0.004711857 0.014101316 -0.0047879694 -0.023324352 0.009470512 -0.006360525 0.001581126 0.0053307666
-0.058801938 0.018222926 0.0060112434 -0.011101837 0.060187966 0.031267393 -0.012558431 -0.0007774947
0.0055379122 -0.012406823 -0.069429174 -0.027664347 0.03790118 -0.035510138 0.01615648 -0.02118597
0.0037315115 0.029728262 0.0027995429 -0.023603609 0.009737924 0.0008864432 -0.038220845 0.00012001706
-0.014652187 0.008853801 0.005169936 -0.047925036 -0.0009105644 -0.01843133 0.028593399 -0.026503632
0.010166818 0.0071951263 0.013443678 0.0042410376 -0.005648749 -0.007023708 0.0089040985 0.012605477
0.004628341 0.03381834 0.02056749 -0.036198676 0.041913223 0.016542964 -0.023089012 0.014659019
0.00802521 -0.008516724 0.02209438 0.03551848 -0.0067367605 0.0001419362 -0.0020514287 0.027076231
-0.012368643 -0.008744989 0.071905985 0.014011262 0.04323624 0.0070696822 0.055351082 0.0037201236
0.004026347 -0.005534334 -0.0018596629 -0.008467513 -0.0043102615 0.015855912 -0.00788045 0.011341943
-0.004260085 0.04369483 -0.00989319 -0.029273802 0.018591596 0.018798608 -0.021435862 0.00061712856
0.014243931 -0.008021923 -0.014406285 0.016124574 -0.012984063 -0.009609971 0.015193077 0.013532736
0.014767215 0.013980011 0.019033395 -0.034783024 0.001113112 0.004357394 -0.028818032 0.012756399
0.0033614873 0.059212517 0.022097329 -0.006036494 -0.0030863727 0.006346662 0.0003702461 0.015746493
-0.014783879 -0.0055998247 -0.049039226 0.044972327 -0.005446471 -0.0051447167 -0.036454126 0.014755831
0.0003066952 -0.0011216498 -0.0148231825 -0.01557176 0.086851336 -0.052894685 0.0055657225 -0.00351341

action_model._continuous_distribution.mu.bias f4 [2]
00000000: 9fbd aa3c 62c1 c0ba
0.020842372 -0.001470607
