results/inf_sensing_1/DroneAgent/DroneAgent-999936.pt (torch, 596251 bytes, 36 tensors)

network_body._body_endoder.seq_layers.0.weight f4 [128, 56]
00000000: 5215 a43e 9620 cdbd 6b2b b3bd 4f2f f03e
00000010: e4d8 b33d eb3a 89bd 94e5 d03e 9f6f 1bbe
00000020: 9fff d23b c47c 6ebe cd18 debd 4a87 9a3d
00000030: d873 cf3d 2dcd 34bd aa89 a33d 2500 2abe
00000040: e7d1 6fbe 67ea 06bd c59b 1cbe d259 55be
00000050: 910e 2b3d 1b27 603d 08d2 033e 41fb 5e3d
00000060: 09c0 d4bd 61f8 1b3d c772 44be 0729 fcbd
00000070: f200 97bd 7258 74bd b2b7 7a3d e63f e93e
00000080: dffb 23be 0ea9 65be c8a5 2d3a 002a 2abc
00000090: d979 2fbe 6d84 26bd 7151 f83d 6d57 63be
000000a0: 646b 493d 2323 bf3d 0698 c3be b5cf 55be
000000b0: 9eff 4a3e b7ee 61be e8d9 bc3d 88f3 423a
000000c0: 28f4 873e 5602 943e 3b57 d2bc bfc3 babd
000000d0: dfea 67bd e7bf 83be c2e9 2cbe 23ae 783e
000000e0: 5da1 e03c bbac 243d 4797 a93d fc99 773d
000000f0: 2f0e 0fbc bc4f 57be 7660 2cbd 752c 4bbe
00000100: b1cd 52bd d8e2 d13c 24f1 463d b850 943d
00000110: c866 273c 4f11 34be aa13 b0bd 3754 4bbe
00000120: f10d 923e 222e 26be b8f5 d53c 78e5 4fbe
00000130: bf8d 993d c43a e5bd 0ef0 a9be d292 8fbd
00000140: ad81 07bc c94a 92be f874 da3c a0a6 00bb
00000150: 37fc 73be ad0f 0fbc e59e 31bd dbc7 15be
00000160: 6724 4c3e 5083 8bbd f121 05bf 4fa3 96bd
00000170: 7af8 683e f26c 6b3d b435 a83c 4153 373e
00000180: 4f86 7b3a 18c1 2e3e db91 05be 7372 bebe
00000190: 7bbe 4abe 7ada e83d 9c2b 87bd 9e14 ad3d
000001a0: bb48 0e3c 840c 4f3e 50af f1bd 22e8 1d3d
000001b0: 13ab 933d f118 88be 7f37 c93d 19d7 3cbd
000001c0: 64d0 b9be 0045 9abd a00e 0c3e c071 20be
000001d0: f3bf 42be 4eed 983c e421 5bbd ddf5 833d
000001e0: a540 c7bd ead3 5ebd 1470 3e3e 0319 4e3d
000001f0: a62b 9b3d cde1 87bd df71 61bd 3374 7abd
00000200: 70dd 0c3c 5efe 5f3e 8487 a7bc ee73 c5bd
00000210: 59fa 3dbc b74d 523d 2eb6 123e efea 773e
00000220: a837 6a3e d6ec 4abe 95cd 853e 5262 cabd
00000230: 76e4 063e a6c8 a0bc 7382 8a3e 127b 773e
00000240: c26d 6e3d dfdb 63bd afeb 54be a991 9dbc
00000250: 8e33 4cbc 9c9d 0b3d 247d 4c3e 36fa 873d
00000260: 546c 073e fc18 f93d 8816 a0bd 63dc 39be
00000270: 428d 36bd 030d c3bd 9bb8 86bd b33b 46bd
00000280: 97e1 d5bd 5f1c 5ebe ade4 7abd fb38 7abe
00000290: 8706 0cbd c590 23be c732 99bc 79ee 30bd
000002a0: 8962 00be 908b 1f3d d501 513e cd32 67be
000002b0: da97 48bd 11f9 b8bd 683d 74bd 3697 ef3d
000002c0: f782 a3be 26aa b93b 5f66 e0bc 4faa 74bd
000002d0: 8af3 a23e cd1d 5bbe 4dc1 88bd 022d 113d
000002e0: 48ce 38be f50a 02bd d146 47be f65e 36bd
000002f0: b842 d4bd 995c 593e c454 0b3d 9bae 6dbe
00000300: afcd 083e ca12 333e 55bf 233e 754d 953d
00000310: 94fb 65be f1c9 a73d 8bcb d63d 2770 b9be
00000320: 66c4 cabd 9809 50bc ae52 b2be 31a2 28bd
00000330: 087c ba3d ef85 cb3d 77ed 633e 7dab 4dbe
00000340: 960c 33bc cc5d 333d d795 d83d b7d8 24be
00000350: dda4 873d 366b 3b3e 8cb8 3ebe 7db5 ed3d
00000360: 59a9 16be a70a 0db9 cafb f1bd ad20 453e
00000370: f520 0f3e 560c 2fbd c7e4 8d3e 4dab 14be
00000380: 2d81 6e3d bac0 a93d fb11 8e3c 506b 6fbe
00000390: c2d0 db3d c361 533d 7872 01be 341d d83d
000003a0: b6d2 20bd c745 2cbe 2054 38be 508d b8bd
000003b0: cd3d 0e3e 8eef 413e 0816 f83d ab95 00be
000003c0: 4d0e 6abd 61ba 43be 3229 683e ad81 c4bd
000003d0: 5503 25be 4d2c 1fbe 5da2 77be 2ca0 f4bd
000003e0: 3e2d c33d 311c 9bbe c647 233e 2f19 aa3e
000003f0: 0e51 0dbe 6dd6 873d 51cf 54bd d5f8 94be
0.32047516 -0.10015981 -0.08748516 0.46911094 0.08781603 -0.06700691 0.40800154 -0.15179299
0.006439164 -0.23289782 -0.10844574 0.075453356 0.10129517 -0.044140983 0.07985242 -0.16601618
-0.23419915 -0.032938387 -0.15293796 -0.20835045 0.04176194 0.054724794 0.1287309 0.054438833
-0.1038819 0.03807867 -0.19184409 -0.12312513 -0.07373227 -0.05965466 0.06121034 0.45556563
-0.1601405 -0.2242777 0.00066241296 -0.01038599 -0.17136325 -0.040653635 0.12124909 -0.22201319
0.04917468 0.09332874 -0.38201922 -0.20880015 0.19824073 -0.22063719 0.0922125 0.00074368017
0.26553464 0.28908032 -0.02567636 -0.09119367 -0.056620475 -0.25732347 -0.16886047 0.24285178
0.027420694 0.04020379 0.08280807 0.060449585 -0.008731409 -0.2102651 -0.04208418 -0.19841178
-0.051465694 0.025620863 0.048569813 0.072419584 0.010217376 -0.17584728 -0.085975006 -0.19856344
0.2852626 -0.16228536 0.026118144 -0.20302379 0.07497739 -0.11192849 -0.3319096 -0.070104256
-0.008270663 -0.28572682 0.026667103 -0.0019630566 -0.23826681 -0.008731765 -0.043364424 -0.1462702
0.19935761 -0.06812155 -0.52004915 -0.073553674 0.22751036 0.057476945 0.02053342 0.17902853
0.00095949037 0.17065847 -0.1304392 -0.37196693 -0.19799225 0.11369796 -0.06600115 0.08451198
0.0086843325 0.20219618 -0.11801016 0.038551457 0.07210364 -0.2658153 0.09825038 -0.04610357
-0.36291802 -0.07532692 0.13677454 -0.15668392 -0.19018535 0.018667843 -0.053499117 0.06443379
-0.09729127 -0.054401316 0.18597442 0.05031682 0.07576685 -0.06634865 -0.055040237 -0.061145972
0.008597717 0.21874377 -0.020450361 -0.096412525 -0.011595332 0.051343646 0.14327309 0.24210714
0.22872794 -0.19816908 0.2613341 -0.09882034 0.13173088 -0.019626927 0.2705265 0.24168041
0.058210142 -0.055629607 -0.20793031 -0.019234495 -0.0124634635 0.034085855 0.19969612 0.06639521
0.13224918 0.121629685 -0.078167975 -0.18150477 -0.044568308 -0.09523966 -0.065781794 -0.048396777
-0.104434185 -0.2169051 -0.06125324 -0.24435799 -0.034185912 -0.15973194 -0.01870097 -0.043196175
-0.12537588 0.038951457 0.20410855 -0.22577973 -0.048972942 -0.09031881 -0.059628874 0.11698763
-0.31935856 0.005666035 -0.027392564 -0.05973273 0.3182643 -0.21398087 -0.06677494 0.035443313
-0.1804744 -0.03174873 -0.19460608 -0.044524156 -0.10364288 0.2122673 0.034016386 -0.23211138
0.13359712 0.17487636 0.15990956 0.072901644 -0.2245925 0.08192814 0.104880415 -0.36218378
-0.09900741 -0.0126976 -0.34828705 -0.041170303 0.09105688 0.09937655 0.22258554 -0.20084949
-0.010928294 0.043790624 0.10575455 -0.16098295 0.06623242 0.18302616 -0.18625087 0.11606882
-0.14713039 -0.00013450776 -0.11815603 0.19250746 0.13977416 -0.042736374 0.27713606 -0.14518471
0.05822866 0.08288713 0.017342558 -0.2338078 0.10733177 0.051606905 -0.12641323 0.10552445
-0.03926345 -0.16823493 -0.18000841 -0.09011328 0.13890763 0.18939039 0.12113577 -0.12557094
-0.057142545 -0.19114067 0.22671965 -0.09595046 -0.16114552 -0.15544243 -0.2418303 -0.11944613
0.09530114 -0.30294946 0.15945348 0.3322234 -0.13800451 0.06632695 -0.051955525 -0.29096094

network_body._body_endoder.seq_layers.0.bias f4 [128]
00000000: c28a 35bd 7b98 e1bc 97b9 27bd 8ee9 a7bd
00000010: 2bfc 303c e31e 3e3d 67e7 f3bd a85d 18be
00000020: 10fd e8bd da8a 8bbd 9e02 e2bc dceb d7bd
00000030: 685c e4bc ab23 4dbd edbc babd 74a8 3abd
00000040: a4ba 8cbd 80eb 14bc e8d2 46bd 1d4d 16be
00000050: 2e14 d7bd 2555 33bc 14b6 f8bc 23b6 85bb
00000060: 4ba6 6abd 046b 29bd 8260 abbc 7a53 80bd
00000070: 5b00 1dbc 03a1 d4bd 95d9 863c 1488 6abd
00000080: 5d3c 64bc eb6c 1fbd 35f2 b0bd 165d 923b
00000090: 43f7 6dbd f30d 143c dcf2 c9bd edd2 9bbc
000000a0: dc55 dabd 51db d2bc d45e 24bd 1318 263c
000000b0: 4282 643c 5593 5abd 0d70 04bd ecc2 5fbd
000000c0: c2ab 563c 8001 bcbc 7904 87bd 5188 76bd
000000d0: 2ccb f1bd 0905 b3bd 2b0c 5abd bd4c 19bc
000000e0: 6b09 62bd eb68 07bd 01c7 5bbd c3d9 f1bc
000000f0: 1a55 433c 1fa8 2ebd 4ad5 9f3c 8552 c2bd
00000100: 2d68 f1bd 81d8 dd3b 9244 ceba f7ca ddbd
00000110: d5ca e2bd fd56 a1bd aa4b 78bd 11ab 4fbd
00000120: 875e cfbb 1182 4bbc b9c3 9cbd 59e6 13bd
00000130: 62cb dfbc c8d5 a9bd dd20 78bc 0d17 51bd
00000140: 4e1d b1bd b3db 2e3d e2db c7bd 78a1 a3bd
00000150: 8374 38bd 27f1 adbb 6796 a0bc c988 75bd
00000160: 5a93 2abc 1e6e 56bd c0e3 0f3c 4ac5 dfbc
00000170: 2b17 edbd 0b24 36bd c7ef a7bd 4c44 3a3d
00000180: fc41 e4bb 8582 70bc 2958 0cbd 6716 47bd
00000190: 8875 cebd 7f97 90bd 2ac1 bfbd 6cdf c7bd
000001a0: 146c 8abd fbb8 1f3b 9af5 e8bd 5c45 1c3d
000001b0: 528b 49bd 1288 17be 34a0 d43c 10b4 663c
000001c0: e001 3e3a c6ae 38bc 696b b0bd de3d 04bd
000001d0: 261d dbbc 7203 4b3b 97b3 61bd 12b3 08bd
000001e0: 59d3 8bbd df55 7bbd cc7d cbbc 5a96 09bd
000001f0: 7d5e b03c 860b e7bd 9389 3cbd 619c c0bc
-0.044321783 -0.027538529 -0.040948477 -0.08198844 0.010802309 0.046416175 -0.11909371 -0.14879477
-0.11376393 -0.06813593 -0.027589139 -0.105430335 -0.027876094 -0.050082844 -0.09118066 -0.045570806
-0.068715364 -0.009089351 -0.04854098 -0.14677854 -0.10501896 -0.010945593 -0.03036026 -0.0040805503
-0.057287496 -0.041361824 -0.020920042 -0.06265922 -0.009582604 -0.10382273 0.016461173 -0.05725868
-0.013930407 -0.03892223 -0.08639947 0.004466663 -0.058097135 0.009036529 -0.09860775 -0.019021476
-0.106609076 -0.025739344 -0.040129498 0.010137576 0.0139470715 -0.053363163 -0.032333422 -0.05462925
0.013102474 -0.022949934 -0.0659265 -0.060188595 -0.1180633 -0.08741195 -0.05323426 -0.009356675
-0.055184763 -0.033059042 -0.05365658 -0.029522782 0.011922145 -0.0426408 0.019510884 -0.094883956
-0.11787448 0.006770194 -0.0015736988 -0.10829728 -0.110738434 -0.0787792 -0.060619034 -0.05070025
-0.006328407 -0.012421147 -0.07654519 -0.03610835 -0.02731866 -0.08292729 -0.015144554 -0.051047374
-0.086481676 0.04268999 -0.09758736 -0.07989782 -0.04503299 -0.0053082886 -0.019602967 -0.0599449
-0.010411108 -0.05235111 0.008782327 -0.027315754 -0.115766846 -0.044467967 -0.08200031 0.04547529
-0.0069658738 -0.014679556 -0.034263764 -0.04860535 -0.10081011 -0.070601456 -0.09363015 -0.09759411
-0.067588955 0.0024371732 -0.1137497 0.038152084 -0.04920513 -0.14798 0.025955297 0.014081016
0.0007248204 -0.011272138 -0.08614237 -0.032285564 -0.026747297 0.0030977395 -0.05510291 -0.0333739
-0.06827421 -0.06136119 -0.024840258 -0.033590652 0.02152943 -0.11281495 -0.04602964 -0.023512067

network_body._body_endoder.seq_layers.2.weight f4 [128, 128]
00000000: 2ffb 563d deed d2bd 37a1 203e be91 a1bc
00000010: fe97 393d 26d2 0dbe 0314 093e 518f df3d
00000020: dbaa 2f3e d5ea ac3d 8b8f 2ab9 4c8b 87bd
00000030: d8c9 af3c c273 513d 60aa 353d c17b 0e3d
00000040: a71f 423c 538f c03c a37f 65b9 b8f1 c93c
00000050: d2f4 ad3d 7c95 4dbe e5a3 423e 5479 57be
00000060: a2df efbc 4e25 25bc a3fe ecbc 78a0 2abd
00000070: 3f41 61bc 4869 f13d 6047 903c 69e8 983d
00000080: d57f 9b3d 380f cebc 727d c5bc 03a9 cfbd
00000090: 70bd 81bd a16c c03c d6d6 cdbd 36a9 d43d
000000a0: dcec 82be 6f9b a93c f21f 183d 8a74 383d
000000b0: 5a4b b9bd a8a5 59bd 1c28 85be 8d18 4cbd
000000c0: 9cc1 4eba 22d7 33bd 454c 6dbd 1d21 a8bd
000000d0: 4880 3a3d db04 f4bb f48d d7bd b739 0b3d
000000e0: 26f5 043a ce08 173c 6462 833d 969f 2d3d
000000f0: 904c 5d3d 6b55 9d3d e794 7a3d 3b5f 4dbe
00000100: 7b7b 06bd b1d5 083e ecc4 cabd 84ae b5bd
00000110: 25dc acbd e823 a2bc 4f31 163d d39d aebd
00000120: d1ac 603e fca3 d33c 9c30 e33b 229d 1fbb
00000130: 8b98 f93d 1653 31bc 5587 063e fbae 393e
00000140: 7b3e 033e 44b8 0ebe 41dd b4bd c3ca 023d
00000150: ee25 06bd b537 923d b442 3fbe 556f 1d3d
00000160: 4aed 8cbd 8597 dcbd 0ddf 8e3d 8bff f1bd
00000170: 6f8a 8a3e 231d 363d 6f99 65be 28f9 2abd
00000180: b37b 8abc b603 bebd b4f8 af3c 35e3 aebb
00000190: cbc8 8b3d cc91 453d d16f bb3c 2e36 073c
000001a0: 0fd8 0ebd 4d2c 3ebe 7555 cd3c 18e0 3fbd
000001b0: 4f96 27be 8e2d d4bd b76d e53d ff6a bcbd
000001c0: 31d2 f1b9 e9ff 90bc 4b72 453d ff2a 24be
000001d0: c639 4f3d f613 94bc 560e 1b3d 7888 ccbd
000001e0: 1288 693d 84be 63be 27f2 debc 80a1 b83c
000001f0: 6dc9 673d 8384 503d 7f7c 8fbd 3f33 fbbd
00000200: 33e9 183c d808 0b3c 0e6b 633b 4b52 713d
00000210: 6b83 83bc 37a6 ec3c c924 32be ee70 33be
00000220: 1ec0 11bd abc1 8dbd 102f e5bc 429d a63d
00000230: bf58 333e 1d3e 063e 9526 9d3d 8b06 693b
00000240: 06e4 b43d 5a1c a03d 16b7 73bd c816 05bd
00000250: b993 9abd 1a7d 20be 9dbc cebc 2b19 dd3d
00000260: 38b6 2ebe ffe6 97bd 4654 34bd 5dd0 3bbe
00000270: 9e05 053e 5562 2e3e 72d3 613d 58b4 0a3d
00000280: 8a96 57bd 5318 9abd 2172 eb3c c33a 263c
00000290: 0163 e9bd b28b 083d 03a0 ac3c 6723 363c
000002a0: ab15 403e 629a 29bd 8ffe d23c b51e 97bd
000002b0: d7a9 9dbd acaa 983d fc1c 39be 94ce 0f3d
000002c0: 5f7c 6abd b7de 14bd 07af b43d fddd e5bd
000002d0: 76df 013e feb4 ee3d 5723 06bd 388b b6bc
000002e0: dc1e 2a3d 6da4 023c 6f87 c03d 97c2 c8bd
000002f0: 66d8 b93d 20b8 2d3d 619c 553c c122 89bd
00000300: 71cc d0bd c440 923d 8633 bf3c 765f 1bbe
00000310: 70af 13be 1075 8ebc 498f 50bd ea72 4e3d
00000320: 4497 4abe 6d39 a1bc 0bb9 bb3d 388d 8b3d
00000330: 0bb9 2f3d 9b9f 95bc f3c3 883c 202a 2abc
00000340: 39df 98bc 704e 883c bfc9 313e 0455 143e
00000350: bf81 9f3c b42c 373e f137 ad3d 3f44 69bd
00000360: 7347 90bc 6035 af3d 9238 7d3d 031e 9c3d
00000370: 1881 47bd 8fa7 e33c 0813 ee3d e002 6c3d
00000380: 0f2a 65bd 0145 fe3b 2abf f8bd b290 34bd
00000390: 5486 a73c 2c6c e2bd 6d4d ecbd 1944 1bbe
000003a0: 0f7d 00be 47f7 39bc b5ef 06be 73c5 a3bc
000003b0: aef1 a6bd 5bab 7c3d 489d e2bc 10f5 2ebe
000003c0: 5770 563d d9fb c1bd 1ff2 b13b bb0c 4b3d
000003d0: ac4d 233e 46ad cbbd c5c7 0f3d 2640 923c
000003e0: 2674 ccbc 9687 edbd faa2 d2bc 94e3 303d
000003f0: a305 363d 928c c0bd a901 113c b006 88bc
0.05248564 -0.10299276 0.15686499 -0.019722816 0.045310967 -0.13849697 0.1338654 0.10916007
0.1715502 0.08443228 -0.00016265937 -0.06618366 0.021458551 0.051135786 0.044351935 0.03478599
0.011848367 0.023505842 -0.0002188669 0.024651393 0.084939614 -0.20076555 0.19007833 -0.21042377
-0.029281441 -0.010079695 -0.028930014 -0.04165694 -0.013748466 0.11787659 0.01761216 0.07466204
0.075927414 -0.025153741 -0.024107669 -0.10139658 -0.063349605 0.023489298 -0.10050742 0.10383837
-0.25571334 0.020704 0.03713984 0.045033015 -0.09047575 -0.053136498 -0.26007164 -0.0498281
-0.00078871264 -0.04390634 -0.057934064 -0.08209441 0.045532495 -0.007446868 -0.10525122 0.033990588
0.00050719304 0.009218408 0.06415251 0.04238852 0.054028094 0.07682308 0.06117716 -0.20055859
-0.032832604 0.13362767 -0.09900841 -0.08871177 -0.08440427 -0.019792512 0.036668118 -0.08526196
0.21940924 0.02583503 0.006933285 -0.0024355133 0.121872984 -0.010823032 0.13137563 0.18133156
0.12816803 -0.1393748 -0.08831263 0.03193165 -0.032751016 0.071395315 -0.18677789 0.038436253
-0.06881197 -0.107710876 0.06976137 -0.11816319 0.2705874 0.04446138 -0.22421812 -0.04174152
-0.016904688 -0.092780516 0.021480896 -0.005337144 0.068254076 0.048234746 0.022880467 0.008252664
-0.03487402 -0.18571587 0.025065163 -0.04684457 -0.16365932 -0.10360251 0.11202567 -0.092000954
-0.00046123707 -0.017700152 0.0482047 -0.16032027 0.050592206 -0.018075924 0.03785547 -0.09986967
0.057014532 -0.22240645 -0.027215077 0.022537947 0.05658858 0.050907623 -0.070061676 -0.12265634
0.009332943 0.008485995 0.003470126 0.05891637 -0.016053876 0.028887851 -0.17396845 -0.17523548
-0.035583608 -0.06921705 -0.027976543 0.08135463 0.17514323 0.13109632 0.076733746 0.0035556878
0.088325545 0.07817908 -0.059500776 -0.03249243 -0.07547707 -0.15672722 -0.025236422 0.10795816
-0.17061698 -0.07417106 -0.044025682 -0.18341203 0.12990424 0.17029698 0.05513329 0.033863395
-0.0526338 -0.07524171 0.028740944 0.010145846 -0.113958366 0.03333635 0.021072393 0.011116839
0.18758266 -0.041406997 0.025756149 -0.07378904 -0.0769841 0.07454428 -0.18077463 0.035109118
-0.057247516 -0.03634521 0.08822446 -0.112239815 0.126829 0.11655615 -0.032748546 -0.022283182
0.041533336 0.0079737725 0.09400832 -0.0980274 0.09074478 0.042411923 0.013037772 -0.06696082
-0.10195244 0.07141259 0.023339998 -0.15173134 -0.14422393 -0.017389804 -0.050917897 0.05040256
-0.19784266 -0.019680703 0.091661535 0.06814045 0.04290108 -0.018264582 0.016694998 -0.01038602
-0.018661128 0.016638964 0.17362116 0.14485556 0.019471047 0.17888147 0.084579356 -0.05694985
-0.017612195 0.08555102 0.061821528 0.07622912 -0.048707098 0.02778986 0.11624724 0.05761993
-0.055948313 0.0077596908 -0.12145837 -0.044083305 0.020449795 -0.110557884 -0.11538205 -0.15162696
-0.12547706 -0.011350459 -0.13177378 -0.019991612 -0.081515655 0.061686855 -0.027662888 -0.17085671
0.05235323 -0.09471864 0.0054304744 0.049572688 0.15947598 -0.09945159 0.035102624 0.017852854
-0.024957728 -0.115981266 -0.025712479 0.043185785 0.04443897 -0.09401812 0.0088504935 -0.016604751

network_body._body_endoder.seq_layers.2.bias f4 [128]
00000000: aa6c 3d3c 80a9 05bd cbe8 93bc 51b0 9ebc
00000010: ea43 4dbd ba84 9abd 7b42 0f3c 2313 01bc
00000020: fb83 19be 793a c6bd 60b7 b2bd 3632 52bd
00000030: ff9c 0fbe 8e22 c5bd 1c05 08bd 8df4 15bd
00000040: 9e3e 78bd a33a 45bd e5b7 19be b597 27bd
00000050: 6865 873c f64c 96bd 7f0c b3bc c905 21be
00000060: d3c4 73bc 2a3f 4f3c f32f 2bbd b4f7 c4bc
00000070: b5d1 4fbd 0534 84bd 60fb 89bd 029d dfbb
00000080: d665 f8bc c048 ba3b 3ee8 02bb bbfd 40bd
00000090: 3d7a 2abb 80e1 52bd f483 5dba ce37 91bd
000000a0: d2e8 a9bc 1fff d9bc 52cc 49bc 74e7 16bd
000000b0: c034 32bd 2268 02bd 2cc2 d8bc 3b3e c33c
000000c0: 0434 f6bd 8f8e f23a 5563 82bd 97bf 96bd
000000d0: 2594 96bc a5d2 beba eace c5bd a9dd 39bc
000000e0: 9f5c e0bc 7d76 83bd 5c09 2ebd eb99 33bd
000000f0: d443 9cbc c193 69bb 857e d9bb 6ea4 39bd
00000100: 7e11 5bbd 9818 1ebd 8846 febd d7be 66bc
00000110: 1efc c2bd 63a5 80bc 6c68 b6bd fb0b 0dbd
00000120: 0ec0 34bd 3020 1dbd 36cd 50bd a247 b23c
00000130: 4c95 4cbd f44d 17bd 2f0b c6bc f300 0b3c
00000140: 18b3 9dbc f2fe bebb c31f 01bc 47e1 4cbd
00000150: 3d47 89bc 2027 3abd 7ddc 62bd 6ab4 50bd
00000160: 533c bdbb 75d8 32bc 0535 56bd 916b 66bd
00000170: fb9e 4ebd c936 99bd f929 06bd cf68 3abd
00000180: 2585 823c 4663 41bd eca1 dbbc 73b8 c5bd
00000190: b661 05bd 02e2 873c d4c5 7abd b3f8 44bd
000001a0: 98e8 ecbc 3485 6abd 0105 26bd dcb9 7bbd
000001b0: c436 2abd 782f 97bd a023 a8bb 47b3 e3ba
000001c0: 60cd 62bd f418 09bd 6231 26be 8cb1 463c
000001d0: 079b 2ebd 76e3 24bd a765 88bd 5ab3 a9bc
000001e0: c182 e93b 8c4d b6bc 73dc 7fbd faa4 79bd
000001f0: 6e11 dcbd 8bca 27be b4f7 b1bc d32e cebc
0.011561552 -0.03263235 -0.01805534 -0.019371184 -0.050113596 -0.07544847 0.0087438775 -0.007878098
-0.14991753 -0.096791215 -0.08726382 -0.051317416 -0.14024733 -0.096257314 -0.033207998 -0.036610175
-0.06060659 -0.048151623 -0.15011556 -0.040916163 0.016527846 -0.07338898 -0.021856545 -0.15724863
-0.0148784695 0.012649337 -0.041793775 -0.024043895 -0.0507371 -0.064552344 -0.06737399 -0.0068241367
-0.030321997 0.005684942 -0.0019974853 -0.047116976 -0.00260128 -0.051484585 -0.00084501435 -0.07090722
-0.0207409 -0.026610909 -0.01231678 -0.036841825 -0.043507338 -0.03183759 -0.026459776 0.023833385
-0.1202164 0.001850562 -0.06366602 -0.073607616 -0.018381188 -0.0014558627 -0.09658606 -0.011344352
-0.027387915 -0.06419084 -0.042489395 -0.04384796 -0.019075312 -0.0035641047 -0.0066373968 -0.045322828
-0.05348348 -0.038597673 -0.124157965 -0.014083586 -0.09520744 -0.015703863 -0.08906636 -0.034435254
-0.04412847 -0.038360775 -0.050976954 0.021762673 -0.049947068 -0.036939576 -0.024175255 0.008484113
-0.019250438 -0.0058287317 -0.007881108 -0.05001953 -0.016757602 -0.04544747 -0.055386055 -0.050953306
-0.0057750135 -0.010915865 -0.052296657 -0.056254927 -0.050444584 -0.074811526 -0.032754872 -0.04551011
0.015932629 -0.047213815 -0.026810609 -0.096543215 -0.032563888 0.016587261 -0.06122382 -0.04808874
-0.028919503 -0.05725594 -0.040532116 -0.061456546 -0.041556135 -0.07382101 -0.0051312 -0.0017372154
-0.055371642 -0.033471063 -0.16229776 0.012127291 -0.042628314 -0.040255986 -0.06660014 -0.020715404
0.007126183 -0.022253774 -0.062466096 -0.06094835 -0.10745512 -0.16385858 -0.02172456 -0.025168812

action_model._continuous_distribution.log_sigma f4 [1, 2]
00000000: 120f 1ec0 198b 05c0
-2.4696698 -2.0866148

action_model._continuous_distribution.mu.weight f4 [2, 128]
00000000: 79c5 43bb c245 103b 694b c83b 7cee 77bb
00000010: c17c 863c f7c5 273c cd84 69ba e30b bcbb
00000020: a2b0 1e3d 7453 6d3c d8c5 773b aec7 393c
00000030: da6d d53c 6958 743b 1b6b a5ba 801d ca3b
00000040: 4148 393b 2c55 c13b 86a0 b0bc ee8f 1cba
00000050: e40f 5bbc 50b8 1abc ee08 2abc 0390 9d3c
00000060: 50b9 a9bb 2963 b03b 2347 893b 73ec bbbb
00000070: 1b65 d93b 1434 9e3b d383 8ab9 63dd 6f3c
00000080: cc3f 903b 0bf4 883a 4315 443b b68c e03a
00000090: 3348 793b 01cb 0d3c adca 88bb 3b30 0d3c
000000a0: f0d6 79bc 262b e6bb d179 513a 0ac9 913c
000000b0: 6284 8fbb fdfa 1b3a 7617 c2bb 5498 12bc
000000c0: 5b63 2d3c 9ba5 933b 7212 59bb 935c 46bc
000000d0: 5efd dcb9 26ab 2cbc d5bf 55ba bf07 1dba
000000e0: b198 34bb 945d 833b 6733 2cbb 0ceb 35b9
000000f0: 4c18 cc3b 6a2d 0ebc d01c 84bc 68a5 ba3a
00000100: 321e 123c ae8c ce3b e106 393d 5431 253c
00000110: e0d2 dc3c b93c 86bb 335c 163d 0060 7a3b
00000120: 9f83 acbb 0107 0c3b 5f46 8c3c 695e 2bbc
00000130: 6f3e 2cbc 4cda 3bbc c3a7 26ba 6ff2 16bc
00000140: 337f c7ba e37c 92bb 8be8 413a 70ab 153c
00000150: e769 bcbb 9539 653c 991b 1f3b f038 8c3c
00000160: 7478 eb3b 9086 ba3a 1a2f 14bb 8b6e 483c
00000170: 6a6f 69b9 8c47 003b d48c 0e3b 0440 813c
00000180: 059c b6b9 f64d 193c 7cb8 86bb 1fc7 9e3b
00000190: 151c 803c 8fd5 963b 6427 6f3b 563a beb9
000001a0: 37cb 09bb 8108 71bb 93bd 3a3c 556f 4cbb
000001b0: abc1 9c3a 3644 87ba 18d7 af3b a5d5 b9bb
000001c0: e2b4 11ba 736e f23b b29f 0f3d 007f 183b
000001d0: bb23 b2bb 4eeb bebb 1c74 e0bb a899 93bb
000001e0: d19e 33bb b4d5 d33b 89b4 293c 79aa 803c
000001f0: 25f1 113d 9b3c 863c 355f 243c a965 2f3c
00000200: abf9 203c 12ca 2b3b 36f5 45bc 8d2b fdbb
00000210: 34de 2abc 08a3 75bc f67c 2f3c 8e71 363c
00000220: a464 bfbd 134d 58bc 44b3 beba e071 63bc
00000230: 9724 603d 21ef 19bc 9f51 15bc a726 38bc
00000240: 5e37 ab3b 102f 7abc eea3 f4bc 6d91 333b
00000250: 11c1 b43b ba3e a03c 74f3 3d3c e247 b9bc
00000260: 402d 403b 8aee 2cb9 4503 e3ba bdb6 363c
00000270: c7ed b1bb bd27 54bc ccff 2bbc 3ebb 683a
00000280: 470b 34bb 4ff5 cf3b ef79 20bb 4918 52bb
00000290: 955a 45bc 6203 8dbb 8533 813c e540 98bc
000002a0: 9c72 86ba 1b38 423c 34e5 44bb 1383 1bbc
000002b0: 8916 883b c138 e138 0fee 7b3b 19e5 d53c
000002c0: daf9 c9bc 10c1 dcbb 0fbf 3a3a b00f 283b
000002d0: b418 11b6 a4b0 4abb 1339 bd3c 4fbf eebb
000002e0: 9765 4d3b 4d5d 6cbb 112e 1fbc d5bd b1ba
000002f0: 6909 17bc d278 143c de6a d23a bce5 82b9
00000300: 2e9f 60bc 67a8 b4bb 7454 873d d6cd e1bb
00000310: 9389 c73c dd8b 6a3b b8ba 0c3d c846 0ebc
00000320: 6afc 873b c400 7f3a fbd9 12b8 f015 ae3c
00000330: d715 b03b 6f5a 463c 231e 453b 9cdb 403c
00000340: 1d4d b83b 3de2 833b 1829 05bc d932 07bc
00000350: e89b a53b fa0a 1dbc faa0 5fbc f345 a6bb
00000360: 2ac0 babb 40b7 4fbb 730f bbbb 1b6a 75bc
00000370: 8204 ddbb ae7a 54ba 36f4 b0bb f60d 2dbc
00000380: 96e4 c63b 2ce2 0bbb 4f07 223c 26bf 42bc
00000390: 05af d538 1fce 47bc d68c 23bc 06c0 553a
000003a0: a496 4dbb ce11 b5bb b027 40bc 5df2 1bba
000003b0: d18b 46bb a092 8d3c b66d 153b 0e00 1c3c
000003c0: 3d57 773a a043 9abc 1aeb 70bd 6061 d3bb
000003d0: 6767 adbb b9e1 1d3c 7559 be38 f6ff 313c
000003e0: b7a3 f3bb d3e8 3039 9b86 c6bb 2840 b9bc
000003f0: 7651 ce3d d690 d2bc 47e4 08bc dacb 65bc
-0.0029872342 0.0022014235 0.006112505 -0.0037831357 0.01641691 0.01024007 -0.00089080335 -0.0057387217
0.03874267 0.014485229 0.0037807133 0.011339111 0.026053358 0.0037284142 -0.0012620421 0.0061680675
0.0028271826 0.005900046 -0.021560919 -0.0005972375 -0.013370488 -0.009443358 -0.010378106 0.01923371
-0.0051795617 0.0053829146 0.0041893884 -0.005734974 0.006634367 0.0048279855 -0.00026419628 0.014640185
0.0044021364 0.0010448707 0.00299199 0.0017131779 0.003803742 0.008654357 -0.0041745515 0.008617456
-0.015248999 -0.0070241867 0.00079908693 0.017796058 -0.004379795 0.0005950181 -0.005923207 -0.008947451
0.01058277 0.0045058257 -0.0033122567 -0.012107032 -0.00042150443 -0.010538852 -0.00081538904 -0.0005990229
-0.0027556831 0.004008958 -0.0026275755 -0.00017349067 0.0062284824 -0.00867782 -0.01612702 0.0014239969
0.008918332 0.0063033914 0.045172576 0.0100825615 0.026956022 -0.004096594 0.03670902 0.0038204193
-0.005264714 0.002136648 0.0171234 -0.010459521 -0.010512932 -0.01146562 -0.0006357396 -0.009213074
-0.0015220403 -0.004470454 0.00073970173 0.009135112 -0.005749929 0.013990779 0.0024277924 0.017116994
0.00718599 0.0014230777 -0.0022611083 0.012233387 -0.00022262117 0.0019573895 0.002175142 0.015777595
-0.0003482999 0.009356966 -0.0041113477 0.0048455144 0.01563839 0.004603095 0.0036491985 -0.00036283088
-0.0021025667 -0.003677875 0.011397737 -0.0031194289 0.0011959573 -0.0010320011 0.0053662173 -0.0056712204
-0.00055582647 0.0073984205 0.035064407 0.0023269057 -0.0054363883 -0.0058263903 -0.006849779 -0.0045044012
-0.0027407894 0.0064646844 0.010357984 0.015706288 0.035630364 0.01638632 0.010032465 0.01070539
0.0098251505 0.0026212973 -0.012082389 -0.007726139 -0.010428954 -0.014992483 0.010710945 0.011135472
-0.093453676 -0.01320197 -0.0014549275 -0.01388213 0.054722395 -0.009395392 -0.009113698 -0.011239684
0.005225106 -0.01527001 -0.029863324 0.0027399913 0.0055161794 0.01956116 0.011593688 -0.022617284
0.0029323846 -0.00016492061 -0.00173197 0.011151967 -0.0054299566 -0.0129489275 -0.010497998 0.0008877999
-0.0027472542 0.0063463817 -0.002448674 -0.0032057932 -0.012045522 -0.004303382 0.015771637 -0.018585632
-0.0010257545 0.011854197 -0.0030043842 -0.0094917 0.004153077 0.00010739407 0.0038441455 0.026110219
-0.024655271 -0.006736882 0.0007123807 0.0025644116 -2.1621063e-06 -0.003092804 0.023098504 -0.0072859894
0.003134107 -0.0036066354 -0.009715573 -0.0013560603 -0.009218552 0.009062009 0.0016053577 -0.00024966698
-0.013709826 -0.005513239 0.06607905 -0.0068909926 0.024357593 0.0035788931 0.034357756 -0.008683868
0.004149963 0.0009727592 -3.5012123e-05 0.021250695 0.0053736973 0.012106522 0.0030077777 0.011771109
0.005624427 0.0040247724 -0.008127473 -0.008251869 0.005053986 -0.009585137 -0.01364922 -0.0050742566
-0.0056991773 -0.003169492 -0.005708629 -0.014978911 -0.006744922 -0.0008105439 -0.005400206 -0.010562411
0.00606973 -0.0021344526 0.009889438 -0.011886394 0.000101892314 -0.012195139 -0.009982308 0.0008153919
-0.0031370306 -0.005525804 -0.011728212 -0.00059488957 -0.003029574 0.01728183 0.0022800989 0.009521497
0.0009435302 -0.018831074 -0.05881796 -0.006450817 -0.0052918675 0.009636336 9.076569e-05 0.0108642485
-0.007435288 0.00016871402 -0.0060585267 -0.0226136 0.10074131 -0.025703829 -0.008355207 -0.014025653

action_model._continuous_distribution.mu.bias f4 [2]
00000000: 576d 693b 3aaa 2abb
0.003561815 -0.0026041404

exp_avg f4 [128, 56]
00000000: 3bf9 96ba 9cc2 c0b9 3e9e d9b9 2e29 deb9
00000010: 4945 ac3a 7355 df2d fd5f 613b 1b93 11ae
00000020: cdd2 0e3b 785b 00ae 8f2d 0c3a 885b 00ae
00000030: c7b7 e6ba 875b 00ae c7d0 d5ba 875b 00ae
00000040: 4d48 bcba 875b 00ae cdbf a2ba 875b 00ae
00000050: 7c76 cdb9 875b 00ae 89c3 28b9 875b 00ae
00000060: daec 203a 875b 00ae f1df 093b 875b 00ae
00000070: a0e7 96ba 7505 c0b9 b200 d8b9 c128 c2b9
00000080: 5b5e ae3a d1af eb2d 274d 863b 2d7c 84ae
00000090: 695b 213b 85a1 70ae 2261 a839 61a1 70ae
000000a0: b802 22bb 60a1 70ae 47d7 15bb 60a1 70ae
000000b0: ac9e 03bb 60a1 70ae 29cc e2ba 60a1 70ae
000000c0: f4a9 0bba 60a1 70ae a2cd 54b8 60a1 70ae
000000d0: b51e 803a 60a1 70ae 034c 403b 60a1 70ae
000000e0: caa5 3639 4e69 1137 1953 a438 fd10 fe38
000000f0: bdd9 96b9 13c7 7aac 675e ccb9 21c9 dfac
00000100: b274 a0b9 2377 05ad ab6d 6ab9 8c77 05ad
00000110: 735d b1b6 8e77 05ad 4899 02b7 8e77 05ad
00000120: 2d5e a2b6 8e77 05ad 5029 feb5 8e77 05ad
00000130: 3048 8134 8e77 05ad 9db5 c538 8e77 05ad
00000140: 3cc9 9c38 8e77 05ad 154a 8b37 8e77 05ad
00000150: 2cf6 3539 023d f936 a41e a138 4346 ca38
00000160: d2dc a4b9 0f10 73ac f85e 32ba b8a8 c42c
00000170: 25bb e3b9 d268 8d2c b274 04b9 b867 8d2c
00000180: a7ae a639 b867 8d2c f611 9839 b867 8d2c
00000190: e7e0 8539 b867 8d2c b15f 6739 b867 8d2c
000001a0: 2b8b 8838 b867 8d2c 19e5 3938 b867 8d2c
000001b0: 28c7 bdb8 b867 8d2c c524 bdb9 b867 8d2c
000001c0: 9fb6 1e39 bf2e ccb6 85c3 8738 bd23 1738
000001d0: bbbd 8ab9 513a 79ac 1f67 7fba c088 c42d
000001e0: c6da 0bba 88d0 b52d 897b 3f38 7fd0 b52d
000001f0: e1f4 3f3a 7fd0 b52d 9a01 313a 7fd0 b52d
00000200: f017 1b3a 7fd0 b52d 442e 053a 7fd0 b52d
00000210: 4684 1f39 7fd0 b52d d25b 2fb8 7fd0 b52d
00000220: 7ad1 aab9 7fd0 b52d 13f2 61ba 7fd0 b52d
00000230: 5b6b 1f39 b277 dcb6 b45a 8638 5de8 d737
00000240: 119b 87b9 3931 92ac 34f5 90ba 375b f42d
00000250: 0219 1aba 9ef6 e02d 58e1 b538 7cf6 e02d
00000260: d8d0 633a 7bf6 e02d a002 523a 7bf6 e02d
00000270: 06e9 373a 7bf6 e02d 6dcf 1d3a 7bf6 e02d
00000280: c8fa 3b39 7bf6 e02d ad05 84b8 7bf6 e02d
00000290: 4c6b cfb9 7bf6 e02d bee4 85ba 7bf6 e02d
000002a0: 496d 9e39 8a58 1d39 cf31 a938 1cb8 0db9
000002b0: 10cc 1eb9 ae72 57ad 6b7e 2fbb 6f2a cf2e
000002c0: 21ae a4ba 58e2 c62e 514b 273a 6ee2 c62e
000002d0: cb2b 2c3b 6ee2 c62e 79b1 1f3b 6ee2 c62e
000002e0: 90af 0b3b 6ee2 c62e 4e5b ef3a 6ee2 c62e
000002f0: 9116 113a 6ee2 c62e 9800 bab9 6ee2 c62e
00000300: e8f7 afba 6ee2 c62e 7120 4ebb 6ee2 c62e
00000310: 150b 9f39 dd02 2039 c448 ab38 6827 fdb8
00000320: 9b5c 93b8 cc73 82ad c022 27bb 53db c32e
00000330: 5929 9bba 2763 b82e 93c5 183a 2d63 b82e
00000340: 322b 203b 2d63 b82e 659a 143b 2d63 b82e
00000350: ccfb 013b 2d63 b82e 6aba de3a 2d63 b82e
00000360: f932 073a 2d63 b82e 2935 abb9 2d63 b82e
00000370: 96ab a3ba 2d63 b82e 1e21 40bb 2d63 b82e
00000380: 8c25 f039 7129 5a39 2b86 1d39 0224 4b39
00000390: 8d12 cfb9 583c 32ad f89c 37ba a849 2aad
000003a0: 4a03 10ba 5c62 2ead f898 bcb9 3762 2ead
000003b0: 57a0 7b38 3862 2ead 3e31 7838 3862 2ead
000003c0: a201 6a38 3862 2ead d7d1 5b38 3862 2ead
000003d0: 0765 db37 3862 2ead a476 1739 3862 2ead
000003e0: 98f5 9338 3862 2ead b198 b1b8 3862 2ead
000003f0: 5d80 f039 60c9 5939 8754 1c39 7cda 3439
-0.0011518368 -0.0003676609 -0.00041507365 -0.0004237382 0.0013143207 2.5390112e-11 0.003438949 -3.309984e-11
0.0021793128 -2.918507e-11 0.0005347365 -2.9185127e-11 -0.0017602377 -2.9185123e-11 -0.0016312831 -2.9185123e-11
-0.0014364809 -2.9185123e-11 -0.001241678 -2.9185123e-11 -0.00039188925 -2.9185123e-11 -0.00016094571 -2.9185123e-11
0.0006138809 -2.9185123e-11 0.002103802 -2.9185123e-11 -0.0011513121 -0.0003662516 -0.00041199249 -0.00037032928
0.0013303267 2.6794485e-11 0.0040985527 -6.024723e-11 0.0024621135 -5.471314e-11 0.00032115827 -5.4713015e-11
-0.0024720859 -5.4713012e-11 -0.002286391 -5.4713012e-11 -0.002008359 -5.4713012e-11 -0.0017303276 -5.4713012e-11
-0.0005327754 -5.4713012e-11 -5.073625e-05 -5.4713012e-11 0.0009774776 -5.4713012e-11 0.0029342182 -5.4713012e-11
0.00017418634 8.667192e-06 7.8356075e-05 0.00012114828 -0.00028772457 -3.5637645e-12 -0.00038980247 -6.360371e-12
-0.00030604523 -7.586628e-12 -0.00022356834 -7.5867194e-12 -5.28589e-06 -7.586721e-12 -7.784292e-06 -7.586721e-12
-4.8389397e-06 -7.586721e-12 -1.8936498e-06 -7.586721e-12 2.4080646e-07 -7.586721e-12 9.42752e-05 -7.586721e-12
7.4761425e-05 -7.586721e-12 1.6604588e-05 -7.586721e-12 0.00017353211 7.4278805e-06 7.6827855e-05 9.645198e-05
-0.00031445042 -3.4541291e-12 -0.00068043126 5.5893866e-12 -0.00043436248 4.0190984e-12 -0.00012631973 4.018976e-12
0.00031792113 4.018976e-12 0.0002900508 4.018976e-12 0.00025535302 4.018976e-12 0.00022065525 4.018976e-12
6.5109074e-05 4.018976e-12 4.43208e-05 4.018976e-12 -9.049318e-05 4.018976e-12 -0.00036076285 4.018976e-12
0.00015136086 -6.0851157e-06 6.47372e-05 3.603449e-05 -0.0002646277 -3.54174e-12 -0.0009742844 2.234335e-11
-0.0005335029 2.0669924e-11 4.5653e-05 2.0669908e-11 0.00073225616 2.0669908e-11 0.0006752253 2.0669908e-11
0.0005916348 2.0669908e-11 0.00050804415 2.0669908e-11 0.00015212697 2.0669908e-11 -4.1808766e-05 2.0669908e-11
-0.00032581 2.0669908e-11 -0.0008619141 2.0669908e-11 0.00015203415 -6.5704453e-06 6.406513e-05 2.57382e-05
-0.0002586474 -4.1550344e-12 -0.0011059404 2.7780096e-11 -0.000587836 2.5575372e-11 8.672726e-05 2.5575313e-11
0.0008690483 2.5575311e-11 0.00080112554 2.5575311e-11 0.0007015619 2.5575311e-11 0.00060199836 2.5575311e-11
0.00017927133 2.5575311e-11 -6.295308e-05 2.5575311e-11 -0.0003956206 2.5575311e-11 -0.0010215265 2.5575311e-11
0.00030217532 0.0001500567 8.0678255e-05 -0.00013515394 -0.00015144073 -1.2246799e-11 -0.0026778232 9.420808e-11
-0.0012564101 9.044204e-11 0.00063817675 9.0442195e-11 0.002627122 9.0442195e-11 0.0024367257 9.0442195e-11
0.002131436 9.0442195e-11 0.0018261464 9.0442195e-11 0.00055346737 9.0442195e-11 -0.00035477127 9.0442195e-11
-0.0013425322 9.0442195e-11 -0.0031452442 9.0442195e-11 0.000303351 0.00015259856 8.167469e-05 -0.0001207132
-7.026755e-05 -1.4830713e-11 -0.002550289 8.906533e-11 -0.0011837884 8.384964e-11 0.00058277807 8.3849684e-11
0.002443981 8.3849684e-11 0.0022675034 8.3849684e-11 0.001983392 8.3849684e-11 0.0016992812 8.3849684e-11
0.0005157437 8.3849684e-11 -0.0003265527 8.3849684e-11 -0.001248705 8.3849684e-11 -0.0029316614 8.3849684e-11
0.00045804342 0.00020805538 0.00015022668 0.00019373003 -0.00039495938 -1.01315276e-11 -0.0007004286 -9.679736e-12
-0.0005493654 -9.912595e-12 -0.00035972125 -9.912563e-12 5.999239e-05 -9.912564e-12 5.9173668e-05 -9.912564e-12
5.579147e-05 -9.912564e-12 5.2409097e-05 -9.912564e-12 2.6153879e-05 -9.912564e-12 0.00014444679 -9.912564e-12
7.0552516e-05 -9.912564e-12 -8.468459e-05 -9.912564e-12 0.00045872005 0.0002076975 0.00014908808 0.0001724753

exp_avg_sq f4 [128, 56]
00000000: d06d c739 b98a b739 1566 6138 6384 8938
00000010: 6c4d 9d39 22f1 df20 3ee9 e639 e962 de20
00000020: 3dfb 6939 7475 db20 0c02 f038 699e d720
00000030: 3c39 d638 044a e020 07a5 d238 e0bf de20
00000040: e489 8b38 d40d e120 3783 9e38 2a61 e120
00000050: e460 0339 ce9b e120 3c4b 1f39 be1c e020
00000060: 3c92 1739 f6dc dc20 bfba 3f39 e13d e120
00000070: 42ba c739 fc88 b739 d1ae 6138 72dd 8938
00000080: 335b a039 c340 e320 330e eb39 65b5 e120
00000090: d8d8 6c39 8c96 de20 3fa8 f138 d1fa da20
000000a0: 7d38 d838 5ea8 e320 d87d d438 0f1d e220
000000b0: 91e8 8c38 777d e420 44cf 9f38 15b7 e420
000000c0: 7ab1 0339 e8f5 e420 2d46 1f39 b172 e320
000000d0: 2fd5 1739 c845 e020 6d5f 4339 aaf0 e420
000000e0: d593 2c37 ab2b 8337 17a9 f435 6d4e 7436
000000f0: 9b21 bd36 1dc1 891e e6d7 2237 cb34 8b1e
00000100: 0c45 ec36 a83a 881e 5e1a a036 31bf 7f1e
00000110: d029 dd36 9b96 8b1e 6527 da36 6939 871e
00000120: 66d7 6036 468e 8b1e 8bc2 8e36 7437 8b1e
00000130: 1898 ea36 55e1 8b1e 0d2e 0137 9ac1 8a1e
00000140: 599d e836 90c5 8a1e c6c1 a136 46c4 8b1e
00000150: 78f6 2c37 de46 8337 24d2 f535 3e26 7536
00000160: e3a1 bd36 e70e 8a1e 9cdb 2537 d837 8e1e
00000170: e722 ee36 8868 8b1e b98f a136 88b9 821e
00000180: f42d e536 50b6 8e1e dc82 e136 8987 8a1e
00000190: 2ec4 6a36 70c2 8e1e 8543 9236 4228 8e1e
000001a0: 9869 ea36 2edc 8e1e eb14 0137 cbc4 8d1e
000001b0: bf14 ea36 128b 8d1e e095 ab36 aba0 8e1e
000001c0: 4bfe b337 b318 cf37 012a 5c36 d783 aa36
000001d0: a7bb 6637 a036 061f 4c02 bb37 c20c 061f
000001e0: fffb 6e37 4379 031f bcd0 0d37 4e5f f01e
000001f0: 5fb2 2737 4ef9 051f 858d 2237 03a0 021f
00000200: 0a31 b836 53a9 061f f6da f236 983e 051f
00000210: 93b3 6437 a637 071f 9ca3 8537 7bb5 051f
00000220: 738a 8d37 cc07 061f 55d8 5c37 362d 071f
00000230: 7124 b437 1625 cf37 dce0 5c36 4a16 ab36
00000240: 22eb 6e37 9d1c 081f ed81 bf37 f60a 081f
00000250: 43c9 7137 9b78 051f 1d4c 0e37 1fc0 f41e
00000260: b80d 2937 9117 081f ad48 2437 6eb6 041f
00000270: efea ba36 a1a9 081f c790 f536 524a 071f
00000280: da41 6537 1035 091f 2d89 8537 1cb0 071f
00000290: e5b0 8d37 bafc 071f b713 6237 a429 091f
000002a0: 879d 2539 8e9a 2039 3dd7 a637 8e72 c037
000002b0: 661f d638 03a0 6520 daef 3239 8404 6520
000002c0: d963 dc38 43e4 5f20 4a90 7a38 521b 5220
000002d0: 3c00 7e38 b967 6520 09f7 6f38 bc27 6120
000002e0: bf51 2138 9cce 6520 2bf9 4238 de9f 6420
000002f0: cf2f b138 ef33 6720 2c2d dd38 10db 6320
00000300: f0e1 ff38 6416 6520 1412 ca38 9e29 6720
00000310: b2c0 2539 3c9d 2039 fc59 a737 2945 c137
00000320: c577 de38 7f9b 6920 f2af 3839 6eed 6a20
00000330: 624d df38 2d7f 6520 b762 7b38 5734 5820
00000340: dac2 8238 fe86 6b20 7b0f 7738 da3d 6720
00000350: 0851 2738 6dd5 6b20 5d2e 4838 d2a0 6a20
00000360: 761b b238 dd23 6d20 b409 dd38 8fce 6920
00000370: 285e 0039 4217 6b20 06c8 d238 e130 6d20
00000380: 5225 e737 b4db a137 a4eb 4d36 0e78 8136
00000390: e760 9037 cdad fb1e ef19 f337 bfcf fa1e
000003a0: ce13 8537 8d92 f31e d5a6 1637 d364 ef1e
000003b0: dffa db36 67f5 fa1e 9272 e136 18bc f91e
000003c0: 1eb9 8836 7203 fc1e 8d2f a936 c06f fc1e
000003d0: 6151 3737 60f2 fc1e 7941 5f37 667d fb1e
000003e0: 2036 6137 524d f91e 0d06 4537 aca5 fc1e
000003f0: a6ad e737 62c1 a137 1c61 4e36 28de 8136
0.00038038054 0.00035007836 5.373925e-05 6.557328e-05 0.00030003057 3.7937238e-19 0.00044042798 3.7673716e-19
0.00022314205 3.7177767e-19 0.00011444473 3.6527244e-19 0.00010214976 3.7996055e-19 0.00010044319 3.7735235e-19
6.6537206e-05 3.8125633e-19 7.558468e-05 3.818078e-19 0.00012529228 3.8219586e-19 0.00015191449 3.7966096e-19
0.00014454959 3.741567e-19 0.00018284748 3.815743e-19 0.0003809501 0.0003500654 5.380699e-05 6.5739165e-05
0.00030585527 3.8498152e-19 0.00044833272 3.823652e-19 0.00022587494 3.7707886e-19 0.00011523114 3.7096613e-19
0.000103102044 3.8566712e-19 0.00010132388 3.8305119e-19 6.719039e-05 3.8707728e-19 7.620317e-05 3.8745856e-19
0.00012559249 3.878743e-19 0.00015189564 3.8531192e-19 0.00014479899 3.7993253e-19 0.00018632198 3.878396e-19
1.0286419e-05 1.5636751e-05 1.8228628e-06 3.6404483e-06 5.636551e-06 1.4585309e-20 9.70622e-06 1.4739032e-20
7.041386e-06 1.442382e-20 4.771441e-06 1.3539125e-20 6.591181e-06 1.4779486e-20 6.5014924e-06 1.4317425e-20
3.350398e-06 1.477604e-20 4.2545776e-06 1.4740132e-20 6.9914495e-06 1.4810393e-20 7.699721e-06 1.469139e-20
6.9324565e-06 1.4693028e-20 4.820732e-06 1.4798374e-20 1.0309384e-05 1.5649417e-05 1.8315081e-06 3.6530105e-06
5.651485e-06 1.4617482e-20 9.885898e-06 1.5057931e-20 7.097016e-06 1.476043e-20 4.8149054e-06 1.384102e-20
6.8300815e-06 1.5110237e-20 6.7207566e-06 1.4667374e-20 3.4982909e-06 1.5115252e-20 4.3589994e-06 1.5051485e-20
6.986036e-06 1.5125899e-20 7.6938695e-06 1.5010347e-20 6.9761586e-06 1.4986474e-20 5.113645e-06 1.5101286e-20
2.1456877e-05 2.4687824e-05 3.2807004e-06 5.081743e-06 1.37527595e-05 2.842079e-20 2.2293207e-05 2.8386157e-20
1.4244578e-05 2.7840634e-20 8.452855e-06 2.5450406e-20 9.995506e-06 2.8370066e-20 9.6889025e-06 2.766093e-20
5.489336e-06 2.8515665e-20 7.2376524e-06 2.8215622e-20 1.3631669e-05 2.8633393e-20 1.5931022e-05 2.8313963e-20
1.687298e-05 2.8382053e-20 1.3163391e-05 2.862476e-20 2.1474641e-05 2.4693592e-05 3.291344e-06 5.098792e-06
1.4240652e-05 2.882279e-20 2.2829476e-05 2.8808187e-20 1.4411579e-05 2.8263608e-20 8.481581e-06 2.5913964e-20
1.0076379e-05 2.8818614e-20 9.792083e-06 2.810299e-20 5.570582e-06 2.8939434e-20 7.3184233e-06 2.8648838e-20
1.3664796e-05 2.905477e-20 1.5918713e-05 2.8733036e-20 1.6890883e-05 2.8796412e-20 1.347524e-05 2.9045323e-20
0.0001579431 0.00015316365 1.988897e-05 2.2941527e-05 0.000102101636 1.9449998e-19 0.00017064755 1.9398549e-19
0.000105090156 1.896436e-19 5.9739024e-05 1.7796731e-19 6.0558537e-05 1.9431373e-19 5.721211e-05 1.9071388e-19
3.8461523e-05 1.9465416e-19 4.648526e-05 1.9365247e-19 8.448923e-05 1.9583644e-19 0.00010546515 1.930013e-19
0.00012201432 1.9404463e-19 9.635478e-05 1.9580231e-19 0.00015807411 0.00015317363 1.9949854e-05 2.3039598e-05
0.00010608094 1.9787317e-19 0.00017613152 1.989913e-19 0.00010647882 1.9439133e-19 5.9935e-05 1.831323e-19
6.235177e-05 1.994994e-19 5.8903806e-05 1.9586926e-19 3.989137e-05 1.9975891e-19 4.7726895e-05 1.9873782e-19
8.4928164e-05 2.0086547e-19 0.000105399085 1.9804212e-19 0.00012242107 1.991297e-19 0.000100508376 2.0090854e-19
2.7554725e-05 1.9295003e-05 3.0684541e-06 3.858476e-06 1.7211261e-05 2.6647541e-20 2.8979934e-05 2.6555701e-20
1.5864058e-05 2.5789238e-20 8.97954e-06 2.534681e-20 6.555914e-06 2.6571276e-20 6.7188603e-06 2.6441694e-20
4.0746663e-06 2.6682963e-20 5.042128e-06 2.6727757e-20 1.09265975e-05 2.6781782e-20 1.330708e-05 2.6627522e-20
1.3423647e-05 2.639588e-20 1.1743524e-05 2.6750058e-20 2.7618207e-05 1.9282747e-05 3.0752917e-06 3.870362e-06

exp_avg f4 [128]
00000000: 13fe 3b3b 0cf2 5cb9 92c0 afba 7c0d 90bb
00000010: f431 2cb7 9e00 6f39 e1bf 5d3a bc80 d43a
00000020: 1b11 6d3a 875f 6fba 28fb 9c39 34b2 24ba
00000030: e657 133b f7e5 ea39 142a 513a 34c7 37ba
00000040: d4df 22ba 3177 8838 dc7b 83ba 1b76 ce39
00000050: 5437 33bb 436f b7ba 98aa 58bb 29cc ffb8
00000060: f8f7 c43a b43d 02bb 34d4 a4ba 211f eab9
00000070: afd9 2a3b 0087 f6b9 d35c dd3a 796f 1eba
00000080: edc7 abb9 356a 553a 8673 84bb 989f 0d3a
00000090: e7d3 c93a d569 deba 442f c03a 25e7 63ba
000000a0: ee24 98b9 f97f f539 e3f8 353b b8d9 b7bb
000000b0: 5019 d239 20da 913a 2fc0 a7bb 6c2c 0c3b
000000c0: 51cb 9fb9 81f7 c8ba e75e 513b 4187 e6b8
000000d0: 3d39 2d3b d88f 223a c0b1 0fba 33f6 ddba
000000e0: 078f fd39 e892 71bb c2d3 94bb 89a1 02bb
000000f0: 36b3 31ba bc7f acba 9d66 e3b9 a519 cc3b
00000100: 6845 1839 9bf3 9fb9 4252 663a ac73 fcb9
00000110: 0e9f d0ba 40fa 19bc e196 16ba 3a0b e5ba
00000120: d124 97ba 0e4e 24b9 176c 883a 9629 7c3b
00000130: 20af 0b39 3cb9 00bb f75b 5fbb 2d5f ba3a
00000140: 8f6f 97bb 80de cfba d810 21ba 66cd 263b
00000150: fe20 3dba b81a ecb9 d66e 7dbb 4bd2 853a
00000160: f3df 053b 5fce 03bb c6b3 c8ba f1c2 353a
00000170: 9945 843a 373e 813b e094 0cbb 2b4a 5339
00000180: 6613 d4b9 fd5e 08bc 687d 61b9 91bd c239
00000190: 0a47 003b b676 08bb 7a31 9a39 ffb1 c53a
000001a0: 6723 a13a 286e 63ba 06aa 1d39 5c52 0139
000001b0: 2c51 cf3a 55f8 6abb 85ac ee39 fee5 d7b9
000001c0: be1f a0ba 3069 a7bb c042 8e3b 1c1e 58ba
000001d0: 0210 d8b9 5847 b13a bb96 ae3b 714d b13a
000001e0: 0bfd bbbb 0214 613b 7b55 b837 466c 7c39
000001f0: 1e9a 35b9 3d07 60ba 9024 9fba 44da 753a
0.0028685376 -0.00021071004 -0.0013408831 -0.0043961387 -1.02636295e-05 0.00022793046 0.0008459073 0.0016212682
0.00090433814 -0.0009131361 0.00029941765 -0.0006282658 0.0022482811 0.00044803295 0.00079789874 -0.00070105796
-0.00062131626 6.5071865e-05 -0.001003142 0.00039379377 -0.002734621 -0.001399495 -0.0033060666 -0.00012197375
0.0015027514 -0.0019873204 -0.0012575448 -0.0004465515 0.002606969 -0.0004702136 0.0016888626 -0.00060438324
-0.00032764618 0.0008141131 -0.004042092 0.00054025045 0.0015398235 -0.0016968796 0.0014662524 -0.0008693806
-0.00029019214 0.0004682539 0.0027766756 -0.005610671 0.0004007318 0.0011127628 -0.0051193456 0.0021388782
-0.00030478326 -0.0015332551 0.0031947435 -0.00010992448 0.0026431822 0.0006201244 -0.0005481504 -0.0016934335
0.00048362484 -0.0036861245 -0.004541845 -0.0019932708 -0.00067787187 -0.0013160626 -0.00043373267 0.006228643
0.00014521705 -0.00030508343 0.0008786061 -0.00048151368 -0.0015916543 -0.009398043 -0.00057445286 -0.0017474659
-0.0011531358 -0.00015669336 0.001040819 0.0038476936 0.00013321312 -0.0019641658 -0.0034081915 0.0014219038
-0.004621453 -0.0015859157 -0.00061441725 0.0025452017 -0.0007214694 -0.00045033335 -0.00386708 0.0010209767
0.0020427674 -0.002011202 -0.0015312366 0.00069336506 0.0010091542 0.003944184 -0.002145104 0.00020150158
-0.00040450244 -0.008323428 -0.0002150439 0.00037143801 0.0019573593 -0.002082271 0.00029410032 0.0015082954
0.0012293876 -0.00086757774 0.00015036025 0.0001233308 0.0015817038 -0.0035853584 0.00045523435 -0.00041179353
-0.0012216491 -0.005108975 0.0043414533 -0.0008244233 -0.00041210657 0.001352529 0.005328027 0.0013527108
-0.005736952 0.00343442 2.1974314e-05 0.00024072928 -0.00017318918 -0.00085460005 -0.0012141634 0.00093785324

exp_avg_sq f4 [128]
00000000: aec0 8b3a 8b67 2e38 207b a738 50c1 103a
00000010: 7760 9b38 c14a 1638 b318 0438 0d35 1f39
00000020: 06d2 1738 e077 1839 5a86 1837 d5e0 2338
00000030: 4aa6 1239 8f7b 6337 78d0 0f38 3d2d 4738
00000040: 9770 bb37 bebe 9e36 23b6 fb37 b1ef b139
00000050: 9cae 9839 fbf3 6c38 7168 863a 8039 6637
00000060: 0431 e338 6d00 353a f627 ac38 8980 ca38
00000070: b01c 8639 6f73 0b39 5fef c738 8e4b 1837
00000080: 23df 2838 a6f3 a337 9dee 0939 fa47 dc36
00000090: f96a a338 4835 173a 0168 e738 b194 a637
000000a0: e8b8 3d38 5341 d436 64ed 6e39 40a2 143a
000000b0: b0f4 3b38 6be9 2338 4a82 063a a514 ab38
000000c0: 9ce2 6237 06e2 5539 c0a5 d739 70d3 4237
000000d0: 0a31 433a 1258 f038 2323 e338 48d9 7e38
000000e0: a56f a238 6156 333a ed95 8c39 f3a5 3e39
000000f0: ff37 4838 5ecb a038 e33d 3d38 3013 d43a
00000100: bbea 0c37 3be9 c737 1e95 1139 4d7a 8f37
00000110: 6500 4739 b623 833a db5c f737 b9ec 583a
00000120: fe2b bb38 34ec 2738 d7aa b939 7dc7 5d39
00000130: 30f8 3f39 af3a a239 a11a 103a 8aab 2a38
00000140: 2c3a 123a 40c4 b338 4c57 6137 7241 1839
00000150: b1f1 8b37 ba31 5739 c1e7 9439 e7f5 8038
00000160: e398 0d39 9a57 4439 60b6 ce38 7601 1238
00000170: 467d ed37 cdb7 2b3a 8b0e 6138 6442 0a38
00000180: 5723 9f38 4396 543a 6047 4337 8028 8438
00000190: 89b8 1439 990c 9239 f984 cf37 899c 5839
000001a0: 54dc f538 65f7 1339 232a 8d38 28ff 2737
000001b0: d106 d038 8270 cc39 3f4b 5b37 7868 8938
000001c0: 0383 ce38 c8c7 bc39 d732 173a 71a1 9239
000001d0: 2aa3 b637 6f33 f837 e427 963a 04cd 0e39
000001e0: 2210 333a f56f 193a 5f95 e738 d8db 1138
000001f0: dc70 6f38 5774 5737 ddc1 a139 f31d 5e38
0.0010662281 4.1581265e-05 7.986114e-05 0.000552197 7.408944e-05 3.5832407e-05 3.1494255e-05 0.00015183185
3.6196805e-05 0.00014540507 9.091187e-06 3.907162e-05 0.00013985593 1.3559023e-05 3.428801e-05 4.748743e-05
2.2344566e-05 4.7309723e-06 3.0006346e-05 0.00033938655 0.00029121793 5.649401e-05 0.0010254515 1.3722456e-05
0.00010833333 0.00069046655 8.2090424e-05 9.656052e-05 0.00025579846 0.00013299075 9.533646e-05 9.077497e-06
4.0262134e-05 1.9544572e-05 0.00013154229 6.56489e-06 7.792371e-05 0.00057681324 0.000110343106 1.9857982e-05
4.523332e-05 6.325697e-06 0.00022785884 0.0005669929 4.4812157e-05 3.9079616e-05 0.0005131109 8.157761e-05
1.3523411e-05 0.00020397463 0.0004113149 1.161253e-05 0.0007445967 0.00011460496 0.00010830748 6.0760678e-05
7.7455574e-05 0.00068411796 0.00026814584 0.00018181633 4.7735866e-05 7.6672746e-05 4.5118748e-05 0.0016180035
8.399303e-06 2.3831255e-05 0.00013883828 1.710388e-05 0.00018978266 0.001000515 2.9487934e-05 0.00082750205
8.925049e-05 4.0035884e-05 0.00035413235 0.00021150518 0.00018307636 0.0003094277 0.0005497132 4.0690917e-05
0.00055781263 8.5719395e-05 1.34313705e-05 0.0001452023 1.6682638e-05 0.00020522522 0.0002840143 6.1493185e-05
0.00013503763 0.0001872465 9.8568154e-05 3.4810473e-05 2.8310937e-05 0.0006550521 5.3657724e-05 3.2963595e-05
7.5882934e-05 0.0008109549 1.1639524e-05 6.301794e-05 0.00014183125 0.00027856676 2.4738243e-05 0.00020657679
0.0001172355 0.00014111174 6.7312525e-05 1.0013384e-05 9.9194825e-05 0.00038993737 1.3070937e-05 6.552128e-05
9.847248e-05 0.00036007003 0.00057677686 0.00027967573 2.177207e-05 2.9587854e-05 0.001145598 0.0001361855
0.0006830712 0.000585317 0.00011042761 3.477544e-05 5.708715e-05 1.2842086e-05 0.00030852752 5.2956817e-05
