results/changed_code/DroneAgent/DroneAgent-1999996.pt (torch, 596314 bytes, 36 tensors)

network_body._body_endoder.seq_layers.0.weight f4 [128, 56]
000000 6f f0 87 bc 8c dd 9c be 68 c5 60 3e e2 b9 57 be
       -0.01659414 -0.30637777 0.21950305 -0.21067002
000010 bd 1b 9b 3d d1 01 0f 3d 4d 9c 36 be 35 1c 56 be
       0.0757365 0.03491384 -0.17833062 -0.20909198
000020 22 e0 85 3c c5 96 c6 be 2f fd b4 bb 27 f3 12 3e
       0.016342226 -0.38786903 -0.005523346 0.14350568
000030 01 8d 91 be a8 71 86 bc ec c7 b0 3e 8f 72 c0 bc
       -0.2842789 -0.016411617 0.34527528 -0.023492126
000040 dc 81 84 3e 03 69 32 3e 1f 44 0a 3e 38 f3 a6 3e
       0.25880325 0.17422871 0.13502549 0.32607436
000050 31 31 7c bd 28 36 57 3e 03 2a 3a 3d 13 54 e0 bd
       -0.06157035 0.21016753 0.04545022 -0.10953536
000060 de 27 08 be 11 41 c1 3d 5c 8a 97 3e 05 d0 94 bd
       -0.13296458 0.094362386 0.29597747 -0.07266239
000070 f2 d5 82 3e e9 9b a4 3d bd af d9 bd 7f 60 8e 3d
       0.25553852 0.0803755 -0.106292225 0.06951999
000080 09 66 5c 3d 8d 9c e3 3c c5 97 1c bd 7d 1c 93 3d
       0.053808246 0.02778461 -0.038230676 0.07183168
000090 0a 73 2a 3e e9 34 18 3e ef e1 06 bc bf 17 dc bc
       0.16645446 0.14863934 -0.008232578 -0.026866792
0000a0 02 04 10 3d f9 6f d9 bd cd 9c 04 3e 07 91 79 be
       0.035160072 -0.1061706 0.1295044 -0.2437173
0000b0 84 18 24 be f0 cb 46 bd 12 52 44 bd 35 0f e2 bc
       -0.16024977 -0.048534334 -0.04792983 -0.027595142
0000c0 bc a8 6c be 7f ac 32 3d c4 5a 8f 3e 26 c9 c8 bd
       -0.23111242 0.043621536 0.27998936 -0.09803991
0000d0 67 7c d4 bc 49 d2 15 3e a3 18 00 be df cd 60 be
       -0.025938226 0.14630999 -0.12509398 -0.21953534
0000e0 01 1f 24 3d 8f 4b f7 3d cc c1 74 3d 5b dc 1b 3d
       0.04006863 0.120749585 0.05975513 0.038051944
0000f0 d4 75 8e bc 09 56 cf bc 1f 17 f7 ba c0 b2 c8 bc
       -0.01739017 -0.02530958 -0.0018851495 -0.024499297
000100 d6 de 1b 3e 7c 7c 95 bb ef 50 02 3c ba 69 52 3e
       0.15221724 -0.004561959 0.007953866 0.20548144
000110 d0 83 5d 3d 9b 57 6e b8 7e 51 7d 3e 8b 1f 4d be
       0.054080784 -5.682521e-05 0.24738118 -0.20031564
000120 7e c4 3c 3e a8 bf 1a 3e 9a f7 67 bd d4 17 84 3e
       0.18434331 0.15112174 -0.056632616 0.2579943
000130 5d eb a8 bd 1a 72 81 bd ee b3 83 be 14 11 1a be
       -0.08248017 -0.06320591 -0.25723213 -0.15045577
000140 e5 24 56 3d 05 8a 23 be 8f 5e 38 bd d3 32 79 3b
       0.05228128 -0.15970619 -0.045012053 0.0038024678
000150 e6 21 88 3d a2 43 0e 3a 05 8c 52 bd fb 35 3c 3e
       0.066470906 0.0005426948 -0.051403064 0.18379967
000160 03 b2 a3 3d a9 7c 8a be 08 a4 34 3d 14 56 2d be
       0.079929374 -0.27048233 0.044101745 -0.16927367
000170 1b 8a 1d bd 99 29 ab be 41 2f d0 bd df fc 46 be
       -0.038461786 -0.33430174 -0.10165263 -0.194324
000180 c9 01 1d be b7 92 73 bd 5d 3c 65 3e f5 e6 d1 3d
       -0.15332712 -0.05946609 0.22386308 0.1024913
000190 40 75 e1 3d f1 58 48 3e 97 3d 95 3e 05 bc 79 bd
       0.11008692 0.19565178 0.29148552 -0.060970325
0001a0 85 01 d9 3c 72 18 e1 3c 72 10 40 bd 22 c1 09 be
       0.026489982 0.027477477 -0.046890683 -0.1345258
0001b0 5f 4b 8d 3c 9b 27 81 bd 32 7e 61 3e 76 83 21 3d
       0.017247854 -0.06306382 0.22020796 0.03943201
0001c0 d9 85 fb 3d 35 fd 4f be 81 b2 9a 3c 3f 58 89 3d
       0.12281389 -0.20311435 0.018883945 0.06706285
0001d0 52 d4 65 3e 50 c5 c7 3d dd 85 b6 be e1 50 3f 3c
       0.22444275 0.09754431 -0.35649005 0.011676998
0001e0 85 b9 aa 3d 5e 4c 8f be 98 0f 17 be d1 7a 83 bd
       0.08336166 -0.2798795 -0.14752042 -0.0641991
0001f0 97 b2 89 bd 66 aa 93 3e ff 09 b1 bd ee 59 c6 3e
       -0.067235164 0.2884094 -0.08644485 0.38740486
000200 51 65 50 be 16 71 1e 3e 4e a1 b1 be 7c 6a 1b bc
       -0.20351149 0.15472826 -0.34693378 -0.009485837
000210 ed 8e f7 bd 58 5c 24 bd fb 04 93 bd a7 5b fe bd
       -0.12087808 -0.04012713 -0.07178684 -0.12419825
000220 32 86 9a bc 53 72 12 be 5c e6 7d 3d 9b 30 6b 3e
       -0.018862817 -0.14301424 0.061987266 0.2296776
000230 76 9c 01 3e 6f 99 87 bb bb aa 92 3d 80 0b 4e 3e
       0.12657341 -0.0041381638 0.071614705 0.20121574
000240 8e 6b d0 bd c3 2f ea 3d 12 2d 96 be 67 db 7d be
       -0.101767644 0.11434891 -0.2933126 -0.24790727
000250 0d 05 19 3e 8f c8 8f bc 80 dd 13 3e 46 03 1d 3c
       0.14943333 -0.017551688 0.14439964 0.0095833
000260 66 b3 5f 3d 61 2d 80 3e 87 2d 22 be 07 89 2d 3e
       0.054614447 0.2503462 -0.1583768 0.16946803
000270 32 41 f4 bd 13 7d c1 bb 93 ed af bb 48 2a c0 3b
       -0.119264975 -0.0059048026 -0.005368897 0.0058644153
000280 d4 44 bd 3d 11 73 17 bd 99 a6 87 3d 66 94 5f bd
       0.092416435 -0.03697497 0.06623573 -0.054584883
000290 71 34 6c bd e3 47 ff 3d ee 4a a3 bc 4a b4 5e 3c
       -0.0576672 0.12464883 -0.01993319 0.013592789
0002a0 ef 87 46 3d 4f 27 8f 3e 04 36 3c be 90 34 67 be
       0.04846948 0.27959678 -0.1837998 -0.22578645
0002b0 7f fa 34 be d0 5c 99 bd a3 4f fc 3e f0 56 46 be
       -0.17673682 -0.07488406 0.49279508 -0.19369102
0002c0 e0 0f 0d bd ed d5 80 be 3c ce 59 3e 48 39 1f 3f
       -0.034438968 -0.25163212 0.21270078 0.6219678
0002d0 80 27 72 3e 7d 59 6a 3d 64 9a c4 bc 35 1c 9f 3d
       0.2364788 0.05721425 -0.0239994 0.07769052
0002e0 4b 31 61 3e df 76 28 be de 99 16 bd 2e 70 42 3d
       0.2199146 -0.16451596 -0.036767833 0.047470264
0002f0 c6 60 ab bd 61 3b a4 bd d2 b6 42 bd 72 34 c3 bd
       -0.083680674 -0.08019138 -0.047537632 -0.095314875
000300 df aa fe bd fa 54 35 be dc 5f 40 3e dd 53 72 be
       -0.12434935 -0.17708197 0.18786567 -0.23664804
000310 37 e9 d7 3d 51 c9 d4 3a 2a a0 31 3e 23 ea 70 3e
       0.10542529 0.0016234313 0.17346254 0.23526816
000320 58 87 4d be 2c 52 0c be 46 74 21 3e 7b eb 7e bc
       -0.20071161 -0.13703221 0.15767011 -0.015559073
000330 ba 1e 47 3d 20 7a 42 3e 42 24 9c 3d 8e 38 2b 3e
       0.048613288 0.189919 0.07624103 0.16720793
000340 db 26 25 be 30 0d 7d be f8 8d 03 bb 31 6b 3c 3e
       -0.16128103 -0.24712062 -0.0020073634 0.18400265
000350 c5 0b 5b 3d ea d5 37 bd 67 50 1d be 65 17 96 bc
       0.05347802 -0.04488174 -0.15362702 -0.018321702
000360 a3 c8 e2 bd d3 de 19 3e d9 6f 73 bd 01 f5 53 bc
       -0.11073425 0.15026407 -0.059432838 -0.012936831
000370 fd e3 af bc 55 51 d9 ba bb ac b1 bd b5 5f 12 bd
       -0.021471018 -0.0016580025 -0.08675524 -0.035735805
000380 30 3f 68 3e e4 0c 48 3e 42 72 e8 bd 40 71 98 3e
       0.22680354 0.19536167 -0.11349918 0.29773903
000390 ef ee 74 bd a2 56 45 3d 7d 70 e1 3e df aa 58 bd
       -0.059798177 0.048178323 0.44031134 -0.05289733
0003a0 00 5a 00 3f 76 1c 48 bc 43 72 bf bc 96 07 91 3e
       0.5013733 -0.012213817 -0.023369914 0.283261
0003b0 54 17 6a 3d 19 28 23 3e fe 07 f6 bd 46 cb 02 be
       0.057151154 0.15933265 -0.12013243 -0.12772855
0003c0 bb 84 2d be 7e fa 3b 3e 10 8a 5c 3d c2 d0 0a bd
       -0.16945164 0.18357274 0.053842604 -0.033890493
0003d0 bf cf 91 bc 55 1e 93 3e 08 d7 43 3e 5b b4 73 3d
       -0.017799256 0.2873408 0.19124997 0.059498172
0003e0 0d 45 09 3d ee 9d a5 bc a7 8a e2 bc c9 99 27 be
       0.033513118 -0.020216908 -0.027654005 -0.16367258
0003f0 5d 68 28 3e d8 61 ca bd b4 8d 85 3d 63 c2 c4 3c
       0.16446061 -0.098819435 0.06521168 0.024018472

network_body._body_endoder.seq_layers.0.bias f4 [128]
000000 c0 db 3a bf bf 62 1b bf b1 88 13 be a1 11 ce bd
       -0.7299156 -0.6069755 -0.14407612 -0.10061956
000010 ad f9 78 bd 2f ac 20 bf 36 7a 7b be 67 a7 fb bd
       -0.060784984 -0.6276273 -0.24558339 -0.12287789
000020 43 7a 1c bd 28 f3 fb be be b9 50 bf 7d 21 90 bf
       -0.038202535 -0.4920895 -0.8153342 -1.126022
000030 50 de bb bf 31 60 6e bf 02 bc 30 bf 62 3d 98 bf
       -1.4677219 -0.93115526 -0.6903688 -1.1893733
000040 2e 98 82 bf 9c ae 32 be a6 40 c0 be fc 06 f5 be
       -1.0202692 -0.1744942 -0.37549323 -0.4785689
000050 68 30 61 3e a0 7b 96 bf e4 78 3f be 2b 63 20 bf
       0.21991122 -1.1756477 -0.1869846 -0.6265132
000060 80 3c 64 bf 19 73 89 bc f3 0a e9 bb 6c 0f 17 bf
       -0.89154816 -0.016778516 -0.007111901 -0.59007907
000070 e5 75 5c bf 42 33 9d bf f4 a6 64 bf a8 8b b0 be
       -0.8611739 -1.2281268 -0.8931725 -0.3448155
000080 54 c5 01 bf 2f f9 8a bf d3 85 47 bf 48 2e d9 be
       -0.50691724 -1.0857295 -0.77938575 -0.42418122
000090 3e 0d 2f bf d6 a7 42 be 52 d3 5f be 6d a4 a2 bf
       -0.6837958 -0.19009337 -0.21857956 -1.2706429
0000a0 bd 20 87 bf 40 cf 8a bf fa ff b3 3e 21 5c 84 be
       -1.0556866 -1.0844498 0.35156232 -0.2585154
0000b0 1c 24 6f be 15 5e 33 bf 89 cf d2 be 51 aa 19 be
       -0.23353618 -0.7006543 -0.41173962 -0.15006377
0000c0 f3 a8 8c be db 97 38 be 8f 72 ad 3d bf 16 a7 be
       -0.27472648 -0.18026678 0.08469116 -0.3263454
0000d0 59 d7 59 bf 4d 43 45 bf 0c 07 97 3d cd f9 1a 3e
       -0.8509422 -0.7705582 0.07374391 0.15134354
0000e0 18 7a 85 bf 8c 11 99 bf 4e b9 36 bf 39 6c 95 3c
       -1.0427885 -1.195848 -0.713765 0.018240081
0000f0 3b 1c 9d bf 1a 96 53 bf ae e0 6c bf 85 1c 0c 3c
       -1.227424 -0.8265091 -0.92530334 0.008551721
000100 f3 6e 76 bf 29 7e 9d bf d4 92 82 be aa 02 59 3d
       -0.96263045 -1.2304126 -0.25502646 0.052981056
000110 7a bc ec be 6b 8c 07 3d e0 b7 92 be 55 a0 41 be
       -0.46237546 0.033092897 -0.2865591 -0.18908818
000120 ac 99 3f bf 4b ad d0 bd 84 80 46 bf a8 33 3f bf
       -0.7484386 -0.10189303 -0.7753985 -0.74688196
000130 9e ea b1 3e ef 26 28 be b0 06 6c be 6d 5c 58 bf
       0.3474931 -0.16421102 -0.23049426 -0.8451603
000140 03 26 03 bf 21 17 d4 3e 2e b7 13 bd dc 04 49 bf
       -0.51229876 0.41423896 -0.036063366 -0.7852304
000150 29 76 3e be d1 9a 9a bf f5 a4 a1 be 91 df 46 bf
       -0.18599762 -1.2078496 -0.31571165 -0.77684885
000160 bc 0e f4 be 05 ae 18 be 00 6f 94 be be dc 6d bf
       -0.4766749 -0.14910133 -0.28990936 -0.9291495
000170 11 18 60 bf 68 ff 15 3d c3 c3 b7 3d 5b 29 97 bf
       -0.8753672 0.036620528 0.089728855 -1.1809496
000180 cc 7f 84 bd ff fd 11 bf 02 b6 ea be fc 8c 9f be
       -0.06469688 -0.5702819 -0.45841986 -0.3116225
000190 8c fa 35 be 0e d0 44 bf 3a db b9 bd 6e 8c 2b bf
       -0.17771357 -0.76879966 -0.09075017 -0.67011154
0001a0 6a d1 ca be 0a 68 2b be e9 8f 9b bf d2 ff 98 bf
       -0.39612895 -0.16738907 -1.2153293 -1.195307
0001b0 e8 f1 a4 be 6e 08 64 bf 08 ee a5 bf 39 ad 08 3e
       -0.3221581 -0.8907536 -1.2963266 0.13347329
0001c0 3e 89 06 be e6 27 d2 be 1c 99 86 bd c2 00 04 3e
       -0.13138291 -0.41046065 -0.06572172 0.12890914
0001d0 05 7f 85 bf 68 88 1b bf a8 d3 7e bf 8b 61 00 bf
       -1.0429388 -0.60755014 -0.9954171 -0.5014884
0001e0 d0 21 c5 be 88 34 12 bf 28 ca 64 bf d4 77 30 bf
       -0.3850236 -0.57111406 -0.89370966 -0.68932843
0001f0 e0 ca 46 be 4e d1 60 be 3b 38 6c bf e1 24 0b bf
       -0.19413328 -0.21954843 -0.922733 -0.5435315

network_body._body_endoder.seq_layers.2.weight f4 [128, 128]
000000 33 85 cc bd a3 30 80 3d f1 05 5d be fb aa 72 be
       -0.09986343 0.06259277 -0.21584298 -0.23698036
000010 34 76 12 3e ce b3 78 3d fb ec 67 be 48 8e ae be
       0.14302903 0.06071835 -0.22648995 -0.34092927
000020 74 dd 52 be e2 fd 80 bc 7d 54 ca bd fe 24 2d 3e
       -0.2059229 -0.01574606 -0.09879396 0.16908643
000030 16 57 86 bd 94 37 9f be 40 9d 5e be ba b5 8f bd
       -0.06559579 -0.3109709 -0.21739674 -0.070170835
000040 84 87 5d be 04 d6 80 bd da fc d1 bd b8 4e c0 bd
       -0.21633726 -0.0629082 -0.10253306 -0.093900144
000050 ab dc ac be 75 a5 dc 3d 46 bc 34 be 22 c1 52 bc
       -0.33762106 0.10773746 -0.17649946 -0.012863429
000060 9e b0 d9 bd bd 8d 87 3e eb e6 55 be bf 2f 64 be
       -0.1062939 0.26475325 -0.2088887 -0.22283839
000070 a3 f3 a8 bc 91 ee 1c bb c0 57 59 be ae 23 db 3e
       -0.020623988 -0.0023945908 -0.2122488 0.4280066
000080 9f 61 57 be c6 a2 78 be 0e 9e ff bd 4e e6 57 be
       -0.21033333 -0.24280843 -0.124813184 -0.21083948
000090 42 e0 ee 3c 4f 35 bc be ac 5c 2c bf 11 09 88 bd
       0.029159669 -0.3675942 -0.67328906 -0.06642354
0000a0 05 ee 4a be 2c 44 a2 3b bc 9f 3e bf 5a 6c a8 be
       -0.1981736 0.0049519744 -0.74462485 -0.32895166
0000b0 4f fb fa 3d 45 ee 3f be 26 7e 62 bd de 9f 4f be
       0.122549646 -0.18743236 -0.055296086 -0.20275828
0000c0 4d de 9c be 35 2b 53 bd e1 11 48 bd db 1d 33 be
       -0.30638352 -0.051554877 -0.048845176 -0.17491858
0000d0 33 f6 fa be 0c 36 06 be 69 d9 8d be ff e5 61 3d
       -0.4901596 -0.13106555 -0.27704933 0.055150982
0000e0 99 6e b8 bb 30 0c 18 be 83 49 0b be a6 13 b4 be
       -0.0056284186 -0.14848399 -0.13602261 -0.3517124
0000f0 ee e0 bf bd 60 40 7b be 66 81 13 be 1d e3 2d bd
       -0.09369074 -0.24536276 -0.1440483 -0.04245292
000100 3c 63 2b be 28 9c 2d bd 0d 88 8f be 80 cb 91 be
       -0.16737074 -0.04238525 -0.28033486 -0.2847557
000110 2a 35 17 bd 54 51 14 bf 36 d0 66 be 81 f8 e4 bc
       -0.036915936 -0.57936597 -0.22540364 -0.027950527
000120 15 79 a3 3d 1f 96 3c bd f5 cd 89 bd d7 86 59 be
       0.07982079 -0.046041604 -0.06728736 -0.21242844
000130 9a f6 8b be fb 8f 84 be 63 bd a4 be f8 e6 8f bd
       -0.2733658 -0.25891098 -0.3217574 -0.07026476
000140 3d 11 77 be ec fb 17 be 43 4d 04 be 9c 53 81 be
       -0.2412767 -0.14842194 -0.12920098 -0.252591
000150 bb c3 5b bd c1 52 2a bd 8f 8a 83 3e 2f 73 71 3d
       -0.05365346 -0.041582827 0.2569165 0.05894774
000160 75 c0 d3 be b7 ff 71 bd 06 a0 6f be 6d 9f a9 bd
       -0.4135777 -0.05908176 -0.23400888 -0.08282361
000170 28 e6 19 bd aa 51 96 bd 34 e9 a8 be 89 ed c5 bd
       -0.03757301 -0.07339795 -0.3299042 -0.09664447
000180 5c cf 1f bf e5 df 28 be 13 8a 93 be 68 f9 06 3e
       -0.6242578 -0.16491659 -0.2881628 0.13181078
000190 05 79 0a bc 64 8d 7b be 3b a0 00 be 74 c0 25 3d
       -0.008451705 -0.24565655 -0.12561123 0.04046674
0001a0 a7 91 2e 3e 3d ff d5 bd c2 05 a1 bd 5e 82 5e 3d
       0.1704775 -0.104490735 -0.07862426 0.054323547
0001b0 17 cf 6d 3d fa aa 1e be c5 22 ee bd 4e cc 28 be
       0.058058824 -0.1549491 -0.116277255 -0.16484186
0001c0 61 c1 26 bf 4d 0e 0c be 71 32 ee be ce e9 76 bd
       -0.6513882 -0.1367733 -0.4652286 -0.060281567
0001d0 91 12 2f be 1e 42 01 be a2 23 a5 bd cf 0f 1e 3e
       -0.17096926 -0.12622878 -0.08063437 0.15435718
0001e0 a0 64 a5 be 61 22 d6 bd f3 b1 46 be f3 7b 35 be
       -0.32303333 -0.10455776 -0.1940382 -0.17723064
0001f0 67 e9 99 bd 91 91 63 bd 4a e0 3e 3b 81 b6 c3 bd
       -0.07515221 -0.055558745 0.0029125386 -0.09556294
000200 ac b1 d5 3d c5 80 bd bd 8f 5a 54 3c 3e 58 63 bd
       0.10434279 -0.092530765 0.012961044 -0.055504076
000210 ce 30 72 be a7 02 07 3e 3a 8d b6 be 49 8a d8 bc
       -0.2365143 0.13184606 -0.35654622 -0.026433127
000220 50 6c 9a be 6d d3 bb 3d bb 71 a1 3e 52 36 91 3e
       -0.3016076 0.09171186 0.31532082 0.28361756
000230 db e9 a8 3e f2 21 b3 3e d0 e3 46 bb a1 7a 22 3e
       0.32990918 0.34986836 -0.003034819 0.15867092
000240 59 26 6b 3e a5 f7 62 bd 9c f8 b5 bd e4 09 cd bd
       0.22963847 -0.055411953 -0.08885309 -0.10011652
000250 16 ff fc be 41 70 ad 3e e9 68 d2 3b 9f 4d 99 3e
       -0.49413365 0.33874705 0.0064211977 0.29942033
000260 1c 45 51 3e b4 07 d1 bd c5 8e c9 bd 02 7e 34 3e
       0.2043652 -0.102065474 -0.09841684 0.17626193
000270 1b 0d c6 3b 7b a7 df 3e 24 4d 7b bc 1c 90 44 3e
       0.0060440428 0.43682465 -0.015338216 0.19195598
000280 c4 8a 3a bd 4f b8 92 3e 6e 88 0f 3e f3 4a 22 3e
       -0.045542493 0.2865624 0.14016888 0.15848903
000290 4b d0 dd 3d f7 aa 0b bd 39 14 a1 bd 05 2c 1b 3f
       0.10830744 -0.03409859 -0.07865185 0.60614043
0002a0 5a 1b c4 3e d3 15 20 3e 9a e3 ef be ae cd 55 bd
       0.38302118 0.15633325 -0.46853334 -0.052198105
0002b0 58 33 37 bd d9 c5 46 3e da 45 c4 bd 5b 40 7a be
       -0.0447267 0.1941141 -0.09583636 -0.24438612
0002c0 f5 ea bd 3d 23 cc c2 be a3 ff 93 be 11 28 8a be
       0.0927333 -0.3804637 -0.28905973 -0.26983693
0002d0 c4 68 56 3d e1 8f 73 3e 4e 33 ab be af 60 cf bd
       0.052346006 0.23785354 -0.3343758 -0.10125863
0002e0 1b 4a 12 bd 37 31 e6 3e 40 04 3d 3e e2 af cd be
       -0.035715204 0.44959423 0.18458652 -0.4017325
0002f0 05 bf eb 3e 49 6e 62 3e bb ec 4e 3e eb 2a 92 be
       0.46044174 0.22112383 0.20207493 -0.2854837
000300 ef 5a 93 3e 4d 86 4a 3e 76 8d 20 bd 9a 41 d3 bd
       0.28780314 0.19777794 -0.039197408 -0.10315247
000310 d8 98 6f bd c9 ee 80 be c4 f5 05 3d 86 e7 5b be
       -0.058495373 -0.2518218 0.032705083 -0.21475038
000320 cc ca f3 bc 97 f3 3a 3e 25 15 07 3d 13 e4 9c 3e
       -0.029759787 0.18256985 0.03297915 0.30642757
000330 80 1a 4d be cb 72 32 bd 4e c1 c0 be 29 05 18 3e
       -0.2002964 -0.043566506 -0.3764748 0.14845718
000340 02 89 95 3d 2b 24 3e be 3b 24 8e be 58 7f 8c 3e
       0.07301523 -0.18568484 -0.27762017 0.27440906
000350 de 21 41 bd 46 91 1b 3f bd 28 73 be 9a c1 87 3e
       -0.04715144 0.60768545 -0.23746009 0.26514894
000360 10 fe 87 3d 9f b1 15 be 56 0c 03 be bb 48 79 3e
       0.066402555 -0.14618538 -0.12797675 0.2434415
000370 ee 19 8d 3e 4c 9c 99 be e6 fe 6c be cb cb d1 3d
       0.27558845 -0.30002058 -0.23144111 0.102439485
000380 10 9b 2d be bc 08 4b 3d e8 b3 c2 3c 66 95 0f be
       -0.16953683 0.049568877 0.023767427 -0.14021835
000390 9e b0 0f be 9d 2b c0 bc 50 5b 2d be 2b 50 6f 3e
       -0.14032218 -0.023458296 -0.16929364 0.23370425
0003a0 2f f5 a8 bb 06 3d 40 be 4e 64 c8 3e da bd 30 3f
       -0.0051561813 -0.18773279 0.39139026 0.6903969
0003b0 fb 48 b7 be f0 f8 bf 3e 16 0e e7 3e ff 07 b0 be
       -0.35797867 0.37494612 0.45127934 -0.343811
0003c0 1b 28 84 be 36 96 46 3d 47 f4 7a be 8d b0 77 be
       -0.25811848 0.048483096 -0.24507247 -0.24188443
0003d0 1c 6a 2d 3e d1 23 cd bd 5e f9 b7 3e 60 5f 96 3e
       0.16935009 -0.10016597 0.3593244 0.2936964
0003e0 2b 3c 7c bd 06 ad 38 3d bb 9e a5 3e 93 14 a0 3e
       -0.06158082 0.045086883 0.32347664 0.31265697
0003f0 d5 b8 7a 3a 40 68 1b be d8 e2 87 3e fd c8 24 bb
       0.0009564285 -0.15176487 0.26540256 -0.0025144212

network_body._body_endoder.seq_layers.2.bias f4 [128]
000000 06 a5 25 be 94 ed 29 bf 7d f2 30 bf 5f 9e 64 be
       -0.16176233 -0.6637814 -0.6912001 -0.22326039
000010 8b af 97 be b0 36 5d bf f2 5c 66 be 12 1c af bd
       -0.29626116 -0.8641157 -0.22496393 -0.08550276
000020 37 74 79 bf 6d ee 23 bf 93 c9 60 bf 0a 9b 1a bf
       -0.97442955 -0.64035684 -0.8780758 -0.6039282
000030 bc 21 93 be 42 f7 fe bd 6a 7c 7e bf 9a 02 61 bf
       -0.28736675 -0.124495044 -0.9940859 -0.87894595
000040 f7 d7 cd 3b 3c 8e 89 bf 93 65 51 bf f7 c8 2b be
       0.0062818485 -1.0746531 -0.81795615 -0.16775881
000050 92 25 2c bf 0e 89 ba be 27 fb 76 be f8 f2 65 bf
       -0.6724483 -0.3643269 -0.24119245 -0.89823866
000060 da 38 3e 3d b4 e2 2c bf 82 1d 8f be 0b 59 1c be
       0.046440937 -0.6753342 -0.279522 -0.15268342
000070 b7 94 30 be bc 21 6d bf 42 ff 19 bf b4 a2 79 bf
       -0.1724423 -0.926296 -0.6015512 -0.9751389
000080 ed 47 36 bf 23 fa a3 be d3 90 3c bd dc 0e 34 bf
       -0.712035 -0.32026777 -0.046036553 -0.70335174
000090 f7 ad 1b bf f5 2d 7b be 51 d9 3e bf c6 07 7f bf
       -0.60812324 -0.2452925 -0.7455035 -0.99621236
0000a0 d0 b5 9b be a7 42 e6 be 9a 4d 61 bf fa 1d 0d bf
       -0.3041215 -0.44972727 -0.88009036 -0.55123866
0000b0 38 ae ac be 69 a3 05 bf 15 a9 1e bf a5 2c 2c bf
       -0.33726668 -0.5220247 -0.6197675 -0.6725562
0000c0 de 54 4d bf e6 7e 3d bf 62 21 6d bf 75 c1 74 bf
       -0.8020762 -0.74021757 -0.92629063 -0.9560769
0000d0 d0 c7 f9 be d8 20 5b bf 9d 37 65 bf 39 fb 54 bf
       -0.48785257 -0.8559699 -0.89537984 -0.83195835
0000e0 1e ce 3a bd 27 e1 11 bf dd 62 7e bf 1e bb 74 bf
       -0.045606725 -0.5698418 -0.99369603 -0.9559802
0000f0 d6 bd 7c be d0 fc 2c be 12 20 3d bf 06 c1 04 be
       -0.24681792 -0.16893315 -0.7387706 -0.12964258
000100 0f aa ce bd 3b 62 ab be 19 1d 24 bf c3 09 35 bf
       -0.1009103 -0.3347338 -0.641069 -0.7071802
000110 f8 d1 18 be 76 f8 95 be 27 5f 57 bf 98 7c 5b be
       -0.14923847 -0.29291123 -0.84129566 -0.21434247
000120 91 88 2e be d0 45 5e be 28 c4 f7 be 3f ff 4e bf
       -0.17044283 -0.21706319 -0.48391843 -0.80858225
000130 69 71 77 bf 73 66 62 bf e6 6c 59 bf c5 72 b3 be
       -0.96657425 -0.88437575 -0.8493179 -0.350485
000140 67 82 0a bf 7a fb 1c bf e0 32 44 be 1f 79 8a be
       -0.5410523 -0.6132122 -0.19160032 -0.27045533
000150 7b 42 4c bf 65 cc 89 be 45 4e 64 bf d4 51 77 bf
       -0.7978894 -0.26913753 -0.8918193 -0.96609235
000160 b8 eb 95 be 0d 09 4b be b7 71 d4 bd ba c4 5c bf
       -0.29281402 -0.19827671 -0.10373252 -0.8623768
000170 ab a8 d6 be f2 c9 b8 be 9e ff c6 be ac 04 06 3e
       -0.41925558 -0.36091572 -0.38866895 0.1308772
000180 ae 2c 4d bf d0 17 c3 be f7 38 21 be 19 54 5e be
       -0.801463 -0.38104105 -0.15744387 -0.21711768
000190 bc eb 34 bf e4 72 01 bf de b8 0c bf 68 e7 74 bf
       -0.706722 -0.50565934 -0.54969585 -0.956656
0001a0 d4 a9 9f be f2 1e 0f bf e3 02 9e bd 55 e0 6e bf
       -0.31184256 -0.55906594 -0.07715394 -0.93311054
0001b0 15 e4 90 be ce 52 d8 bd 54 db 43 bd 59 cb 5f bf
       -0.28299013 -0.10562669 -0.04781659 -0.8741966
0001c0 f0 ae 66 bf fc b3 3c bf 85 18 13 bf ab 89 5f bf
       -0.90110683 -0.73712134 -0.5745929 -0.8731944
0001d0 fd a9 2d bf 9e 41 ea be bd 4c 00 be fb d8 49 be
       -0.67837507 -0.45753187 -0.12529273 -0.19711678
0001e0 e0 d1 f3 be d0 e7 74 bf a2 e6 ab be fe ce 89 be
       -0.4762106 -0.9566622 -0.33574396 -0.26915735
0001f0 ec 0c 16 be 62 72 6b bf 80 80 6e bf fe 3d 83 be
       -0.14653367 -0.9197141 -0.93164825 -0.25633234

action_model._continuous_distribution.log_sigma f4 [1, 2]
000000 b4 1a e4 be 9c 9a 3b be
       -0.44551623 -0.18320698

action_model._continuous_distribution.mu.weight f4 [2, 128]
000000 b2 fb 6e bd 9c d2 c7 3c 76 ff 72 3d fb d9 27 be
       -0.058345504 0.024392419 0.059325658 -0.16391747
000010 a3 31 19 3c ba a3 ac 3c 3b 0e e7 3d 85 17 1a bc
       0.009350213 0.021074165 0.11282011 -0.009405022
000020 35 e7 e3 3c 9b 4d 8f bb 38 8a 59 3d f2 0b 45 3c
       0.027820209 -0.004373265 0.05311033 0.012026774
000030 54 70 65 3e 44 7c 8d bc 11 54 03 3d 50 19 2c 3d
       0.22406131 -0.017271169 0.032062594 0.042016327
000040 7f db 24 3c 08 1f 06 bd 7a ce d4 3c 56 e0 84 bd
       0.010062098 -0.032744437 0.025977362 -0.06488101
000050 8d 32 10 3d db f8 27 be 8e 09 43 bd eb 55 63 3d
       0.03520446 -0.16403525 -0.047616534 0.05550186
000060 c8 a2 9f bd ab c3 d4 3c 72 24 bf 3b 3f bb 29 3d
       -0.0779472 0.025972208 0.005833202 0.041438337
000070 70 eb b7 bc ab cd 36 3d 7b 95 c8 ba 80 48 18 3b
       -0.022451133 0.044629734 -0.0015303338 0.0023236573
000080 bb 5a 58 3d 81 08 27 be 6e 8a 28 3e 4b bb 84 3d
       0.052820902 -0.16311838 0.16459057 0.06481036
000090 1e e7 07 3d 4b 7d 77 be f6 22 91 3c ef e0 8d 3d
       0.033179395 -0.24168889 0.017716866 0.06927668
0000a0 ce f1 0f 3c f1 dc 77 3d 68 21 73 3c 6b d9 cd bc
       0.008785678 0.06051344 0.014839508 -0.025128087
0000b0 e8 22 ee 3c 88 0e 2d 3d 1e cc c9 3d 34 d7 3a be
       0.029069379 0.042250186 0.098533854 -0.18246156
0000c0 a2 f0 9a 3c d8 d6 04 3c 5f 94 49 3d 59 b0 8b 3d
       0.01891357 0.008107863 0.049213763 0.06820745
0000d0 b0 75 f5 3d c8 48 fc bc a9 51 8e 3c aa 87 20 3c
       0.11985338 -0.030796424 0.017372923 0.00979797
0000e0 a6 cd 70 3e 27 ec 8e 3d 52 35 40 3d 73 5c 42 bb
       0.23515949 0.06978636 0.04692585 -0.0029657155
0000f0 c5 20 be 3c 78 48 43 be d0 c9 98 3c da 5b 1d 3e
       0.023208985 -0.19070613 0.01865092 0.1536707
000100 f1 1f 46 3d c3 96 1c bd 50 fc 9b bb cb 1b 6a 3d
       0.048370305 -0.038229715 -0.0047603026 0.05715541
000110 76 d5 bf bd 7e 72 4a 3e 10 73 73 3c f3 44 31 be
       -0.09366886 0.19770238 0.014858976 -0.17311458
000120 a5 c3 d2 3c ba 71 d4 bc 42 d5 fc 3d 56 11 be bc
       0.025728056 -0.025933135 0.12345363 -0.023201626
000130 2a 3f e2 bb 9a ae bd 3c e6 b6 3e 3d ec 79 54 3d
       -0.0069045024 0.023154546 0.046561144 0.051874086
000140 f5 72 74 3d 6d d1 d8 bc db fa 4d 3d 8f 15 c7 3c
       0.059679944 -0.02646705 0.050288063 0.024302272
000150 fa 51 32 bd 84 cc 9d 3e 32 c8 0b 3d 68 d7 a1 bc
       -0.04353521 0.30820096 0.034126468 -0.019756034
000160 70 fb 6e bd 9a 9c 92 bd 27 81 6b bd 3d c9 bd 3c
       -0.05834526 -0.07158776 -0.057496216 0.023167247
000170 d4 c1 e7 3c 0b c9 8f bd bd bd 78 bc 04 34 70 bd
       0.028290667 -0.07020768 -0.015181956 -0.058643356
000180 54 c6 8a ba 72 b2 b6 bc e9 c0 5f bd 59 fd 0a bc
       -0.0010587671 -0.022301886 -0.054627333 -0.008483254
000190 19 e5 12 3d 92 58 f2 3c 33 b1 1c be d9 47 e0 3c
       0.035863016 0.02958325 -0.15301971 0.02737801
0001a0 a3 63 c9 3d fc da a8 bb 14 bb 3d be bc 59 2e bc
       0.09833457 -0.005153058 -0.18528396 -0.0106415115
0001b0 2b 63 de bc 19 7b 8f 3c 4e c4 27 be 0b 1b ed 3c
       -0.027146896 0.017514752 -0.16383478 0.02894356
0001c0 00 d4 84 3d 61 15 b1 bc 6f 0b ea 3d b0 3f d9 3c
       0.06485748 -0.02161664 0.11427962 0.026519626
0001d0 17 d0 51 3d b9 e1 0b bd d6 47 a6 bb 9f 10 9c 3d
       0.05122384 -0.034150813 -0.0050744815 0.07620358
0001e0 f0 bc 81 be d6 4e b4 3b c7 b5 a8 3d d3 f0 0a 3e
       -0.2533946 0.005502562 0.08237796 0.1356843
0001f0 d7 b7 52 3d 15 2c 09 3d 83 23 06 bb de 19 39 3d
       0.051444855 0.033489306 -0.0020467944 0.045190684
000200 3c 94 86 bd b5 94 02 bd e2 c1 38 bd b1 98 2f bd
       -0.06571242 -0.0318801 -0.045106776 -0.042870227
000210 fb eb 2d 3e 92 bb 93 bd 11 56 29 3e 3b 8c d1 3c
       0.1698455 -0.072135106 0.16536738 0.025579562
000220 17 b6 5a bd e5 e3 26 3e 27 22 87 bd 82 c2 25 bd
       -0.05339631 0.16297872 -0.06598311 -0.0404687
000230 3a e9 fe 3c 96 7f 20 be 70 85 86 bd 42 12 5f bd
       0.03111707 -0.1567367 -0.0656842 -0.05446077
000240 30 a4 8a 3e b8 62 de bd c1 86 01 be e5 ef 81 be
       0.2707839 -0.10858673 -0.12649061 -0.25378338
000250 fa cb c6 bc ed 86 83 3e ed 00 99 be f0 bf fd bc
       -0.024267185 0.25688878 -0.2988352 -0.030975312
000260 ed dd e1 bd 67 bf 6c bd a3 d1 a5 be 81 79 2d 3e
       -0.11028657 -0.057799723 -0.32386503 0.16940881
000270 e7 45 25 3e 0f 25 fb bc dd 7e 2d 3e d4 b1 99 bd
       0.16139947 -0.03065732 0.16942926 -0.07504621
000280 27 4e ee bc 07 25 e6 3d b0 e6 44 be 16 13 75 3d
       -0.02909 0.11237531 -0.19228625 0.059832655
000290 01 7d d6 bd 9d 91 b7 3d fd 74 1b bd f4 a1 48 bc
       -0.10473061 0.089633204 -0.037953366 -0.012245644
0002a0 61 4d cb bd 2e 17 17 3d 9e 09 7d bd 1e da e9 bd
       -0.09926868 0.03688734 -0.06177675 -0.11418556
0002b0 a2 51 ab 3e 0d ee 37 be c6 00 21 3d 68 b4 5c be
       0.33460718 -0.17961903 0.03930738 -0.21553195
0002c0 ee 1f 32 bd 4a bc 69 bd 3c b5 20 bc 43 f5 87 bc
       -0.04348748 -0.057064332 -0.009808835 -0.016596442
0002d0 65 ec 7c bd 4d f6 b2 bd ca 1a 6b bd 6b 20 9b bd
       -0.06174888 -0.087383844 -0.057398595 -0.075745426
0002e0 ad c6 00 bd 6b 71 67 3d b4 a3 07 bd 07 fa 83 bd
       -0.031439472 0.05650465 -0.033115104 -0.06444173
0002f0 36 1d a5 3a a3 ad 5f be 20 5b 2d bd 46 12 f5 bd
       0.0012597207 -0.21843581 -0.04232323 -0.11966376
000300 98 60 9e 3e 29 ac 95 be 5f f1 0b 3e 44 7d 57 3d
       0.3093307 -0.2923291 0.13666295 0.052609697
000310 bd a5 fd 3c a4 a7 c7 3c 4b 76 b0 bd 2c 84 2e 3d
       0.03096282 0.02437193 -0.086163126 0.042606518
000320 1d 9e 80 3e 45 36 30 3d cb 51 44 3d ec 51 78 bd
       0.2512063 0.043020505 0.047929566 -0.060625
000330 cb 16 ab bd e3 ab 0f bd 21 c2 70 bd ed 90 3f bd
       -0.08353957 -0.035076033 -0.058778886 -0.04676907
000340 d4 7f 6d bd 8c ad 1b be 0b f4 6d 3e b6 38 44 3e
       -0.057983235 -0.15202922 0.23237626 0.19162259
000350 51 de c0 bd 97 96 f4 3d cd b6 72 bd c8 ef 9e bd
       -0.094174035 0.11942785 -0.059256364 -0.077605784
000360 cd 68 51 3e 4d 5f b5 3e 81 27 d9 3d dd 62 ad bd
       0.20450135 0.3542427 0.10603238 -0.08466122
000370 47 51 5e bc 4e 76 5e be 94 ba 9a 3d 97 bc 3a 3d
       -0.013569183 -0.21724817 0.07555118 0.04559001
000380 55 1e 5d bd a4 dc 0e 3e a4 6e 2f 3e 25 60 85 3d
       -0.053984005 0.13951355 0.1713205 0.06512479
000390 b1 c3 f3 bd 51 a5 e4 3d da 9e 73 3e 4a 7f 95 bd
       -0.119025595 0.11164344 0.23791066 -0.07299669
0003a0 91 75 88 3d 37 3f f6 3d 75 51 89 be 66 9e ac bd
       0.06663049 0.12023776 -0.2681996 -0.084286496
0003b0 d8 fc e2 3d 70 6a 16 3e 72 8a 53 3e 39 97 68 bd
       0.11083382 0.1468904 0.20658281 -0.056784842
0003c0 3b 16 08 bd 76 f3 13 be f2 c5 ab bd f8 23 79 bd
       -0.033224326 -0.14448342 -0.083873644 -0.060825318
0003d0 64 08 29 3d 67 c8 6b 3e cd a8 48 be f3 c2 ff 3c
       0.041267768 0.23025666 -0.19595642 0.031220889
0003e0 58 b3 b0 3b bf 1a 8c bd 6b a9 3a bd e5 e1 92 3d
       0.005392473 -0.06841039 -0.045571726 0.07171992
0003f0 b7 8e ef be 91 c4 32 bd 78 9c 63 bd b7 5a c6 3d
       -0.4678857 -0.04364449 -0.055569142 0.09685271

action_model._continuous_distribution.mu.bias f4 [2]
000000 84 2b 09 bf 92 9c 3c be
       -0.53582025 -0.18419102

exp_avg f4 [128, 56]
000000 94 a4 86 b8 20 2c 13 2a e2 65 46 b8 48 2d a2 b5
       -6.420273e-05 1.3071532e-13 -4.7301764e-05 -1.2083119e-06
000010 fa 56 a7 b5 94 a4 86 b8 20 2c 13 2a e2 65 46 b8
       -1.2467783e-06 -6.420273e-05 1.3071532e-13 -4.7301764e-05
000020 9e 0e 32 b8 a3 cf 12 2a 81 27 42 38 d6 1b 11 b7
       -4.245212e-05 1.3039443e-13 4.6289995e-05 -8.649155e-06
000030 89 af 2d 29 c4 d8 46 b7 5f 79 73 b4 28 e9 99 a6
       3.856597e-14 -1.1852189e-05 -2.2675293e-07 -1.0679705e-15
000040 ac 9a bc b5 31 ca 60 95 c7 5e 2b 87 d0 2f 85 95
       -1.4052107e-06 -4.539594e-26 -1.2892463e-34 -5.379371e-26
000050 04 00 00 00 04 00 00 00 04 00 00 00 04 00 00 00
       6e-45 6e-45 6e-45 6e-45
000060 04 00 00 80 04 00 00 00 04 00 00 00 04 00 00 00
       -6e-45 6e-45 6e-45 6e-45
000070 04 00 00 00 04 00 00 80 04 00 00 80 04 00 00 80
       6e-45 -6e-45 -6e-45 -6e-45
000080 00 00 00 00 00 00 00 00 00 00 00 00 00 00 00 00
       0.0 0.0 0.0 0.0
000090 00 00 00 00 00 00 00 00 00 00 00 00 00 00 00 00
       0.0 0.0 0.0 0.0
0000a0 00 00 00 00 00 00 00 00 00 00 00 00 00 00 00 00
       0.0 0.0 0.0 0.0
0000b0 00 00 00 00 00 00 00 00 00 00 00 00 00 00 00 00
       0.0 0.0 0.0 0.0
0000c0 00 00 00 00 00 00 00 00 00 00 00 00 00 00 00 00
       0.0 0.0 0.0 0.0
0000d0 00 00 00 00 00 00 00 00 00 00 00 00 00 00 00 00
       0.0 0.0 0.0 0.0
0000e0 22 46 c0 39 ee 3f 21 aa fa 4a 5f b9 ee a6 0b 30
       0.00036673347 -1.4321853e-13 -0.00021294868 5.0805127e-10
0000f0 8c b8 ff 2f 22 46 c0 39 ee 3f 21 aa fa 4a 5f b9
       4.6515358e-10 0.00036673347 -1.4321853e-13 -0.00021294868
000100 e4 0d b7 38 e9 d9 39 aa b8 48 2f b9 9d 38 bd 36
       8.728707e-05 -1.6506904e-13 -0.0001671639 5.6392296e-06
000110 69 b0 a7 27 a4 2a ac b6 b6 79 8b b6 ac 7f 2e a8
       4.6543076e-15 -5.1309635e-06 -4.156692e-06 -9.686625e-15
000120 d5 46 f9 b5 03 d3 20 1a 0b 36 f5 0b 33 93 3e 1a
       -1.857256e-06 3.3257678e-23 9.445188e-32 3.9409986e-23
000130 04 00 00 80 04 00 00 00 04 00 00 00 04 00 00 80
       -6e-45 6e-45 6e-45 -6e-45
000140 04 00 00 80 04 00 00 80 04 00 00 80 04 00 00 80
       -6e-45 -6e-45 -6e-45 -6e-45
000150 04 00 00 80 04 00 00 80 04 00 00 80 04 00 00 80
       -6e-45 -6e-45 -6e-45 -6e-45
000160 00 00 00 00 00 00 00 00 00 00 00 00 00 00 00 00
       0.0 0.0 0.0 0.0
000170 00 00 00 00 00 00 00 00 00 00 00 00 00 00 00 00
       0.0 0.0 0.0 0.0
000180 00 00 00 00 00 00 00 00 00 00 00 00 00 00 00 00
       0.0 0.0 0.0 0.0
000190 00 00 00 00 00 00 00 00 00 00 00 00 00 00 00 00
       0.0 0.0 0.0 0.0
0001a0 00 00 00 00 00 00 00 00 00 00 00 00 00 00 00 00
       0.0 0.0 0.0 0.0
0001b0 00 00 00 00 00 00 00 00 00 00 00 00 00 00 00 00
       0.0 0.0 0.0 0.0
0001c0 80 9b 86 39 cf 91 7a 2b 1c da 96 3a 0d a8 7c b5
       0.00025674328 8.902019e-13 0.0011509093 -9.412186e-07
0001d0 fa a1 ae b5 80 9b 86 39 cf 91 7a 2b 1c da 96 3a
       -1.3011152e-06 0.00025674328 8.902019e-13 0.0011509093
0001e0 50 6b ce 38 9d d1 4c 2b 78 03 b9 3a 5b 4e 66 38
       9.842834e-05 7.2766256e-13 0.0014115414 5.4909247e-05
0001f0 b6 2a 1f 2b 25 10 4d 38 21 27 76 b8 c8 54 31 2a
       5.654742e-13 4.8890844e-05 -5.8687412e-05 1.5750172e-13
000200 e2 66 e4 39 1a 05 98 b5 79 c9 67 a7 59 24 b4 b5
       0.00043564202 -1.1326367e-06 -3.2166908e-15 -1.3421624e-06
000210 04 00 00 80 04 00 00 80 04 00 00 80 04 00 00 00
       -6e-45 -6e-45 -6e-45 6e-45
000220 04 00 00 00 04 00 00 00 04 00 00 00 04 00 00 00
       6e-45 6e-45 6e-45 6e-45
000230 04 00 00 00 04 00 00 80 04 00 00 80 04 00 00 80
       6e-45 -6e-45 -6e-45 -6e-45
000240 00 00 00 00 00 00 00 00 00 00 00 00 00 00 00 00
       0.0 0.0 0.0 0.0
000250 00 00 00 00 00 00 00 00 00 00 00 00 00 00 00 00
       0.0 0.0 0.0 0.0
000260 00 00 00 00 00 00 00 00 00 00 00 00 00 00 00 00
       0.0 0.0 0.0 0.0
000270 00 00 00 00 00 00 00 00 00 00 00 00 00 00 00 00
       0.0 0.0 0.0 0.0
000280 00 00 00 00 00 00 00 00 00 00 00 00 00 00 00 00
       0.0 0.0 0.0 0.0
000290 00 00 00 00 00 00 00 00 00 00 00 00 00 00 00 00
       0.0 0.0 0.0 0.0
0002a0 98 6a 17 bb 46 a3 6a 2b 0a 3b 80 3a 55 93 c1 b7
       -0.0023104306 8.336009e-13 0.000978322 -2.3076e-05
0002b0 4a 17 c8 b7 98 6a 17 bb 46 a3 6a 2b 0a 3b 80 3a
       -2.3852703e-05 -0.0023104306 8.336009e-13 0.000978322
0002c0 55 c9 18 bb da 01 46 2b 25 61 40 39 1b d2 c4 36
       -0.0023313363 7.03463e-13 0.00018346736 5.8657147e-06
0002d0 a7 94 72 aa 50 ae f3 b7 59 27 b2 b8 41 2f 65 aa
       -2.1545492e-13 -2.9049028e-05 -8.4950305e-05 -2.035568e-13
0002e0 8b 48 3d b8 ce 30 a7 34 02 eb 7e 26 7f 1e c6 34
       -4.5128672e-05 3.1141684e-07 8.844245e-16 3.6902563e-07
0002f0 04 00 00 00 04 00 00 00 04 00 00 00 04 00 00 80
       6e-45 6e-45 6e-45 -6e-45
000300 04 00 00 80 04 00 00 80 04 00 00 80 04 00 00 80
       -6e-45 -6e-45 -6e-45 -6e-45
000310 04 00 00 80 04 00 00 00 04 00 00 00 04 00 00 00
       -6e-45 6e-45 6e-45 6e-45
000320 00 00 00 00 00 00 00 00 00 00 00 00 00 00 00 00
       0.0 0.0 0.0 0.0
000330 00 00 00 00 00 00 00 00 00 00 00 00 00 00 00 00
       0.0 0.0 0.0 0.0
000340 00 00 00 00 00 00 00 00 00 00 00 00 00 00 00 00
       0.0 0.0 0.0 0.0
000350 00 00 00 00 00 00 00 00 00 00 00 00 00 00 00 00
       0.0 0.0 0.0 0.0
000360 00 00 00 00 00 00 00 00 00 00 00 00 00 00 00 00
       0.0 0.0 0.0 0.0
000370 00 00 00 00 00 00 00 00 00 00 00 00 00 00 00 00
       0.0 0.0 0.0 0.0
000380 ce 95 fe 39 45 37 ea 2a 35 98 d4 39 c2 06 86 b4
       0.00048558268 4.16051e-13 0.00040549194 -2.4964362e-07
000390 63 56 ba b4 ce 95 fe 39 45 37 ea 2a 35 98 d4 39
       -3.4708054e-07 0.00048558268 4.16051e-13 0.00040549194
0003a0 7b 7e 32 38 5d a0 fb 2a 4c f7 33 3a 00 f6 9a b7
       4.25563e-05 4.469783e-13 0.0006865158 -1.8472783e-05
0003b0 f5 14 07 29 a5 58 fa b7 db 94 01 b8 f7 59 c5 29
       2.99942e-14 -2.98436e-05 -3.089463e-05 8.764164e-14
0003c0 89 25 5a 39 6a be 37 b3 14 14 0c a5 04 bc 59 b3
       0.00020804083 -4.278119e-08 -1.2149867e-16 -5.069525e-08
0003d0 04 00 00 80 04 00 00 00 04 00 00 80 04 00 00 80
       -6e-45 6e-45 -6e-45 -6e-45
0003e0 04 00 00 00 04 00 00 80 04 00 00 00 04 00 00 00
       6e-45 -6e-45 6e-45 6e-45
0003f0 04 00 00 00 04 00 00 00 04 00 00 00 04 00 00 00
       6e-45 6e-45 6e-45 6e-45

exp_avg_sq f4 [128, 56]
000000 d4 61 3d 35 00 c6 16 18 9c 7f 88 35 9e c9 4f 2c
       7.0550345e-07 1.948701e-24 1.0169929e-06 2.952839e-12
000010 5b da 78 2c d4 61 3d 35 00 c6 16 18 9c 7f 88 35
       3.5364131e-12 7.0550345e-07 1.948701e-24 1.0169929e-06
000020 32 88 43 35 9d a2 ee 17 37 c4 ae 35 d0 86 e4 33
       7.284135e-07 1.5421439e-24 1.3021116e-06 1.06415996e-07
000030 48 0c a1 17 b4 61 59 32 e1 de 34 2d 3a 95 5a 11
       1.0407481e-24 1.26532775e-08 1.02813045e-11 1.7243152e-28
000040 c7 33 25 2f f4 01 00 00 f4 01 00 00 f4 01 00 00
       1.5025058e-10 7e-43 7e-43 7e-43
000050 f4 01 00 00 f4 01 00 00 f4 01 00 00 f4 01 00 00
       7e-43 7e-43 7e-43 7e-43
000060 f4 01 00 00 f4 01 00 00 f4 01 00 00 f4 01 00 00
       7e-43 7e-43 7e-43 7e-43
000070 f4 01 00 00 f4 01 00 00 f4 01 00 00 f4 01 00 00
       7e-43 7e-43 7e-43 7e-43
000080 00 00 00 00 00 00 00 00 00 00 00 00 00 00 00 00
       0.0 0.0 0.0 0.0
000090 00 00 00 00 00 00 00 00 00 00 00 00 00 00 00 00
       0.0 0.0 0.0 0.0
0000a0 00 00 00 00 00 00 00 00 00 00 00 00 00 00 00 00
       0.0 0.0 0.0 0.0
0000b0 00 00 00 00 00 00 00 00 00 00 00 00 00 00 00 00
       0.0 0.0 0.0 0.0
0000c0 00 00 00 00 00 00 00 00 00 00 00 00 00 00 00 00
       0.0 0.0 0.0 0.0
0000d0 00 00 00 00 00 00 00 00 00 00 00 00 00 00 00 00
       0.0 0.0 0.0 0.0
0000e0 00 7e e7 35 57 27 9f 17 97 0d b9 35 d1 bc 1c 26
       1.7247512e-06 1.0285065e-24 1.3787529e-06 5.4379266e-16
0000f0 76 a0 1c 26 00 7e e7 35 57 27 9f 17 97 0d b9 35
       5.434084e-16 1.7247512e-06 1.0285065e-24 1.3787529e-06
000100 71 e4 bc 34 14 79 25 17 a5 e3 21 35 11 97 c4 32
       3.5183942e-07 5.3467197e-25 6.030844e-07 2.28861e-08
000110 5a 58 8d 16 a0 b1 96 31 11 54 ed 2e 5c 74 aa 12
       2.2835536e-25 4.385768e-09 1.07924454e-10 1.0757193e-27
000120 b9 ee 59 30 80 62 09 00 f4 01 00 00 52 3b 0d 00
       7.9283385e-10 8.61855e-40 7e-43 1.215142e-39
000130 f4 01 00 00 f4 01 00 00 f4 01 00 00 f4 01 00 00
       7e-43 7e-43 7e-43 7e-43
000140 f4 01 00 00 f4 01 00 00 f4 01 00 00 f4 01 00 00
       7e-43 7e-43 7e-43 7e-43
000150 f4 01 00 00 f4 01 00 00 f4 01 00 00 f4 01 00 00
       7e-43 7e-43 7e-43 7e-43
000160 00 00 00 00 00 00 00 00 00 00 00 00 00 00 00 00
       0.0 0.0 0.0 0.0
000170 00 00 00 00 00 00 00 00 00 00 00 00 00 00 00 00
       0.0 0.0 0.0 0.0
000180 00 00 00 00 00 00 00 00 00 00 00 00 00 00 00 00
       0.0 0.0 0.0 0.0
000190 00 00 00 00 00 00 00 00 00 00 00 00 00 00 00 00
       0.0 0.0 0.0 0.0
0001a0 00 00 00 00 00 00 00 00 00 00 00 00 00 00 00 00
       0.0 0.0 0.0 0.0
0001b0 00 00 00 00 00 00 00 00 00 00 00 00 00 00 00 00
       0.0 0.0 0.0 0.0
0001c0 9c 21 f9 37 6b 7a 05 1c 21 8a e9 38 82 ff f0 31
       2.9698764e-05 4.416423e-22 0.00011136034 7.013967e-09
0001d0 73 5c 29 32 9c 21 f9 37 6b 7a 05 1c 21 8a e9 38
       9.858115e-09 2.9698764e-05 4.416423e-22 0.00011136034
0001e0 c7 46 2d 39 2a be 03 1c b1 0a d3 39 cd 84 44 38
       0.00016524932 4.3590045e-22 0.00040253022 4.6853722e-05
0001f0 4d 80 25 1c 0a bf 1d 38 05 38 91 37 2e 1a 5e 1b
       5.4759745e-22 3.7609636e-05 1.7311433e-05 1.8371869e-22
000200 70 37 48 38 2d f9 33 2d b2 32 d1 10 fa b7 7c 2d
       4.7735346e-05 1.02303e-11 8.2514073e-29 1.43653926e-11
000210 f4 01 00 00 f4 01 00 00 f4 01 00 00 f4 01 00 00
       7e-43 7e-43 7e-43 7e-43
000220 f4 01 00 00 f4 01 00 00 f4 01 00 00 f4 01 00 00
       7e-43 7e-43 7e-43 7e-43
000230 f4 01 00 00 f4 01 00 00 f4 01 00 00 f4 01 00 00
       7e-43 7e-43 7e-43 7e-43
000240 00 00 00 00 00 00 00 00 00 00 00 00 00 00 00 00
       0.0 0.0 0.0 0.0
000250 00 00 00 00 00 00 00 00 00 00 00 00 00 00 00 00
       0.0 0.0 0.0 0.0
000260 00 00 00 00 00 00 00 00 00 00 00 00 00 00 00 00
       0.0 0.0 0.0 0.0
000270 00 00 00 00 00 00 00 00 00 00 00 00 00 00 00 00
       0.0 0.0 0.0 0.0
000280 00 00 00 00 00 00 00 00 00 00 00 00 00 00 00 00
       0.0 0.0 0.0 0.0
000290 00 00 00 00 00 00 00 00 00 00 00 00 00 00 00 00
       0.0 0.0 0.0 0.0
0002a0 ca 3d 76 38 2f 64 20 1a a8 f4 5b 38 7f 55 7b 30
       5.8708516e-05 3.3168152e-23 5.2441523e-05 9.1434765e-10
0002b0 f6 d5 95 30 ca 3d 76 38 2f 64 20 1a a8 f4 5b 38
       1.0901988e-09 5.8708516e-05 3.3168152e-23 5.2441523e-05
0002c0 0c 0d 50 38 8f db 08 1a a7 03 36 38 e5 1a d7 33
       4.9603215e-05 2.83015e-23 4.3395583e-05 1.001661e-07
0002d0 19 5d 51 18 c4 9f 29 36 53 1c b9 32 5d 25 4d 16
       2.705962e-24 2.5275958e-06 2.1549715e-08 1.6571558e-25
0002e0 5b 0b a8 33 2f 12 65 2f 2f 22 05 13 a4 d4 a0 2f
       7.825175e-08 2.0833889e-10 1.6803814e-27 2.925492e-10
0002f0 f4 01 00 00 f4 01 00 00 f4 01 00 00 f4 01 00 00
       7e-43 7e-43 7e-43 7e-43
000300 f4 01 00 00 f4 01 00 00 f4 01 00 00 f4 01 00 00
       7e-43 7e-43 7e-43 7e-43
000310 f4 01 00 00 f4 01 00 00 f4 01 00 00 f4 01 00 00
       7e-43 7e-43 7e-43 7e-43
000320 00 00 00 00 00 00 00 00 00 00 00 00 00 00 00 00
       0.0 0.0 0.0 0.0
000330 00 00 00 00 00 00 00 00 00 00 00 00 00 00 00 00
       0.0 0.0 0.0 0.0
000340 00 00 00 00 00 00 00 00 00 00 00 00 00 00 00 00
       0.0 0.0 0.0 0.0
000350 00 00 00 00 00 00 00 00 00 00 00 00 00 00 00 00
       0.0 0.0 0.0 0.0
000360 00 00 00 00 00 00 00 00 00 00 00 00 00 00 00 00
       0.0 0.0 0.0 0.0
000370 00 00 00 00 00 00 00 00 00 00 00 00 00 00 00 00
       0.0 0.0 0.0 0.0
000380 7d f4 28 37 9f 0f 0b 1b ea 7c 0b 39 9f 2b cb 30
       1.0070505e-05 1.1502858e-22 0.00013302607 1.4782592e-09
000390 5a a6 15 31 7d f4 28 37 9f 0f 0b 1b ea 7c 0b 39
       2.1776914e-09 1.0070505e-05 1.1502858e-22 0.00013302607
0003a0 68 be 08 36 1a 77 fa 1a c0 ce 5d 39 3f c7 10 36
       2.037641e-06 1.03589996e-22 0.00021153223 2.1573649e-06
0003b0 83 10 12 1b f0 e4 3d 38 a8 04 cd 36 d5 6f 17 1b
       1.2082172e-22 4.5274326e-05 6.110018e-06 1.2526562e-22
0003c0 75 ed e7 38 a8 4a 27 29 07 9f c2 0c 4b e9 6a 29
       0.00011059168 3.7146203e-14 2.9986144e-31 5.2160787e-14
0003d0 f4 01 00 00 f4 01 00 00 f4 01 00 00 f4 01 00 00
       7e-43 7e-43 7e-43 7e-43
0003e0 f4 01 00 00 f4 01 00 00 f4 01 00 00 f4 01 00 00
       7e-43 7e-43 7e-43 7e-43
0003f0 f4 01 00 00 f4 01 00 00 f4 01 00 00 f4 01 00 00
       7e-43 7e-43 7e-43 7e-43

exp_avg f4 [128]
000000 cb 43 c4 b6 a8 4a d7 36 d7 f8 4b b8 65 4c 1c b8
       -5.8491473e-06 6.4161904e-06 -4.863072e-05 -3.7264446e-05
000010 b3 2d 9c b7 b0 55 1c b8 15 1c a9 b7 8e a2 be 36
       -1.861793e-05 -3.72731e-05 -2.0159447e-05 5.681365e-06
000020 78 01 0a 38 71 37 01 b7 06 48 3a b7 1d 21 a0 37
       3.290313e-05 -7.701908e-06 -1.1103233e-05 1.9088906e-05
000030 c9 34 31 b6 7e 44 fe b7 6d 30 a4 b7 83 51 aa b5
       -2.640578e-06 -3.0311054e-05 -1.9572873e-05 -1.268971e-06
000040 2b 28 e9 b7 e2 00 00 37 2a 3c 17 37 ce 96 aa 37
       -2.779447e-05 7.6296e-06 9.014309e-06 2.0335803e-05
000050 38 05 45 38 2e 3f 67 b9 e0 ad 31 38 f0 2f 34 b6
       4.697332e-05 -0.00022053413 4.2362022e-05 -2.6849993e-06
000060 f5 52 55 b8 05 2b 8a 39 b3 79 6e 39 c1 c9 d0 b8
       -5.0860417e-05 0.00026353463 0.00022742785 -9.9557925e-05
000070 03 82 de 37 75 f5 1f b7 1e 18 13 b7 b7 ef 04 38
       2.6525004e-05 -9.534288e-06 -8.767498e-06 3.1694504e-05
000080 aa b1 0f b8 fd 86 a7 36 ae 10 3c 37 a9 f3 12 b7
       -3.425932e-05 4.9927025e-06 1.1209557e-05 -8.75901e-06
000090 55 6d 3f 37 62 e5 6f b6 87 da 06 37 c7 f1 1a b6
       1.1409943e-05 -3.5747294e-06 8.037902e-06 -2.3088521e-06
0000a0 31 f8 3d b7 87 91 fd b6 d2 9d e8 37 5e e9 6f b7
       -1.1323064e-05 -7.556929e-06 2.7730046e-05 -1.4299845e-05
0000b0 1d 8e f2 37 bb a5 c6 b5 26 c7 30 36 41 c8 a6 37
       2.8914825e-05 -1.4800383e-06 2.6341963e-06 1.9881993e-05
0000c0 1a b5 b5 b6 fb 16 e0 37 4e c9 40 39 a4 2d 4c 38
       -5.4153033e-06 2.6713582e-05 0.00018385539 4.8679896e-05
0000d0 da 25 d0 b6 4a c9 56 35 3d 57 5e 39 5f 17 ff b6
       -6.2032896e-06 8.0014127e-07 0.00021204069 -7.602313e-06
0000e0 11 ba de 37 24 93 af b6 ee 1b 9a b6 67 02 67 3a
       2.6551106e-05 -5.232536e-06 -4.592809e-06 0.00088123087
0000f0 64 11 a2 36 b0 fc 51 b4 25 47 0f b6 6b 38 fb 39
       4.8300008e-06 -1.9556569e-07 -2.1350072e-06 0.00047916485
000100 08 de 06 b7 fe cb 36 36 16 f1 0e b8 c9 f5 ba 37
       -8.038718e-06 2.7238852e-06 -3.4079967e-05 2.228738e-05
000110 c6 1c 35 b6 ec 89 d5 b7 e7 05 14 38 62 a8 41 39
       -2.698785e-06 -2.5455804e-05 3.5291447e-05 0.00018468642
000120 0b b4 87 b8 65 aa 1c 37 8c 7d ac 37 cb 72 4d b6
       -6.470837e-05 9.337998e-06 2.056246e-05 -3.0614199e-06
000130 1a 81 01 ba 9d 4a bf 37 7b 2e 71 39 23 95 fb b6
       -0.0004940197 2.2803719e-05 0.00023000866 -7.4977447e-06
000140 e9 08 ae b6 b1 24 a7 b7 df 6b be b8 a9 b8 77 b7
       -5.1866414e-06 -1.9925037e-05 -9.0799986e-05 -1.4765342e-05
000150 4c 0d 9f b8 e0 aa b6 b6 ef 6b 12 36 55 7f b1 36
       -7.5841876e-05 -5.443915e-06 2.181852e-06 5.2898345e-06
000160 66 ab 29 36 17 62 db 38 2c 8c c1 b7 e2 7c f4 b6
       2.528273e-06 0.000104610044 -2.3072665e-05 -7.286305e-06
000170 df 5d 99 b6 ea f7 50 3a e1 33 ee 37 f5 cf df 36
       -4.5706834e-06 0.00079715124 2.8395969e-05 6.6701273e-06
000180 70 60 26 b8 af 6f 3a 36 4a 5a a7 b4 7b b6 dc 37
       -3.96673e-05 2.7781168e-06 -3.1171868e-07 2.6311018e-05
000190 71 7d 4b 39 4d ed 72 35 e7 72 fb b6 6c de 87 b8
       0.00019406319 9.0497343e-07 -7.4937593e-06 -6.478731e-05
0001a0 48 fd ba b8 a1 57 90 b7 7a 9d 87 b6 63 86 64 b7
       -8.9163485e-05 -1.7206943e-05 -4.041646e-06 -1.3621148e-05
0001b0 77 41 f2 37 58 5e 32 b7 45 ad d9 35 01 47 6c 39
       2.8879133e-05 -1.0631593e-05 1.6218188e-06 0.00022533165
0001c0 e1 1d 82 b7 08 8b fa b7 9d 37 1a 39 92 8c c1 b7
       -1.5511121e-05 -2.9867064e-05 0.00014707302 -2.3072851e-05
0001d0 60 71 89 37 fd fc 77 36 2d 24 37 b5 cd 47 ee b7
       1.6384467e-05 3.6953127e-06 -6.8225455e-07 -2.8405246e-05
0001e0 78 c7 09 38 a7 d1 00 b5 a2 2e 05 b7 36 ea 5f 36
       3.2849115e-05 -4.79888e-07 -7.938275e-06 3.3365918e-06
0001f0 dd d4 80 b8 b1 44 03 38 c8 ed 9f 36 69 18 65 b7
       -6.1431645e-05 3.1296808e-05 4.7662506e-06 -1.3655147e-05

exp_avg_sq f4 [128]
000000 fc 26 85 31 b4 ec 0c 31 f4 d8 67 35 0d 93 8e 33
       3.8752415e-09 2.0507231e-09 8.6369914e-07 6.639139e-08
000010 40 38 77 34 06 ba 9e 33 97 18 2c 33 9b 5f 31 34
       2.3024131e-07 7.391286e-08 4.0069235e-08 1.651919e-07
000020 ab a8 1f 34 b9 02 1e 32 04 d9 a3 34 bd 1d cb 33
       1.486939e-07 9.1974295e-09 3.0519016e-07 9.4583335e-08
000030 e6 ad d0 31 ba 91 96 32 cc 5f 3a 33 8d 59 b1 30
       6.0733667e-09 1.7528567e-08 4.3393626e-08 1.2903897e-09
000040 ed 2d e2 31 73 5b c3 34 97 f5 1b 35 da 70 03 33
       6.582687e-09 3.6388118e-07 5.809938e-07 3.0603452e-08
000050 7c e4 b4 33 35 ef 1c 37 85 1a 5b 33 fe 08 22 32
       8.423464e-08 9.354019e-06 5.101403e-08 9.431686e-09
000060 57 69 d0 33 92 75 ad 36 14 ef 45 36 eb 74 72 34
       9.704916e-08 5.1694888e-06 2.949445e-06 2.2580541e-07
000070 6e c6 f9 33 12 58 0b 32 f7 b1 4d 32 77 ec da 32
       1.163106e-07 8.11089e-09 1.1973035e-08 2.5486072e-08
000080 15 d2 b8 34 16 1a c5 30 67 bd 0f 34 0e a6 0a 33
       3.4425526e-07 1.4341051e-09 1.3386817e-07 3.2281655e-08
000090 36 56 de 31 10 5c c1 32 00 41 14 33 d4 0a 04 31
       6.4708514e-09 2.2510022e-08 3.4518052e-08 1.9214683e-09
0000a0 9a db 67 31 b8 02 95 31 f9 ea 9b 34 01 30 88 34
       3.3739753e-09 4.33678e-09 2.9041965e-07 2.5366901e-07
0000b0 da f3 5e 33 83 4d 58 33 5d 9c 26 32 d0 30 b3 32
       5.1910185e-08 5.0361916e-08 9.698025e-09 2.086054e-08
0000c0 29 58 2c 35 2c 11 1c 35 e5 fd de 37 9e f2 cf 33
       6.4203283e-07 5.8139517e-07 2.6582691e-05 9.6833205e-08
0000d0 20 df 19 32 f4 7d 81 34 fb 41 69 37 ef a1 69 32
       8.956505e-09 2.4119765e-07 1.39032445e-05 1.3599204e-08
0000e0 bf 8e 4e 35 d3 ff af 31 82 3e 82 31 b6 7e 2a 38
       7.6948703e-07 5.122254e-09 3.7906043e-09 4.0649167e-05
0000f0 e1 06 07 32 d3 b2 66 31 ea f5 40 31 59 09 78 37
       7.859598e-09 3.3571055e-09 2.8079463e-09 1.4784128e-05
000100 d4 f7 1e 33 12 15 86 31 8b 72 7e 33 a0 ac 26 34
       3.701264e-08 3.9023087e-09 5.924316e-08 1.5522755e-07
000110 6d 10 57 33 96 cf 8b 34 80 0d e8 32 43 8e 0f 36
       5.0073528e-08 2.6041806e-07 2.7014494e-08 2.1391468e-06
000120 c0 d5 af 34 87 15 97 32 db b6 79 32 c0 27 30 33
       3.2751814e-07 1.7588503e-08 1.4535284e-08 4.1014346e-08
000130 1f 53 11 36 e8 64 38 32 75 42 1d 36 91 22 97 33
       2.1655067e-06 1.0733153e-08 2.3433506e-06 7.037773e-08
000140 e0 5a 0c 32 59 23 81 34 06 06 57 35 3f 41 0c 32
       8.169735e-09 2.405384e-07 8.0102507e-07 8.163908e-09
000150 bf 35 7b 34 76 ec c8 32 fb 13 a8 31 65 a5 e9 32
       2.339575e-07 2.3390594e-08 4.891715e-09 2.7199983e-08
000160 e2 41 b5 32 df 33 1e 35 c4 74 f0 33 6b 76 86 32
       2.1101133e-08 5.893507e-07 1.11971104e-07 1.5653503e-08
000170 e1 e6 e1 33 6c e3 3f 38 d3 a8 8a 33 52 df 9c 30
       1.05193756e-07 4.574975e-05 6.456835e-08 1.1413965e-09
000180 ad ab 9d 32 ff 6a 22 32 a1 56 fd 32 8a 08 73 33
       1.8355275e-08 9.453969e-09 2.949247e-08 5.6585613e-08
000190 71 b1 71 36 73 16 95 32 77 1e 97 33 73 dd b1 34
       3.6015083e-06 1.7356092e-08 7.037027e-08 3.3129945e-07
0001a0 af 06 74 35 67 8f 68 33 b4 92 dc 31 b7 4e 49 32
       9.090681e-07 5.4147133e-08 6.419521e-09 1.17176375e-08
0001b0 f7 95 cc 33 ce ae 0e 33 d7 9e 9f 31 a3 4f 90 36
       9.526769e-08 3.3220935e-08 4.645567e-09 4.3008054e-06
0001c0 86 8f 88 33 e7 2f f7 32 c5 60 39 36 69 04 47 36
       6.3591e-08 2.8776368e-08 2.7623475e-06 2.9655878e-06
0001d0 1b ad f1 31 cf 65 32 32 08 a4 c4 30 be 49 8d 33
       7.033703e-09 1.0384112e-08 1.4307497e-09 6.579238e-08
0001e0 95 15 2f 34 08 85 e3 32 78 0f 19 31 c1 81 e5 33
       1.6305997e-07 2.6486774e-08 2.2273223e-09 1.06872456e-07
0001f0 e5 f5 7e 33 99 9b d7 32 0f 69 66 31 17 2c 9c 32
       5.9362623e-08 2.5100052e-08 3.3529124e-09 1.818084e-08
