results/changed_code/DroneAgent/DroneAgent-999971.onnx (onnx, 13408 bytes, 9 tensors)

network_body.observation_encoder.processors.0.normalizer.running_mean f4 [26]
00000000: bdfa 3c40 ba76 a73b 9564 963e 7d33 c9b9
00000010: e934 d338 bdfa 3c40 ba76 a73b 9564 963e
00000020: 89af 873f eba1 c039 2b23 4f3e 0000 0000
00000030: 0000 0000 0000 0000 0000 0000 0000 0000
00000040: 0000 0000 0000 0000 0000 0000 0000 0000
00000050: 0000 0000 0000 0000 0000 0000 0000 0000
00000060: 0000 0000 0000 0000
2.9528039 0.005110589 0.29373613 -0.0003837607 0.00010071119 2.9528039 0.005110589 0.29373613
1.0600444 0.00036741732 0.2022826 0.0 0.0 0.0 0.0 0.0
0.0 0.0 0.0 0.0 0.0 0.0 0.0 0.0
0.0 0.0

network_body._body_endoder.seq_layers.0.weight f4 [32, 26]
00000000: 4fab 28bd 25d6 62be c315 783d 9875 80be
00000010: 1394 c33d 53ff c7be 2489 75bd 4159 4abe
00000020: 0e2d 52bd 958c ae3e 9670 6abd 2bd3 613e
00000030: f78c 5bbe 5660 563e a43f 473e c80c 2cbd
00000040: 5a65 963e 0e5b 353e dd1b d9bd 7570 9bbd
00000050: 4e0e 843e 200e e8bc 9cab 613e 5f0e 313d
00000060: 2e2f 30be a4cb 18bd de33 0b3e a305 6f3e
00000070: 948a 023e f695 8ebe a4cc a93e b98f 36be
00000080: 70bc 0a3e 29b9 a13c efec b7be 5ab8 19bd
00000090: 76f2 85bd 20a5 f23c 9a2a 59be cd6a 173d
000000a0: 08e2 723e 97db 7fbe 988b 43be fcb1 283e
000000b0: 3f59 bc3c aefa 8dbe feed 41bd 0747 a2bd
000000c0: 0cc4 aa3b eb30 04be cb9f a73d ead5 7fbe
000000d0: 3e9c 8b3e b393 043e 72c2 95be 340b 423e
000000e0: aa37 823d ba07 983d fcd6 c1be b101 083f
000000f0: 5458 803e a2b1 a5bb 205f 68bc 9a6e d7be
00000100: 773b 96be 865f a23e 674a 2bbe aa3b ac3e
00000110: 36e0 cebd 0ead c0bb ef64 60be b9e4 f2bd
00000120: 6b1d ff3d 7422 1fbd a980 bd3d cc93 38be
00000130: 8ea5 31be ec5f 8abe e31a 21ba f188 36be
00000140: 8aa9 c33e ed30 72bd c5fb 103e eb6c ba3e
00000150: 211a b1bd b88d 19be a4b7 62be 12ac 033e
00000160: 3335 83be d130 07be 95f5 ee3c e9fa 833e
00000170: 7ffb 043e cce7 adbe fce7 a6bd 831d 40be
00000180: f8d8 c63e 381f ed3d 7839 f8bd c85d 89bd
00000190: 8182 efbd 86b9 6f3e f3eb df3e 65d0 bcbd
000001a0: 6305 423d 9159 e2be 9a90 08bf 3672 44be
000001b0: e988 b23d 9b86 a0be fc1b 2abc b4bb b63d
000001c0: 3ff3 78be 85c3 aabe 3f37 84be 9f46 6cbe
000001d0: 1116 70be 6ea7 803c 0f3e 05be cdd4 b139
000001e0: e76a 673d ac69 853e 328f 6a3d 3d19 e1bd
000001f0: 7879 613d 35a7 2dbd 2ab8 243e d11e f13d
00000200: 0496 833c efb5 1abe b166 913e 4813 d13d
00000210: 4f64 f3bc 0de0 683e 57af fabd b96b 84be
00000220: 09e5 2fbe d263 db3c 5538 1fbf 2ee5 8b3e
00000230: 9991 863e 8b95 4bbe 265a 593e 1f27 263e
00000240: e838 b43d 61ab efbe 13a6 d63d cf43 1f3e
00000250: 524b 74bd 7593 46bc ca47 863e c9aa 82bd
00000260: e589 343e 5c91 13bd 58ed 36bd 8ef2 b2bd
00000270: bf32 51be 82e5 c0bd a20b 06bd 43eb 6b3c
00000280: cf26 993c 0c67 fa3d d081 2fbe 5ef6 c4bd
00000290: 1a8e 7ebe 4333 173e 5edd 223e 9d6f 993e
000002a0: 49bc 723d 0be4 81bc 244c 31be 3fed 383e
000002b0: b133 04be e222 44be cd39 d4be 2472 e8bc
000002c0: c9dd a93e 36c9 8d3e 59e6 ba3e f835 413d
000002d0: 5185 b5be 2a04 bfbe 3eec 893d c552 a4bd
000002e0: 50b7 c83d 1acd d2bd 3879 8bbc c596 88be
000002f0: e10e 82be 27ab 4dbe 04fc 4bbd 7d3d 173d
00000300: 5834 c43e 7d74 fdbd c064 ac3e f5af eabd
00000310: 7783 fabd 977e 06be e775 11bc a7d5 303e
00000320: 040b 913e fe26 ec3d 569a c23c 1ab4 9cbb
00000330: ecb3 1a3e da83 2a3e 24f1 2f3e ded5 06bd
00000340: e119 be3d 5113 91bd 189c 243e 7fc4 803d
00000350: 8b85 38be 0924 1cbc fb36 383e f1f5 b43d
00000360: 1256 c8be 47b6 dd3d 0c03 38bd bc2a 8f3d
00000370: e3a1 523e e04b 4ebe 107e a03d e397 193e
00000380: 73b9 3d3e 1044 883e 2f60 aabd 0e03 a9bd
00000390: a3e7 013c bf67 ce3d 1c41 b03e 25fe 6c3e
000003a0: 0b70 b6be f265 00bd 0085 9ebe dc79 34bd
000003b0: 7faf df3e 3478 a63e 3a5f 313c e178 c03d
000003c0: 8e5d bfbe 2d84 c03d 1fb9 cabe 3c76 b6bd
000003d0: 1ba2 88be 2959 c0be f68a 24be 7295 eabe
000003e0: 4cad c23d d9ac e83d a739 c03d e62e 383e
000003f0: fac5 58be 2aab cdbe 12c9 c5be d0eb 11be
-0.041178998 -0.22152002 0.06056763 -0.25089717 0.09549727 -0.39061984 -0.05994524 -0.1976061
-0.0513125 0.3409163 -0.057236277 0.2205321 -0.21440493 0.20935187 0.1945787 -0.042004377
0.293742 0.17710516 -0.106010176 -0.07589809 0.25792164 -0.028327048 0.2203812 0.043226596
-0.17205498 -0.03730358 0.13594005 0.23341994 0.12748176 -0.27848786 0.3316394 -0.17828263
0.13548446 0.019741612 -0.35922953 -0.037529327 -0.065403864 0.029619753 -0.21207657 0.036967088
0.23719037 -0.2498611 -0.1909622 0.16474146 0.022991775 -0.27730316 -0.047346108 -0.07923704
0.005211359 -0.12909286 0.08184775 -0.24983945 0.2726764 0.12946968 -0.29249913 0.18949586
0.06358273 0.07423349 -0.37859333 0.5312758 0.2506739 -0.005056576 -0.014182836 -0.4207657
-0.29342243 0.31713504 -0.16727601 0.3363927 -0.101013586 -0.0058800047 -0.21913503 -0.11860032
0.12456783 -0.038851216 0.092530556 -0.1802513 -0.1734831 -0.27026308 -0.0006145669 -0.17825677
0.38215286 -0.05912869 0.14158542 0.36411223 -0.08647562 -0.14995468 -0.22140366 0.12858608
-0.25626525 -0.13202216 0.029169837 0.25777367 0.12986563 -0.3396591 -0.08149716 -0.18761258
0.3883741 0.1157822 -0.12120336 -0.067073405 -0.116948135 0.23410615 0.43734702 -0.092194356
0.04736842 -0.4420896 -0.53345644 -0.19184193 0.0871752 -0.31352696 -0.010382649 0.0892252
-0.24311541 -0.33352295 -0.258234 -0.23073815 -0.23445918 0.015704837 -0.13011955 0.0003391862
0.056498434 0.26057184 0.057265468 -0.10991142 0.055047482 -0.04239579 0.16085878 0.11773456
0.016062744 -0.15108465 0.2839866 0.10208756 -0.029710917 0.22741719 -0.12240475 -0.25863436
-0.17177214 0.026780996 -0.6219533 0.27323288 0.26282957 -0.19881265 0.21225795 0.16225861
0.087999165 -0.4681044 0.10480895 0.1555321 -0.059642144 -0.012120117 0.26226646 -0.06380231
0.17630728 -0.036027297 -0.044659942 -0.0873767 -0.20429514 -0.09418775 -0.032725938 0.0143993525
0.018695263 0.12226686 -0.17139363 -0.09617303 -0.24858895 0.14765649 0.15904757 0.29967967
0.059261594 -0.01585581 -0.17314202 0.18059252 -0.12910344 -0.19153932 -0.41450348 -0.028374739
0.3317702 0.27692574 0.36503866 0.04717061 -0.35453275 -0.37307864 0.06734513 -0.080235995
0.09800589 -0.10293026 -0.017025575 -0.26677528 -0.25401977 -0.2008482 -0.049800888 0.036923874
0.38321185 -0.12375734 0.33670616 -0.114593424 -0.12232106 -0.13134228 -0.008878208 0.17269002
0.28328717 0.11530875 0.023755234 -0.004782212 0.15107697 0.1665186 0.17181832 -0.032918803
0.0928228 -0.070837624 0.1607517 0.06287479 -0.18019693 -0.009530076 0.17989723 0.08835972
-0.39128166 0.10825782 -0.04492478 0.06990573 0.20569567 -0.20146132 0.078365445 0.14999346
0.18527775 0.26614428 -0.08319127 -0.08252536 0.007928762 0.10078382 0.34424675 0.23143823
-0.35632357 -0.031347223 -0.30960846 -0.044061527 0.4368858 0.32513583 0.010825926 0.09398056
-0.37376064 0.094002105 -0.3959436 -0.0890927 -0.26686177 -0.37568024 -0.16068634 -0.45817143
0.0950571 0.11361093 0.09385996 0.1798664 -0.21169272 -0.4016965 -0.38629967 -0.14250112

network_body._body_endoder.seq_layers.0.bias f4 [32]
00000000: 8ad6 073b 903c bd39 6cf8 8238 4284 d0b8
00000010: 28d8 fdba eeed c6bb 0623 97bb 5571 14bb
00000020: 03aa 103b 3f81 e53b 5491 453b 9ab3 8f3b
00000030: 8deb a53a 94fb c2ba d74d 98b9 5d21 473b
00000040: ee73 053b aae6 893a 94f9 1fbb a4f0 77ba
00000050: c276 83ba 7efa 2abb 1d4a 333b 0f8b 7c3b
00000060: d421 793b 1471 853a 39a9 263b 1f7f 5fb8
00000070: e046 bbba d643 bbbb f947 123a 5ae1 093c
0.002072724 0.00036094012 6.245155e-05 -9.942848e-05 -0.0019366788 -0.006070844 -0.0046123294 -0.002265056
0.002207399 0.0070039327 0.0030146437 0.004385424 0.00126587 -0.0014876002 -0.00029049694 0.0030384876
0.002036329 0.0010521014 -0.0024410235 -0.00094581605 -0.00100299 -0.0026089246 0.0027357407 0.0038535034
0.0038014548 0.0010180795 0.0025430454 -5.3285734e-05 -0.001428809 -0.005714874 0.0005580183 0.008415544

network_body._body_endoder.seq_layers.2.weight f4 [32, 32]
00000000: 953b cc3c b227 c53d de28 b63d b345 3e3e
00000010: 0536 ac3d c5d3 973e b60e 583d ad89 8fbe
00000020: c92c c03e e3f5 0cbe 237f 033d d746 08be
00000030: 883b 0bbe 2f52 65be 87e0 2e3d ef7b ba3d
00000040: 51dc 90be 3123 e8bd 50d9 373c 4c3a e23d
00000050: 23ec 0abc 8a8b a73d 8628 8ebe ca51 26be
00000060: 2003 a8bc f027 3fbe 67b7 4c3e 05fc 033d
00000070: 857b 863d 46af ab3d b8aa 3fbd 2629 c43d
00000080: 054f a5be 8383 05be 718c 463d 6c66 1c3e
00000090: 163a e93d 9dd2 8dbd 5db3 a83e 5fb4 5d3e
000000a0: c143 46bd 1f3a 1a3e 114a 843d 9c06 fb3d
000000b0: 07b5 883e 4e83 7b3e d12f 6fbd a5f9 a3bd
000000c0: 0f5b a3be 42f8 673e d981 443e f32e 043b
000000d0: ba1b d9bd 2494 c53e 52d2 a03d ab53 2dbe
000000e0: c0ec 96be db01 85bd 4b1b f4bd ba6e 0bbe
000000f0: 040e ccbd 1806 903e c5a1 373d c1d1 aa3c
00000100: 2016 5bbe 321a 87be 9460 5f3c 78ef ab3d
00000110: 9fcf 633e bbca 2f3e cacc 13be 2c0c 12bd
00000120: c86a 39bd 7190 df3d 3ccc 6e3d 4169 d8bc
00000130: a143 1a3e 8ffe 0c3e 56c5 c73d 0d20 acbc
00000140: 2d81 d4bd 7e7a 4dbd f524 7a3e 8eed df3b
00000150: 47e5 c7bd aa1d 653e 4e4e 6fbc 1d6d 80ba
00000160: 4e2c 943d a325 94bd 0551 2fbd 96c9 f93d
00000170: d0cf 38be de7a aebe 1a15 05be 41c3 9c3c
00000180: 8dd7 ad3d 2639 093d f497 8b3e c3d3 8a3c
00000190: c62e 003d 12a2 5dbe 06d6 4abe 898a 043e
000001a0: d6bf fbbd ee16 e33c 42b4 4abd ba16 40be
000001b0: d90d 45bd 2e70 adbd d830 503d 8972 303e
000001c0: 9e9e 23be 11a9 8abc 2213 6e3e a457 8fbe
000001d0: f0c4 7a3d d0ea 44bc e474 fd3d cea4 8b3e
000001e0: 611e 873e cdf3 57be 077c 393e cf84 01be
000001f0: 0bc7 52be 75fb 903e 5f81 82bd 8cf3 003d
00000200: 2355 b8bb a448 adbe e6ae edbd eab6 933e
00000210: 2465 763d 4964 05bc fade bf3d 6691 15be
00000220: 8df6 7b3d 8778 41bd 12c2 763e 3922 32be
00000230: a147 8cbe f8d3 c2bd 76fe 2f3e 7b7b 3bbc
00000240: 9499 e53d eec2 f53d 45c5 19be 30d1 09be
00000250: 4165 a9bd 8b46 3c3e 8515 66bc 50d9 debe
00000260: ac60 253e ca4b 813e 37c5 cdbc 78f9 e6bc
00000270: de9b 093e 7eb4 c73e 0557 97bd 53f5 81be
00000280: d3f1 5ebd db66 253e 8e4e 6bbd fdc7 2f3d
00000290: 2386 3dbe bcd4 76bc 157a 32be 47b9 75be
000002a0: 2a14 d53d 930f dcbe 10b7 89be e38c 93bd
000002b0: cec4 8abe 8cd0 103e e8d4 0c3e 7647 88be
000002c0: bf96 0dbe b058 b43d d515 70bc 5634 543e
000002d0: 4ee5 8abe 38f3 a83e 0587 d4bb 2a7f 9dbe
000002e0: 75ee bcba 5d23 07be 127b 6b3e 0536 3ebe
000002f0: a2c8 1f3c 831e 343e 4ee6 97bc afcd e23d
00000300: 020f b53d c5c2 133c 5e73 1c3e 6a2f 10bd
00000310: 9ca5 76bd 9a1e 0fbe c7c1 e4bc 0b9f 22be
00000320: 38c2 243e 1e79 ed3e 8497 43bd 5831 65be
00000330: 4cbd 2dbe 634c 43bd ec29 dfbd 3039 31bb
00000340: 509d fdbd c635 fdbd 99ae 373e 12f8 163e
00000350: f785 783e d6e9 923e e97f b8be e0b2 40be
00000360: 52b8 ea3d 9c11 843b 0d5d 57bd 4178 51bd
00000370: 909d 51be 724c 7ebd b207 b53c b8b6 4c3e
00000380: 3196 cc3d 13cd c6bd 1a00 95bd b9bf c6bc
00000390: 6c67 91bd 9527 a23e 4444 97bd 9163 bc3e
000003a0: 0394 72bc 79bd 203c 97af 1ebd 69c2 a5bc
000003b0: 1731 bc3d f94c c33d ad5a c53d 2734 5ebe
000003c0: c991 c0be 6b38 973e cc91 dd3c 2c47 e13d
000003d0: 1722 173e 3bfe 6b3e b7c7 21be fc81 78be
000003e0: cf17 95be 352e 8a3d b6be ee3d b995 743e
000003f0: dba7 e2bc 7c88 7b3d 1b29 dabc 8365 8fbd
0.024930755 0.09626712 0.088945135 0.18581276 0.08408741 0.29653755 0.052748404 -0.28034726
0.37534168 -0.13765673 0.03210367 -0.13308273 -0.13596928 -0.22394632 0.042694595 0.0910567
-0.28293088 -0.11334837 0.011221245 0.110462755 -0.008479151 0.08180912 -0.27765292 -0.16242138
-0.020509303 -0.18667579 0.19991837 0.032222766 0.06566528 0.0838304 -0.04679367 0.09578161
-0.3228685 -0.13038449 0.04847378 0.15273446 0.11388032 -0.06924937 0.32949343 0.21650837
-0.04840446 0.15061234 0.064594395 0.1225712 0.26700613 0.24561808 -0.05839521 -0.080066
-0.3190541 0.22653297 0.19190158 0.0020169585 -0.106009915 0.38589585 0.078526154 -0.16926448
-0.294775 -0.064944945 -0.11919268 -0.13616458 -0.09963611 0.2812965 0.04483201 0.020851972
-0.21395159 -0.26387173 0.013633866 0.083952844 0.2224717 0.1716718 -0.1443359 -0.03565614
-0.04526785 0.10916222 0.05830024 -0.026417376 0.15064861 0.13768981 0.09754436 -0.021011377
-0.10376201 -0.050165646 0.2442816 0.0068337386 -0.09760528 0.22374597 -0.014606072 -0.0009798143
0.07235013 -0.07233741 -0.042801876 0.121966526 -0.18048024 -0.34078115 -0.12996331 0.019136073
0.08488379 0.033501767 0.2726437 0.016946679 0.031294607 -0.21643856 -0.19808206 0.12943472
-0.12292449 0.027720895 -0.049488313 -0.1875867 -0.04810891 -0.08468662 0.05082783 0.17231192
-0.15978476 -0.01692632 0.23249486 -0.27996552 0.06122297 -0.012018874 0.12375811 0.27274173
0.26390365 -0.21089096 0.18113719 -0.12648319 -0.20583741 0.28316846 -0.06372332 0.031482264
-0.0056253835 -0.33844483 -0.11605625 0.2885049 0.06015505 -0.008141586 0.09368701 -0.14606246
0.061514426 -0.047234084 0.2409747 -0.17395867 -0.273984 -0.09513086 0.17186913 -0.011443014
0.11210933 0.120000705 -0.15016659 -0.13458705 -0.08271266 0.18386285 -0.014043217 -0.4352517
0.16150159 0.25253135 -0.025118453 -0.028195128 0.13438365 0.39004892 -0.073896445 -0.2538248
-0.05442984 0.16152517 -0.057447962 0.042915333 -0.185082 -0.015065368 -0.17429383 -0.23996459
0.104042366 -0.42980632 -0.26897478 -0.072046064 -0.27103275 0.14142054 0.13753092 -0.2661702
-0.13827036 0.08805978 -0.014653643 0.2072309 -0.2712807 0.3299806 -0.006485822 -0.3076108
-0.0014414327 -0.13197084 0.22996166 -0.18575294 0.009752424 0.17589764 -0.018542435 0.11074387
0.08840753 0.009018605 0.15278384 -0.035201468 -0.06021653 -0.13976517 -0.027924431 -0.15880983
0.16089714 0.46381468 -0.04775192 -0.22382104 -0.16966742 -0.04768027 -0.10896668 -0.0027042143
-0.123835206 -0.12363772 0.17937697 0.14743069 0.24269854 0.28694028 -0.36035088 -0.18818235
0.114609376 0.0040304195 -0.052578975 -0.051140074 -0.20470262 -0.062084623 0.022098396 0.19991577
0.09989584 -0.097070836 -0.0727541 -0.024261342 -0.07099804 0.31670824 -0.073860675 0.36794713
-0.014805797 0.009810799 -0.038741674 -0.020234304 0.09189051 0.09536166 0.09636436 -0.21699582
-0.37611225 0.2953523 0.02704706 0.10999903 0.14759098 0.230462 -0.15798841 -0.24268335
-0.29119727 0.067470945 0.11657469 0.2388524 -0.02766793 0.06140946 -0.026630929 -0.07001784

network_body._body_endoder.seq_layers.2.bias f4 [32]
00000000: 0887 a13b 5d7b 48bb 1301 06bb 05e9 84b8
00000010: 6b9b 54bb 7401 eaba d89a 3839 4865 54bb
00000020: 796b f2b9 f1e6 d5ba d492 c8ba ade7 31bb
00000030: 7c65 36b9 17f7 3abb c44e 90bb e11d 563a
00000040: 5962 16ba bf15 21bb 9d5c e43a c7c4 033a
00000050: 8a49 e83a 78e4 92bb 08b4 9abb 6542 14bb
00000060: 2a5c 1f3b 5024 16bb 11a0 79bb a7e0 16bb
00000070: 3fa2 0e3b 9471 5439 3aea 33bb f9ee 84bb
0.004929427 -0.0030591108 -0.0020447418 -6.337654e-05 -0.003244127 -0.0017853216 0.00017605291 -0.0032409
-0.0004623791 -0.0016319436 -0.0015302547 -0.0027146146 -0.00017394678 -0.0028528625 -0.004403921 0.00081679045
-0.0005736701 -0.0024579612 0.001742262 0.00050265755 0.0017722112 -0.004482802 -0.0047211684 -0.0022622582
0.0024316409 -0.0022909828 -0.0038089792 -0.0023022087 0.0021764187 0.00020260207 -0.0027452842 -0.004056808

action_model._continuous_distribution.log_sigma f4 [1, 2]
00000000: 8393 a23b 6a21 a83b
0.0049614324 0.0051309364

action_model._continuous_distribution.mu.weight f4 [2, 32]
00000000: 29f9 c03c 54f2 3bbd c052 a8bc 9080 65bb
00000010: 3604 2fbd 19fe 74bb 738b cabc 8f48 d3bc
00000020: 90c0 643a 2a43 c1bb d699 06bd 2781 3dbd
00000030: 6dfd 253a 3804 0ebd d946 90bd 4ed6 893c
00000040: d32f 3f39 0182 d1bb 92a5 423d 5e9c bbba
00000050: cc90 26bb 795c babd 7fb9 4bbd 453e f5bc
00000060: 9634 1b3d 854e a9bc 9561 a3bc 8035 f7bc
00000070: 8e2c b13c edc3 17bd 2062 c5bc 1a1e 3dbd
00000080: 21d4 843c d90a 23bd 05d5 98bc 17b7 ffbc
00000090: 3f9b 133c 9e32 55bd 74a3 ab3d 0605 bebb
000000a0: ca19 16bd f5b9 59bd 6046 a5bc 251b 1bbc
000000b0: d0fd f83b 406f 2ebc 127c 903c 5cd7 023d
000000c0: 4a62 a7bc 4da4 46bd d201 e73c 0598 1dbc
000000d0: b183 943d 31fe 9dbc 7724 6dbb c6f1 84bc
000000e0: 9386 0fbc 7915 8f3c 005b cfbc 52af 423d
000000f0: 4b4d 7c3d 8571 24bd 3ef1 31bc 9579 2d3b
0.023556309 -0.0458854 -0.02054727 -0.0035019256 -0.042728625 -0.00373829 -0.024724698 -0.025791435
0.0008726204 -0.005897899 -0.032861553 -0.046265747 0.0006332014 -0.034671992 -0.07044763 0.016825821
0.00018232995 -0.0063936715 0.04752118 -0.0014313569 -0.0025415896 -0.09099669 -0.04973745 -0.029936919
0.037891947 -0.020667324 -0.019943992 -0.030176878 0.02162769 -0.037052084 -0.024094641 -0.046171285
0.016214432 -0.039805267 -0.018656263 -0.031215234 0.0090091815 -0.052050225 0.083807856 -0.0057989387
-0.036645688 -0.053155858 -0.020175159 -0.009466921 0.007598616 -0.010646641 0.017637286 0.031943664
-0.02043261 -0.048496533 0.02819911 -0.009618764 0.07251681 -0.019286247 -0.0036185065 -0.016228568
-0.008760112 0.017466294 -0.025311947 0.04753048 0.06159715 -0.040147323 -0.010860739 0.0026470174

action_model._continuous_distribution.mu.bias f4 [2]
00000000: 0ecd 6b3b f446 3a3a
0.0035980376 0.000710591

onnx::Div_51 f4 [26]
00000000: 58a2 ea41 0995 813d dd08 e941 0a96 b03c
00000010: e20b 983c 58a2 ea41 0995 813d dd08 e941
00000020: cf21 1541 8a0e 8a3c 40c9 f340 e712 833a
00000030: e712 833a e712 833a e712 833a e712 833a
00000040: e712 833a e712 833a e712 833a e712 833a
00000050: e712 833a e712 833a e712 833a e712 833a
00000060: e712 833a e712 833a
29.32927 0.06327254 29.129328 0.02155592 0.018560354 29.32927 0.06327254 29.129328
9.320754 0.016852636 7.6183167 0.001000014 0.001000014 0.001000014 0.001000014 0.001000014
0.001000014 0.001000014 0.001000014 0.001000014 0.001000014 0.001000014 0.001000014 0.001000014
0.001000014 0.001000014
