results/changed_code/DroneAgent/DroneAgent-2999977.pt (torch, 596314 bytes, 36 tensors)

network_body._body_endoder.seq_layers.0.weight f4 [128, 56]
00000000: 5610 dcbc 0772 c9be 6421 703e 47c0 25be
00000010: 7c2a 883e e3e5 c93c 0ee3 87be afbf 46be
00000020: 81c3 26be 7c85 f5be 76eb 66bd be7f 793e
00000030: 5137 b7be b23d 5ebb 08ea 593e ff63 8538
00000040: ae20 823e 3faa 023e 2a30 f83d 3f89 7c3e
00000050: 70fb 82be 624c 5b3e aa3e 06be b50a eebd
00000060: 2627 08be 8ad0 b33d 5c8a 973e 05d0 94bd
00000070: f2d5 823e e99b a43d bdaf d9bd 7f60 8e3d
00000080: 0966 5c3d 8d9c e33c c597 1cbd 7d1c 933d
00000090: 0a73 2a3e e934 183e efe1 06bc bf17 dcbc
000000a0: 0204 103d f96f d9bd cd9c 043e 0791 79be
000000b0: 8418 24be f0cb 46bd 1252 44bd 350f e2bc
000000c0: bca8 6cbe 7fac 323d c45a 8f3e 26c9 c8bd
000000d0: 677c d4bc 49d2 153e a318 00be dfcd 60be
000000e0: 599f 793d 264b 833e f379 543c 8223 d83d
000000f0: 101b 7d3d b955 91bb d600 093e 61fe 91bd
00000100: 27d6 083e e334 d63d 5a39 23bd d181 ff3c
00000110: e43b 853c 9964 ae3d 36c3 2a3e dbc7 84be
00000120: e8a3 073e 167f 563d 023d 5fbd dad6 de3d
00000130: 8520 0abe 6ba6 52bd ed33 9bbe a506 1abe
00000140: e524 563d 9881 23be 8f5e 38bd d332 793b
00000150: e621 883d a243 0e3a 058c 52bd fb35 3c3e
00000160: 03b2 a33d a97c 8abe 08a4 343d 1456 2dbe
00000170: 1b8a 1dbd 9929 abbe 412f d0bd dffc 46be
00000180: c901 1dbe b792 73bd 5d3c 653e f5e6 d13d
00000190: 4075 e13d f158 483e 973d 953e 05bc 79bd
000001a0: 8501 d93c 7218 e13c 7210 40bd 22c1 09be
000001b0: 5f4b 8d3c 9b27 81bd 327e 613e 7683 213d
000001c0: 3abd 2a3e 99c2 5bbd 2005 893d 219c 15bd
000001d0: a892 c63c 08dd 103e 6bfe 53be 0f86 743d
000001e0: c9d9 b03e 80e5 8fbe 403c 99bc 4c98 3fbd
000001f0: 0931 ed3d f288 a53e a366 0a3e db70 e13e
00000200: 7953 26be 989f 4d3e 988f a4be 241e 153e
00000210: b5c8 41bd 6865 01bd a060 523d addf 11be
00000220: e522 9bbc cf41 25be 5ce6 7d3d 9b30 6b3e
00000230: 769c 013e 6f99 87bb bbaa 923d 800b 4e3e
00000240: 8e6b d0bd c32f ea3d 122d 96be 67db 7dbe
00000250: 0d05 193e 8fc8 8fbc 80dd 133e 4603 1d3c
00000260: 66b3 5f3d 612d 803e 872d 22be 0789 2d3e
00000270: 3241 f4bd 137d c1bb 93ed afbb 482a c03b
00000280: d444 bd3d 1173 17bd 99a6 873d 6694 5fbd
00000290: 7134 6cbd e347 ff3d ee4a a3bc 4ab4 5e3c
000002a0: de81 2cbc eec6 6d3e 78f2 83be 490b 05be
000002b0: 6a47 1fbe 2b18 09be ea0a e43e e502 89be
000002c0: deb7 3cb8 8afd 50be 4e85 883e 8510 513f
000002d0: 369f a73e f94e 23bd 1198 f63d c98f 0b3e
000002e0: 267c 623e 14aa 63be 85b9 193c a0ea 123e
000002f0: 117a 94bd da34 9ebd 9640 e33c 03ea c3bd
00000300: dfaa febd 329f 35be dc5f 403e dd53 72be
00000310: 37e9 d73d 51c9 d43a 2aa0 313e 23ea 703e
00000320: 5887 4dbe 2c52 0cbe 4674 213e 7beb 7ebc
00000330: ba1e 473d 207a 423e 4224 9c3d 8e38 2b3e
00000340: db26 25be 300d 7dbe f88d 03bb 316b 3c3e
00000350: c50b 5b3d ead5 37bd 6750 1dbe 6517 96bc
00000360: a3c8 e2bd d3de 193e d96f 73bd 01f5 53bc
00000370: fde3 afbc 5551 d9ba bbac b1bd b55f 12bd
00000380: 77fd a03e abbc 8c3e 46c6 bbbc 676a eb3e
00000390: 204f a7bd 5a10 0b3e 1613 053f 7956 1a3d
000003a0: b2eb 3b3f d0aa 9c3d 2069 ce3d 7ffb a53e
000003b0: 8ff6 b93d e78c 7c3e 9850 acbd 8ae9 c5bd
000003c0: 4a4c 01be a61e 263e e308 d53d b21e 00bd
000003d0: 4999 abbd 4d21 953e 6db2 ce3d 7f9e 323d
000003e0: 131a 093d 3404 14bd a78a e2bc c999 27be
000003f0: 5d68 283e d861 cabd b48d 853d 63c2 c43c
-0.026863258 -0.39344808 0.23450238 -0.16186629 0.26594913 0.024645751 -0.26540416 -0.19409059
-0.16285516 -0.47953403 -0.056376897 0.24365136 -0.3578439 -0.0033911285 0.21280682 6.36056e-05
0.25415558 0.12760256 0.121185616 0.2466173 -0.25582457 0.21415856 -0.13109842 -0.11623136
-0.13296184 0.0878001 0.29597747 -0.07266239 0.25553852 0.0803755 -0.106292225 0.06951999
0.053808246 0.02778461 -0.038230676 0.07183168 0.16645446 0.14863934 -0.008232578 -0.026866792
0.035160072 -0.1061706 0.1295044 -0.2437173 -0.16024977 -0.048534334 -0.04792983 -0.027595142
-0.23111242 0.043621536 0.27998936 -0.09803991 -0.025938226 0.14630999 -0.12509398 -0.21953534
0.06094298 0.2564327 0.012968528 0.105536476 0.061793387 -0.0044352678 0.13379225 -0.07128597
0.13362943 0.10459306 -0.039849617 0.031189831 0.01626391 0.08515281 0.1667603 -0.25933728
0.13246119 0.052367292 -0.05450154 0.108808234 -0.13488968 -0.05142824 -0.30313054 -0.15041597
0.05228128 -0.15967405 -0.045012053 0.0038024678 0.066470906 0.0005426948 -0.051403064 0.18379967
0.079929374 -0.27048233 0.044101745 -0.16927367 -0.038461786 -0.33430174 -0.10165263 -0.194324
-0.15332712 -0.05946609 0.22386308 0.1024913 0.11008692 0.19565178 0.29148552 -0.060970325
0.026489982 0.027477477 -0.046890683 -0.1345258 0.017247854 -0.06306382 0.22020796 0.03943201
0.16673747 -0.05365238 0.06690431 -0.03652585 0.024239853 0.14146817 -0.20702522 0.05969816
0.34541157 -0.28104782 -0.018705487 -0.0467761 0.11581618 0.32331043 0.13515715 0.44031414
-0.1624278 0.20080411 -0.32140803 0.14562279 -0.04731055 -0.03159085 0.05136168 -0.14245482
-0.018937537 -0.16138385 0.061987266 0.2296776 0.12657341 -0.0041381638 0.071614705 0.20121574
-0.101767644 0.11434891 -0.2933126 -0.24790727 0.14943333 -0.017551688 0.14439964 0.0095833
0.054614447 0.2503462 -0.1583768 0.16946803 -0.119264975 -0.0059048026 -0.005368897 0.0058644153
0.092416435 -0.03697497 0.06623573 -0.054584883 -0.0576672 0.12464883 -0.01993319 0.013592789
-0.01052901 0.23220417 -0.25770926 -0.12992586 -0.15554586 -0.13388126 0.44539577 -0.2676002
-4.4993933e-05 -0.20409217 0.26664203 0.8166583 0.32738656 -0.039870236 0.12040723 0.13629068
0.22117671 -0.22232848 0.00938261 0.14347315 -0.07249845 -0.077249244 0.027740758 -0.095661186
-0.12434935 -0.1773651 0.18786567 -0.23664804 0.10542529 0.0016234313 0.17346254 0.23526816
-0.20071161 -0.13703221 0.15767011 -0.015559073 0.048613288 0.189919 0.07624103 0.16720793
-0.16128103 -0.24712062 -0.0020073634 0.18400265 0.05347802 -0.04488174 -0.15362702 -0.018321702
-0.11073425 0.15026407 -0.059432838 -0.012936831 -0.021471018 -0.0016580025 -0.08675524 -0.035735805
0.31443378 0.27487692 -0.022921693 0.45979616 -0.08169389 0.13580456 0.5198225 0.037680123
0.7340652 0.076497674 0.10078645 0.3241844 0.090802304 0.24663125 -0.084138095 -0.09663685
-0.12626758 0.16222629 0.10402086 -0.031279273 -0.08378846 0.2912697 0.10092626 0.043608185
0.033472132 -0.03613682 -0.027654005 -0.16367258 0.16446061 -0.098819435 0.06521168 0.024018472

network_body._body_endoder.seq_layers.0.bias f4 [128]
00000000: 3e90 8bbf efde 56bf 1c57 19be 76e0 cbbd
00000010: 55ca 2d3e 3cad 65bf d62b e3be e366 9fbd
00000020: 5379 d6bd 7876 14bf 6f2f 8cbf efb3 c1bf
00000030: 354e 05c0 5ce8 95bf 1c19 57bf f0ec bfbf
00000040: e11f bebf b46f 4bbd 456d f1be 0e35 39bf
00000050: 82f2 233f 5c53 babf d13c a0be 1730 7fbf
00000060: d5ff 90bf 11b0 f53d bf37 11be 231f 69bf
00000070: f211 9bbf eadc cdbf 8563 b1bf 6e7c bfbe
00000080: 147e 67bf cb44 b5bf 4624 90bf e30e 47bf
00000090: 25a9 90bf 3d2c d8bd 5a4f c5be 7e57 ccbf
000000a0: f548 b7bf dfe1 bcbf bb16 003f fa74 43bd
000000b0: 1079 a9be 9a7e 86bf 66e4 33bf a534 e7bc
000000c0: 49ac 14bf bfc5 93bd 34ab 733e 27b5 d8be
000000d0: 9407 a0bf 3a80 9dbf 24d5 d93e 1769 ca3d
000000e0: 176a adbf 02b5 afbf 5b16 87bf 4bff 1e3d
000000f0: ee04 cbbf 4bc1 8cbf 385b 99bf f383 a53c
00000100: ffeb a1bf e20d f0bf 5130 21be 6a73 a13e
00000110: 976d f6be fe62 963e 5102 b7be e7c4 18be
00000120: 7b3b 6bbf 9907 69bd d606 a3bf d3c4 81bf
00000130: 0db5 ba3e fb8a 5bbe 12b5 5bbe eb06 99bf
00000140: a0e9 4dbf dfea 333f f007 1a3e 741e 93bf
00000150: d6b4 25bd 2ef5 c8bf ef7b a7be ec52 96bf
00000160: 0e62 29bf 4779 cbbd d0c7 f7be 45e2 a6bf
00000170: 668b 81bf d9c5 7e3e 6650 313e ca18 c7bf
00000180: 04a1 15be 12e3 41bf 7756 38bf d2fd d5be
00000190: 303e 21bd 63c4 a3bf 2a83 44be 4bda 1fbf
000001a0: b232 14bf 0201 26be b979 c2bf 8691 c4bf
000001b0: e763 ccbe 64b1 99bf fdab cbbf 6ded d13d
000001c0: 0546 4dbd 34eb 3cbf c395 c53d 1bf1 fd3d
000001d0: aa63 b3bf e2fe 7abf 2491 a9bf 7002 87bf
000001e0: 1a5c 18bf c1aa 7cbf 0234 b1bf 92f2 8dbf
000001f0: ec61 bebd 7d1b 3ebe 91c4 a8bf ee11 2fbf
-1.0903394 -0.8393392 -0.14974636 -0.09954922 0.16971715 -0.8971746 -0.44369382 -0.07783296
-0.104723595 -0.5799327 -1.0951976 -1.5133036 -2.0828984 -1.1711535 -0.8402269 -1.4994183
-1.4853479 -0.049667075 -0.4715368 -0.7234658 0.6404191 -1.4556689 -0.312964 -0.99682754
-1.1328074 0.119964726 -0.14181422 -0.91063136 -1.2114851 -1.6083043 -1.3858496 -0.3739962
-0.90426755 -1.4161619 -1.126107 -0.7775709 -1.1301619 -0.10555313 -0.38537103 -1.59642
-1.431914 -1.475643 0.50034684 -0.04771898 -0.33100176 -1.0507386 -0.70270383 -0.028223345
-0.58075386 -0.072154514 0.23795778 -0.42325708 -1.2502313 -1.2304757 0.42545426 0.098833255
-1.3548001 -1.3727114 -1.0553697 0.038817685 -1.586088 -1.0996488 -1.1980963 0.02020452
-1.2650145 -1.8754237 -0.15741087 0.31533366 -0.48130485 0.293724 -0.35743955 -0.14918862
-0.91887635 -0.05689201 -1.2736461 -1.0138191 0.36466256 -0.21439736 -0.21455792 -1.1955236
-0.8043461 0.7028026 0.1504209 -1.1493669 -0.04045566 -1.5699823 -0.3271174 -1.1744056
-0.66165245 -0.09935241 -0.48394632 -1.3037802 -1.0120666 0.2488016 0.17315826 -1.555444
-0.14612204 -0.75737107 -0.72006935 -0.41795212 -0.039365947 -1.2794307 -0.1919066 -0.62442464
-0.57889855 -0.16211322 -1.5193397 -1.535691 -0.3991997 -1.200726 -1.5911862 0.102503635
-0.050115604 -0.7379639 0.096477054 0.12399503 -1.401479 -0.9804517 -1.3247418 -1.0547619
-0.59515536 -0.9869805 -1.3843997 -1.1089652 -0.09296021 -0.18565173 -1.3184987 -0.68386734

network_body._body_endoder.seq_layers.2.weight f4 [128, 128]
00000000: 4b3d 863d d5cd 053e 1485 6fbe 20ef 38be
00000010: 97c7 773e 7cfa 4d3e e014 9bbd 171d cebe
00000020: 1c22 97be 1d3d 433e 9261 8f3c dba0 553e
00000030: 61fc 4d3d 2f00 4bbe b620 c8bd e55e 353d
00000040: 688d 6bbd 4856 6dbe f32b 5abe 2768 8fbd
00000050: f0b0 bcbe fcc1 593e 96db 07bd 7d37 453e
00000060: 2ebd 163d 2663 953d f537 ac3c d7e3 303c
00000070: 622c a9bc 4388 12bc 3c5d 7bbe 32bf 0a3f
00000080: 8fa7 61bd c478 eab9 3138 e9bd 1026 08bd
00000090: aea8 ae3e 474c abbe 95f3 15bf 1a02 89bd
000000a0: acba f23c 5827 553e 4795 67bf 88b7 07bf
000000b0: dcb2 9b3e 775d 5fbe 4587 6b3d b384 ccbd
000000c0: abd3 73be 67fa dcbd 8d5c 2bbe 1746 4bbd
000000d0: a309 90be 9cd7 5e3d 184f adbe e0d2 c03d
000000e0: 58e3 62bd 4d30 b5bd 75d9 c83d 6879 ecbe
000000f0: 8b76 c5bc 6e95 2fbe 9447 92bd 7b21 4dbe
00000100: 03f5 c73c 2500 a43c 88e3 70bd 3947 ddbe
00000110: 69ce 8ebc 6915 20bf 0b57 b3bd 265c 7e3e
00000120: 6408 d1bc bc9f 00be ff78 253e 209d c6bd
00000130: ae5d 2dbe 5144 aabe 5c77 bebd 7033 b93d
00000140: 4a8e 293c 8020 4ebe f3f1 14bd 7471 88be
00000150: 82b1 293d 75df eb3b f154 ad3e 15a1 763e
00000160: a955 0bbf b844 99be b7a6 66bd 1dc9 3e3d
00000170: b60f 873d 83fa 7fbe ff6f c2be ec6e 593a
00000180: 05aa 48bf 46e7 cb3c a7f9 83be bc99 4b3e
00000190: ba5c a6bc 2a20 293b e034 bcbd 4332 4c3c
000001a0: f5d7 843d b849 1bbc 3718 d23d b0a8 5d3e
000001b0: 7daf db3d fde9 883d 3359 21bd d699 bcbd
000001c0: 1004 03bf 54e9 533d 14bf 03bf 70de c2bd
000001d0: e9e3 1fbe bb75 82bc e88c 3abd 229d c23e
000001e0: fadb 72be 60cf 4a3c d485 91bd 5589 983c
000001f0: c101 b3bd 91fb d83d 36f7 113e 253b e3bd
00000200: e758 223e ecda 8cbd 97e6 a2bc e850 c63d
00000210: 977e 47be 13c5 473d 3508 9ebe 2a7a 24bd
00000220: 8e99 8cbe 3cae 603e fad2 c73e 1228 963e
00000230: ef80 983e df0a b93e 5920 c93d e4d4 143e
00000240: b7df 5c3e 491c ebbc 7d1b d5bd e519 10be
00000250: dca8 dbbe 88b9 043f 176b 803d f024 bd3e
00000260: 83ae e13d bfa0 89be a8f6 8ebe ec00 8d3d
00000270: 1aaa 0ebd a79f 0a3f 240b c23d 9dcd 823e
00000280: 73d1 f73c 79bd b23e 2543 713e 9969 863e
00000290: 916b 2f3e b99e 483d 11e8 1dbe 87d6 323f
000002a0: f86c e13e 8f38 8b3e da32 ccbe da1d d7bd
000002b0: c47a 003d cd91 543e e6c0 123d 8ff8 40be
000002c0: 6ca1 373e f8b7 b6be 8006 41bf 2a24 20be
000002d0: 718c 193e d8e2 b13e 18c2 eebe 35d9 443c
000002e0: eea8 1abe 54ef 133f 5d93 843e 8c39 e6be
000002f0: c940 d13e 430b b43e e9dd 8d3e ad1f 23bf
00000300: ed85 db3e 5132 a33e 8378 a3be d868 3cbe
00000310: 3351 49bd dbf8 19be f06a 0cbd 3029 71be
00000320: dbcc ffbd 1fa0 383e afa9 4b3e fbd2 f23e
00000330: cfe2 6dbe 779a f83a 6308 cebe 2e5d 763e
00000340: 5be8 403e aaaa 1ebe cf0f b6be 9535 ce3e
00000350: cf00 10be bc25 303f 7afc 8cbe 61e4 b93e
00000360: 6c5e 9b3c eef4 94be f526 d0bd db50 b53e
00000370: 2a95 983e c1e3 2ebe 0b76 4ebe 667b 223e
00000380: d5e5 4cbe b983 543e 7f44 213d 197c dfbd
00000390: eec1 2bbe dd67 d53c ddf1 40be 1b01 163e
000003a0: 5ef8 3ebe a21a f8bc 3caa e43e c746 373f
000003b0: add2 fcbe 8f82 013f d473 0c3f ba94 87be
000003c0: 1552 9fbe e0cc ab3d 11f8 bebe 6e5d d8be
000003d0: 76e7 233e 85be 23bb 5897 f83e a82a 933e
000003e0: 3dac a2bc b8a2 173e c225 c73e 5d4c e43e
000003f0: 37bc ef3b a4cf cabd ae35 4c3e 8dbd b53d
0.065546595 0.130668 -0.23390609 -0.18059969 0.24197231 0.20115083 -0.07572341 -0.4025657
-0.2951821 0.19066282 0.01750258 0.20862143 0.050289515 -0.19824289 -0.09771864 0.04427995
-0.057507902 -0.23177445 -0.21305828 -0.07002287 -0.36853743 0.21265405 -0.033168398 0.19259448
0.03680151 0.07294302 0.021022776 0.010796509 -0.020651046 -0.00894362 -0.24547285 0.5419799
-0.055091437 -0.00044721935 -0.11387671 -0.033239424 0.34113067 -0.33456632 -0.585748 -0.06689854
0.029630028 0.2081579 -0.90462154 -0.5301442 0.30409896 -0.21812998 0.05750205 -0.09986248
-0.23811214 -0.10789948 -0.16734524 -0.04962739 -0.28132352 0.05440484 -0.33849406 0.09415221
-0.055392593 -0.08847103 0.09807102 -0.46186376 -0.024104377 -0.17146847 -0.07142559 -0.20032303
0.024408823 0.0200196 -0.05881074 -0.432184 -0.017432408 -0.6253267 -0.087568365 0.2483984
-0.025516696 -0.12560934 0.16159438 -0.09697938 -0.16930267 -0.33255246 -0.0930011 0.09043014
0.010348866 -0.20129585 -0.036363553 -0.26649058 0.04142905 0.007198269 0.33853868 0.24084885
-0.5442758 -0.2993524 -0.056311335 0.046578515 0.065947935 -0.24997906 -0.3797607 0.0008294422
-0.7838443 0.024890553 -0.25776407 0.19882864 -0.020307887 0.0025806525 -0.091897726 0.012463155
0.06486503 -0.009478025 0.10258525 0.2164638 0.10726831 0.06685255 -0.039391708 -0.092090294
-0.51178074 0.05173619 -0.5146344 -0.09515083 -0.15614285 -0.015925279 -0.045544535 0.38010508
-0.23716727 0.012378544 -0.07105604 0.018620173 -0.08740569 0.105948575 0.1425446 -0.11095265
0.15854226 -0.068776935 -0.019885344 0.096834004 -0.19481884 0.04877193 -0.30865636 -0.040155567
-0.27460903 0.21941465 0.3902815 0.29327446 0.2978587 0.36141106 0.09820623 0.14534336
0.21569715 -0.02870001 -0.104056336 -0.14072378 -0.42902267 0.518456 0.06270426 0.36942244
0.110196136 -0.26880452 -0.2792256 0.068849415 -0.03483019 0.5414986 0.09474781 0.25547495
0.03025124 0.3491018 0.2356077 0.2625244 0.17130877 0.048979495 -0.15420558 0.6985859
0.4402845 0.27191588 -0.39882547 -0.105037406 0.03136708 0.20758744 0.035828494 -0.18844818
0.17932671 -0.35687232 -0.75400543 -0.15638795 0.1499498 0.3474338 -0.46632457 0.012014677
-0.15103504 0.5778706 0.2589368 -0.4496578 0.4086974 0.35164842 0.27708367 -0.6372021
0.42875615 0.31874326 -0.3192788 -0.1839937 -0.049149703 -0.15036337 -0.03428167 -0.23550868
-0.12490245 0.18029831 0.19888948 0.4742659 -0.23231052 0.0018966933 -0.40240774 0.24058983
0.18838637 -0.1549479 -0.35558936 0.40275255 -0.14062808 0.6880758 -0.27536374 0.36307052
0.018965922 -0.29093117 -0.101636805 0.3541325 0.29801303 -0.17079069 -0.20162217 0.15867385
-0.20009549 0.20753373 0.039371964 -0.109123416 -0.16773197 0.026050502 -0.18842264 0.14648859
-0.18649432 -0.030286137 0.4466113 0.7159237 -0.49379483 0.5058984 0.5486424 -0.26480657
-0.3111731 0.08388686 -0.37298635 -0.4225878 0.16006264 -0.0024985385 0.48552966 0.28743482
-0.01985752 0.14808166 0.38895994 0.4458951 0.007316138 -0.099028856 0.19942352 0.088740446

network_body._body_endoder.seq_layers.2.bias f4 [128]
00000000: a857 91be 5841 47bf 3b8b 40bf 3d12 8abe
00000010: 6c11 bdbe b360 8dbf fece c2be ac78 2dbe
00000020: 8204 8cbf 19ac 23bf e8b6 65bf 4356 2ebf
00000030: 9966 7cbe f199 8dbe f5bf 91bf 5d89 79bf
00000040: 0e8d dcbc b7b3 98bf dcbc 6ebf 46ea b7be
00000050: 8d6c 57bf c603 dbbe 38d1 c4be 2658 8bbf
00000060: cc0a 313e 3399 57bf 3018 eabe d82d 81be
00000070: 63a0 7ebe f50d 81bf 2397 20bf 0f23 90bf
00000080: 99d4 4abf 888e f7be 1d26 2ebe d4f1 3fbf
00000090: c17a 3bbf 4c00 59be 839e 79bf 0ce2 88bf
000000a0: 286a fabe 0d2f 9ebe 2193 71bf aea0 3dbf
000000b0: 7375 3abe affb 12bf f58d 1bbf 9b88 2fbf
000000c0: 15b2 5bbf 30f2 64bf 358b 83bf bf1f 83bf
000000d0: 8eb8 19bf f822 77bf 1219 87bf 8777 5cbf
000000e0: d6bf e3bd 9244 c1be c480 99bf 2ca3 84bf
000000f0: 83c2 c4be b1ef 06be 506f 51bf 093a 1cbe
00000100: c6c4 11be cb68 dfbe f46e 1ebf b269 67bf
00000110: 9ec8 4cbe 0899 3fbe 7599 76bf 90fe a5be
00000120: d4a7 683c ca96 92be 3657 27bf e5d5 41bf
00000130: 930c 91bf 7f6e 87bf 18b5 79bf 83d6 c1be
00000140: 1a90 0ebf 24af 4fbf 1594 24be b787 fbbd
00000150: 7d89 79bf 0dec 3ebe eabc 84bf e155 90bf
00000160: d021 57bd 2184 a4be f42a eabb 41cd 8dbf
00000170: 671a 15bf 4693 fcbe e78b b3be af50 10be
00000180: 1c30 55bf ed7d debe f414 96be 4e19 0cbf
00000190: c034 3fbf 96cb 0cbf 9cdb 0ebf 110e 97bf
000001a0: 5111 10bf 2f71 e5be 2706 b13d 6360 80bf
000001b0: b13c ebbe 8eee 38be 2e48 fdbd 2037 6ebf
000001c0: fed0 90bf 68b7 79bf 48cf 2fbf 2348 82bf
000001d0: bc24 40bf 54ab dfbe 5dca 56be 3a4d 14be
000001e0: 6daa 01bf 454c 8dbf 9c8f adbe 67d9 85be
000001f0: 5c4e 14be 4772 8bbf 5b70 8dbf aba6 3fbe
-0.2838719 -0.7783408 -0.7521245 -0.2696704 -0.36927354 -1.1045135 -0.38048548 -0.16940564
-1.0938876 -0.63934475 -0.8973222 -0.68100375 -0.24648513 -0.2765651 -1.1386706 -0.97475225
-0.026922729 -1.1929845 -0.93256927 -0.35920924 -0.8415001 -0.42776316 -0.3844087 -1.0886276
0.17289275 -0.8421814 -0.4572158 -0.25230289 -0.2486587 -1.0082384 -0.62730616 -1.1260699
-0.7923065 -0.4835093 -0.17006727 -0.74978375 -0.7323418 -0.2119152 -0.97507495 -1.0693984
-0.48909116 -0.30895272 -0.94365126 -0.740733 -0.18208866 -0.5741529 -0.60763484 -0.6856782
-0.85818607 -0.8943205 -1.0276858 -1.0244063 -0.60047233 -0.96537733 -1.0554526 -0.86119884
-0.11120574 -0.37747627 -1.1992421 -1.0362296 -0.3842965 -0.13177373 -0.81810474 -0.15256514
-0.1423522 -0.43634638 -0.6188805 -0.90395653 -0.19998404 -0.1871072 -0.96327907 -0.32420778
0.01420017 -0.28630668 -0.6536745 -0.75717 -1.1331962 -1.0580596 -0.9754195 -0.37858972
-0.5568863 -0.8112662 -0.16072114 -0.12281745 -0.97475415 -0.18644734 -1.0370152 -1.1276208
-0.05252248 -0.32132056 -0.0071462337 -1.1078264 -0.5824341 -0.4933111 -0.35067675 -0.14093278
-0.83276534 -0.4345545 -0.2931286 -0.5472611 -0.74689865 -0.5499815 -0.5580385 -1.1801168
-0.5627642 -0.44812915 0.086437516 -1.0029415 -0.4594474 -0.18059751 -0.12367283 -0.93052864
-1.1313779 -0.9754548 -0.6867566 -1.0178264 -0.7505605 -0.436854 -0.20975633 -0.14482585
-0.50650674 -1.1038901 -0.33898628 -0.26142427 -0.14483017 -1.089425 -1.1049913 -0.18715923

action_model._continuous_distribution.log_sigma f4 [1, 2]
00000000: 95c1 453e 72c0 003f
0.19312127 0.5029365

action_model._continuous_distribution.mu.weight f4 [2, 128]
00000000: 47c5 7abe 9e25 d33d f231 183a 12c0 813e
00000010: 6496 9dbc 0278 2abd 181e 513d 012b 123e
00000020: 12c1 b2bc 676e 8d3c 41b7 ef3d 7214 183c
00000030: ff9a 893e 5796 913d c81c 3ebb 3acf ac3d
00000040: 7c14 9dbd ae97 d2bc d442 113e 6579 23bd
00000050: a0ec 28bd 6a28 47bc 1a3d 98bd 8ceb 1c3c
00000060: e819 cbbc 9738 f5bc 3730 ecbc cc89 29bd
00000070: 5ed1 c13c a553 73bd f8ff cd3d 7858 35bd
00000080: 3fa4 1b3e 6744 5dbd e181 0b3e 6b9b 50bd
00000090: e6ae d63d 128a cbbe a24b e93c e3e8 0cbd
000000a0: 5c71 e33a 6e4e 543e 519e 883c 67a1 8fbc
000000b0: fc48 0e3d 76b0 673e e4bb 9d3e 642b 5ebe
000000c0: d05d 993d 8654 993a 2229 e53d 8ae8 e63d
000000d0: 95f1 593d 320e 8dbd 1f0f 7cbc b023 dd3d
000000e0: 0601 8d3e de57 bb3e 1b06 f7bc 4d5e 5abd
000000f0: eaed 9b3e 82f2 f3bd d39e f33d 7745 5b3e
00000100: 10ea 283e e6ff 36bd 13c0 023e a0b8 ffbc
00000110: 6d0f 3ebe 6cc7 313e 6a45 c73d f218 2abe
00000120: ba3a 5c3d 4669 803c 4c93 9d3c 6af0 2cbe
00000130: 1779 39bd 6032 42bc e6bc adbc 551e acbc
00000140: d9cc bd3d 21e7 0f3c ee9d 403e 0f36 a33e
00000150: f000 40be b690 c03e 729d a13c f847 0fbd
00000160: c376 65be ebcb 213e ccca 43bd 1cca 2ab9
00000170: 2de4 e9bc 6f92 9b3d 6871 d1bc d527 d5bd
00000180: 13e4 a03c b676 d7bd f176 ffbc 64a6 8dbc
00000190: f019 413d 178c 3e3d 882c 96bd 2d7f 2ebd
000001a0: b853 133d 2a89 463c ec32 11be ffe5 94bc
000001b0: 6b04 043e 849f ab3d 0566 dd3d f8cc c33c
000001c0: bf33 2fbd 93ba af3a 300c da3d 13c9 24bd
000001d0: eae2 3cbc cfc1 5ebc 20a6 9abd 8f58 ad3d
000001e0: cf3e a7be 91f3 24bd 682d 223e 4b15 d83d
000001f0: 3d2b 193d 2e4d 42bd ef4e 96bd 52e8 463d
00000200: 60fd 26be 47d4 8d3d b662 253e 15c9 a13e
00000210: bdce ee3d 7f47 7c3d 8445 2f3d 501f 313d
00000220: 4d1b 0a3d b72a 653e 0c5b dd3d 49dc 883d
00000230: c7af 213e c7e0 ccbd 505c 69bd 29e3 e93d
00000240: 3af8 f03d c30b b9bd 37b2 f43c 6fd1 01be
00000250: e7f0 9d3d 9898 ae3e a273 48be fa24 a43b
00000260: f457 bdbd 8f06 913d abd6 45be d15a 413e
00000270: 7ebf 633e a7bb f13d 00cf 9f3e a8ed 16bc
00000280: a707 d73d f434 a73e 7469 e2be dc13 1b3e
00000290: facb 36bd 7e00 703e d3fb 5a3d 42a1 f63d
000002a0: 0707 be3c af12 363e dd65 ee3d 328b 883d
000002b0: c518 d23e 0957 ccbd b554 ca3d 9179 bfbe
000002c0: 27a3 963d d776 923d 3cfb 873d 81b8 9f3d
000002d0: 0b18 123e 6058 fabb a41a 12bd 9ec3 1e3e
000002e0: 0cb5 1a3e dc73 52bb 80b6 303d 3c58 333d
000002f0: be6f a63d e75b afbd fcf9 f63d 47d8 46be
00000300: 055c b53e aec0 6abe 8b4c 893e c784 983d
00000310: 01ae 0f3e 6c87 4a3e 6c0c 91bc 1490 8d3d
00000320: c09d fe3e 848f c4bd 9ffc d3bd 1cca 7a3d
00000330: 3f8b 133b c60e 9b3d 7490 923d 69f5 9e3d
00000340: 0361 323e f457 90bd 8427 e83e a94d 933e
00000350: 0f2d 163e 5003 55bd 4caf 033d b92c 27bb
00000360: 4abf 673e 2e23 043f da98 3c3e 1994 dabc
00000370: 6a32 bb3d 45ce bdbd 9675 fc3d dc06 4abc
00000380: fbea f53d 1914 453e 5e5d 963e 65b4 0b3d
00000390: c34e df3d 730b 583e 0fce 563e 9b73 873d
000003a0: 450c 73bc e84d a93e 6f64 3a3d 11d8 b43d
000003b0: 418b 3ebc 26cb 8e3e e9ba e93e a863 0b3e
000003c0: 366d 68bb 4218 1bbd 1811 af3d e6e5 bd3d
000003d0: 9c58 bc3d 2608 953e 797f e6bd a2f1 ab3d
000003e0: aa38 df3d f0bb cfbc 8f2a 033e b6da 123e
000003f0: 78ba 87be cd66 5e3d 412b 7e3d cf1e 563e
-0.24489318 0.10309909 0.0005805782 0.2534185 -0.01923675 -0.041618355 0.05105409 0.14274217
-0.021820579 0.017264558 0.11704875 0.009282218 0.26876065 0.07108753 -0.0029008854 0.08437963
-0.07669923 -0.025707092 0.14185649 -0.039910693 -0.04124129 -0.012155632 -0.07433529 0.009577643
-0.024792627 -0.02993421 -0.028831584 -0.04139118 0.023659404 -0.05940594 0.10058588 -0.044273823
0.15199374 -0.05402031 0.13623764 -0.050929468 0.10482578 -0.39753777 0.028478447 -0.034401786
0.0017352509 0.20733044 0.016677054 -0.017533017 0.034737572 0.22625908 0.30807412 -0.2169624
0.074885964 0.0011698164 0.11189486 0.11274822 0.053208906 -0.06887473 -0.0153844645 0.107978225
0.27539843 0.36590475 -0.030154279 -0.05331259 0.30454952 -0.11911489 0.11895528 0.21413217
0.16495538 -0.044677638 0.12768583 -0.031215966 -0.18560572 0.1736123 0.097300366 -0.16611078
0.053766944 0.015675198 0.019235276 -0.16888586 -0.045281496 -0.011852831 -0.021208238 -0.021010557
0.09267587 0.008783133 0.18810245 0.3187718 -0.18750358 0.37610406 0.019728396 -0.034980744
-0.22408585 0.15800445 -0.047800824 -0.00016287755 -0.028551186 0.07596289 -0.025566772 -0.10407988
0.019640004 -0.10520689 -0.031184645 -0.017291255 0.047143877 0.04652032 -0.073327124 -0.042601753
0.035968512 0.012117663 -0.14179581 -0.018176077 0.1289231 0.083800346 0.10810474 0.023901448
-0.04277396 0.0013407044 0.10646856 -0.04023082 -0.01152871 -0.013596012 -0.07551217 0.08464157
-0.32665107 -0.040271346 0.15837634 0.10550936 0.03739475 -0.047436886 -0.07339274 0.0485614
-0.16307592 0.06925254 0.16150936 0.31598726 0.11660526 0.06159162 0.042790905 0.043242753
0.033717442 0.22379576 0.108083814 0.06682641 0.1578971 -0.100038104 -0.0569728 0.114202805
0.117660955 -0.090354465 0.029870136 -0.12677549 0.07711964 0.34100795 -0.1957536 0.0050092908
-0.09245291 0.07081329 -0.1932017 0.188823 0.22241017 0.1180337 0.31212616 -0.009211935
0.104995064 0.32657588 -0.4422108 0.15144295 -0.04462812 0.23437688 0.053462815 0.12042476
0.02319671 0.17780565 0.11640523 0.066671744 0.41034523 -0.09977538 0.09879438 -0.37397435
0.073553376 0.07151573 0.06639716 0.07798863 0.14266984 -0.0076399297 -0.035669938 0.1550431
0.15108126 -0.0032112515 0.043142796 0.04378532 0.08126782 -0.08562451 0.120593995 -0.19418441
0.35421768 -0.22925064 0.2681621 0.074472 0.14031221 0.19778222 -0.017706119 0.06912246
0.4972973 -0.09597686 -0.10350918 0.061227903 0.0022513417 0.07571177 0.071564585 0.07761652
0.1741982 -0.07048026 0.45342648 0.28770187 0.14665626 -0.052005112 0.032149598 -0.0025508835
0.22631565 0.5161618 0.18417683 -0.026681947 0.09140475 -0.092678584 0.12327115 -0.012330737
0.120077096 0.19245948 0.2936811 0.034107585 0.109036945 0.21098118 0.20977043 0.06613847
-0.014834468 0.3306725 0.045505937 0.08830274 -0.01162988 0.27889365 0.45650414 0.13612235
-0.0035465485 -0.03786493 0.08548182 0.09272365 0.091965884 0.2910778 -0.11254782 0.08395697
0.1089948 -0.02535817 0.12809204 0.14341244 -0.26509452 0.054297257 0.06205297 0.2091019

action_model._continuous_distribution.mu.bias f4 [2]
00000000: 7790 92be deeb b6bd
-0.28625843 -0.08931707

exp_avg f4 [128, 56]
00000000: cedc d93b 2c7f 93b0 013d d43b 7ec2 97b9
00000010: 7ec9 97b9 cedc d93b 2c7f 93b0 013d d43b
00000020: b2f3 24bc b978 14ac 09cc 07bc 02c2 e13b
00000030: 8823 64af b169 7f3b c5c1 1bbb aff3 8830
00000040: dff4 233b a255 e13b c066 c0ac 85bc 303c
00000050: cd38 f33b dab4 0bae 1aa9 443c 9953 c139
00000060: ff3d 6baa e18e 9c39 0400 0000 0400 0000
00000070: 0400 0000 0400 0080 0400 0080 0400 0080
00000080: 0000 0000 0000 0000 0000 0000 0000 0000
00000090: 0000 0000 0000 0000 0000 0000 0000 0000
000000a0: 0000 0000 0000 0000 0000 0000 0000 0000
000000b0: 0000 0000 0000 0000 0000 0000 0000 0000
000000c0: 0000 0000 0000 0000 0000 0000 0000 0000
000000d0: 0000 0000 0000 0000 0000 0000 0000 0000
000000e0: 9c45 ceba c5ee 12b2 6c79 da39 653c e638
000000f0: 4666 e338 9c45 ceba c5ee 12b2 6c79 da39
00000100: c1f7 7a3a 84fc bc2c 68bc 4d39 e1dc 433a
00000110: 4d49 ccaa fc48 5b3a b5bb 8cb9 a713 4d2e
00000120: 7482 5ab9 f2ac 0734 3886 eca4 d331 5c34
00000130: 5ddb 1334 d96c 31a6 6f24 7534 6dbf 7eaa
00000140: 74fd 1a1b 384c 4eaa 0400 0080 0400 0080
00000150: 0400 0080 0400 0080 0400 0080 0400 0080
00000160: 0000 0000 0000 0000 0000 0000 0000 0000
00000170: 0000 0000 0000 0000 0000 0000 0000 0000
00000180: 0000 0000 0000 0000 0000 0000 0000 0000
00000190: 0000 0000 0000 0000 0000 0000 0000 0000
000001a0: 0000 0000 0000 0000 0000 0000 0000 0000
000001b0: 0000 0000 0000 0000 0000 0000 0000 0000
000001c0: 5496 8bbb d427 63b0 9c09 69bc 440e 0939
000001d0: 78b8 0839 5496 8bbb d427 63b0 9c09 69bc
000001e0: 1672 933c 9afb 8b2b b354 7c3c bedd 92bc
000001f0: 1c1e 0330 46d0 3dbc 499d fe3b 62df 35b1
00000200: fbb1 38bb b2e9 70bc 026e 4d2d 4b8b bcbc
00000210: 47f0 81bc 38da 942e a8ca d1bc f9a2 5bba
00000220: d4a0 052b 42dd 31ba 0400 0000 0400 0000
00000230: 0400 0000 0400 0080 0400 0080 0400 0080
00000240: 0000 0000 0000 0000 0000 0000 0000 0000
00000250: 0000 0000 0000 0000 0000 0000 0000 0000
00000260: 0000 0000 0000 0000 0000 0000 0000 0000
00000270: 0000 0000 0000 0000 0000 0000 0000 0000
00000280: 0000 0000 0000 0000 0000 0000 0000 0000
00000290: 0000 0000 0000 0000 0000 0000 0000 0000
000002a0: 29fa b2b9 2352 9930 88ee 97b9 6ca1 c6b8
000002b0: 7aa5 c6b8 29fa b2b9 2352 9930 88ee 97b9
000002c0: 417d aa39 bcf1 b3ad 0520 ac3a 4508 cdba
000002d0: 4baa c5aa d4e2 9d38 f46a 443b cc6f 5fb0
000002e0: 7698 093b 8551 c2ba fb6f a92b 8cb3 1dbb
000002f0: ffcc d3ba f827 fe2c 5c94 2fbb a298 fc2c
00000300: 5dae 999d 2f8e cc2c 0400 0080 0400 0080
00000310: 0400 0080 0400 0000 0400 0000 0400 0000
00000320: 0000 0000 0000 0000 0000 0000 0000 0000
00000330: 0000 0000 0000 0000 0000 0000 0000 0000
00000340: 0000 0000 0000 0000 0000 0000 0000 0000
00000350: 0000 0000 0000 0000 0000 0000 0000 0000
00000360: 0000 0000 0000 0000 0000 0000 0000 0000
00000370: 0000 0000 0000 0000 0000 0000 0000 0000
00000380: 7c8f 8bbc 9fa3 872f cad9 a3bc c4d3 0c3a
00000390: 88a4 0c3a 7c8f 8bbc 9fa3 872f cad9 a3bc
000003a0: 7b2f f73c f121 a62d e053 de3c 0557 cbbc
000003b0: 00ce 3e30 b6bc 72bc 5f3e 263c 302e 7fb1
000003c0: 4244 bbbb fc5f b6bc 6ba0 9b2d a0e6 0ebd
000003d0: 1bcc c4bc 97ca e12e 0902 1fbd 20ea a0ba
000003e0: 89cd 432b 7c4f 82ba 0400 0000 0400 0000
000003f0: 0400 0000 0400 0000 0400 0000 0400 0000
0.0066486364 -1.0731802e-09 0.006476999 -0.00028945872 -0.00028951088 0.0066486364 -1.0731802e-09 0.006476999
-0.010067867 -2.109908e-12 -0.008288392 0.0068895826 -2.0749102e-10 0.003897291 -0.0023766619 9.964561e-10
0.002501778 0.0068766633 -5.4683758e-12 0.010787134 0.0074225427 -3.176557e-11 0.012003208 0.00036874114
-2.0893702e-13 0.00029861092 6e-45 6e-45 6e-45 -6e-45 -6e-45 -6e-45
0.0 0.0 0.0 0.0 0.0 0.0 0.0 0.0
0.0 0.0 0.0 0.0 0.0 0.0 0.0 0.0
0.0 0.0 0.0 0.0 0.0 0.0 0.0 0.0
-0.0015737298 -8.552608e-09 0.00041670667 0.00010978504 0.000108432534 -0.0015737298 -8.552608e-09 0.00041670667
0.00095736614 5.3713162e-12 0.0001962051 0.0007471573 -3.6288542e-13 0.00083650625 -0.00026842733 4.6629058e-11
-0.00020838698 1.2635772e-07 -1.0257606e-16 2.0507223e-07 1.3770246e-07 -6.1556727e-16 2.2830658e-07 -2.2626146e-13
1.2820477e-22 -1.8322919e-13 -6e-45 -6e-45 -6e-45 -6e-45 -6e-45 -6e-45
0.0 0.0 0.0 0.0 0.0 0.0 0.0 0.0
0.0 0.0 0.0 0.0 0.0 0.0 0.0 0.0
0.0 0.0 0.0 0.0 0.0 0.0 0.0 0.0
-0.004259864 -8.263872e-10 -0.014223482 0.00013070652 0.0001303869 -0.004259864 -8.263872e-10 -0.014223482
0.017998736 9.946377e-13 0.015401053 -0.017928 4.770031e-10 -0.011585301 0.0077702147 -2.6465945e-09
-0.0028182257 -0.014704155 1.16773275e-11 -0.023015639 -0.015861643 6.769024e-11 -0.02560933 -0.0008378472
4.7474286e-13 -0.0006784984 6e-45 6e-45 6e-45 -6e-45 -6e-45 -6e-45
0.0 0.0 0.0 0.0 0.0 0.0 0.0 0.0
0.0 0.0 0.0 0.0 0.0 0.0 0.0 0.0
0.0 0.0 0.0 0.0 0.0 0.0 0.0 0.0
-0.0003413719 1.115556e-09 -0.00028978684 -9.471443e-05 -9.472198e-05 -0.0003413719 1.115556e-09 -0.00028978684
0.00032518248 -2.0457296e-11 0.0013132101 -0.0015642723 -3.5112394e-13 7.5285934e-05 0.0029970976 -8.12858e-10
0.0020995415 -0.001482532 1.2039253e-12 -0.0024063317 -0.0016159116 7.2235516e-12 -0.002679131 7.1792164e-12
-4.067905e-21 5.8138143e-12 -6e-45 -6e-45 -6e-45 6e-45 6e-45 6e-45
0.0 0.0 0.0 0.0 0.0 0.0 0.0 0.0
0.0 0.0 0.0 0.0 0.0 0.0 0.0 0.0
0.0 0.0 0.0 0.0 0.0 0.0 0.0 0.0
-0.017036192 2.4672617e-10 -0.02000131 0.0005372132 0.0005365093 -0.017036192 2.4672617e-10 -0.02000131
0.030174008 1.8887088e-11 0.027139604 -0.024821768 6.941434e-10 -0.0148155 0.010146706 -3.7133638e-09
-0.005714924 -0.022262566 1.76927e-11 -0.03488791 -0.024023106 1.02678026e-10 -0.0388203 -0.0012276806
6.9563154e-13 -0.0009941901 6e-45 6e-45 6e-45 6e-45 6e-45 6e-45

exp_avg_sq f4 [128, 56]
00000000: e669 f73a 33ee d328 cad8 2f3b c914 9237
00000010: f513 9237 e669 f73a 33ee d328 cad8 2f3b
00000020: ef81 fa3a 87d9 2821 59fe 963a 9b0d 613b
00000030: 544f 0e27 15b4 8e3b a3db ec39 5fc3 8a26
00000040: acc3 833a ad43 383a 41ce 9b1b ff2e 363a
00000050: 1779 283a 1008 9b1d 5e5d 5e3a 800a ed39
00000060: 8780 2f1b 6f72 9b39 f401 0000 f401 0000
00000070: f401 0000 f401 0000 f401 0000 f401 0000
00000080: 0000 0000 0000 0000 0000 0000 0000 0000
00000090: 0000 0000 0000 0000 0000 0000 0000 0000
000000a0: 0000 0000 0000 0000 0000 0000 0000 0000
000000b0: 0000 0000 0000 0000 0000 0000 0000 0000
000000c0: 0000 0000 0000 0000 0000 0000 0000 0000
000000d0: 0000 0000 0000 0000 0000 0000 0000 0000
000000e0: 449b 1639 e0cd 882f c67d df38 929e ca35
000000f0: e56d ca35 449b 1639 e0cd 882f c67d df38
00000100: c65a 6e38 0dbe 3d24 c4d5 6738 9ab9 2a39
00000110: 9741 4524 2944 5939 aa15 cb36 dde9 e824
00000120: 2b0f 8437 3919 7b34 a162 c815 a105 2e34
00000130: 833e 6634 b304 ae15 3a4e 1634 a09a b31b
00000140: 0d0a 0100 f490 6b1b f401 0000 f401 0000
00000150: f401 0000 f401 0000 f401 0000 f401 0000
00000160: 0000 0000 0000 0000 0000 0000 0000 0000
00000170: 0000 0000 0000 0000 0000 0000 0000 0000
00000180: 0000 0000 0000 0000 0000 0000 0000 0000
00000190: 0000 0000 0000 0000 0000 0000 0000 0000
000001a0: 0000 0000 0000 0000 0000 0000 0000 0000
000001b0: 0000 0000 0000 0000 0000 0000 0000 0000
000001c0: 78e2 123c fe80 522f 2761 6e3c 946c d236
000001d0: 951e d236 78e2 123c fe80 522f 2761 6e3c
000001e0: 30f8 013c 7877 0725 c48d ce3b 3167 1c3c
000001f0: a293 e127 fcab 563c 5dfa 663b 91d8 6426
00000200: 9dac d73b e955 6a3b 091a c81c 19b0 6c3b
00000210: 0e31 573b 2d01 cd1e 95a9 903b 5f99 143b
00000220: 6a0a 5c1c 95e5 c23a f401 0000 f401 0000
00000230: f401 0000 f401 0000 f401 0000 f401 0000
00000240: 0000 0000 0000 0000 0000 0000 0000 0000
00000250: 0000 0000 0000 0000 0000 0000 0000 0000
00000260: 0000 0000 0000 0000 0000 0000 0000 0000
00000270: 0000 0000 0000 0000 0000 0000 0000 0000
00000280: 0000 0000 0000 0000 0000 0000 0000 0000
00000290: 0000 0000 0000 0000 0000 0000 0000 0000
000002a0: 32e5 e639 f997 132d 7057 293a cb5d fe35
000002b0: 1ce6 fb35 32e5 e639 f997 132d 7057 293a
000002c0: 90b1 b339 38d1 5f25 c470 1239 caee be39
000002d0: 6033 1924 6a21 213a e30a 9f39 87c9 1327
000002e0: 9f6a e839 71e1 c337 e369 6d19 ce48 3238
000002f0: 7f33 d937 ca3e c61b 4ddf 5538 600b ec1f
00000300: 44d4 2e01 7fc7 9a1f f401 0000 f401 0000
00000310: f401 0000 f401 0000 f401 0000 f401 0000
00000320: 0000 0000 0000 0000 0000 0000 0000 0000
00000330: 0000 0000 0000 0000 0000 0000 0000 0000
00000340: 0000 0000 0000 0000 0000 0000 0000 0000
00000350: 0000 0000 0000 0000 0000 0000 0000 0000
00000360: 0000 0000 0000 0000 0000 0000 0000 0000
00000370: 0000 0000 0000 0000 0000 0000 0000 0000
00000380: 60a8 8d3c ae07 1030 8652 e33c b1e9 7b38
00000390: 0fe8 7b38 60a8 8d3c ae07 1030 8652 e33c
000003a0: dfc0 843c d97a fd24 2cbd 423c d31f c93c
000003b0: a45a 8a28 bd05 043d 12ea c03b ee4d cb26
000003c0: f6c9 4b3c 7812 fe3b a6c2 571d 70dc fd3b
000003d0: 1ac9 e83b fe30 5a1f a424 1b3c 5e70 a23b
000003e0: aa88 f01c 6e0c 553b f401 0000 f401 0000
000003f0: f401 0000 f401 0000 f401 0000 f401 0000
0.0018876165 2.3529008e-14 0.0026832097 1.7414235e-05 1.741385e-05 0.0018876165 2.3529008e-14 0.0026832097
0.001911221 5.720851e-19 0.0011519893 0.0034340385 1.9749463e-15 0.0043549635 0.0004517707 9.628629e-16
0.0010052822 0.00070291274 2.5775887e-22 0.0006949752 0.0006426735 4.1036495e-21 0.0008482541 0.00045211986
1.451719e-22 0.00029649163 7e-43 7e-43 7e-43 7e-43 7e-43 7e-43
0.0 0.0 0.0 0.0 0.0 0.0 0.0 0.0
0.0 0.0 0.0 0.0 0.0 0.0 0.0 0.0
0.0 0.0 0.0 0.0 0.0 0.0 0.0 0.0
0.00014362956 2.488454e-10 0.00010656896 1.5096323e-06 1.5082156e-06 0.00014362956 2.488454e-10 0.00010656896
5.682816e-05 4.114382e-17 5.5273777e-05 0.00016281605 4.2773122e-17 0.00020720124 6.0523935e-06 1.0101014e-16
1.574269e-05 2.3385373e-07 8.0934966e-26 1.620706e-07 2.1443161e-07 7.0285454e-26 1.3998297e-07 2.971299e-22
9.5441e-41 1.9485581e-22 7e-43 7e-43 7e-43 7e-43 7e-43 7e-43
0.0 0.0 0.0 0.0 0.0 0.0 0.0 0.0
0.0 0.0 0.0 0.0 0.0 0.0 0.0 0.0
0.0 0.0 0.0 0.0 0.0 0.0 0.0 0.0
0.008965127 1.9145216e-10 0.01454953 6.271128e-06 6.262048e-06 0.008965127 1.9145216e-10 0.01454953
0.007932708 1.1749861e-16 0.006303521 0.009546087 6.261011e-15 0.013102528 0.0035244443 7.9396893e-16
0.0065818564 0.0035756773 1.324162e-21 0.0036115705 0.0032835635 2.1705706e-20 0.004414747 0.0022674424
7.2805354e-22 0.0014869446 7e-43 7e-43 7e-43 7e-43 7e-43 7e-43
0.0 0.0 0.0 0.0 0.0 0.0 0.0 0.0
0.0 0.0 0.0 0.0 0.0 0.0 0.0 0.0
0.0 0.0 0.0 0.0 0.0 0.0 0.0 0.0
0.00044039782 8.389727e-12 0.00064598676 1.8951772e-06 1.8767928e-06 0.00044039782 8.389727e-12 0.00064598676
0.00034273835 1.9413053e-16 0.00013965653 0.00036417536 3.3220103e-17 0.00061466417 0.00030334954 2.0509596e-15
0.00044329927 2.335079e-05 1.22739965e-23 4.250631e-05 2.5892396e-05 3.2796929e-22 5.0991122e-05 9.9968706e-20
3.2111046e-38 6.5551576e-20 7e-43 7e-43 7e-43 7e-43 7e-43 7e-43
0.0 0.0 0.0 0.0 0.0 0.0 0.0 0.0
0.0 0.0 0.0 0.0 0.0 0.0 0.0 0.0
0.0 0.0 0.0 0.0 0.0 0.0 0.0 0.0
0.017292202 5.239781e-10 0.027749311 6.0060705e-05 6.0059185e-05 0.017292202 5.239781e-10 0.027749311
0.01620525 1.0992937e-16 0.011885922 0.024551308 1.5360387e-14 0.032232035 0.0058872784 1.4107078e-15
0.012438288 0.0077536665 2.8555644e-21 0.0077472255 0.0071040513 4.620382e-20 0.009469185 0.004957243
1.5917195e-21 0.003250863 7e-43 7e-43 7e-43 7e-43 7e-43 7e-43

exp_avg f4 [128]
00000000: 2016 b638 5c58 64b8 6fbc f2b8 5765 9c37
00000010: 0232 83b9 c53c b736 aec1 ab39 e08c b2b9
00000020: 794b 0eb8 a78a 2439 36a7 e438 7052 2f39
00000030: a3a5 fcb8 119a 6c37 47c1 9c39 d21b dab8
00000040: c450 9fb8 11cb 9d37 7289 d4b8 d24b beb8
00000050: 379d 9cb8 2782 fab9 eaeb e4b9 e355 1239
00000060: cb0c cf38 71b7 d237 390a 96b9 743f 0038
00000070: acc6 5e39 1cf7 42b8 1c68 7638 51fb 15b8
00000080: ba7a f038 0ba3 89b8 aab7 b138 e6cc 58b7
00000090: 3b97 1739 3cbf 89b8 1d52 6ab9 4c8f 0839
000000a0: 04b2 f537 4db6 e937 6cc1 0c39 d7db ce38
000000b0: 12a3 e238 c966 d5b8 def3 2b39 ce44 6537
000000c0: 281c 05b9 ae5a 6c38 e720 8438 28c7 08b8
000000d0: 5787 5039 6121 0238 32ba 66b7 c489 a037
000000e0: 2a68 13b9 8366 9639 5a7b b238 e49b e3b8
000000f0: 3b0e a8b8 7d11 f237 37d4 55b7 a22e 3d39
00000100: 1366 1639 fd5c 68b9 3d9c 37b9 ddf1 6239
00000110: c26a 98b9 5129 8d37 7337 b038 e425 1839
00000120: f286 f5b8 809c 4137 8b26 bab8 9b18 3039
00000130: a5ef 5ab8 34c4 4238 9d3a 1cba 7d88 bfb8
00000140: 1dee 21b9 d637 8639 2535 b439 61c8 3f39
00000150: e878 e8b9 f340 c537 3774 0bb9 e0df 7935
00000160: 9e6d 04b8 3fd0 3bb9 6737 31b9 e15b 79b8
00000170: 3829 8438 c8bb ed38 dbbb c339 bc05 a4b7
00000180: a7b3 8bb8 6483 afb8 fe75 1cb9 f7c5 4439
00000190: 4a60 26b9 eca0 64b7 a3fb 1538 7ddd 88b9
000001a0: a27b c938 cf00 3eb8 3962 2eb8 85e6 5737
000001b0: e94a 7139 f277 00b9 33e0 b938 89ff c738
000001c0: bc52 2939 62ed 13b9 8866 cab8 2bf6 25b8
000001d0: 62f0 90b8 5c75 6bb7 e438 0e39 0ae6 4638
000001e0: 723c b1b7 506d b538 ab8c 4e38 b577 f2b7
000001f0: 05b2 ccb8 94e0 6c39 caba 9fb7 7348 55b9
8.6825574e-05 -5.4441727e-05 -0.00011574558 1.864384e-05 -0.00025023526 5.4608995e-06 0.00032759964 -0.00034055766
-3.3925728e-05 0.00015691911 0.00010903033 0.00016720011 -0.000120471486 1.4102568e-05 0.00029898642 -0.00010400232
-7.5967546e-05 1.8810419e-05 -0.00010134549 -9.074029e-05 -7.467943e-05 -0.00047780687 -0.00043663319 0.0001395564
9.872912e-05 2.5119372e-05 -0.00028617846 3.0576673e-05 0.00021245581 -4.6483343e-05 5.874793e-05 -3.5758425e-05
0.000114669514 -6.563038e-05 8.474228e-05 -1.292231e-05 0.0001445682 -6.568289e-05 -0.00022346569 0.00013023353
2.9289171e-05 2.7860655e-05 0.00013423496 9.863794e-05 0.00010806894 -0.00010175777 0.00016398678 1.36654835e-05
-0.00012694357 5.6351237e-05 6.300379e-05 -3.2610405e-05 0.00019886844 3.10255e-05 -1.375242e-05 1.9137638e-05
-0.00014057817 0.00028686607 8.5106774e-05 -0.000108532404 -8.013515e-05 2.8856792e-05 -1.27451995e-05 0.00018041817
0.0001434314 -0.00022159885 -0.00017510443 0.0002164314 -0.0002907124 1.682775e-05 8.402662e-05 0.00014509965
-0.00011707646 1.1540134e-05 -8.87635e-05 0.00016793834 -5.2198437e-05 4.6435933e-05 -0.0005959662 -9.133013e-05
-0.0001544286 0.00025600073 0.0003437187 0.00018289826 -0.0004434057 2.3514474e-05 -0.00013299366 9.308551e-07
-3.157334e-05 -0.00017911287 -0.00016900674 -5.9451795e-05 6.301928e-05 0.000113360176 0.00037333262 -1.9552994e-05
-6.661499e-05 -8.369124e-05 -0.00014921275 0.00018765764 -0.00015866864 -1.3627327e-05 3.5758723e-05 -0.00026104963
9.607455e-05 -4.5300283e-05 -4.157631e-05 1.2868671e-05 0.00023011457 -0.00012251714 8.863248e-05 9.5366566e-05
0.00016147917 -0.00014107444 -9.6512085e-05 -3.9568327e-05 -6.91123e-05 -1.4034416e-05 0.00013563369 4.742112e-05
-2.1128191e-05 8.6511136e-05 4.9245235e-05 -2.8904391e-05 -9.760637e-05 0.00022590376 -1.9041257e-05 -0.00020340252

exp_avg_sq f4 [128]
00000000: e5ab 0236 b5cc 4134 fb25 df36 b16f 0035
00000010: 638b 7137 a7dd b533 3934 9935 c022 c136
00000020: f944 dc35 1a74 9f36 f627 d136 5686 0836
00000030: 81b3 4234 6733 4936 36e2 1f36 7594 5835
00000040: 481d ea33 060b e134 c7a5 8a35 934c cf35
00000050: 1018 1e36 53fa 6e36 1a00 2f36 fcdc 9836
00000060: 2952 7d36 1caa ad35 d92f ab36 a998 be34
00000070: 9327 9536 8061 d935 70f1 eb35 2e50 f134
00000080: 3b8f 3636 4a81 8734 750b 9536 370a 4d35
00000090: 59be a535 bf08 0a36 9218 5735 9374 1537
000000a0: 0963 5e36 256b 1f36 bd45 3c35 5626 e835
000000b0: f0b7 2e35 f91f 1235 459c e436 c69b 1835
000000c0: a4d6 2035 e47b 6f35 d758 9a35 3862 ed35
000000d0: 336a af35 2bdc 2b36 efbc e534 4cea a735
000000e0: 6e18 b934 4f88 f036 4154 2636 1c81 c634
000000f0: 514f 8334 9af5 ed35 1a09 8e35 3594 1834
00000100: 989c c436 fcae e235 7d9a de34 e873 3535
00000110: d2f0 2f35 1f25 0c35 5579 e534 6298 e636
00000120: 75aa 8334 8f07 9136 f5d1 4035 a8cb 7c35
00000130: 631d 9e35 014e 1135 92c9 a637 c803 3e35
00000140: 6489 9535 c8e3 5336 7e88 5736 a55b a636
00000150: ebf4 2f37 8ef5 5734 477b a135 0cd7 3c36
00000160: ebeb 3134 b0e9 ee36 fcf8 3336 1b0d e836
00000170: cf3d 2536 bc82 2135 9bc4 f635 bb45 0734
00000180: 9ceb 0635 85da 1d36 ebfd 0d35 fc59 2836
00000190: 14fe 6037 798c ca34 fa64 3d35 4df2 2236
000001a0: 96cc 2735 29ea 9135 9498 6e36 7b6a cf36
000001b0: 2b8f 1035 3974 d135 ef8f f236 18c4 fa34
000001c0: 35b9 b235 3168 d234 6c84 0d36 12f2 8036
000001d0: ac56 a733 75c7 c233 b879 0c37 07b9 0234
000001e0: 9362 7835 ca66 1f36 4ab5 8636 c28e 3136
000001f0: 3240 3135 8423 4a36 bfae 5434 29ff 4535
1.9471565e-06 1.8048998e-07 6.6503394e-06 4.784625e-07 1.4397173e-05 8.4687876e-08 1.1414587e-06 5.7558937e-06
1.6411351e-06 4.7520853e-06 6.2333374e-06 2.0343773e-06 1.8132961e-07 2.9981254e-06 2.3824518e-06 8.0682304e-07
1.09018e-07 4.1917536e-07 1.0330049e-06 1.5444988e-06 2.355784e-06 3.5610472e-06 2.6077091e-06 4.555679e-06
3.7747761e-06 1.2939013e-06 5.1017673e-06 3.5501333e-07 4.445153e-06 1.6196136e-06 1.7579132e-06 4.4948086e-07
2.7203484e-06 2.523978e-07 4.44188e-06 7.6383316e-07 1.2348856e-06 2.0568693e-06 8.0129496e-07 8.908234e-06
3.3138224e-06 2.3755213e-06 7.013694e-07 1.7296504e-06 6.5087715e-07 5.4435765e-07 6.8131217e-06 5.685109e-07
5.991699e-07 8.921472e-07 1.149975e-06 1.7686461e-06 1.3069424e-06 2.560914e-06 4.279204e-07 1.2510659e-06
3.447671e-07 7.168426e-06 2.478497e-06 3.6974313e-07 2.4458362e-07 1.7729355e-06 1.0582473e-06 1.421002e-07
5.859485e-06 1.6889239e-06 4.1463127e-07 6.759642e-07 6.554302e-07 5.220808e-07 4.2742855e-07 6.872274e-06
2.4524675e-07 4.3222167e-06 7.18311e-07 9.4173674e-07 1.178047e-06 5.413022e-07 1.9882606e-05 7.078602e-07
1.1141351e-06 3.1574036e-06 3.2116945e-06 4.9578543e-06 1.0487837e-05 2.0112768e-07 1.2031313e-06 2.8139357e-06
1.6570236e-07 7.1201575e-06 2.6818007e-06 6.9156645e-06 2.4622893e-06 6.016742e-07 1.8385648e-06 1.2598223e-07
5.0261747e-07 2.3522018e-06 5.289609e-07 2.5086329e-06 1.3410598e-05 3.772764e-07 7.0554927e-07 2.4280919e-06
6.251006e-07 1.0871491e-06 3.5553576e-06 6.1814767e-06 5.3852517e-07 1.5605539e-06 7.228918e-06 4.6708806e-07
1.3315936e-06 3.9191357e-07 2.1087717e-06 3.842878e-06 7.792309e-08 9.07011e-08 8.37299e-06 1.2174506e-07
9.2530644e-07 2.3752677e-06 4.014616e-06 2.6458151e-06 6.6031055e-07 3.0121018e-06 1.9807611e-07 7.3759526e-07

exp_avg f4 [128, 128]
00000000: f2a4 9db4 47e4 86b4 20d3 93b4 1dfd 3f36
00000010: 48ae 9db4 8a1c 88b4 9ea0 0ab4 3183 f4b3
00000020: 17db 14b4 3884 9bb4 0104 8bb4 c373 9db4
00000030: e7c1 9cb4 1e52 96b4 8417 9bb4 0548 95b4
00000040: 0f3b 93b4 1818 70b4 ee12 89b4 2745 dcb3
00000050: f34d 05b4 9d92 8fb4 f898 ba34 348a 98b4
00000060: 77ed 73b4 61e8 34b4 6669 82b4 62b2 05b3
00000070: 9935 95b4 16ad 4eb4 2994 9db4 a705 36b4
00000080: 6ecf 99b4 4b87 9cb4 3889 9db4 d996 c4b3
00000090: 275a 92b4 bf5b d3b3 64be 5bb4 0bb2 93b4
000000a0: b367 9cb4 ac8a 9db4 91be 73b4 53f2 c2b3
000000b0: cc47 2ab3 53f1 2fb4 513c 5bb4 83e2 93b4
000000c0: 8ec4 8f34 9804 5db4 2265 c736 6d5f 9bb4
000000d0: ab94 8cb4 6534 8cb4 2f72 8936 0ccf 71b4
000000e0: efd8 97b4 b534 9db4 99bd 99b4 c24b 4536
000000f0: 7d43 92b4 8218 9db4 6574 93b4 ffa8 4636
00000100: 7e83 97b4 2f00 99b4 fdd2 9cb4 cd2e aab3
00000110: 7ab6 1bb4 9ff8 b0b3 fd0c 9db4 8592 9ab4
00000120: 58a1 5fb4 2c73 97b4 db0d 86b4 2cd9 68b4
00000130: fcfb c9b2 487a 1535 b02c 70b4 0674 7bb4
00000140: a8b0 68b1 4f6c 82b4 5aa0 1fb4 909c 9db4
00000150: 99a8 76b4 8ece 88b4 ea68 96b4 a186 9ab4
00000160: f19e 98b4 354a 33b4 8e5c 9cb4 71ae 9bb4
00000170: 0eef 9cb4 d790 6c36 c382 ceb3 2bf6 96b4
00000180: f792 7ab4 9c26 8db4 4da7 9eb3 a1e3 68b4
00000190: dd95 99b4 b22e 72b4 745d 7eb4 f12c 5ab4
000001a0: 52e0 2fb4 ebe7 3c35 f1c2 9bb4 b940 9cb4
000001b0: c3e8 04b4 2b4e c7b3 4474 9cb4 0663 4736
000001c0: 465a 3cb4 1e3a b633 371e 8bb4 f78c 90b4
000001d0: d378 9db4 a6b9 9bb4 829e 9cb4 4e21 d133
000001e0: 6e56 edb3 5462 75b4 9494 9db4 997b 9db4
000001f0: 4b72 6ab4 1824 9db4 8883 91b4 8855 98b4
00000200: 82e0 6cba 50fe 91ba c532 5ebb 420c 62bb
00000210: 8f85 d6bb a355 1ab9 3f89 d5bb c97f 9dbb
00000220: 640f c2bb 3d51 a8bb e2ef 30bb 9d7f dbba
00000230: d972 0d32 8abf 87ba a9c4 55bb 1cc3 09b3
00000240: 9b84 7735 1d63 3dbb 4a5c 47ba 8483 07ba
00000250: 25e2 b3bb bea9 e4ba 5ae4 c0bb 895d 8cba
00000260: 7a6b 4cba 55f4 9931 9b2f b8b7 cf99 dcb9
00000270: 2e53 c4ba 0006 91ba 12aa 1cba 53ec 0aba
00000280: c101 d1ba 033e 1738 dcfe bbba 3daf 54bb
00000290: 4209 83ba b788 0dbc 3345 9037 1a4b c8ba
000002a0: 5f5e 97ba ede6 4eba df92 3ebb 6070 26bb
000002b0: 924d 80bb 982c 1dba 8ba5 0cbb 3d6a 83bb
000002c0: 856d 4eba 4962 5cba f172 3735 a9b1 6abb
000002d0: 5e36 bdba 51df 65ba e254 ebb1 b216 b9bb
000002e0: 0eff 9a36 1625 02bb 3656 2bbb 6370 8033
000002f0: c19f 9037 869c 01bb 37ee 9dba 80dc 7135
00000300: 1d94 13bb 148e 09ba 2d1b 13b5 41e0 b1ba
00000310: 3ff3 cab9 0447 85bb 07fc b0b7 ec41 c2ba
00000320: 4ec1 40bb 46e1 69bb f694 c6ba 028b 0bbb
00000330: 2ca9 86bb a538 8dbb 10cb aaba 8537 aaba
00000340: 8c57 dcba 942f 8bbb cf52 85bb 177b d9ba
00000350: d750 a3bb 4241 ce33 fd71 84ba e45f e9ba
00000360: e3f4 8ab5 726b bcba a20f 20ba 7bbe 8fba
00000370: c6e8 23ba 59b9 c134 3e30 0ebc 99e3 7e34
00000380: 9c0c 31bb 0d98 28bb 1b7e 1bbb 11ea 4bbb
00000390: 6eba c2ba bc12 44b4 f64b 74ba 4f66 e7bb
000003a0: be32 9db9 aaf8 c3bb f689 94ba 560f 6cba
000003b0: a015 43b6 1a66 9bba 7efb e8ba 4c90 ab34
000003c0: 5ffc 95ba 256f b4b9 5e0c 93b5 dffc c3bb
000003d0: 06e8 5a36 c5b0 7aba 9bf4 20bb d65a 8b34
000003e0: a096 edba 22b2 a7ba c28d 73ba 7cfa 9fba
000003f0: 9e69 a9bb 6d12 8bba b147 a2b4 c774 94bb
-2.9363542e-07 -2.512554e-07 -2.7534497e-07 2.860855e-06 -2.9370335e-07 -2.535274e-07 -1.2910684e-07 -1.1385999e-07
-1.3863279e-07 -2.8967202e-07 -2.589368e-07 -2.9327757e-07 -2.9198347e-07 -2.7999425e-07 -2.888811e-07 -2.7805814e-07
-2.7423854e-07 -2.2360507e-07 -2.5532012e-07 -1.0257127e-07 -1.2414948e-07 -2.67425e-07 3.47565e-07 -2.8412762e-07
-2.2717528e-07 -1.6848345e-07 -2.4291074e-07 -3.1128714e-08 -2.779241e-07 -1.9248213e-07 -2.935133e-07 -1.6952127e-07
-2.8649396e-07 -2.9155703e-07 -2.934337e-07 -9.1544e-08 -2.7260214e-07 -9.842142e-08 -2.0465228e-07 -2.7510427e-07
-2.9132715e-07 -2.9344426e-07 -2.2700466e-07 -9.0779075e-08 -3.964651e-08 -1.6385938e-07 -2.0417907e-07 -2.7545693e-07
2.6778838e-07 -2.05839e-07 5.9424356e-06 -2.894043e-07 -2.6185202e-07 -2.6115154e-07 4.096211e-06 -2.2520197e-07
-2.8283782e-07 -2.9281878e-07 -2.863642e-07 2.9399384e-06 -2.7243723e-07 -2.926136e-07 -2.7465572e-07 2.9602668e-06
-2.8221615e-07 -2.8498604e-07 -2.9210779e-07 -7.924755e-08 -1.4501884e-07 -8.2408626e-08 -2.925298e-07 -2.8791342e-07
-2.082719e-07 -2.820974e-07 -2.4969526e-07 -2.168569e-07 -2.3514069e-08 5.568477e-07 -2.2367999e-07 -2.3418406e-07
-3.386086e-09 -2.4293192e-07 -1.4866364e-07 -2.9357443e-07 -2.2971871e-07 -2.5482262e-07 -2.8016012e-07 -2.878269e-07
-2.842785e-07 -1.669767e-07 -2.9124607e-07 -2.8997923e-07 -2.92312e-07 3.5251048e-06 -9.616408e-08 -2.8118788e-07
-2.333653e-07 -2.629139e-07 -7.38788e-08 -2.1689495e-07 -2.860751e-07 -2.2554994e-07 -2.3689591e-07 -2.0319182e-07
-1.6379752e-07 7.037294e-07 -2.9012838e-07 -2.9104356e-07 -1.2378136e-07 -9.280878e-08 -2.914186e-07 2.971095e-06
-1.7541706e-07 8.485607e-08 -2.5912752e-07 -2.6924656e-07 -2.933144e-07 -2.9006077e-07 -2.9172594e-07 9.738379e-08
-1.1051894e-07 -2.2853175e-07 -2.9351634e-07 -2.9333458e-07 -2.1834528e-07 -2.926979e-07 -2.7104056e-07 -2.8374438e-07
-0.000903614 -0.0011138413 -0.0033904773 -0.003449217 -0.006546683 -0.00014718487 -0.006516605 -0.004806493
-0.005922245 -0.0051366375 -0.002699845 -0.0016746406 8.2333935e-09 -0.0010356766 -0.003261844 -3.207525e-08
9.2207637e-07 -0.0028898187 -0.00076049997 -0.00051694387 -0.005489605 -0.0017445607 -0.0058865966 -0.0010709028
-0.00077979977 4.4806634e-09 -2.1956677e-05 -0.00042076266 -0.0014978403 -0.001106441 -0.000597627 -0.0005299497
-0.0015945957 3.605896e-05 -0.0014342922 -0.0032453083 -0.0009997266 -0.008638552 1.7198361e-05 -0.0015281171
-0.001154851 -0.0007892687 -0.0029079241 -0.002539657 -0.003915497 -0.00059957197 -0.0021460976 -0.0040104673
-0.0007874596 -0.00084069796 6.8340074e-07 -0.003581146 -0.0014435758 -0.00087689335 -6.84905e-09 -0.0056484574
4.61925e-06 -0.001985853 -0.0026143915 5.9809075e-08 1.7240529e-05 -0.0019777133 -0.0012049143 9.0100366e-07
-0.0022518702 -0.00052473065 -5.4801313e-07 -0.0013570861 -0.00038709675 -0.0040673036 -2.1098194e-05 -0.0014820672
-0.0029412094 -0.0035687252 -0.0015150595 -0.0021292572 -0.0041095223 -0.004309731 -0.0013030488 -0.0012986517
-0.0016810759 -0.004247615 -0.0040687094 -0.001659247 -0.004984002 9.604493e-08 -0.0010104772 -0.0017805067
-1.0353073e-06 -0.0014375283 -0.0006105845 -0.0010966802 -0.00062526425 3.608391e-07 -0.008678494 2.3738393e-07
-0.0027015572 -0.0025725395 -0.0023726288 -0.0031114856 -0.0014856586 -1.8260738e-07 -0.00093191804 -0.0070617567
-0.0002998318 -0.005980571 -0.001133262 -0.0009004971 -2.9069852e-06 -0.001185599 -0.0017775146 3.1956222e-07
-0.001144301 -0.00034415085 -1.0955953e-06 -0.0059810723 3.2619587e-06 -0.0009563084 -0.0024559859 2.595686e-07
-0.0018126555 -0.0012794177 -0.0009290838 -0.0012205387 -0.0051700613 -0.001061035 -3.0227014e-07 -0.0045305225
