results/survival_reward/DroneAgent/DroneAgent-12308.pt (torch, 596188 bytes, 36 tensors)

network_body._body_endoder.seq_layers.0.weight f4 [128, 56]
-0.0772204 -0.21387516 -0.20448409 0.00654164 0.21928772 0.07659701 -0.006454152 -0.08683742
-0.09268385 -0.053358346 -0.07260334 0.16511095 0.1359374 0.10109603 -0.0849987 0.090561405
0.036297828 0.14414501 0.025395881 0.1673002 -0.015301653 0.0122039765 -0.064487614 0.06336405
-0.046256144 0.062059917 0.07327313 0.13038374 -0.13995571 0.09390456 0.051452104 -0.099859595
0.024363674 0.0745976 0.09436285 0.26361397 -0.025878407 0.16940476 0.13582169 0.13112932
0.06889344 0.18756609 0.12730141 -0.026133647 -0.24350844 0.11594237 0.03516396 0.059970196
-0.09824634 -0.31088385 -0.15588072 -0.09291264 -0.13871631 -0.1758957 -0.023097832 0.06782029
-0.033183545 0.11154893 0.05391444 0.058633346 0.14456347 -0.08692401 -0.020372117 -0.005849917
-0.08451473 0.02276981 0.20640181 -0.036958374 0.21588129 0.032202993 -0.2834761 -0.0489921
-0.03025412 0.021060878 -0.10087979 -0.029694118 -0.06866262 -0.054391384 0.17981873 -0.082556225
-0.085084744 0.11501857 0.12144237 0.14500634 0.21331303 0.1757115 0.24753022 0.06405848
-0.0518749 0.115516864 -0.09124737 -0.11548571 -0.030556308 -0.07990201 -0.12314578 -0.010429371
0.09793408 -0.05831706 0.33710724 0.08717834 0.049685687 -0.046483126 -0.036112238 0.16389795
-0.040178284 -0.08424415 -0.08187276 -0.2235578 -0.16534774 0.25197417 -0.037765585 0.054650392
0.10068177 0.20462789 0.11400432 0.023641916 -0.073730804 0.18112214 -0.1179646 0.089618
0.17778286 -0.17843609 -0.2186634 0.19675891 0.04001324 0.0055920254 0.28784478 -0.18952464
0.0204495 0.067588806 -0.07777652 0.0652936 0.03774195 -0.05876619 -0.0050011757 -0.071181886
0.20627551 0.039146576 -0.16926299 0.035687983 -0.10622908 -0.092709295 -0.19653489 0.0034497173
0.04235923 -0.20757958 0.15313804 0.124766536 0.044042252 -0.22858126 0.1441458 0.09710471
0.19639727 0.07583702 -0.05685084 -0.06443447 -0.07860412 -0.13934608 -0.0729172 -0.12179056
0.038620077 0.025002489 -0.06238893 -0.041795503 0.18544888 -0.24343917 0.07231089 0.06799649
0.24940284 0.0069484864 -0.054005455 -0.007339568 0.039388698 0.03703677 0.17269358 0.048700083
-0.08778799 -0.14157985 -0.079185665 -0.037970386 0.015806561 -0.032454927 -0.108242534 0.16638783
0.059660826 0.037929248 -0.045838103 0.03594806 0.22366954 0.031810507 0.116767265 0.13093777
0.32043368 0.08968843 0.058568258 0.01710309 0.037400577 -0.10704127 -0.05873298 -0.24336295
0.29621932 -0.075494386 -0.053949952 -0.08517986 0.20600805 0.09912601 -0.12093802 0.09901045
-0.0104849 -0.005517679 0.25651148 0.054159347 0.1647372 -0.01595285 -0.04433641 0.096400194
-0.050091296 -0.10696351 -0.082540266 0.07324618 0.11578194 0.23312803 0.13799386 0.16101408
-0.05386349 0.11066364 0.03306715 0.17403966 0.06614952 -0.07165074 -0.18960528 0.04001861
-0.11509837 -0.26767567 0.023769142 -0.1510367 0.1506344 -0.039426636 0.032566007 -0.10556444
0.0768941 0.03521989 -0.08815732 0.13409887 0.114563785 0.026576443 0.016679239 -0.18589129
-0.031324945 0.01345041 -0.13238123 0.12305771 -0.032782592 -0.035676602 0.0019060175 0.09637024
00000000: bb25 9ebd 1702 5bbe 4764 51be 415b d63b
00000010: f68c 603e e5de 9c3d 5a7d d3bb d1d7 b1bd
00000020: 08d1 bdbd 488e 5abd 0fb1 94bd d812 293e
00000030: 2c33 0b3e 6f0b cf3d cc13 aebd 4278 b93d
00000040: 08ad 143d c09a 133e 060b d03c be50 2b3e
00000050: c9b3 7abc 30f3 473c 1512 84bd 03c5 813d
00000060: 1577 3dbd 8a32 7e3d 3910 963d 5183 053e
00000070: 8d50 0fbe 0951 c03d 71bf 523d 3083 ccbd
00000080: 5496 c73c a0c6 983d 4f41 c13d 69f8 863e
00000090: f4fe d3bc 7178 2d3e d714 0b3e c446 063e
000000a0: 0118 8d3d 5311 403e 4d5b 023e 3b16 d6bc
000000b0: 475a 79be 3173 ed3d 1608 103d 4fa3 753d
000000c0: 6135 c9bd 2b2c 9fbe 329f 1fbe fb48 bebd
000000d0: a60b 0ebe 011e 34be aa37 bdbc 5de5 8a3d
000000e0: 78eb 07bd c473 e43d 63d5 5c3d 8529 703d
000000f0: 7208 143e 3705 b2bd 6de3 a6bc a9b0 bfbb
00000100: 0f16 adbd c187 ba3c ff5a 533e aa61 17bd
00000110: fc0f 5d3e 49e7 033d c823 91be f1ab 48bd
00000120: 7dd7 f7bc dd87 ac3c 109a cebd 1441 f3bc
00000130: fd9e 8cbd 80c9 5ebd 6722 383e 3d13 a9bd
00000140: e940 aebd db8e eb3d c7b6 f83d 8b7c 143e
00000150: bb6e 5a3e b7ed 333e 9078 7d3e 1831 833d
00000160: c67a 54bd 1b94 ec3d e7df babd c683 ecbd
00000170: 3951 fabc aaa3 a3bd db33 fcbd f4df 2abc
00000180: aa91 c83d dfdd 6ebd 5299 ac3e 8f8a b23d
00000190: 3883 4b3d 1765 3ebd 6dea 13bd ddd4 273e
000001a0: fc91 24bd 3288 acbd e8ac a7bd 56ec 64be
000001b0: eb50 29be c202 813e 16b0 1abd 17d9 5f3d
000001c0: 3e32 ce3d f989 513e 197b e93d b1ac c13c
000001d0: 2d00 97bd 1578 393e 6d97 f1bd a489 b73d
000001e0: b60c 363e f3b7 36be 4ce9 5fbe 2b7b 493e
000001f0: ece4 233d 4f3d b73b 6460 933e bf12 42be
00000200: b685 a73c 006c 8a3d 4c49 9fbd a7b8 853d
00000210: 4e97 1a3d d1b4 70bd e7e0 a3bb cfc7 91bd
00000220: e339 533e 2958 203d 4753 2dbe 902d 123d
00000230: a28e d9bd 5fde bdbd 7140 49be a714 623b
00000240: df80 2d3d be8f 54be 38d0 1c3e 9985 ff3d
00000250: a665 343d 3511 6abe f59a 133e d6de c63d
00000260: 5e1c 493e 7150 9b3d 6ddc 68bd 38f6 83bd
00000270: 32fb a0bd bdb0 0ebe 9d55 95bd 546d f9bd
00000280: 1630 1e3d 05d2 cc3c 898b 7fbd c331 2bbd
00000290: 50e6 3d3e 1e48 79be bb17 943d be41 8b3d
000002a0: 7563 7f3e 21b0 e33b d334 5dbd c280 f0bb
000002b0: 0b56 213d deb3 173d 96d6 303e bd79 473d
000002c0: 31ca b3bd 4ffa 10be 182c a2bd d686 1bbd
000002d0: c37c 813c 75ef 04bd 43ae ddbd 9261 2a3e
000002e0: e95e 743d b35b 1b3d bcc0 3bbd 463e 133d
000002f0: a109 653e bc4b 023d ad23 ef3d 8d14 063e
00000300: e20f a43e 91ae b73d 45e5 6f3d c81b 8c3c
00000310: 5931 193d 7438 dbbd fe91 70bd 2334 79be
00000320: 0faa 973e cd9c 9abd a0fa 5cbd c772 aebd
00000330: c6f3 523e 9402 cb3d 5aae f7bd fec5 ca3d
00000340: dcc8 2bbc a5cd b4bb 7955 833e 31d6 5d3d
00000350: deb0 283e 8daf 82bc 189a 35bd 776d c53d
00000360: 882c 4dbd af0f dbbd df0a a9bd 1802 963d
00000370: 151f ed3d 1db9 6e3e 434e 0d3e e0e0 243e
00000380: f69f 5cbd 9ea3 e23d 6b71 073d 7437 323e
00000390: 6679 873d a0bd 92bd e327 42be 8eea 233d
000003a0: b2b8 ebbd c90c 89be 81b7 c23c 5da9 1abe
000003b0: e73f 1a3e d37d 21bd ef63 053d 2b32 d8bd
000003c0: a77a 9d3d bb42 103d d38b b4bd 3751 093e
000003d0: 6ba0 ea3d d7b6 d93c e6a2 883c 495a 3ebe
000003e0: 964e 00bd 1c5f 5c3c f28e 07be ae05 fc3d
000003f0: 0a47 06bd a121 12bd 56d3 f93a c35d c53d

network_body._body_endoder.seq_layers.0.bias f4 [128]
0.038351927 -0.05313444 0.038205717 0.02127967 0.0049574915 0.03816006 -0.015542894 0.037475917
-0.0014246196 0.015033527 0.060081974 0.0012137782 -0.042113546 -0.03914627 0.026096702 0.021401798
0.044272505 0.059499133 -0.018906118 -0.04885155 -0.013364736 -0.03966873 -0.023616346 -0.03366797
0.0553387 0.017966479 -0.044267554 -0.04871394 0.044415858 -0.016953943 0.0011885421 0.032829292
-0.041285705 -0.027105292 -0.030079853 0.017116956 0.028019523 0.032645587 -0.031946503 -0.04047688
-0.044342533 -0.036884166 0.056031026 0.0033350112 0.017975252 0.037157904 0.03571205 -0.026741011
0.048272062 -0.033842586 0.008414607 -0.024452897 0.055519793 0.032119576 -0.03633486 0.01701127
-0.046826515 0.031487387 -0.017494287 -0.04733227 -0.05001558 -0.008969668 -0.0015009628 -0.031184556
0.04094346 0.04880081 -0.005400763 0.028904254 0.04517453 -0.044646095 0.006591124 -0.014013765
-0.024367236 0.0039441832 -0.04079363 -0.009361871 -0.041091736 -0.05073213 0.019450514 -0.049435288
0.012117378 0.038678356 -0.045270883 0.045208815 0.037188977 0.005533072 0.004906893 0.04680261
-0.00062769256 -0.03244458 -0.030721731 0.043728594 -0.051720984 0.016837249 -0.045723062 -0.042514835
-0.041749794 0.041905086 0.059856042 -0.048481353 -0.0015058066 0.013711331 -0.04646293 0.04076301
0.048717543 0.019108748 0.015928108 0.061401468 0.033326183 -0.012993257 0.02618458 -0.014258659
0.035465598 0.023956018 0.05241396 0.008869551 0.05637679 0.04231316 -0.048100665 0.019419074
0.024838772 0.034588378 0.03553249 0.054405343 -0.015818635 0.009804549 -0.005261232 -0.057098154
00000000: e916 1d3d 80a3 59bd 997d 1c3d b452 ae3c
00000010: 7472 a23b b94d 1c3d 9fa7 7ebc 5980 193d
00000020: 4dba baba 2f4f 763c 8418 763d a317 9f3a
00000030: 417f 2cbd d757 20bd c0c8 d53c d352 af3c
00000040: 1657 353d 5db5 733d 01e1 9abc 9018 48bd
00000050: c4f7 5abc ae7b 22bd 1177 c1bc 6de7 09bd
00000060: d5aa 623d 702e 933c e551 35bd 4588 47bd
00000070: 67ed 353d ffe2 8abc dbc8 9b3a 0278 063d
00000080: 331b 29bd eb0b debc 066a f6bc dc38 8c3c
00000090: 3389 e53c 61b7 053d 56da 02bd 16cb 25bd
000000a0: 84a0 35bd da13 17bd ca80 653d 3490 5a3b
000000b0: d640 933c e332 183d cc46 123d f70f dbbc
000000c0: edb8 453d 869e 0abd 6bdd 093c 7151 c8bc
000000d0: b968 633d d18f 033d ddd3 14bd 385b 8b3c
000000e0: 29cd 3fbd ebf8 003d 2e50 8fbc 7bdf 41bd
000000f0: 23dd 4cbd 84f5 12bc f4bb c4ba c176 ffbc
00000100: 54b4 273d 5ce3 473d e2f8 b0bb 9dc8 ec3c
00000110: ee08 393d d3de 36bd 5bfa d73b fe99 65bc
00000120: cc9d c7bc 353e 813b 3917 27bd 8862 19bc
00000130: cf4f 28bd 7ecc 4fbd af56 9f3c a87c 4abd
00000140: f887 463c 326d 1e3d f66d 39bd e12c 393d
00000150: 7853 183d c64e b53b 00ca a03b 18b4 3f3d
00000160: bc8b 24ba 9ce4 04bd 24ac fbbc c11c 333d
00000170: 62d9 53bd 45ee 893c 1b48 3bbd 0924 2ebd
00000180: d501 2bbd aba4 2b3d 9c2b 753d 6294 46bd
00000190: 7c5e c5ba 7ea5 603c ea4f 3ebd 1df7 263d
000001a0: 0c8c 473d f389 9c3c aa7b 823c 1b80 7b3d
000001b0: 0981 083d abe1 54bc 0b81 d63c 279d 69bc
000001c0: 6044 113d 693f c43c 05b0 563d 9851 113c
000001d0: 59eb 663d 9050 2d3d 3405 45bd c014 9f3c
000001e0: ae7a cb3c 8bac 0d3d 848a 113d 23d8 5e3d
000001f0: 1596 81bc 42a3 203c 6a66 acbb c1df 69bd

network_body._body_endoder.seq_layers.2.weight f4 [128, 128]
0.014157597 0.004376463 0.008011001 0.017543714 0.005146327 -0.026648832 0.079866104 0.106992945
-0.009386163 -0.08118864 -0.00039895528 -0.07674154 0.04376393 0.07913452 -0.07532366 -0.10744464
0.0036982812 0.13764124 -0.12892678 -0.13936205 -0.06894959 0.03019419 -0.00953494 0.10159244
0.012093846 -0.033824153 -0.19993035 -0.047006674 -0.04508652 -0.076955974 -0.0049056043 0.06960929
0.06142655 -0.031156966 0.029730497 0.05512469 0.032106966 -0.1418787 -0.1282948 0.12822755
-0.015698198 0.067384765 -0.0075049438 -0.0017575932 0.052288048 0.05105208 0.17462237 -0.02742768
-0.08001905 -0.041722838 -0.12299276 0.03032453 0.12931776 0.12377507 -0.051908333 -0.09963209
-0.004647526 0.13742872 0.0029090494 -0.12680772 -0.14582945 0.06024211 0.015025022 -0.020166
0.025276309 -0.08785463 0.059671495 0.083736606 0.107023425 0.11954682 -0.05877258 0.05560795
0.093335114 0.06777589 0.074561045 -0.17952994 0.010927135 -0.053690344 0.08070277 -0.0039509856
0.005287723 -0.0910231 0.104484975 0.1552986 0.054797985 0.03077508 -0.0038787285 0.16076516
0.0012160066 -0.061879978 0.057053577 0.0058423714 0.011282335 -0.0015258234 0.05116797 -0.09485011
-0.03184546 0.071460016 -0.0849548 -0.06480066 0.16242784 -0.0975307 0.13403219 0.0930884
0.12460262 0.095353715 0.02031318 0.0058184243 0.075539514 -0.29866803 -0.008505002 0.08535949
0.05132136 0.020782996 -0.06738718 -0.08059551 0.06795135 0.014618784 0.013155363 0.08818341
-0.18415797 0.035044193 -0.15930347 0.22638959 0.0051518693 0.05559841 -0.06090538 0.041952595
-0.03834723 0.0927151 -0.026368057 -0.04372332 0.025464846 -0.09525207 0.10284322 0.07172245
-0.13364622 -0.044696894 0.045662653 -0.006864401 0.08287588 -0.029978443 0.014165352 -0.0036515687
0.12165075 -0.08978393 -0.072180726 -0.05520733 -0.054226305 -0.020256897 0.085417695 -0.07295561
0.10075612 -0.11074031 -0.041858107 -0.15442482 0.04644368 -0.016301906 -0.10117933 0.089524105
0.0932418 -0.061573397 0.121035025 0.08474178 0.09407586 0.07128683 -0.066959195 0.0821295
-0.14175738 0.027740916 0.05604296 0.0061777104 0.043628503 -0.035045475 0.036261477 -0.039602134
-0.08985505 -0.084664054 0.09302713 -0.046315465 -0.0021388966 0.09014647 0.08978352 -0.039269894
0.027264226 0.0088429535 -0.05707943 -0.026820995 0.06833109 0.10677395 -0.04117379 -0.10495444
-0.062274083 0.035469 -0.06869145 -0.03573053 0.032348823 0.099142976 -0.13558583 -0.023646796
-0.06805617 0.062114425 0.019847505 -0.03344678 -0.13915187 0.1520196 -0.02881411 -0.040505294
0.07275251 0.06218952 -0.1049596 0.07597731 0.059647445 0.014662539 -0.12470968 0.06517783
-0.017171903 -0.020446196 -0.08227482 -0.01229301 0.15745452 0.15730245 0.014604037 -0.1451565
0.06967938 0.0011810138 -0.08039135 -0.11162872 0.07296915 -0.022136908 -0.016209785 -0.14247927
0.1335239 -0.047893018 0.008177504 -0.026777962 -0.06672565 -0.0131181 0.13122267 -0.09763293
0.07023397 0.033511203 0.24798587 -0.08593464 -0.020190112 0.11892987 -0.0051768594 0.007080189
-0.01759118 0.14163943 0.22723152 0.08815715 0.0050918455 0.028054435 -0.1203747 0.06997891
00000000: 44f5 673c 6f68 8f3b 9340 033c d6b7 8f3c
00000010: 85a2 a83b a74e dabc d790 a33d 1e1f db3d
00000020: 6cc8 19bc 3b46 a6bd df2a d1b9 ab2a 9dbd
00000030: cf41 333d 4711 a23d 4b43 9abd ef0b dcbd
00000040: dd5e 723b d3f1 0c3e 6205 04be edb4 0ebe
00000050: 7135 8dbd ce59 f73c 7038 1cbc b20f d03d
00000060: 4425 463c 328b 0abd 8bba 4cbe 128a 40bd
00000070: a5ac 38bd 189b 9dbd 31bf a0bb 518f 8e3d
00000080: 689a 7b3d e53c ffbc 5f8d f33c 6dca 613d
00000090: 9882 033d a648 11be b65f 03be 154e 033e
000000a0: 8299 80bc 0601 8a3d 08ec f5bb 0b5f e6ba
000000b0: fe2b 563d fc1b 513d 35d0 323e 04b0 e0bc
000000c0: 07e1 a3bd 91e5 2abd a1e3 fbbd 266b f83c
000000d0: e06b 043e c97d fd3d d59d 54bd e90b ccbd
000000e0: 464a 98bb 1dba 0c3e c0a5 3e3b e2d9 01be
000000f0: 5154 15be 6ec0 763d 832b 763c 2b33 a5bc
00000100: 4310 cf3c 21ed b3bd 196a 743d 197e ab3d
00000110: 192f db3d f7d4 f43d 84bb 70bd 29c5 633d
00000120: 7b26 bf3d 16ce 8a3d 76b3 983d b2d6 37be
00000130: ba07 333c 68ea 5bbd 7e47 a53d 4577 81bb
00000140: a344 ad3b 526a babd 38fc d53d 9906 1f3e
00000150: da73 603d 051c fc3c 4432 7ebb 9f9f 243e
00000160: 6962 9f3a dc75 7dbd 03b1 693d 5d71 bf3b
00000170: 8bd9 383c 23fe c7ba 8195 513d c640 c2bd
00000180: 6370 02bd a159 923d c8fc adbd 35b6 84bd
00000190: 7c53 263e 2dbe c7bd bc3f 093e 22a5 be3d
000001a0: a92f ff3d cf48 c33d d367 a63c 7ba8 be3b
000001b0: 76b4 9a3d 04eb 98be 9058 0bbc f5d0 ae3d
000001c0: 5936 523d 1a41 aa3c 4a02 8abd 420f a5bd
000001d0: 142a 8b3d a083 6f3c 9789 573c 8199 b43d
000001e0: e893 3cbe 808a 0f3d 7320 23be acd2 673e
000001f0: 03d1 a83b 29bb 633d eb77 79bd 7cd6 2b3d
00000200: fc11 1dbd 6ae1 bd3d d301 d8bc 3917 33bd
00000210: a79b d03c 8413 c3bd 779f d23d 38e3 923d
00000220: 8eda 08be 1714 37bd c308 3b3d c5ee e0bb
00000230: d4ba a93d 5a95 f5bc cb15 683c 284f 6fbb
00000240: 0724 f93d a3e0 b7bd 7dd3 93bd 1521 62bd
00000250: 671c 5ebd cbf1 a5bc 79ef ae3d c069 95bd
00000260: 3a59 ce3d d1cb e2bd 6873 2bbd 8a21 1ebe
00000270: ba3b 3e3d 938b 85bc 1c37 cfbd 6a58 b73d
00000280: 8ff5 be3d 6334 7cbd 36e1 f73d 198d ad3d
00000290: d8aa c03d d4fe 913d e721 89bd 8333 a83d
000002a0: d928 11be eb40 e33c 4e8d 653d 646e ca3b
000002b0: cdb3 323d d88b 0fbd ea86 143d d935 22bd
000002c0: ed05 b8bd 5964 adbd 0285 be3d 49b5 3dbd
000002d0: bb2c 0cbb b69e b83d 6ce0 b73d 78d9 20bd
000002e0: 3a59 df3c 09e2 103c 1fcc 69bd b4b7 dbbc
000002f0: 2cf1 8b3d 4dac da3d d9a5 28bd 5af2 d6bd
00000300: 1c13 7fbd f147 113d 1aae 8cbd 2d5a 12bd
00000310: 3380 043d 790b cb3d 03d7 0abe edb6 c1bc
00000320: 0961 8bbd b26b 7e3d 3c97 a23c 7eff 08bd
00000330: d47d 0ebe 07ab 1b3e 920b ecbc e1e8 25bd
00000340: 45ff 943d 70ba 7e3d 0ff5 d6bd fe99 9b3d
00000350: e150 743d 253b 703c ca67 ffbd f47b 853d
00000360: 17ac 8cbc c87e a7bc b37f a8bd 9f68 49bc
00000370: c23b 213e e513 213e c545 6f3c e8a3 14be
00000380: 10b4 8e3d 3fcc 9a3a 38a4 a4bd 999d e4bd
00000390: da70 953d 7658 b5bc 62ca 84bc 16e6 11be
000003a0: 7dba 083e 782b 44bd f0fa 053c 755d dbbc
000003b0: 75a7 88bd 4ded 56bc 3c5f 063e c6f3 c7bd
000003c0: d4d6 8f3d 0b43 093d 02f0 7d3e 80fe afbd
000003d0: bc65 a5bc 8191 f33d a5a2 a9bb ee00 e83b
000003e0: 611b 90bc ed09 113e 61af 683e bc8b b43d
000003f0: 7fd9 a63b 6ad2 e53c 0387 f6bd 1a51 8f3d

network_body._body_endoder.seq_layers.2.bias f4 [128]
0.045430955 0.04106623 -0.039203726 0.054796316 0.031144705 -0.042477045 -0.04072719 0.0074690506
0.041435782 0.055118043 -0.0020707313 0.047020193 0.055548575 0.036083367 -0.05255285 0.044845182
-0.016286176 0.020160465 0.022353161 0.0026321283 -0.0385478 0.043302763 0.025084 0.03429068
0.04969515 0.004860754 0.03488243 -0.042693634 0.023439016 -0.0026940026 0.05223283 0.042229805
0.014960862 0.03314487 -0.015317418 0.035414506 0.010902723 0.037716154 -0.025556417 0.047914196
0.05221198 0.047254108 -0.038683906 0.042004403 -0.046733186 -0.042908136 -0.042787276 0.0051327646
-0.017573165 0.0047466396 0.0445533 0.04653647 0.009441915 -0.031497985 -0.000657144 -0.052572627
-0.041772954 0.013937328 -0.041924343 -0.014484265 0.045551814 0.023492567 -0.042936053 0.048607375
-0.009000768 -0.031957656 -0.009303702 -0.050566178 -0.04122929 0.013459573 0.0025632265 -0.0066435914
0.039382834 -0.03444017 -0.032627136 -0.00019708934 -0.0014157548 0.020350352 0.03535955 0.039707255
0.011172262 0.022449594 -0.0513332 0.02744508 -0.04354563 -0.038697954 -0.03405963 -0.031123267
-0.03290499 -0.014296113 0.046894275 0.019657008 -0.04144632 0.033074047 0.008046177 0.0511632
-0.016517658 0.028785227 0.022108797 0.030006813 0.05229825 -0.027763305 -0.04264622 0.049104635
0.013396733 -0.04348858 -0.01777223 0.049236026 0.055317223 0.049414735 0.0409079 0.037090953
-0.04666871 -0.048119288 -0.042752884 -0.002446366 0.020342516 -0.04551513 -0.047833256 -0.038454417
0.014804075 0.026484875 -0.03075152 0.036977857 0.051742908 -0.04269454 0.04297976 0.026601397
00000000: cf15 3a3d 1035 283d 1694 20bd 1a72 603d
00000010: 2e23 ff3c 69fc 2dbd 8ed1 26bd f0be f43b
00000020: 91b8 293d 75c3 613d 1bb5 07bb 3f98 403d
00000030: e786 633d 27cc 133d a841 57bd 95af 373d
00000040: 966a 85bc 8f27 a53c fa1d b73c c97f 2c3b
00000050: 4ce4 1dbd 3d5e 313d f67c cd3c 6274 0c3d
00000060: 248d 4b3d f646 9f3b e1e0 0e3d 85df 2ebd
00000070: 2e03 c03c dd8d 30bb 18f2 553d 29f9 2c3d
00000080: 671e 753c eac2 073d e8f5 7abc cd0e 113d
00000090: 56a1 323c 417c 1a3d b15b d1bc ad41 443d
000000a0: 3bdc 553d 868d 413d 0473 1ebd cf0c 2c3d
000000b0: 4c6b 3fbd 71c0 2fbd b641 2fbd c030 a83b
000000c0: 99f5 8fbc b389 9b3b 857d 363d 079d 3e3d
000000d0: 43b2 1a3c 0804 01bd 3044 2cba 6556 57bd
000000e0: 1e1a 2bbd 6459 643c dcb8 2bbd 694f 6dbc
000000f0: 8a94 3a3d 7c73 c03c b7dd 2fbd 8718 473d
00000100: f577 13bc 08e6 02bd 8e6e 18bc 7b1e 4fbd
00000110: 0be0 28bd 8a85 5c3c cefb 273b 7cb2 d9bb
00000120: e54f 213d 2311 0dbd 08a4 05bd c4a9 4eb9
00000130: d990 b9ba c8b5 a63c 2dd5 103d 13a4 223d
00000140: dd0b 373c 36e8 b73c c342 52bd 81d4 e03c
00000150: e75c 32bd bf81 1ebd 1c82 0bbd 39f6 febc
00000160: 62c7 06bd 3e3a 6abc 3614 403d bc07 a13c
00000170: 9ec3 29bd a778 073d 1dd4 033c 8190 513d
00000180: 0a50 87bc ffce eb3c 821d b53c d9d0 f53c
00000190: b136 563d df6f e3bc cead 2ebd f121 493d
000001a0: f97d 5b3c 1521 32bd 1197 91bc b7ab 493d
000001b0: 5094 623d 1b67 4a3d 0b8f 273d afec 173d
000001c0: b027 3fbd bb18 45bd a61d 2fbd 3653 20bb
000001d0: 59a5 a63c 136e 3abd ceec 43bd 6182 1dbd
000001e0: ca8c 723c cff6 d83c 9dea fbbc 1876 173d
000001f0: 5ff0 533d 78e0 2ebd 8b0b 303d 2ceb d93c

action_model._continuous_distribution.log_sigma f4 [1, 2]
-0.035841245 -0.041953903
00000000: 45ce 12bd dbd7 2bbd

action_model._continuous_distribution.mu.weight f4 [2, 128]
-0.020407464 0.012270582 0.006602602 -0.0048206123 0.009200593 0.007962489 0.00847692 0.011516052
-0.032730047 -0.008514022 0.010822742 -0.023577694 -0.0040955367 -0.03823512 0.009163135 0.0010164721
0.016873978 0.014208037 -0.018537614 -0.020363767 0.016478162 5.5902547e-05 -0.030253557 0.005469934
-0.009603507 -0.0020756712 -0.013815401 0.016412433 0.012615478 0.009632294 -0.019489644 -0.0296568
0.008112172 -0.02093826 0.043579265 -0.020945903 -0.004756473 -0.027260657 -0.016499866 -0.009639951
-0.0039550676 0.008653443 0.0030244703 -0.023896592 0.01904052 0.013863429 0.011755107 0.03620159
-0.047972992 0.019251334 -0.03263781 -0.028123653 -0.014377158 -0.013072493 0.0018907065 0.01285456
-0.0023643402 -0.0035690842 0.03155395 0.01217193 -0.015345642 -0.00969748 0.033362832 -0.03163794
0.022278937 -0.004440461 0.014441412 0.023874365 0.00055026985 -0.03154421 0.034035802 -0.019974846
0.0062913387 -0.008696917 0.012963133 0.0076885573 0.036395248 -0.014773876 0.0035277542 0.004666292
-0.018184604 -0.0066632833 0.022611167 -0.04836551 0.041114006 -0.00048408922 -0.011510661 -0.031379495
-0.00884456 -0.011051865 -0.056301877 -0.030463422 -0.0037388988 -0.013285455 -0.004126328 -0.024437424
0.024851572 -0.0034095568 -0.017556762 0.0008924371 -0.017916307 0.026543671 0.026242 -0.014875935
0.012303541 0.02820896 0.012537851 -0.000690706 -0.0068201167 0.0045968387 -0.0049211322 -0.04392408
0.0038475904 0.013947098 0.024655256 0.02261948 0.021775154 0.004354177 0.010207694 0.019096874
0.0039459146 -0.016538685 -0.014376372 -0.0060071023 -0.0037232577 -0.0045063496 -0.028366309 0.0043221796
0.056600723 0.036985878 -0.021487268 0.02809583 0.03681261 -0.0077906474 -0.018642984 0.0018281541
0.021967288 0.047513276 0.011780463 0.05278902 0.042971477 0.03929867 -0.027986454 0.025069438
0.012919013 0.0227084 0.00836073 -0.0012958407 0.0072592725 0.049916506 0.01791284 0.038097896
0.055653214 0.028203463 0.0227554 -0.02095824 0.019901251 0.0034989968 0.044800803 0.038779236
0.027487008 0.022136683 0.021316035 0.027795486 0.024309577 0.031006241 -0.014295419 0.040238377
0.04213279 0.06099948 -0.0477516 0.030481862 -0.015190942 -0.0260124 -0.0526456 0.014835504
-0.053691752 0.01799583 0.022472208 0.034813844 0.01935997 -0.045588907 0.016845163 -0.03307827
-0.009458367 0.0069224485 -0.0122008035 -0.0052320915 0.04637046 0.017941259 -0.06764373 0.07713393
-0.009600579 -0.041016478 0.01585828 -0.037616182 -0.06656621 0.012761391 0.01257859 -0.0021515281
0.051688775 -0.009990434 -0.020532856 0.0040681353 0.009749069 0.0314685 0.022684742 0.051685303
0.00032535417 -0.011784408 -0.0125117935 0.021848382 -0.038474623 -0.021257082 -0.050528858 -0.020322064
-0.026748357 -0.02440059 0.0569386 0.011448489 -0.06101027 0.02198414 0.007551973 0.021258272
-0.0034229585 0.012080715 0.00035625 0.01540483 0.03829512 -0.000913577 -0.028615955 0.035360176
0.01626818 -0.023026843 0.013348793 0.05093423 0.02686075 0.058600307 0.048079934 0.0062806075
-0.026711782 -0.049382955 -0.04927077 0.0030587076 0.0284252 -0.061855655 -0.02562671 -0.042993676
-0.0034222999 0.012703155 -0.018261958 0.042072687 0.03161555 -0.032270398 0.029838786 0.023140196
00000000: 8e2d a7bc 8d0a 493c a45a d83b 3af6 9dbb
00000010: 16be 163c 1975 023c c8e2 0a3c d3ad 3c3c
00000020: f10f 06bd 667e 0bbc df51 313c 0226 c1bc
00000030: da33 86bb 6e9c 1cbd f920 163c 253b 853a
00000040: 4c3b 8a3c d4c8 683c 32dc 97bc ead1 a6bc
00000050: 36fd 863c e778 6a38 4fd6 f7bc 223d b33b
00000060: 0758 1dbc fc07 08bb fe59 62bc 5e73 863c
00000070: 26b1 4e3c c5d0 1d3c bfa8 9fbc d1f2 f2bc
00000080: eae8 043c b786 abbc 2c80 323d be96 abbc
00000090: 30dc 9bbb be51 dfbc ba2a 87bc e3f0 1dbc
000000a0: 8399 81bb 2cc7 0d3c 3136 463b c9c2 c3bc
000000b0: ddfa 9b3c 7023 633c 7e98 403c 1e48 143d
000000c0: 547f 44bd f9b4 9d3c 39af 05bd 9363 e6bc
000000d0: 2c8e 6bbc 022e 56bc 95d1 f73a ef9b 523c
000000e0: 0cf3 1abb 4ce7 69bb b73e 013d c66c 473c
000000f0: 4a6c 7bbc 2ee2 1ebc 77a7 083d c996 01bd
00000100: 5182 b63c 4981 91bb ac9b 6c3c 2c94 c33c
00000110: fc3f 103a 8034 01bd 2069 0b3d 4aa2 a3bc
00000120: 9327 ce3b 847d 0ebc 5263 543c 4bf0 fb3b
00000130: 2f13 153d 210e 72bc e531 673b b2e7 983b
00000140: e1f7 94bc ac57 dabb 0e3b b93c ea1a 46bd
00000150: 2967 283d 5bcd fdb9 3697 3cbc c987 00bd
00000160: c6e8 10bc e212 35bc cc9c 66bd 6d8e f9bc
00000170: 5008 75bb 3dab 59bc 2636 87bb fe30 c8bc
00000180: 8695 cb3c df72 5fbb 33d3 8fbc 71f2 693a
00000190: 38c5 92bc 1d72 d93c 76f9 d63c 32ba 73bc
000001a0: cb94 493c 7a16 e73c 8f6b 4d3c 7f10 35ba
000001b0: 497b dfbb 14a1 963b 7341 a1bb bce9 33bd
000001c0: db27 7c3b 5e82 643c d2f9 c93c 7d4c b93c
000001d0: cf61 b23c 7cad 8e3b 2c3e 273c 0c71 9c3c
000001e0: bb4c 813b 237c 87bc e08a 6bbc 3ad7 c4bb
000001f0: e601 74bb 00aa 93bb 7660 e8bc 12a1 8d3b
00000200: 29d6 673d 817e 173d 1106 b0bc 3a29 e63c
00000210: d2c8 163d b048 ffbb 2cb9 98bc ac9e ef3a
00000220: bef4 b33c 489d 423d d802 413c 4d39 583d
00000230: dc02 303d a4f7 203d d943 e5bc 6c5e cd3c
00000240: 45aa 533c f706 ba3c 71fb 083c 33d9 a9ba
00000250: 31df ed3b 4075 4c3d f3bd 923c 8a0c 1c3d
00000260: a0f4 633d f30a e73c 8869 ba3c 9db0 abbc
00000270: f307 a33c 6d4f 653b 0c81 373d fad6 1e3d
00000280: 6f2c e13c fd57 b53c f79e ae3c 5cb3 e33c
00000290: e124 c73c cd00 fe3c 5537 6abc ffd0 243d
000002a0: 6f93 2c3d 97da 793d 2f97 43bd 19b5 f93c
000002b0: 6ee3 78bc f517 d5bc eaa2 57bd 9d10 733c
000002c0: e2eb 5bbd fe6b 933c a317 b83c f698 0e3d
000002d0: cd98 9e3c 6fbb 3abd defe 893c 147d 07bd
000002e0: 44f7 1abc b5d5 e23b e1e5 47bc f771 abbb
000002f0: f4ee 3d3d 8cf9 923c cc88 8abd 65f8 9d3d
00000300: bf4b 1dbc e500 28bd 39e9 813c 6d13 1abd
00000310: dd53 88bd 2715 513c 6e16 4e3c a700 0dbb
00000320: 9cb7 533d ebae 23bc 8534 a8bc fe4d 853b
00000330: 8fba 1f3c 1de5 003d 5ad5 b93c f8b3 533d
00000340: 4c94 aa39 6413 41bc 44fe 4cbc 61fb b23c
00000350: 9197 1dbd 5523 aebc 59f7 4ebd 757a a6bc
00000360: 5f1f dbbc bfe3 c7bc 7338 693d 7192 3b3c
00000370: e8e5 79bd 1518 b43c 8b76 f73b d425 ae3c
00000380: b753 60bb 31ee 453c 11c7 ba39 8a64 7c3c
00000390: 58db 1c3d 1d7d 6fba 026c eabc d5d5 103d
000003a0: d944 853c caa2 bcbc e5b4 5a3c 69a0 503d
000003b0: 130b dc3c e006 703d 77ef 443d 8ecd cd3b
000003c0: abd2 dabc c845 4abd 26d0 49bd 9974 483b
000003d0: f7db e83c 5b5c 7dbd 1bef d1bc 231a 30bd
000003e0: aa48 60bb e520 503c 1a9a 95bc 6954 2c3d
000003f0: 4f7f 013d f72d 04bd 7870 f43c 8290 bd3c

action_model._continuous_distribution.mu.bias f4 [2]
-0.023173368 0.042561572
00000000: 13d6 bdbc 0b55 2e3d

exp_avg f4 [128, 56]
4.172493e-06 9.4983945e-05 2.0428583e-05 2.6272655e-05 9.760464e-05 -1.9869063e-12 9.6621065e-05 -1.9869063e-12
3.5159548e-05 -1.9869063e-12 -1.0960896e-06 -1.9869063e-12 -6.7487285e-06 -1.9869063e-12 -6.6166954e-06 -1.9869063e-12
-6.5506815e-06 -1.9869063e-12 -6.4846668e-06 -1.9869063e-12 -6.352638e-06 -1.9869063e-12 7.2184207e-07 -1.9869063e-12
2.4600327e-05 -1.9869063e-12 7.235824e-05 -1.9869063e-12 1.4402354e-05 8.185983e-05 1.1422237e-05 2.043145e-05
7.739816e-05 -1.5867687e-12 7.661816e-05 -1.5867687e-12 2.5340083e-05 -1.5867687e-12 -7.8996857e-07 -1.5867687e-12
-5.9563995e-06 -1.5867687e-12 -5.839866e-06 -1.5867687e-12 -5.7816023e-06 -1.5867687e-12 -5.723337e-06 -1.5867687e-12
-5.6068097e-06 -1.5867687e-12 6.6184646e-07 -1.5867687e-12 2.2555636e-05 -1.5867687e-12 6.634387e-05 -1.5867687e-12
-2.6292835e-06 0.00036910694 8.965241e-05 8.255139e-05 0.00029983715 -6.0523695e-12 0.00029681556 -6.0523695e-12
0.00012245282 -6.0523695e-12 -3.8174812e-06 -6.0523695e-12 -1.7960083e-05 -6.0523695e-12 -1.7608714e-05 -6.0523695e-12
-1.7433029e-05 -6.0523695e-12 -1.725735e-05 -6.0523695e-12 -1.6905986e-05 -6.0523695e-12 1.7202518e-06 -6.0523695e-12
5.862605e-05 -6.0523695e-12 0.00017243953 -6.0523695e-12 -2.8195252e-06 0.0004302695 8.389797e-05 8.387143e-05
0.00030707222 -6.2171266e-12 0.00030397778 -6.2171266e-12 0.00012119857 -6.2171266e-12 -3.7784098e-06 -6.2171266e-12
-1.9404077e-05 -6.2171266e-12 -1.9024448e-05 -6.2171266e-12 -1.883464e-05 -6.2171266e-12 -1.8644838e-05 -6.2171266e-12
-1.8265224e-05 -6.2171266e-12 1.9101076e-06 -6.2171266e-12 6.509562e-05 -6.2171266e-12 0.00019146822 -6.2171266e-12
-8.36602e-06 9.026945e-05 2.6091571e-05 1.3569743e-05 4.65846e-05 -9.196115e-13 4.6115176e-05 -9.196115e-13
2.5586438e-05 -9.196115e-13 -7.97595e-07 -9.196115e-13 -1.6713716e-06 -9.196115e-13 -1.6386667e-06 -9.196115e-13
-1.6223185e-06 -9.196115e-13 -1.6059707e-06 -9.196115e-13 -1.5732758e-06 -9.196115e-13 4.368287e-08 -9.196115e-13
1.491942e-06 -9.196115e-13 4.39001e-06 -9.196115e-13 -2.1678914e-05 0.00016914989 3.9122835e-05 2.7260048e-05
9.6372314e-05 -1.9250842e-12 9.540116e-05 -1.9250842e-12 4.4886667e-05 -1.9250842e-12 -1.3993073e-06 -1.9250842e-12
-4.67962e-06 -1.9250842e-12 -4.5880643e-06 -1.9250842e-12 -4.5422894e-06 -1.9250842e-12 -4.4965154e-06 -1.9250842e-12
-4.404968e-06 -1.9250842e-12 3.6199268e-07 -1.9250842e-12 1.2339131e-05 -1.9250842e-12 3.6294277e-05 -1.9250842e-12
-1.0078239e-05 -3.9046845e-05 -8.627283e-06 3.815871e-06 1.6034584e-05 -3.4034342e-13 1.5872942e-05 -3.4034342e-13
-7.6605323e-07 -3.4034342e-13 2.382002e-08 -3.4034342e-13 -1.8610194e-06 -3.4034342e-13 -1.8246174e-06 -3.4034342e-13
-1.8064101e-06 -3.4034342e-13 -1.7882072e-06 -3.4034342e-13 -1.7517955e-06 -3.4034342e-13 3.3536062e-07 -3.4034342e-13
1.1425712e-05 -3.4034342e-13 3.3605655e-05 -3.4034342e-13 1.4589211e-05 -0.00015095044 -3.6821057e-05 -2.1230324e-05
-7.385443e-05 1.4658178e-12 -7.311025e-05 1.4658178e-12 -3.8114536e-05 1.4658178e-12 1.1881972e-06 1.4658178e-12
3.075258e-06 1.4658178e-12 3.0150995e-06 1.4658178e-12 2.9850166e-06 1.4658178e-12 2.954939e-06 1.4658178e-12
2.8947773e-06 1.4658178e-12 -1.5290793e-07 1.4658178e-12 -5.213517e-06 1.4658178e-12 -1.5334836e-05 1.4658178e-12
-3.5656758e-06 -0.00010815146 -1.505088e-05 -3.2801803e-05 -0.00012397776 2.5396469e-12 -0.00012272829 2.5396469e-12
-3.8748614e-05 2.5396469e-12 1.2080651e-06 2.5396469e-12 9.429265e-06 2.5396469e-12 9.244799e-06 2.5396469e-12
9.152562e-06 2.5396469e-12 9.060326e-06 2.5396469e-12 8.875852e-06 2.5396469e-12 -1.115785e-06 2.5396469e-12
-3.8021935e-05 2.5396469e-12 -0.000111833535 2.5396469e-12 -3.652999e-05 -8.560496e-06 1.8086876e-05 -5.9868203e-06
00000000: 7101 8c36 1e32 c738 0c5e ab37 1964 dc37
00000010: 18b1 cc38 ecd0 0bac 0aa1 ca38 ecd0 0bac
00000020: 4778 1338 ecd0 0bac 5a1d 93b5 ecd0 0bac
00000030: 2373 e2b6 ecd0 0bac fb04 deb6 ecd0 0bac
00000040: edcd dbb6 ecd0 0bac dd96 d9b6 ecd0 0bac
00000050: bf28 d5b6 ecd0 0bac 9cc4 4135 ecd0 0bac
00000060: cd5c ce37 ecd0 0bac 09bf 9738 ecd0 0bac
00000070: a4a1 7137 29ac ab38 22a2 3f37 3464 ab37
00000080: d250 a238 5e51 dfab 10ae a038 5e51 dfab
00000090: 6a91 d437 5e51 dfab 3a0e 54b5 5e51 dfab
000000a0: 15dd c7b6 5e51 dfab 11f4 c3b6 5e51 dfab
000000b0: 96ff c1b6 5e51 dfab 170b c0b6 5e51 dfab
000000c0: 2122 bcb6 5e51 dfab bea9 3135 5e51 dfab
000000d0: dc35 bd37 5e51 dfab 1822 8b38 5e51 dfab
000000e0: bf72 30b6 b284 c139 c503 bc38 711f ad38
000000f0: 7633 9d39 e6f2 d4ac e99d 9b39 e6f2 d4ac
00000100: ae66 0039 e6f2 d4ac ea17 80b6 e6f2 d4ac
00000110: fca8 96b7 e6f2 d4ac 6db6 93b7 e6f2 d4ac
00000120: 253d 92b7 e6f2 d4ac e0c3 90b7 e6f2 d4ac
00000130: 54d1 8db7 e6f2 d4ac 67e3 e635 e6f2 d4ac
00000140: 3ee5 7538 e6f2 d4ac e2d0 3439 e6f2 d4ac
00000150: 1337 3db6 cb95 e139 61f2 af38 22e4 af38
00000160: 89fe a039 e6be daac 355f 9f39 e6be daac
00000170: fd2b fe38 e6be daac 9690 7db6 e6be daac
00000180: f0c5 a2b7 e6be daac b196 9fb7 e6be daac
00000190: 15ff 9db7 e6be daac 7c67 9cb7 e6be daac
000001a0: 4538 99b7 e6be daac 662f 0036 e6be daac
000001b0: f283 8838 e6be daac dcc4 4839 e6be daac
000001c0: c85b 0cb7 0b4f bd38 39df da37 9aa9 6337
000001d0: d563 4338 7f6c 81ab cb6b 4138 7f6c 81ab
000001e0: 75a2 d637 7f6c 81ab 501a 56b5 7f6c 81ab
000001f0: e453 e0b5 7f6c 81ab 29f0 dbb5 7f6c 81ab
00000200: 70be d9b5 7f6c 81ab bc8c d7b5 7f6c 81ab
00000210: 5829 d3b5 7f6c 81ab d39d 3b33 7f6c 81ab
00000220: bd3e c835 7f6c 81ab e64d 9336 7f6c 81ab
00000230: 1ddb b5b7 d45d 3139 d317 2438 82ac e437
00000240: 7e1b ca38 3c77 07ac 1c12 c838 3c77 07ac
00000250: b144 3c38 3c77 07ac d5cf bbb5 3c77 07ac
00000260: a105 9db6 3c77 07ac 2cf3 99b6 3c77 07ac
00000270: f869 98b6 3c77 07ac c6e0 96b6 3c77 07ac
00000280: 63ce 93b6 3c77 07ac e557 c234 3c77 07ac
00000290: 2a04 4f37 3c77 07ac af3a 1838 3c77 07ac
000002a0: b515 29b7 3bc6 23b8 e6bd 10b7 150a 8036
000002b0: 0282 8637 a898 bfaa e226 8537 a898 bfaa
000002c0: c7a2 4db5 a898 bfaa c79c cc32 a898 bfaa
000002d0: 24c8 f9b5 a898 bfaa 60e5 f4b5 a898 bfaa
000002e0: c773 f2b5 a898 bfaa 5502 f0b5 a898 bfaa
000002f0: 3c1f ebb5 a898 bfaa 9d0b b434 a898 bfaa
00000300: 0fb1 3f37 a898 bfaa ccf3 0c38 a898 bfaa
00000310: 2fc4 7437 7348 1eb9 4f70 1ab8 c617 b2b7
00000320: 4ce2 9ab8 a74b ce2b c452 99b8 a74b ce2b
00000330: 2cdd 1fb8 a74b ce2b 257a 9f35 a74b ce2b
00000340: 8860 4e36 a74b ce2b 0457 4a36 a74b ce2b
00000350: 3252 4836 a74b ce2b 774d 4636 a74b ce2b
00000360: e543 4236 a74b ce2b 032f 24b4 a74b ce2b
00000370: c5ef aeb6 a74b ce2b 4fa3 80b7 a74b ce2b
00000380: d849 6fb6 5fcf e2b8 0a83 7cb7 ab94 09b8
00000390: 0700 02b9 36b6 322c a0b0 00b9 36b6 322c
000003a0: 0286 22b8 36b6 322c cd24 a235 36b6 322c
000003b0: 6332 1e37 36b6 322c 1c1a 1b37 36b6 322c
000003c0: f48d 1937 36b6 322c ce01 1837 36b6 322c
000003d0: 7ee9 1437 36b6 322c 15c2 95b5 36b6 322c
000003e0: be79 1fb8 36b6 322c 2c88 eab8 36b6 322c
000003f0: c737 19b8 0d9f 0fb7 45b9 9737 65e2 c8b6

exp_avg_sq f4 [128, 56]
1.1283014e-06 1.1837099e-06 3.428727e-07 1.9669994e-07 4.5217337e-07 1.0098744e-21 4.370085e-07 1.0077421e-21
4.5081052e-07 1.0166864e-21 3.9049507e-07 1.0223498e-21 2.3228776e-07 1.0174747e-21 3.499056e-07 1.0080325e-21
6.540332e-07 1.0258783e-21 6.687282e-07 1.0237653e-21 4.127405e-07 1.0189599e-21 3.6486352e-07 1.0101484e-21
4.8902393e-07 1.0219173e-21 4.0816877e-07 1.0125421e-21 1.2447654e-06 1.2546577e-06 3.7872067e-07 2.0669931e-07
4.957298e-07 1.0878284e-21 4.869063e-07 1.0854505e-21 4.967516e-07 1.093167e-21 4.1162122e-07 1.0994325e-21
2.4687077e-07 1.0967483e-21 3.7954476e-07 1.0852164e-21 6.9766907e-07 1.1031118e-21 7.1277043e-07 1.101568e-21
4.494591e-07 1.0967022e-21 3.8312345e-07 1.0871748e-21 5.052247e-07 1.098473e-21 4.3704853e-07 1.0895415e-21
1.1786562e-06 1.3467491e-06 3.71434e-07 1.9140064e-07 1.5268779e-06 1.2343142e-21 1.7347854e-06 1.2269858e-21
6.5492713e-07 1.2304755e-21 3.1098463e-07 1.2349003e-21 1.5280693e-07 1.2323831e-21 1.5674617e-07 1.2307607e-21
3.122872e-07 1.2360917e-21 3.7811202e-07 1.235616e-21 3.1810902e-07 1.2337687e-21 1.8029357e-07 1.2341704e-21
2.1251479e-07 1.2271134e-21 9.589029e-07 1.2319805e-21 1.4355631e-06 1.6545848e-06 4.6657485e-07 2.2619798e-07
1.7655537e-06 1.4305882e-21 2.0832877e-06 1.4207975e-21 7.877928e-07 1.4256261e-21 3.4454717e-07 1.42928e-21
1.5838712e-07 1.4275423e-21 1.7647905e-07 1.4264985e-21 3.5731225e-07 1.4311779e-21 4.3028902e-07 1.4308089e-21
3.94263e-07 1.4292482e-21 2.0745311e-07 1.4288077e-21 2.1915932e-07 1.4163172e-21 1.0759863e-06 1.4261327e-21
1.3890938e-06 1.3694485e-06 7.128996e-07 1.7071471e-07 9.3727203e-07 1.2054912e-21 7.8898836e-07 1.202476e-21
2.8183317e-07 1.2129132e-21 1.3384482e-07 1.2157295e-21 1.0131652e-07 1.2155063e-21 2.5963107e-07 1.2154853e-21
6.6323497e-07 1.2167254e-21 7.235786e-07 1.216606e-21 6.0781775e-07 1.214393e-21 4.998585e-07 1.2156739e-21
6.1449913e-07 1.2154804e-21 7.7613953e-07 1.2111421e-21 1.5692588e-06 1.4728033e-06 7.8945374e-07 1.82805e-07
1.0204542e-06 1.3181031e-21 8.8917426e-07 1.3163339e-21 3.2939082e-07 1.3240764e-21 1.4886335e-07 1.3282869e-21
1.096844e-07 1.3282951e-21 2.8318124e-07 1.3280149e-21 7.153773e-07 1.3293497e-21 7.8273627e-07 1.3292832e-21
6.850325e-07 1.3274981e-21 5.3623756e-07 1.328015e-21 6.483438e-07 1.3255282e-21 8.3937584e-07 1.3240878e-21
2.0367836e-06 1.4387524e-06 1.2466764e-06 2.738076e-07 7.34787e-07 1.5515859e-21 5.210629e-07 1.5551363e-21
3.1940894e-07 1.5608295e-21 3.6478633e-07 1.5642108e-21 1.7484147e-07 1.5608894e-21 2.8702812e-07 1.5596102e-21
1.0064934e-06 1.5670239e-21 1.2238875e-06 1.5642564e-21 1.2986437e-06 1.5572763e-21 7.0483895e-07 1.5550863e-21
7.3997677e-07 1.5617858e-21 7.531208e-07 1.5476422e-21 2.266925e-06 1.5847932e-06 1.3549386e-06 2.8890238e-07
8.3511526e-07 1.6778352e-21 6.4007827e-07 1.6831816e-21 3.704894e-07 1.6868573e-21 3.837697e-07 1.6903e-21
1.835093e-07 1.6881647e-21 3.024175e-07 1.6860931e-21 1.0707146e-06 1.6932195e-21 1.3039355e-06 1.6909789e-21
1.4112171e-06 1.6838985e-21 7.355084e-07 1.6817069e-21 7.520815e-07 1.6867551e-21 8.131185e-07 1.6741944e-21
8.2245464e-07 8.385609e-07 4.6375993e-07 1.2746591e-07 5.625625e-07 7.364965e-22 5.734734e-07 7.331333e-22
2.8867365e-07 7.3823684e-22 1.2056071e-07 7.3934735e-22 4.9137284e-08 7.3899823e-22 1.4841291e-07 7.3851765e-22
4.3638224e-07 7.397339e-22 5.462194e-07 7.396614e-22 4.088441e-07 7.366005e-22 2.3130781e-07 7.383867e-22
2.0809313e-07 7.3630394e-22 3.5316253e-07 7.372534e-22 9.124035e-07 8.937921e-07 5.127656e-07 1.3468838e-07
00000000: 2470 9735 f6df 9e35 1114 b834 7834 5334
00000010: 3cc2 f234 a09b 981c fe9d ea34 2249 981c
00000020: ed06 f234 26a3 991c 3ca5 d134 3e7e 9a1c
00000030: c66a 7934 a5c1 991c a9da bb34 5e54 981c
00000040: d290 2f35 bf06 9b1c a782 3335 00b5 9a1c
00000050: 9f96 dd34 1afb 991c 76e2 c334 39a6 981c
00000060: 7845 0335 836d 9a1c 4a22 db34 d302 991c
00000070: d011 a735 b665 a835 f952 cb34 13f1 5d34
00000080: 4b12 0535 5363 a41c f2b3 0235 5507 a41c
00000090: 8358 0535 da31 a51c cafc dc34 3c24 a61c
000000a0: a989 8434 65bc a51c 3cc4 cb34 47fe a31c
000000b0: 7447 3b35 92b2 a61c 3655 3f35 d976 a61c
000000c0: 304d f134 9dba a51c 16b0 cd34 0a4a a41c
000000d0: c79e 0735 1eff a51c 7ea3 ea34 98a5 a41c
000000e0: 5232 9e35 f2c1 b435 8069 c734 cf83 4d34
000000f0: 20ef cc35 3886 ba1c c6d6 e835 b76a b91c
00000100: 40ce 2f35 b7f1 b91c 67f5 a634 e49c ba1c
00000110: 4013 2434 833b ba1c 0f4e 2834 c0fc b91c
00000120: 6da8 a734 fbca ba1c 52ff ca34 94b8 ba1c
00000130: 92c8 aa34 1d71 ba1c b896 4134 a880 ba1c
00000140: 9f2f 6434 a66f b91c a7b3 8035 f02b ba1c
00000150: 93ad c035 1a13 de35 8f7d fa34 d4e0 7234
00000160: f7f7 ec35 332f d81c 9cce 0b36 71b4 d61c
00000170: b678 5335 3d6f d71c 34fa b834 98fc d71c
00000180: 1f11 2a34 5eb9 d71c 317e 3d34 fd90 d71c
00000190: 9fd4 bf34 0346 d81c 7902 e734 bd37 d81c
000001a0: 18ab d334 5dfb d71c 47c0 5e34 52ea d71c
000001b0: 0e52 6b34 1e07 d61c 9c6a 9035 d682 d71c
000001c0: e670 ba35 e4cd b735 165e 3f35 b44d 3734
000001d0: d898 7b35 2f2b b61c deca 5335 89b6 b51c
000001e0: db4e 9734 4f4a b71c fcb6 0f34 42b7 b71c
000001f0: 5993 d933 9fae b71c 6c63 8b34 cfad b71c
00000200: 2909 3235 c9dd b71c f13b 4235 2ad9 b71c
00000210: eb28 2335 8e83 b71c 042e 0635 1bb5 b71c
00000220: 0ff4 2435 9fad b71c e757 5035 ca05 b71c
00000230: 529f d235 23ad c535 d9ea 5335 0e49 4434
00000240: 8af6 8835 a52f c71c 97af 6e35 34eb c61c
00000250: 21d7 b034 ba16 c81c 3fd7 1f34 9cb9 c81c
00000260: a38b eb33 eeb9 c81c 2208 9834 17af c81c
00000270: 5b08 4035 bae2 c81c 3a1d 5235 27e0 c81c
00000280: 13e3 3735 189b c81c f7f1 0f35 18af c81c
00000290: d909 2e35 e34e c81c 7851 6135 2a17 c81c
000002a0: adaf 0836 281b c135 7a53 a735 d4ff 9234
000002b0: 2e3e 4535 1278 ea1c 2bdf 0b35 6c01 eb1c
000002c0: 3b7b ab34 abdd eb1c dad7 c334 7960 ec1c
000002d0: 0fbc 3b34 fcdf eb1c d818 9a34 7fae eb1c
000002e0: da16 8735 4dcd ec1c 7444 a435 3d62 ec1c
000002f0: 0f4d ae35 3554 eb1c 2a34 3d35 7dff ea1c
00000300: d1a2 4635 a902 ec1c 112a 4a35 82df e91c
00000310: 7a21 1836 14b5 d435 56db b535 711a 9b34
00000320: af2c 6035 1b8c fd1c d8d1 2b35 ef5a fe1c
00000330: ade7 c634 22e9 fe1c e808 ce34 506e ff1c
00000340: a70a 4534 b51b ff1c f25b a234 91cb fe1c
00000350: 79b5 8f35 42df ff1c e202 af35 9488 ff1c
00000360: 0d69 bd35 ab76 fe1c c16f 4535 e221 fe1c
00000370: a6e2 4935 2de5 fe1c 1445 5a35 42ff fc1c
00000380: a7c6 5c35 7719 6135 aefa f834 90dd 0834
00000390: 0003 1735 a897 5e1c cbf0 1935 7193 5d1c
000003a0: 01fb 9a34 4f1e 5f1c 7a73 0134 3b74 5f1c
000003b0: 040b 5333 3859 5f1c 6e5b 1f34 0934 5f1c
000003c0: eb47 ea34 2392 5f1c e99f 1235 878c 5f1c
000003d0: 1b7f db34 b49f 5e1c 685d 7834 e729 5f1c
000003e0: 3470 5f34 c288 5e1c 4a9a bd34 38d2 5e1c
000003f0: e4eb 7435 edec 6f35 fca4 0935 dc9e 1034

exp_avg f4 [128]
8.3192375e-05 0.0003259565 0.00010092989 -7.685109e-05 -3.331607e-05 8.2132276e-05 -0.0001156507 -0.0003609463
-4.3261978e-05 2.981667e-05 -0.00034619213 6.221738e-05 0.00050631055 0.00025141853 3.3934397e-05 1.502526e-05
-0.000658048 -0.00043002074 0.00061692164 0.00023078854 3.6408026e-05 0.00013995857 0.00014937895 0.00033748892
-0.00042293535 -0.00035867677 0.00031700946 7.533235e-05 -0.00025517802 0.0002127803 -0.00021976444 -0.00031493139
-3.5951056e-05 0.00024684545 -4.3024233e-05 -6.63024e-05 -6.798438e-05 -0.00019767976 0.00052225374 -3.1268588e-05
-6.35017e-05 -8.717422e-05 -0.00010091224 0.00013930381 -0.0003925896 -0.0002593612 -0.00018772461 0.00022696944
-0.00047625913 -0.00011107209 0.00010624018 0.00052118866 -0.00033822402 -0.0005084708 -3.9592232e-05 -0.00020342671
-0.000110509274 -3.566108e-05 1.1478201e-05 0.000118981356 1.9362975e-05 0.00014435156 0.00023428687 0.00044297744
-0.0001299078 -0.00013923056 -0.00032992708 -0.00013369172 -0.00013062079 0.00023965271 0.00018061866 0.00011863339
-0.00016207794 -4.888376e-05 0.0005173785 -7.4088006e-05 0.00018593446 1.50927435e-05 -5.44545e-05 0.000559969
-0.00010008899 -0.00026392852 9.7950964e-05 -4.4442702e-05 -4.1005653e-05 0.0001484951 0.00017351 -0.000977443
0.00033626836 0.00016765845 6.633259e-05 3.9089413e-05 0.00038740598 -4.4190736e-05 3.320392e-06 -6.995321e-05
0.00022615155 -0.00015837958 -0.00015621874 -3.4787736e-05 -7.567909e-05 0.00018143743 0.00029561456 -8.5050655e-05
0.00016108768 -3.639369e-05 0.00013713301 -0.00019283312 -1.3045049e-05 -4.7891805e-05 -5.5050346e-05 -0.00013643561
8.063807e-05 -2.7365173e-05 -0.00015920716 6.871574e-05 -0.00022287699 -0.0005172221 0.00019485356 0.0001160556
-4.297381e-05 -8.533814e-06 -4.709923e-05 -0.00036658143 0.00021096569 0.0001762284 -0.00014911474 0.0005341943
00000000: 9177 ae38 24e5 aa39 52aa d338 1d2b a1b8
00000010: dcbc 0bb8 6e3e ac38 7f89 f2b8 643d bdb9
00000020: 3274 35b8 d01e fa37 1f81 b5b9 b47a 8238
00000030: edb9 043a d3d0 8339 c854 0e38 0015 7c37
00000040: db80 2cba 6874 e1b9 e9b8 213a d4ff 7139
00000050: d2b4 1838 d8c1 1239 9ba2 1c39 fff0 b039
00000060: 6cbd ddb9 c80c bcb9 4a34 a639 bffb 9d38
00000070: 6ac9 85b9 c71d 5f39 9170 66b9 601d a5b9
00000080: 27ca 16b8 096b 8139 eb74 34b8 d40b 8bb8
00000090: d692 8eb8 4248 4fb9 dbe7 083a 6426 03b8
000000a0: 372c 85b8 4ed1 b6b8 d9a0 d3b8 1512 1239
000000b0: 7cd4 cdb9 dffa 87b9 f1d7 44b9 a5fe 6d39
000000c0: 6bb2 f9b9 60ef e8b8 43cd de38 61a0 083a
000000d0: a953 b1b9 e64a 05ba d60f 26b8 f14e 55b9
000000e0: 37c1 e7b8 cb92 15b8 7f92 4037 a185 f938
000000f0: ac6d a237 145d 1739 e7aa 7539 6d3f e839
00000100: dc37 08b9 6bfe 11b9 10fa acb9 992f 0cb9
00000110: 40f7 08b9 494b 7b39 7464 3d39 d1ca f838
00000120: 77f3 29b9 8a08 4db8 afa0 073a b25f 9bb8
00000130: 67f7 4239 d736 7d37 1366 64b8 e2ca 123a
00000140: dee6 d1b8 e35f 8ab9 066b cd38 fd67 3ab8
00000150: 7cfd 2bb8 5ab5 1b39 3cf0 3539 8b1d 80ba
00000160: 2d4d b039 79cd 2f39 0a1c 8b38 f0f3 2338
00000170: c01c cb39 7159 39b8 e6d3 5e36 d8b3 92b8
00000180: 1823 6d39 b212 26b9 a6ce 23b9 0ce9 11b8
00000190: e7b5 9eb8 3d40 3e39 b7fc 9a39 395d b2b8
000001a0: a5e9 2839 6da5 18b8 5dcb 0f39 3f33 4ab9
000001b0: 0fdc 5ab7 6fdf 48b8 dce5 66b8 2810 0fb9
000001c0: 3c1c a938 438e e5b7 d9f0 26b9 7b1b 9038
000001d0: 16b4 69b9 3096 07ba 9b51 4c39 e062 f338
000001e0: c73e 34b8 742c 0fb7 6a8c 45b8 ba31 c0b9
000001f0: ac36 5d39 f3c9 3839 af5b 1cb9 2c09 0c3a

exp_avg_sq f4 [128]
3.0281365e-06 3.9329925e-06 3.6539109e-06 4.648174e-06 2.2024715e-06 3.3598503e-06 1.8245468e-06 3.395815e-05
7.6400084e-07 1.2586049e-06 4.081426e-05 5.492795e-07 2.7571004e-05 4.2723254e-06 7.3555866e-06 3.1505592e-06
5.4280255e-05 2.0816497e-05 3.7149202e-05 2.7564412e-05 6.1222313e-06 1.9146726e-06 4.4777216e-06 1.8263378e-05
3.6945727e-05 5.6035196e-06 2.8445054e-05 2.4407413e-05 2.7160335e-05 2.267882e-05 6.84481e-06 1.7770875e-05
5.6753233e-06 2.8733916e-06 4.5962106e-06 2.7971955e-06 8.006987e-06 1.5574598e-05 1.6421043e-05 5.8223814e-06
1.7541057e-05 3.1919808e-06 1.0302889e-05 1.273164e-06 1.875827e-05 1.8063121e-05 1.19379565e-05 6.692813e-06
1.6735003e-05 2.116644e-06 6.227925e-06 2.8343225e-05 8.974448e-06 3.0826162e-05 2.7551482e-06 3.8864237e-06
3.8769e-06 3.0447552e-06 7.747731e-06 9.072444e-06 1.3918946e-05 4.467102e-06 5.7121497e-06 7.938911e-06
5.129885e-06 1.9058933e-05 1.4162118e-05 2.9561525e-06 7.965771e-06 4.293399e-06 2.0450584e-06 4.4178423e-06
9.085084e-06 6.7987658e-06 8.905689e-06 2.1297903e-05 7.760918e-06 1.7351414e-05 1.3948237e-05 3.1162566e-05
3.2482822e-06 6.1624337e-06 3.1232852e-05 5.137142e-06 5.286443e-06 1.7088336e-06 2.9279408e-06 4.3422522e-05
5.2154987e-06 1.5504958e-05 1.7610202e-05 4.3407995e-06 1.4854202e-05 1.2939636e-05 3.001014e-05 1.3227601e-05
3.382093e-05 2.0784115e-05 4.6395076e-06 3.3475999e-06 1.078462e-06 1.8535353e-06 1.4286022e-05 3.2966548e-06
1.4351956e-05 4.9463806e-06 5.8437276e-06 5.5138837e-05 6.2150643e-06 2.8572497e-06 6.7720343e-06 3.3651859e-06
5.791702e-06 2.882245e-06 9.015035e-06 4.8855736e-06 9.061111e-06 1.3261394e-05 1.4254946e-05 1.7509241e-06
1.9775916e-06 7.2809535e-06 6.654432e-06 4.8651254e-05 5.1711318e-06 5.1329534e-06 4.7785593e-06 2.2786664e-05
00000000: fd36 4b36 26f8 8336 b635 7536 83f7 9b36
00000010: 2cce 1336 ca79 6136 f3e2 f435 496e 0e38
00000020: bd15 4d35 56ed a835 fa2f 2b38 3372 1335
00000030: 4848 e737 ff5a 8f36 02d0 f636 326e 5336
00000040: fbaa 6338 169f ae37 a7d0 1b38 203a e737
00000050: 916d cd36 d37d 0036 563f 9636 4e34 9937
00000060: 2cf6 1a38 de05 bc36 4a9d ee37 85be cc37
00000070: 60d6 e337 653e be37 78ac e536 aa12 9537
00000080: a86e be36 7ed4 4036 2639 9a36 74b7 3b36
00000090: bf55 0637 32a6 8237 ecbf 8937 e05d c336
000000a0: 2225 9337 d035 5636 92da 2c37 95e1 aa35
000000b0: 145b 9d37 4286 9737 2249 4837 d392 e036
000000c0: 2562 8c37 ab0b 0e36 78f9 d036 9dc2 ed37
000000d0: f690 1637 574b 0138 16e5 3836 2068 8236
000000e0: 5116 8236 7f54 4c36 40fc 0137 da35 1837
000000f0: 6b85 6937 1de4 9536 feaa bf36 5d31 0537
00000100: 6021 ac36 bfe0 9f37 d599 6d37 5062 4636
00000110: baa4 0537 0410 9036 d63d 0936 fa3c 9436
00000120: 236c 1837 f420 e436 a569 1537 e6a8 b237
00000130: e434 0237 e18d 9137 3903 6a37 8db4 0238
00000140: 10fd 5936 e7c6 ce36 0500 0338 b75f ac36
00000150: 3362 b136 135b e535 a47d 4436 9420 3638
00000160: cb00 af36 a510 8237 9fb9 9337 2fa7 9136
00000170: 5036 7937 5017 5937 49be fb37 1dec 5d37
00000180: f2da 0d38 8c59 ae37 11ad 9b36 54a7 6036
00000190: acbf 9035 fdc6 f835 ffad 6f37 193c 5d36
000001a0: 2fc9 7037 16f9 a536 3d15 c436 e044 6738
000001b0: ff8a d036 2dbf 3f36 553b e336 74d5 6136
000001c0: 5756 c236 986c 4136 483f 1737 c2ee a336
000001d0: 2d05 1837 417d 5e37 8728 6f37 4b01 eb35
000001e0: c4b6 0436 ea4e f436 2349 df36 e30e 4c38
000001f0: af83 ad36 bc3b ac36 8357 a036 fd25 bf37
