results/circle/DroneAgent/DroneAgent-30499941.pt (torch, 596377 bytes, 36 tensors)

network_body._body_endoder.seq_layers.0.weight f4 [128, 56]
00000000: 12f1 e4bc aade b1bf a1be cbbe c73e da3e
00000010: de88 843f e951 533e 7c94 b6bf 7b11 0ebf
00000020: 87dc d63e 457d f5bf 80a8 de3d a580 7c3e
00000030: 594c cfbf 9ba4 95be c156 e23e afe2 c6bf
00000040: 304d 033e 4f2a 0d3e 5008 c0bf 63c4 58bf
00000050: 3752 2e3e ca54 bbbf fe49 20be af78 f93e
00000060: 8f41 06c0 7950 8d3e d8e6 e43e b991 a5bf
00000070: c5fe 9d3e 90dc 5e3d 5b4f 3abf ffb2 873d
00000080: 981e 2bbc 1f5f 68bf 1857 0ebc 9ce0 193e
00000090: ac6b 5cbf ea9c 863e 3396 75be 0602 e3be
000000a0: 9049 4ebe 8bf7 353d bd73 f2be ce5a 0a3e
000000b0: 1214 81bd 3b74 8fbe 63e1 cfbe b4a1 febc
000000c0: 1b95 3e3e 8a5c 16bf 7067 e1bd d170 69be
000000d0: f7a7 5f3d e677 083e bd8a 95bd 66fb f13c
000000e0: 364e 94be 1fe6 1fc0 75f6 90bd c7c7 bc3e
000000f0: 2c58 963e fd20 423e d108 10c0 395c fcbd
00000100: f772 163f 726c e1bf 0679 bdbe 64dd a73e
00000110: 2e56 c7bf e6c5 0ebe b71e 363f 1234 b9bf
00000120: ce85 1bbe f526 fc3e e714 b1bf 793c 35be
00000130: c5c2 d03e eb1e 68bf 3e54 b53c 9a99 c63e
00000140: 348d a4bf 5c9e 383d bedd 9e3e 0278 acbf
00000150: 4cf4 c9bd 90a7 f63e f748 a4bf c2fb 983c
00000160: 3078 8cbe a2a4 3dbf 7e5d a93d 93b9 813d
00000170: f9b7 43bf 4cad a3be 0b70 d53e 3981 31bf
00000180: fa6a 2a3e 07b6 24be 0d09 1cbf b20b 913d
00000190: a973 61be b92a e7be ce5e 82be 519a 9c3e
000001a0: b026 3dbf 2533 aebd 2b9a bfbd 760c 5abc
000001b0: d339 663d 8121 91bd a3d0 84bd c840 243e
000001c0: ee7f 613e eaa9 f3bf 6a46 e6be 19d5 e5be
000001d0: 0d3e 9e3f cb20 683e 5b23 06c0 404e cdbe
000001e0: 6fde 2a3f 14c3 08c0 c460 d4be 1126 94bb
000001f0: f9af d5bf d55b dfbe 33f3 433f 3260 d6bf
00000200: b897 a73e 7322 bf3d 5cf3 b9bf e089 c0be
00000210: dc99 853e 3685 81bf 4a96 a9be 925f 9a3e
00000220: 98d4 d7be b606 2f3d 8c04 6c3f 53f1 73bf
00000230: 2469 8a3e 01f4 343f 7bfa a8be 0261 953e
00000240: fe7b b43c 9753 cabe a948 8abe 9251 13bd
00000250: 2ccc 28bf cf11 9a3e 56ae 573d a54c 23bf
00000260: 0c16 1bbe b251 2f3d 4f86 eebe 717b 8cbe
00000270: 0788 663e 6df0 40bf 7e08 8abe f712 033e
00000280: bfd5 9fbe 176f c43c 0878 30be 3376 c43d
00000290: fd63 5dbe 3847 0ebe b848 4f3e fd63 d8bc
000002a0: 0949 86bc 3ddb 84bf f6cb d1be b358 1f3f
000002b0: 4d03 e0be 06a2 10bd c8d4 7abf 79f7 07bf
000002c0: e8eb 053f e1d2 f3bf b807 203f 147c 163f
000002d0: 4d52 e3bf 4758 67bd 6b3c c33e c81d bfbf
000002e0: ab08 9bbe 0e12 ac3e 7e15 94bf d0d5 0cbf
000002f0: 133a af3f 9f18 ddbf ecf4 b9be 6075 a03e
00000300: 7adf 86bf a132 85be bdde 593f f422 9abf
00000310: 0518 a9be ab56 383f 7e1d b8bf 4399 32bf
00000320: 1291 023f 06ef 1bbf a4cb c3bd d6bc 8e3e
00000330: 5d9b 05bf abed 41be 50aa 273d fa3b 02bf
00000340: d4b9 f9be 1197 b03e 5890 29bf f291 a73c
00000350: 5be4 bc3e 9ea0 88bf b369 8fbe d4fe 0e3e
00000360: acdb d03d 8943 9abe 2b8f 5cbe ad7e 9e3d
00000370: b02c e0be 8ce5 4dbd 468c 203d 2f9a 713d
00000380: 80a2 55be 9ef4 0cc0 972f fdbe f712 4b3e
00000390: 4e69 07bf f463 d5be 31e0 f3bf d837 3ebf
000003a0: 9656 393f a3a7 07c0 1a0f b5bb ea57 623e
000003b0: ac43 ddbf 9110 05bf 81be 043f e859 f7bf
000003c0: 689a 163e 8c48 ca3e 6546 98bf 1660 b4bd
000003d0: 7f70 f43e b1f0 5bbf 2955 d8be 052f 3a3f
000003e0: 0d90 59bf 006f b23e 4774 383f 9d61 25bf
000003f0: 8af7 5cbe 06f1 943e 4932 50bf 0ae3 10bf
-0.027946983 -1.3896077 -0.39793876 0.4262602 1.0354269 0.20636715 -1.4264064 -0.55495423
0.41965124 -1.9178854 0.108719826 0.24658449 -1.6195174 -0.29227147 0.44206813 -1.5537928
0.12822413 0.1378567 -1.5002537 -0.8467466 0.1702355 -1.463525 -0.15653226 0.48724887
-2.0977514 0.27600458 0.4470737 -1.2935096 0.30858436 0.054409564 -0.72777337 0.06625938
-0.010444306 -0.90770143 -0.008687757 0.15027088 -0.86101794 0.2629159 -0.23983078 -0.4433748
-0.2014525 0.04442553 -0.47353926 0.13511202 -0.06302656 -0.28018364 -0.40601644 -0.031082965
0.18611567 -0.58734953 -0.11006057 -0.22796942 0.054603543 0.13326988 -0.07301853 0.029538821
-0.2896592 -2.4984205 -0.07078258 0.36871168 0.29364145 0.18957897 -2.250538 -0.123222776
0.5876917 -1.761122 -0.37006396 0.32786095 -1.5573175 -0.1394268 0.7114062 -1.4469016
-0.15187761 0.49248472 -1.3834504 -0.1769885 0.40773597 -0.9067218 0.022134896 0.38789064
-1.2855592 0.0450729 0.3102855 -1.3474123 -0.09861049 0.48174715 -1.2834767 0.018674735
-0.27435446 -0.74079335 0.08269785 0.063342236 -0.76452595 -0.31968153 0.41687045 -0.69337803
0.16642371 -0.16085063 -0.6095131 0.07082309 -0.22016777 -0.45149782 -0.25462955 0.30586484
-0.7388716 -0.08505849 -0.09355577 -0.013308635 0.05620749 -0.070864685 -0.06485107 0.16040337
0.22021458 -1.9036229 -0.44975597 -0.44889143 1.2362686 0.2266876 -2.095908 -0.40098763
0.66745657 -2.1369066 -0.41480076 -0.0045211394 -1.6694328 -0.4362475 0.7654297 -1.6748106
0.3273294 0.093327425 -1.4527392 -0.3760519 0.26093948 -1.0118778 -0.33122474 0.3015104
-0.42154384 0.04273101 0.9219444 -0.95290107 0.2703334 0.7068482 -0.330036 0.29175574
0.02203178 -0.395169 -0.2700856 -0.035966463 -0.6593654 0.30091712 0.052656494 -0.63788825
-0.15145129 0.04280252 -0.46586844 -0.27437928 0.22512828 -0.7536686 -0.26959604 0.12800203
-0.31217763 0.023978753 -0.17233288 0.09592857 -0.21620174 -0.13894355 0.20242584 -0.026414866
-0.016392248 -1.0379406 -0.40975922 0.6224472 -0.43752518 -0.035310768 -0.9798093 -0.5311199
0.5231309 -1.904873 0.6251178 0.5878308 -1.7759491 -0.056480672 0.38132033 -1.4930964
-0.3028005 0.33607525 -1.1569059 -0.5501375 1.3689598 -1.7273139 -0.36319673 0.3133955
-1.053695 -0.2601519 0.85105497 -1.2041917 -0.33026138 0.72007245 -1.4384 -0.6976511
0.5100261 -0.60911596 -0.09560326 0.27878445 -0.5219019 -0.1893832 0.040933907 -0.50872767
-0.48774588 0.34490255 -0.66235876 0.020455334 0.3689297 -1.0674016 -0.2801033 0.13964397
0.10198149 -0.3012965 -0.21538989 0.07739005 -0.43784094 -0.05026774 0.039196275 0.05898493
-0.2086277 -2.2024302 -0.4945037 0.19831453 -0.5289506 -0.4167782 -1.9052793 -0.7430396
0.72397745 -2.1196067 -0.005525482 0.22103849 -1.7286277 -0.51978403 0.51853186 -1.9324312
0.14707339 0.39508474 -1.1896483 -0.088073894 0.47742078 -0.8591414 -0.42252472 0.72727996
-0.8498543 0.3485031 0.72052425 -0.6460207 -0.21578804 0.29090136 -0.8132673 -0.56596434

network_body._body_endoder.seq_layers.0.bias f4 [128]
00000000: 6f78 e5bf 0d9e 1fc0 e140 03c0 6478 c8bf
00000010: d6ff 07c0 a868 c6bf 9095 1ac0 a159 f7bf
00000020: ab71 12bd aa8a 16c0 a9bb c2be c202 12c0
00000030: 0dc4 11c0 852e 02bf 7c4c 03c0 b46d 93be
00000040: 6afa 7fbf 65c6 a9bf c989 dcbf 64f0 9abf
00000050: 0590 e2be 8ddd d6be b52d a4bf 6d81 9fbf
00000060: bc7b aebf a259 e8bf d846 93bf 7b52 53bf
00000070: e746 81bf ff25 54bf 75e4 3fbf 5937 bdbf
00000080: f9b8 4dc0 549c babf 8ee0 b4bf f2da 1cbf
00000090: 76d2 0b3f bb37 3bc0 d9cc 29c0 3c8a dfbf
000000a0: 6535 c0bf 8c97 fabf 47a8 86bf 7c73 1cc0
000000b0: 75b0 b8bf 98b3 39bf cd10 96be 0102 12c0
000000c0: e9d9 c7bf 2baf 28c0 38ef 3dc0 bcab d7bf
000000d0: 4cd8 39bf 2865 d7bf 2964 2dc0 db7e 31bf
000000e0: a5f9 71bf 6f87 83bf 6077 48bd 9909 e7bf
000000f0: 03da cabf 593e bcbf a784 00c0 f47d e2bf
00000100: 8501 04c0 26b8 72bf 96b8 c8bf 5037 14c0
00000110: 10cf edbf 72aa fcbe 7b91 afbf de12 11c0
00000120: 4860 c9bf c42d bfbd 4e33 d1bf d529 1bc0
00000130: 1ef7 99bf 65fa cbbf 575b c5be 57d8 04c0
00000140: edd8 403f 115f b9bf 8e60 bcbf 8163 0ac0
00000150: cce4 49bf c902 ddbf 15bd 08c0 1ee5 81bf
00000160: e326 88bf ff27 20bf fe60 6bbe b1d8 a1bf
00000170: 7fad 7ebf 8821 a2bf 9e41 1ebf 4e97 23c0
00000180: 9270 6dbf 5d7c c5bf f632 d9bf e146 04c0
00000190: 20de 95bf 4381 a7bf 7f0d bdbf c307 2ac0
000001a0: c3e8 80bf 519c 22c0 fe72 80bf 2bf6 e7bf
000001b0: 6d65 87bf 31b0 453e 0fb4 2cc0 b3dd 90bf
000001c0: 54b8 41bf 4f2e 0cc0 4a2c a0bf 8fdb f5bf
000001d0: 8d14 5abf c08d 58bf 45b7 3dc0 225f 89bf
000001e0: acd4 41bf da91 bfbf a2dd 96bf fad6 b7bf
000001f0: 4c8c 31bf ecd2 e4bf 1052 e4bf e6ab 8dbf
-1.7927378 -2.4940217 -2.050835 -1.566174 -2.12499 -1.5500689 -2.4153786 -1.9324228
-0.035752933 -2.3522134 -0.38033798 -2.2814183 -2.277591 -0.50852233 -2.0515432 -0.28794634
-0.99991477 -1.326367 -1.7229549 -1.2104611 -0.44250503 -0.41965905 -1.2826449 -1.2461373
-1.3631511 -1.8152354 -1.1505995 -0.8254773 -1.0099763 -0.8287048 -0.7495797 -1.4782516
-3.2144148 -1.4578958 -1.4131029 -0.61271584 0.5461801 -2.9252765 -2.653128 -1.7464061
-1.5016295 -1.9577498 -1.0520104 -2.4445486 -1.442885 -0.72539663 -0.29309693 -2.2813723
-1.5613376 -2.6356914 -2.9677258 -1.6849284 -0.7259567 -1.6827745 -2.7092383 -0.6933419
-0.9452155 -1.0275706 -0.04894197 -1.8049804 -1.5847782 -1.4706527 -2.0080965 -1.7694688
-2.0625927 -0.9481224 -1.5681331 -2.315876 -1.8578815 -0.4934879 -1.3716272 -2.2667766
-1.5732508 -0.09334901 -1.6343782 -2.4244282 -1.2028539 -1.5935789 -0.3854625 -2.0757043
0.75331 -1.4482137 -1.4716966 -2.1623232 -0.7886474 -1.7266475 -2.1365407 -1.0148046
-1.0636867 -0.6256103 -0.22986218 -1.2644254 -0.99483484 -1.2666483 -0.61818874 -2.55611
-0.92749894 -1.5428578 -1.6968677 -2.066826 -1.1708412 -1.3086323 -1.4769744 -2.6567237
-1.0071033 -2.5407908 -1.0035093 -1.8122 -1.0577828 0.19305493 -2.69849 -1.1317657
-0.7567189 -2.1903265 -1.2513516 -1.9207629 -0.8518761 -0.84591293 -2.964311 -1.0732157
-0.75715137 -1.4966385 -1.1786387 -1.4362481 -0.693547 -1.7876868 -1.7837543 -1.1068084

network_body._body_endoder.seq_layers.2.weight f4 [128, 128]
00000000: 507e 91be 358e 4cbd 165e 40be 9f5d f13d
00000010: 21cb 80bc 9820 13bd ed6b 683d 47b9 90be
00000020: 99c7 02bf 8463 68be 07c5 22bf ce75 a6bd
00000030: 0ffe 843e 6dfb 513e ff9c 1abf 7ab4 37be
00000040: 2ee6 e6be af8a 8c3d e8bb 033e a61d f5bd
00000050: 7e46 2e3d bbf1 9ebf 7209 3739 8035 92bf
00000060: d7b5 95be 5d49 a9bc 6241 843e f32f 84be
00000070: 19da 1c3e f0f0 f8bd fe03 053f 45f6 6dbe
00000080: b34b 1bbe 117c 45be 4c18 f63e c3fd e5be
00000090: c020 25bf 1db3 67be f6bc 013c cc0b 2cbf
000000a0: 3c20 38be db2d 91be 13ca d9be f2c8 0bbe
000000b0: 472a 443e d874 09bf 7a42 f0be 2484 473e
000000c0: d622 bebe a335 6ebe 6d65 803c 486b 40be
000000d0: 701e d0be 4fde 103e a98f 333e 110d 2abf
000000e0: bed5 6b3e ab7c 0e3e 71c7 87bd f7cf 46be
000000f0: 7d61 25bf 48d4 a4be e366 e43e 1821 c4bd
00000100: 7339 833e bba5 74bf 54b8 ab3d 4127 ebbd
00000110: 22b2 eabd 3401 42bf b6e2 173e 5a79 a8be
00000120: c9e0 3cbf 7063 13bf 1c8f cc3d 3251 81be
00000130: 1fe5 1dbd e291 acbd 089c 813c 9c19 44be
00000140: 1da9 32bf 3c38 1dbe eee5 85bd 5f31 94bd
00000150: 701c c0be b3bc 24be fff7 2dbd fc8e 04bf
00000160: afd5 92be d590 41be 19c0 02be 6a13 17be
00000170: 4eaf bb3d d196 9dbd 8b4e 113e 1f07 b53e
00000180: 9214 9abe 935b 0bbe 970c 06bf 16bb 9a3d
00000190: d6b8 d6bd 57de 91bd a7bf 223d b9df d0be
000001a0: 2337 b73e 3402 873d e540 1ebf 2992 57be
000001b0: d0cb 013d 1c07 f2be 557c 96bd 3ca4 f3bc
000001c0: 806f 4e3d ba21 d6be 0213 2bbd 1733 17bf
000001d0: ae89 5fbc fe12 3ebf 99fe 113c 7f56 ffbe
000001e0: 8e9c 8fbe 81cd 5bbf 31b0 adbe ca5f 6abe
000001f0: e51a 25bf 9b01 46bf e3d9 963c 30b5 313e
00000200: 0686 74be b052 bc3c 967b 9cbe 64e6 27bf
00000210: 2125 05bf cd30 eabe df63 56be a726 39be
00000220: f988 f7bd 4829 8ebd c91f 0c3d c033 f4bd
00000230: a562 aabd e76a 89be 9b69 d83e dbd3 2dbf
00000240: 7ba1 52bd adc4 21bf e64a d83e eb1a 3f3d
00000250: 4eae 29bf 65ff da3d 4125 1cbe 9f42 00bf
00000260: df7b 87be 42a8 2c3e 086e 3cbe 80ec 2dbf
00000270: 5eca 36be 9bdd 463e 34d6 1cbf 7f04 d4be
00000280: 377b 2f3e 3b7b 5abe 4f04 35bf 240e dcbd
00000290: 65d4 39bf 7d77 f8bc 4de3 3cbd aaf4 1d3e
000002a0: 44dd 8fbe c471 84be 4ca5 85bd 295f 7b3d
000002b0: 4f00 06bf f08c a2be 1a09 91be 1bad e03d
000002c0: 4332 253e fec2 94bb 7967 633e f343 983d
000002d0: d358 ddbe 7ac3 95be 5117 d63e c8d6 41be
000002e0: 0cb8 683e 9b20 f5bc 8c65 a53e 8a5d efbe
000002f0: c2b4 45bf c6af 503e 0fe4 b43d b8de 23be
00000300: b027 21be 5775 cfbd 8e8e 02bf 65cb bcbe
00000310: 0a06 68be fb56 75be c09a 0c3d fb55 37bd
00000320: a21c c8be e07a 2abf 49fd 99be bb2d 443e
00000330: f383 8cbd ab55 75be d816 583e 5185 a23e
00000340: 4588 d3bf 5c60 8abe 5fcf e8bd 58dc 9dbe
00000350: ed83 02bf 0500 da3e a275 d7be 83ae e83b
00000360: 97f5 b4be 98f8 e7be 82a0 63be 4702 94be
00000370: 5d68 e2be 21ec 063c 1b67 03bf cf4c 9ebe
00000380: 68ea 173d aca2 96be 50bc 3fbf f511 0c3e
00000390: 42ce a53e 0237 ddbe 2b2f 093b e935 813e
000003a0: 45ea 6f3d aef3 8fbe f46d e4be e6b8 473e
000003b0: eebc d5bc 1535 d2bd a6fc 4e3e 772b babe
000003c0: a0a1 7abe a78d 84be 2921 c0bd 820c 8d3d
000003d0: 9f89 6a3e e650 e63d 4dee d8be 8fca 1abe
000003e0: c653 17bf eed7 e2bd cbd4 3cbf 4042 f4be
000003f0: 8f13 e5be d44d 02bf 6495 e6bd 1b3f aabe
-0.2841668 -0.049940307 -0.18785891 0.11785435 -0.01572186 -0.035919756 0.05674355 -0.28266355
-0.5108581 -0.22694212 -0.6358189 -0.08127938 0.2597508 0.20506068 -0.6039581 -0.1793994
-0.45097488 0.06862389 0.1286465 -0.119685456 0.042547695 -1.241752 0.00017455759 -1.1422577
-0.29240295 -0.020664865 0.25831133 -0.25817832 0.15317573 -0.1215533 0.51959217 -0.23238476
-0.15165596 -0.19285609 0.48065412 -0.44920167 -0.645031 -0.2262692 0.007918587 -0.672055
-0.17981046 -0.28355297 -0.42536983 -0.13650873 0.19156753 -0.53693914 -0.46925718 0.19484001
-0.37135953 -0.23262648 0.015673364 -0.18790925 -0.40648222 0.14147304 0.17535271 -0.6642619
0.23030755 0.13914745 -0.06629837 -0.1941527 -0.6460188 -0.32193208 0.44609746 -0.09576625
0.25629768 -0.95565385 0.08384767 -0.114820965 -0.114597574 -0.75783086 0.14832577 -0.32905084
-0.73780495 -0.57573605 0.099882334 -0.2525726 -0.038548585 -0.084262624 0.015821472 -0.19150394
-0.69789296 -0.15353483 -0.06537996 -0.07235979 -0.37521696 -0.16087608 -0.042472836 -0.51780677
-0.28678653 -0.18902905 -0.12768592 -0.147535 0.09164296 -0.076947816 0.14190118 0.35356995
-0.3009382 -0.13609152 -0.5236296 0.07555215 -0.104844734 -0.07122486 0.039733555 -0.40795687
0.35784253 0.06592217 -0.6181777 -0.2105185 0.03168851 -0.4727105 -0.07347933 -0.029741399
0.050399303 -0.41822606 -0.041766174 -0.5906233 -0.013643665 -0.7424773 0.0089107985 -0.4987068
-0.2804913 -0.8586045 -0.33923486 -0.22888103 -0.6449416 -0.773462 0.018414443 0.17354274
-0.23879251 0.022988647 -0.3056304 -0.65585923 -0.5200978 -0.45740357 -0.20936535 -0.18081151
-0.12086672 -0.069414675 0.03421 -0.11923933 -0.08319596 -0.26839373 0.4226807 -0.6790139
-0.05142353 -0.6319073 0.42244643 0.04665653 -0.6628159 0.10693244 -0.15248586 -0.50101656
-0.26461694 0.1686106 -0.18401349 -0.67938995 -0.17850634 0.19420473 -0.6126435 -0.4140968
0.17136846 -0.21336071 -0.707097 -0.107448846 -0.72589713 -0.030330414 -0.04611521 0.15425363
-0.280985 -0.25868046 -0.065256685 0.06137005 -0.5234422 -0.31748152 -0.28327256 0.10970517
0.16132455 -0.0045398464 0.2220744 0.07434835 -0.4323183 -0.292507 0.41814664 -0.18929589
0.22726458 -0.029922774 0.32304037 -0.46751052 -0.7722894 0.20379552 0.08832561 -0.16002929
-0.15737796 -0.10129803 -0.5099877 -0.36873928 -0.22658554 -0.23958962 0.03432727 -0.04475973
-0.39084345 -0.6659374 -0.30076054 0.1915807 -0.06861105 -0.23958461 0.21102464 0.31742337
-1.6525961 -0.2702664 -0.11367678 -0.3083217 -0.5098255 0.4257814 -0.42081934 0.0071008815
-0.3534362 -0.4530685 -0.22229198 -0.28907987 -0.44220248 0.008235008 -0.513292 -0.30917975
0.03708878 -0.29420984 -0.7489672 0.13678725 0.32383925 -0.4320603 0.0020932655 0.25236443
0.058573026 -0.281156 -0.44615138 0.19504127 -0.026091065 -0.10264031 0.20213565 -0.36361286
-0.24475718 -0.25889322 -0.09381325 0.06887151 0.22904061 0.11245899 -0.4236931 -0.15116332
-0.59112203 -0.110763416 -0.73762196 -0.47706795 -0.44741485 -0.50900006 -0.11258963 -0.3325127

network_body._body_endoder.seq_layers.2.bias f4 [128]
00000000: 5cb5 c0bf 8087 46bf dbca 83bf 8be0 50bf
00000010: 320a abbf 27df 3abf 1db1 87bf cba7 67bf
00000020: e652 ffbe 8a0a aebc 5e65 bebe d622 193f
00000030: 28af 88bf 639c 99bf a5aa debf 29b4 d93d
00000040: 083a ddbf fea6 03bf 7c30 7abf 2d36 d5bf
00000050: 5ada 82bf c365 bfbf 3b63 9fbf 32cd 69bf
00000060: ebb2 b0be 5931 71bf 76d3 76bf 6837 61bf
00000070: 8e66 98bf 1ffb 0dbf 5c33 5fbf 8fa1 cfbf
00000080: 64c8 033e d1a3 96bf 76b3 c2bf 5fd8 b9bf
00000090: 230d 16bf 759c 16bf 4aa1 69bf 9d20 27bf
000000a0: c348 85bf ef02 79bf 5807 28bf ae6d e7bf
000000b0: 58a5 b7bf c735 94bf e5c5 59bd c22a 13bf
000000c0: fafd c7bc 6deb 1cbf 90a8 20bf e133 a1bd
000000d0: ef73 f9be d0af 763e e1f1 89bf fd3b ebbe
000000e0: aa2d 86bf de86 373f 1b25 32bf 8be6 31bf
000000f0: d570 93bf a063 3bbf 9942 0abf 7e7e acbf
00000100: 6dfa 35bf 0c80 82bf 33b1 ccbe 39c9 7abf
00000110: d5ff 4abe 70cf 4abf 4ef5 23bf 5b33 dcbe
00000120: 3d0c 48bf 6cf1 98bc 8125 9dbf 9d54 20be
00000130: a68f 8cbf ac9a a8be a68e c5bf 7104 69be
00000140: 3ac2 c8bf 9d6f 9ebf 2db6 0c3e a9f9 a3bf
00000150: e64a dcbf e64c 6ebf 4e2a 9abe 078c b3bf
00000160: 7611 16bf 3d9a a0bf 4c93 cfbf 0e5a 0a3f
00000170: aa46 20be 0d27 dfbf d62c 62bf 23b7 06be
00000180: 13f0 5dbf 76d1 34bf b8df 28bf 8f21 95bf
00000190: 4190 9dbe 9615 d3bd 37ea acbf 641b 653e
000001a0: a0de cdbf ec02 aabf 9f38 38bf de61 99be
000001b0: e30b 67be dd67 0abf d15a 07bf 1429 eabe
000001c0: 8b65 79bf 239e f6be 1e52 8d3b 4cd6 73bf
000001d0: cfce b8bf 819e 85bf ff04 edbe 0b4f 25bf
000001e0: 18a1 623f 1fd7 563c cef9 6dbf 14c1 41bf
000001f0: cd5e 07bf 3793 98bf 1b2d 0ebf 43ce 34bf
-1.5055346 -0.77550507 -1.0296282 -0.81592625 -1.3362486 -0.72996753 -1.0600926 -0.90490407
-0.49867934 -0.02124526 -0.37186712 0.5981878 -1.0678453 -1.200085 -1.7395827 0.10630066
-1.7283335 -0.51426685 -0.9773023 -1.6657158 -1.0222886 -1.495293 -1.2452158 -0.9132873
-0.34511504 -0.94215924 -0.96416414 -0.8797517 -1.1906297 -0.55461305 -0.87187743 -1.6221179
0.12869412 -1.1768743 -1.5211017 -1.4519156 -0.58613795 -0.58832484 -0.9126173 -0.6528414
-1.041283 -0.972701 -0.65636206 -1.8080347 -1.4347334 -1.1578912 -0.053167243 -0.5748712
-0.024413098 -0.6129673 -0.62757206 -0.07871223 -0.48721263 0.24090505 -1.077694 -0.45944205
-1.0482686 0.71690166 -0.6958787 -0.69492406 -1.1518809 -0.7319889 -0.5400787 -1.3476102
-0.71085244 -1.0195327 -0.39978942 -0.9796329 -0.19824155 -0.79222775 -0.6404618 -0.4300793
-0.78143674 -0.018669806 -1.227707 -0.15657277 -1.0981338 -0.32930505 -1.5434158 -0.227556
-1.5684273 -1.2377812 0.1374137 -1.2810565 -1.7210357 -0.9308609 -0.301104 -1.4027108
-0.58620393 -1.254707 -1.6216826 0.5404366 -0.15651956 -1.7433792 -0.88349664 -0.13155799
-0.8669445 -0.7063211 -0.6596637 -1.1650866 -0.3077412 -0.103068516 -1.3508977 0.2237373
-1.6083565 -1.3282142 -0.71961397 -0.2995748 -0.22563128 -0.5406473 -0.5287295 -0.45734465
-0.9742057 -0.48167524 0.0043127676 -0.95248866 -1.4438113 -1.0438997 -0.46292874 -0.64573735
0.8852706 0.013112812 -0.92959297 -0.7568524 -0.5287903 -1.1919926 -0.55537575 -0.7062723

action_model._continuous_distribution.log_sigma f4 [1, 2]
00000000: ef82 1bbf 2278 91be
-0.60746664 -0.28411967

action_model._continuous_distribution.mu.weight f4 [2, 128]
00000000: d2b1 b4bc b082 20be d225 b2bc 119b 303e
00000010: 04af 86bd a1ce f53d 1b1f 94be 4f04 243e
00000020: 617a ab3d f577 d53d 3da2 f93d 547b 82be
00000030: ca9f f2bd 2b75 5dbd 097a 1a3d 597b a63d
00000040: a7b3 763e be55 6a3d 3697 7dbe e9f0 c33d
00000050: 0ddf 373e 9617 cebe 4445 373e 6224 36bd
00000060: c00e ddbd 76ae 4a3e 857c 74be c69a c03e
00000070: 6dfb 2cbb 8fce eabd 148a b6bc 1ccb 633d
00000080: 053c a53d 556c 99be 45bf f7bc f38b 993b
00000090: 0ba7 813e b4a9 c03e 60e6 523e 1b98 41bd
000000a0: a869 6dbd b456 a03e 517d 21bd 13c7 0fbd
000000b0: 6ae1 f83e 2475 233f 88ed 37bc e081 103d
000000c0: 6cb9 87bd b82d 803e 5bf8 193f 53d9 c13c
000000d0: eef9 623c 3ab0 b7bd cd0e 5ebe 5894 6c3e
000000e0: 8d84 a03e 291f fabd 0d55 123d 3e30 d13e
000000f0: f19a b33d fb06 4b3e 88cb 57bd 69b5 d73d
00000100: ded9 713f e903 613e 3941 3a3e fdeb 1e3c
00000110: 1d0d a53d 4e87 1f3d a0b8 393f f8e0 0d3f
00000120: df2c ec3d f939 6dbd 4e99 5abc 51a5 5bbc
00000130: 52c8 163e 4875 12be b21e 343e 7381 803e
00000140: b089 88bd 9cb4 4fbc aacd e7bd d86e 763e
00000150: 2f25 c73c 63b1 953d b161 cb3a 0ab1 6dbc
00000160: ba0a 893d 2085 1a3e 29cf c13e df25 ebbe
00000170: 2b68 6b3e d737 0d3c 8425 773d c04c 9c3d
00000180: 44c5 abbd 2ef6 733e e5d1 cc3e b70d a6bc
00000190: 764a d13d 7dd2 90bd 0b61 813e d813 41be
000001a0: 5c80 d3bc 728f acbd 5a8e 8cbd 8444 3f3d
000001b0: bc32 ca3e 2d3d 263e 4ed0 863d 06cc 823e
000001c0: 744a 1dbe 064b 48be b91e 1abe cbab 373d
000001d0: 01b5 85be 2eaf 923c 80f0 2d3c f1ed 013e
000001e0: 1ef6 9ebd cdf4 9c3d 1c71 a6bd 9887 413d
000001f0: 4ff6 633e 5b1a 2abd 937d 053f ca6e be3e
00000200: 4ca2 3fbe e630 dc3e 3718 8ebc d610 153d
00000210: 41a9 21bd e079 043d b6f9 45bb 10ea 9fbd
00000220: f61e 2f3d 9b91 a7be e9ca 643d f467 42be
00000230: 5257 033b 1c1f fb3b f341 ff3a 03b9 27be
00000240: a738 063e 5f29 31be 0b9f 423e caf6 c13d
00000250: e33e 7e3e f1f1 5f3e c0ec c43d fee8 7e3e
00000260: e7c1 4b3d de3c 35bc 3a1e 993e ea21 03bf
00000270: 7c76 c13e 9da0 81be acba c43d 59ac 0b3f
00000280: 198f 1e3e 8578 2dbd 1dd7 9c3b def7 423d
00000290: 20d3 6bbd fa6b 4bbc 25e1 8dbe bc3e 4bbe
000002a0: e293 00be bf60 9b3d 8bf9 d8bd 05d2 b83c
000002b0: 2278 a13e f350 f7bd 65ae 72be b71d 4fbd
000002c0: 680d c73d f487 433e f9ae 8ebd 22c9 1ebe
000002d0: baca 99bd aa35 683e f9cb c9bd f636 0e3c
000002e0: e7bb 8fbb d3b5 143d d672 943c 8cda 81be
000002f0: 9def 85be 8ee6 13bc 24f1 3fbd 5d78 47be
00000300: 4056 023e be3d d0bd 5e56 e7ba 66c8 29be
00000310: 343c 60be 39c7 96be bec8 c3bd 992f 86be
00000320: 5bac 82be 7400 afbe b7ad 8abd 5bff 97bd
00000330: 8e79 4f3d 2fb1 7f3e c59d c9be 48a1 62bd
00000340: c304 25be dc81 113c 7c19 8f3d d392 da3d
00000350: fd3d 473d 98d6 cd3d 032f 193f e62e f4bd
00000360: 35b5 f23c d3c6 c03d 27aa 133d 654f 813e
00000370: 65cf 593d aa45 00bc 05e6 e6bc cb59 5dbe
00000380: a9e8 c8bd 472b 8bbc 12e3 e03d e390 e03d
00000390: b065 0f3c 1a84 353e 037a 3b3f 6438 edbd
000003a0: cd05 e93a 9a5a a63e 6d7a b23c 692f 9a3e
000003b0: fcb1 72bf f124 873d ae46 dabd efbf dcbc
000003c0: 80f7 47be 03a1 20bf 04fa 9dbe de5a 013e
000003d0: df5c 82bd c14d 473d 99a2 2dbe c29d 14bf
000003e0: e559 8dbd 5ba1 2cbd 2b09 8d3d 2737 efbd
000003f0: 343c ecbd a3c9 97bd 9421 923d d368 b7bd
-0.022057448 -0.15674853 -0.02174655 0.17246653 -0.0657635 0.12002302 -0.28929982 0.16017269
0.08372951 0.104232706 0.121891476 -0.25484717 -0.118468836 -0.05406682 0.037714038 0.081289954
0.2409197 0.057210676 -0.24764714 0.09567434 0.17956181 -0.4025237 0.17897516 -0.04446829
-0.10793829 0.19793114 -0.23875625 0.37618083 -0.0026394979 -0.11465179 -0.022282638 0.055613622
0.080680884 -0.29965463 -0.030242572 0.0046858727 0.25322756 0.37629473 0.20595694 -0.0472642
-0.05796209 0.3131615 -0.03942615 -0.03510196 0.48609477 0.6385062 -0.011226065 0.03528011
-0.06627163 0.2503488 0.60144585 0.023663199 0.013853533 -0.089691594 -0.21685334 0.23103464
0.31351128 -0.122129746 0.035725642 0.40857118 0.08769787 0.19826882 -0.052684337 0.10532648
0.94473064 0.21974148 0.18188943 0.009699819 0.08059142 0.038947396 0.7254734 0.554214
0.11531996 -0.057916615 -0.013342215 -0.013406114 0.14724854 -0.14302552 0.17589834 0.25098762
-0.06666887 -0.012677338 -0.11318524 0.24065721 0.024309723 0.073092245 0.0015516785 -0.014507541
0.06691499 0.15089846 0.37853363 -0.4592733 0.22988956 0.00861927 0.060338512 0.076318264
-0.08387235 0.23824379 0.40003887 -0.020270212 0.102192804 -0.070713975 0.2526935 -0.18855226
-0.025818042 -0.084257975 -0.06863089 0.0466962 0.39491832 0.16234274 0.065827 0.25546283
-0.15360433 -0.19559869 -0.15050782 0.04484157 -0.26114658 0.017905798 0.010616422 0.12688424
-0.07761787 0.076638795 -0.08127043 0.047248453 0.22261928 -0.04152904 0.52144736 0.371939
-0.18714255 0.43006057 -0.01734553 0.03639301 -0.039468054 0.03234279 -0.0030208654 -0.07808316
0.042754136 -0.32728276 0.055857573 -0.18984967 0.002004106 0.0076636206 0.001947461 -0.1637917
0.13107549 -0.17300938 0.19005983 0.094708994 0.24828677 0.21869637 0.09615469 0.24893567
0.049745467 -0.011061875 0.29905874 -0.51223624 0.3778571 -0.2531785 0.09605917 0.54559857
0.15484275 -0.042351265 0.0047863857 0.047599666 -0.05757439 -0.01241588 -0.27710834 -0.1984815
-0.12556413 0.07586812 -0.105944715 0.022561083 0.31536967 -0.12075987 -0.23699339 -0.050565448
0.09719354 0.19094831 -0.06966967 -0.15506414 -0.0750937 0.22676721 -0.09853358 0.008680096
-0.0043864134 0.036306214 0.018121164 -0.2536205 -0.26159373 -0.0090271365 -0.04686083 -0.19479509
0.12728214 -0.101680264 -0.0017649641 -0.16580352 -0.21897966 -0.2944887 -0.09559773 -0.2620819
-0.25522122 -0.34180033 -0.06771415 -0.07421752 0.050653033 0.24969934 -0.3937818 -0.05532959
-0.16115098 0.008881059 0.06987283 0.10672536 0.0486431 0.10050696 0.5983736 -0.11923008
0.029627422 0.09412923 0.03605094 0.25255886 0.053176302 -0.007829109 -0.028185854 -0.21616285
-0.098100014 -0.01698841 0.1098081 0.10965135 0.0087522715 0.17726174 0.7323305 -0.11583021
0.0017778218 0.32490999 0.021786893 0.30114296 -0.9480283 0.06598843 -0.10658012 -0.02694699
-0.19528008 -0.62745684 -0.3085481 0.1263232 -0.0636537 0.048658136 -0.16956557 -0.5805322
-0.06901912 -0.042146068 0.06886514 -0.11680441 -0.1153492 -0.07411506 0.07135311 -0.089555405

action_model._continuous_distribution.mu.bias f4 [2]
00000000: 571a 11c0 ae18 c93f
-2.2672327 1.5710657

exp_avg f4 [128, 56]
00000000: f9e8 88bc ce94 4d39 b6c8 8abc 7604 13b4
00000010: df4a 1ab4 f9e8 88bc ce94 4d39 b6c8 8abc
00000020: 3ce3 87bc 502f ac39 9631 8abc f4c6 89bc
00000030: 1596 b039 a44c 89bc 3e59 8abc 8a86 b239
00000040: 7105 8abc 38b6 89bc c0f4 a739 d314 89bc
00000050: 63b6 89bc 7e5a d739 20db 8abc f417 f7b9
00000060: bfef 6bb7 5bbd dbb9 e317 f739 581d 6cb7
00000070: 17f2 c339 71eb 373a eb92 6cb7 2f41 313a
00000080: 9f1f fea4 b215 2322 c9f2 c3a4 6a1f 9688
00000090: e824 8b06 e7ea 5809 0400 0000 0400 0080
000000a0: 0400 0000 0400 0000 0400 0080 0400 0000
000000b0: 0400 0080 0400 0000 0400 0080 0400 0000
000000c0: 0400 0080 0400 0000 0400 0000 0400 0080
000000d0: 0400 0000 0400 0080 0400 0000 0400 0080
000000e0: 73a8 1036 74b5 39b3 f380 8b35 5500 748f
000000f0: 802f 642a 73a8 1036 74b5 39b3 f380 8b35
00000100: 73a8 1036 c7af 39b3 5213 0f36 a6f1 2498
00000110: 271f 8013 2033 4198 f03f 4998 82cf cf91
00000120: 5386 4398 5a27 8997 e2b3 eb14 b415 8917
00000130: c910 9003 4bac df80 12fe 8f03 0400 0000
00000140: 0400 0080 0400 0080 0400 0000 0400 0080
00000150: 0400 0000 0400 0080 0400 0000 0400 0080
00000160: 0400 0080 0400 0000 0400 0080 0400 0000
00000170: 0400 0000 0400 0000 0400 0080 0400 0000
00000180: 0400 0000 0400 0080 0400 0000 0400 0080
00000190: 0400 0000 0400 0080 0400 0000 0400 0000
000001a0: 0400 0080 0400 0000 0400 0080 0400 0000
000001b0: 0400 0080 0400 0080 0400 0000 0400 0080
000001c0: 35e4 b2b2 b217 9c31 6bc4 72b4 012a 23ab
000001d0: c736 56aa 35e4 b2b2 b217 9c31 6bc4 72b4
000001e0: e6e5 72b4 104b 9c31 6cdb 63b4 4198 72b4
000001f0: 668f f3ac a5ab 58b4 37e3 72b4 c583 ccac
00000200: 1eb9 29b4 007c a02f fce2 afac 8bf6 9f2f
00000210: 2e7c a02f a75b f7ac 55f0 9e2f 6a0e 572d
00000220: 551d ccaa 92de 482d c80e 572d 7b1f 9caa
00000230: e9c1 562d 050f 572d cb75 80aa 9cd5 562d
00000240: e40e 572d ae03 8aaa 76d3 252d 0400 0080
00000250: 0400 0000 0400 0000 0400 0000 0400 0080
00000260: 0400 0000 0400 0000 0400 0080 0400 0000
00000270: 0400 0000 0400 0080 0400 0000 0400 0080
00000280: 0400 0000 0400 0080 0400 0000 0400 0080
00000290: 0400 0000 0400 0080 0400 0000 0400 0080
000002a0: c41d 33ba f8e0 6537 27b3 b0b9 c83a 8a90
000002b0: d0bb 86b1 c41d 33ba f8e0 6537 27b3 b0b9
000002c0: 08f0 5bb7 cadf 6537 bc06 333a c41d 33ba
000002d0: 335c 6737 b88b 0fba c51d 33ba 22e9 6537
000002e0: 2a67 0bba a82f 4437 1aaf a3b4 acd8 15b7
000002f0: 27b8 15b7 9f48 5ab4 5121 16b7 bc67 4437
00000300: a228 7cb4 73fb 3f37 d1bf bab5 382c cbb2
00000310: 05a8 bab5 e0cf 43a9 0ddd 7b26 b1b7 3ca9
00000320: 97bc b585 d7b4 c582 6fa5 b585 fb00 0080
00000330: 0f00 0000 0803 0000 0400 0080 0400 0000
00000340: 0400 0000 0400 0080 0400 0000 0400 0080
00000350: 0400 0080 0400 0000 0400 0080 0400 0000
00000360: 0400 0080 0400 0000 0400 0000 0400 0080
00000370: 0400 0000 0400 0000 0400 0080 0400 0000
00000380: dd88 2f3d 7bf4 80ba 99ab 193d 94e5 57b4
00000390: 7cb3 b636 dd88 2f3d 7bf4 80ba 99ab 193d
000003a0: 4db5 723c d524 4eba b09a 6d3c 6540 023d
000003b0: ed0b e3b9 f8c1 023d 8862 023d f32a 2cba
000003c0: 304a 023d d069 f73c 54e2 2dba c433 673b
000003d0: 006a f73c 31c8 33ba 04c8 fa3c f66e 923c
000003e0: 905a c9b8 e32d 1ebc 2f26 373c 5e58 5eb9
000003f0: 7cdf 393c 270c 16bb 5703 4138 b09b 10bb
-0.016712653 0.00019605758 -0.01694141 -1.3692065e-07 -1.4369606e-07 -0.016712653 0.00019605758 -0.01694141
-0.016587846 0.00032841647 -0.016869348 -0.016818501 0.00033681156 -0.016760178 -0.016888257 0.00034051045
-0.016848298 -0.016810521 0.00032035075 -0.016733563 -0.016810602 0.00041075418 -0.01695019 -0.00047129358
-1.4062912e-05 -0.00041912016 0.00047129308 -1.4073528e-05 0.0003737367 0.00070159795 -1.4100903e-05 0.0006761727
-1.1020851e-16 2.2102105e-18 -8.4979064e-17 -9.035182e-34 5.234022e-35 2.6110505e-33 6e-45 -6e-45
6e-45 6e-45 -6e-45 6e-45 -6e-45 6e-45 -6e-45 6e-45
-6e-45 6e-45 6e-45 -6e-45 6e-45 -6e-45 6e-45 -6e-45
2.1555722e-06 -4.32387e-08 1.0393836e-06 -1.2030193e-29 2.0266948e-13 2.1555722e-06 -4.32387e-08 1.0393836e-06
2.1555722e-06 -4.3233538e-08 2.1319906e-06 -2.1318504e-24 3.234246e-27 -2.4970477e-24 -2.6010921e-24 -3.2786728e-28
-2.5270976e-24 -8.863351e-25 2.3799887e-26 8.858896e-25 8.467413e-37 -2.0541123e-38 8.463116e-37 6e-45
-6e-45 -6e-45 6e-45 -6e-45 6e-45 -6e-45 6e-45 -6e-45
-6e-45 6e-45 -6e-45 6e-45 6e-45 6e-45 -6e-45 6e-45
6e-45 -6e-45 6e-45 -6e-45 6e-45 -6e-45 6e-45 6e-45
-6e-45 6e-45 -6e-45 6e-45 -6e-45 -6e-45 6e-45 -6e-45
-2.0825704e-08 4.5428914e-09 -2.2609463e-07 -5.7967525e-13 -1.9026023e-13 -2.0825704e-08 4.5428914e-09 -2.2609463e-07
-2.2621643e-07 4.548731e-09 -2.1220848e-07 -2.2593396e-07 -6.922396e-12 -2.0179012e-07 -2.2620667e-07 -5.812658e-12
-1.5806697e-07 2.9191938e-10 -4.9989995e-12 2.909711e-10 2.9192065e-10 -7.0303377e-12 2.89108e-10 1.2224536e-11
-3.6258033e-13 1.1418104e-11 1.2224617e-11 -2.773301e-13 1.2207548e-11 1.222467e-11 -2.2819103e-13 1.22119224e-11
1.22246414e-11 -2.4516278e-13 9.426118e-12 -6e-45 6e-45 6e-45 6e-45 -6e-45
6e-45 6e-45 -6e-45 6e-45 6e-45 -6e-45 6e-45 -6e-45
6e-45 -6e-45 6e-45 -6e-45 6e-45 -6e-45 6e-45 -6e-45
-0.00068327435 1.3701843e-05 -0.00033702815 -5.452197e-29 -3.921265e-09 -0.00068327435 1.3701843e-05 -0.00033702815
-1.3109304e-05 1.3701569e-05 0.00068293116 -0.00068327435 1.379014e-05 -0.0005475837 -0.0006832744 1.3703744e-05
-0.0005317802 1.1693606e-05 -3.048852e-07 -8.93154e-06 -8.923968e-06 -2.0329252e-07 -8.948454e-06 1.1706663e-05
-2.3484111e-07 1.1443032e-05 -1.3913906e-06 -2.3652419e-08 -1.390698e-06 -4.3479e-14 8.73827e-16 -4.1903713e-14
-1.7090435e-35 -2.9050345e-37 -1.7081929e-35 -3.52e-43 2.1e-44 1.087e-42 -6e-45 6e-45
6e-45 -6e-45 6e-45 -6e-45 -6e-45 6e-45 -6e-45 6e-45
-6e-45 6e-45 6e-45 -6e-45 6e-45 6e-45 -6e-45 6e-45
0.042855132 -0.0009838486 0.037517164 -2.0106955e-07 5.4449174e-06 0.042855132 -0.0009838486 0.037517164
0.014813733 -0.0007863765 0.014502212 0.031799693 -0.000433057 0.031923264 0.031832248 -0.0006567679
0.031809032 0.030201823 -0.0006633152 0.0035278657 0.030201912 -0.0006858139 0.030612953 0.017875176
-9.6012955e-05 -0.009654495 0.011178537 -0.00021204489 0.011344787 -0.0022895427 4.6017896e-05 -0.0022065453

exp_avg_sq f4 [128, 56]
00000000: 1d9b 1d3d 7f70 4637 7e16 203d 99a7 2838
00000010: 93a7 2838 1d9b 1d3d 7f70 4637 7e16 203d
00000020: e611 153d 6514 6037 af87 153d 56fc 153d
00000030: f4dc 1437 4f4a 153d a86b 143d 9af6 8037
00000040: 1612 153d ac52 153d 3e72 4337 12e0 133d
00000050: fb52 153d c5d7 b337 660b 153d 7230 d638
00000060: 5e84 3333 d990 8d38 4c30 d638 442a 3333
00000070: 70ff a138 33c1 d938 4d26 3433 9241 ca38
00000080: 9287 e026 fae2 3821 5cd9 8326 6085 ed20
00000090: e96f 4e1b 3e48 ed20 1a11 e920 d2c5 e51a
000000a0: 7848 ed20 6085 ed20 18df 051b 7848 ed20
000000b0: f401 0000 f401 0000 f401 0000 f401 0000
000000c0: f401 0000 f401 0000 f401 0000 f401 0000
000000d0: f401 0000 f401 0000 f401 0000 f401 0000
000000e0: 1c55 933a 5d73 0b31 0db0 9f3a 8b8a a737
000000f0: 828a a737 1c55 933a 5d73 0b31 0db0 9f3a
00000100: 98c4 0a36 a6c5 7330 0701 0636 403f 572d
00000110: b178 0529 292b a12e 7270 bb28 47c9 8924
00000120: 066c 172a 9dd1 6027 c6cd c322 27b2 3526
00000130: 1217 881c 0582 5218 eb48 8b1d b822 a710
00000140: f792 2a0c 9e66 a411 e009 9e10 6ce5 000b
00000150: ece0 9d10 e009 9e10 3112 b20a 489f 9a10
00000160: e009 9e10 70c5 000b e0bc 870e f401 0000
00000170: f401 0000 f401 0000 f401 0000 f401 0000
00000180: f401 0000 f401 0000 f401 0000 f401 0000
00000190: f401 0000 f401 0000 f401 0000 f401 0000
000001a0: f401 0000 f401 0000 f401 0000 f401 0000
000001b0: f401 0000 f401 0000 f401 0000 f401 0000
000001c0: dd4e 5e3b 1d55 0a34 4bd0 813b 8d93 7b38
000001d0: 8793 7b38 dd4e 5e3b 1d55 0a34 4bd0 813b
000001e0: a513 a339 a32f 0734 b76a 8b39 92ff fd3b
000001f0: eea4 0434 0a4b 093c e223 8937 2701 5832
00000200: 4ff3 6437 5924 8937 f45b 9931 2dd7 8537
00000210: 5924 8937 64ff e131 2c87 2737 5424 8937
00000220: a01b 7732 624a 6f37 5424 8937 4b92 1032
00000230: 6fc4 8837 5424 8937 8ac3 c331 0cdc 8837
00000240: 5424 8937 01f7 e131 e713 2337 ea52 9f00
00000250: f401 0000 41eb 0a02 f401 0000 f401 0000
00000260: f401 0000 f401 0000 f401 0000 f401 0000
00000270: f401 0000 f401 0000 f401 0000 f401 0000
00000280: f401 0000 f401 0000 f401 0000 f401 0000
00000290: f401 0000 f401 0000 f401 0000 f401 0000
000002a0: 3147 2e3b 81ec f334 91b6 fe3a 06f3 e437
000002b0: 06f3 e437 3147 2e3b 81ec f334 91b6 fe3a
000002c0: 4089 ce36 bd45 f334 2b67 933a 3e16 933a
000002d0: 4267 f234 4945 2f3a 8331 933a d67b f234
000002e0: 97f9 333a 365f dd35 10ee 8b30 c398 fc35
000002f0: 245a ff35 f4df 3530 e8e7 f935 77b9 ff35
00000300: c8d3 5230 cd24 f235 82cf 8035 30f7 982f
00000310: c1b6 8035 c52b 0714 d4a5 5f0e 501a fb13
00000320: b6e3 a208 8759 0503 834e 8308 97ad 8108
00000330: 8c1d 9202 6ac0 7d08 97ad 8108 d0a5 0702
00000340: 2c67 8108 97ad 8108 0d5d ab02 c31e 4b06
00000350: f401 0000 f401 0000 f401 0000 f401 0000
00000360: f401 0000 f401 0000 f401 0000 f401 0000
00000370: f401 0000 f401 0000 f401 0000 f401 0000
00000380: e0fe a13d 21ab e237 120d 903d d8f0 2838
00000390: edf0 2838 e0fe a13d 21ab e237 120d 903d
000003a0: a332 913d 853f fd37 dcdb 9f3d 6667 a23d
000003b0: 009a a537 231f 983d 3033 933d 767b e737
000003c0: cc52 8a3d 4a18 7d3d 3f9d a537 e36b 743d
000003d0: 6f46 7d3d 5b2c 1338 be65 763d 3932 de3b
000003e0: 02f0 0536 387d b33b 40d2 d53b de8a 2b36
000003f0: 9632 a23b 7ef3 8f3b 5f1d ee35 51ba 853b
0.038478006 1.1827912e-05 0.03908395 4.021041e-05 4.0210387e-05 0.038478006 1.1827912e-05 0.03908395
0.036394022 1.3356189e-05 0.03650635 0.0366176 8.872932e-06 0.03644782 0.03623548 1.5373622e-05
0.0363942 0.036455795 1.1649505e-05 0.036102362 0.03645609 2.1438938e-05 0.036387824 0.00010213339
4.1797072e-08 6.750384e-05 0.00010213311 4.1715126e-08 7.724657e-05 0.000103833525 4.194435e-08 9.644324e-05
1.5579869e-15 6.2642026e-19 9.148866e-16 4.0237622e-19 1.7076081e-22 4.0197168e-19 3.9483052e-19 9.5031776e-23
4.0197317e-19 4.0237622e-19 1.1073588e-22 4.0197317e-19 7e-43 7e-43 7e-43 7e-43
7e-43 7e-43 7e-43 7e-43 7e-43 7e-43 7e-43 7e-43
0.0011240575 2.0292739e-09 0.0012183205 1.9972465e-05 1.9972449e-05 0.0011240575 2.0292739e-09 0.0012183205
2.0678035e-06 8.868376e-10 1.9968154e-06 1.2235379e-11 2.9636616e-14 7.329099e-11 2.0809936e-14 5.9755256e-17
1.3448972e-13 3.1199876e-15 5.3072727e-18 6.303843e-16 9.005689e-22 2.7207507e-24 3.686839e-21 6.592338e-29
1.3140549e-31 2.593788e-28 6.2335226e-29 2.48245e-32 6.227213e-29 6.2335226e-29 1.714762e-32 6.09877e-29
6.2335226e-29 2.480044e-32 3.346195e-30 7e-43 7e-43 7e-43 7e-43 7e-43
7e-43 7e-43 7e-43 7e-43 7e-43 7e-43 7e-43 7e-43
7e-43 7e-43 7e-43 7e-43 7e-43 7e-43 7e-43 7e-43
0.0033921518 1.2883216e-07 0.003961598 5.998048e-05 5.998046e-05 0.0033921518 1.2883216e-07 0.003961598
0.0003110442 1.2590185e-07 0.00026591655 0.0077514136 1.2353459e-07 0.008379707 1.6348382e-05 1.2573117e-08
1.3646509e-05 1.6348598e-05 4.46334e-09 1.5955035e-05 1.6348598e-05 6.5773964e-09 9.985448e-06 1.634859e-05
1.4383573e-08 1.4262829e-05 1.634859e-05 8.415166e-09 1.6303935e-05 1.634859e-05 5.697477e-09 1.631493e-05
1.634859e-05 6.576443e-09 9.720191e-06 1.4631588e-38 7e-43 1.0206153e-37 7e-43 7e-43
7e-43 7e-43 7e-43 7e-43 7e-43 7e-43 7e-43 7e-43
7e-43 7e-43 7e-43 7e-43 7e-43 7e-43 7e-43 7e-43
0.0026592726 4.5434356e-07 0.0019433071 2.7292885e-05 2.7292885e-05 0.0026592726 4.5434356e-07 0.0019433071
6.1552564e-06 4.5313018e-07 0.0011245956 0.0011221839 4.5151143e-07 0.00066860445 0.0011229966 4.5166115e-07
0.00068655 1.6493493e-06 1.0181243e-09 1.8819923e-06 1.9025215e-06 6.6165673e-10 1.8619439e-06 1.9052958e-06
7.6698514e-10 1.8041115e-06 9.597136e-07 2.7824276e-10 9.589932e-07 6.82439e-27 2.7566716e-30 6.3387254e-27
9.803555e-34 3.918796e-37 7.902734e-34 7.804716e-34 2.146973e-37 7.63606e-34 7.804716e-34 9.965819e-38
7.788161e-34 7.804716e-34 2.51796e-37 3.8202657e-35 7e-43 7e-43 7e-43 7e-43
7e-43 7e-43 7e-43 7e-43 7e-43 7e-43 7e-43 7e-43
0.07909942 2.7020988e-05 0.07033743 4.0278625e-05 4.02787e-05 0.07909942 2.7020988e-05 0.07033743
0.07089736 3.0189529e-05 0.07805607 0.07929878 1.9741245e-05 0.07427814 0.071874976 2.7594837e-05
0.067540735 0.061790742 1.9742756e-05 0.0596732 0.06183475 3.508884e-05 0.060155623 0.0067808894
1.9958247e-06 0.0054775737 0.006525308 2.5561817e-06 0.004949878 0.00439304 1.774093e-06 0.0040810485

exp_avg f4 [128]
00000000: 111b b139 5f09 3ab3 702f 9c31 fc59 6637
00000010: 0261 69ba ea24 a139 92d6 a82d 7b7c 3fb9
00000020: b650 c23a 9538 109c 32c6 a239 bf3c aeaa
00000030: c360 8739 742d 2aba 5fee 79b7 43dc af39
00000040: c349 8335 7133 a3b7 2d28 372f 6611 0238
00000050: 93f1 3abb 59bb 423a 0885 d4ba 9375 9fa3
00000060: 7fe8 38b8 d734 bcae cb33 f2b8 a3a1 3a3a
00000070: 62e0 1ab8 a93e 51b6 519b ecae e4f5 2836
00000080: d567 28b9 fbf5 8328 de24 5db8 80be 7cbc
00000090: bd1a 863b 118d dd21 f80a 163b b385 cda1
000000a0: 2dac 8cab fb28 16a4 1d39 8730 3c25 29b0
000000b0: 52d2 30b8 9d8c 75b9 9d72 1436 7645 5529
000000c0: f06e 11b1 cd76 8d1f 1147 47b5 f6d8 88a3
000000d0: ed30 fead 10d9 0631 0e5e 8ea2 b432 9619
000000e0: dbb4 d9b9 22d5 91ba 9c22 1d3a 122a 51aa
000000f0: 14df 7a1b b80c 9fba 6af9 a1b8 04a1 1b37
00000100: 5102 0e39 f8aa 3139 41ef 532b 44b4 6ab6
00000110: 35d0 2639 170d f2b1 dd05 28bb f16c fa1a
00000120: b0aa 2939 ca00 0037 271f 193a 8eea 11a8
00000130: 2b60 1a39 57c2 cfb7 a35a 21b2 138a 223a
00000140: 19d4 21ba c184 4b39 db4d 8433 b910 d236
00000150: 32e5 8039 c958 aeb3 73e7 a7ab fddc dbb6
00000160: c873 beb3 22ab 9137 d6fb d6b9 6316 183a
00000170: 8216 7d1f e93c 15b7 6d34 1d33 0e73 bb39
00000180: 9dfe 8238 6f81 b5b2 270a 14b9 edda abab
00000190: ef31 95b5 4cea 013a 4c84 d6ba 3b8e 42a8
000001a0: 70d9 fe39 af9e bfae e468 8b3b b255 aeb2
000001b0: 63dc 8639 18ef 7839 5ee6 1aa3 1628 d335
000001c0: 1e34 cfaa 8ba9 29bb 2e3e 56ba 376d 48ae
000001d0: 6144 c4b7 5c8c 2bb4 98f6 82a5 3923 b3b7
000001e0: 1ca3 15ad 1190 d19f 8d84 1c34 84ff 953a
000001f0: e678 20b7 de04 43a7 bfdd 8e2c 4e6e afb8
0.00033780237 -4.3315023e-08 4.5455906e-09 1.3730019e-05 -0.00089027 0.00030735816 1.9194677e-11 -0.00018261552
0.0014825079 -4.7718734e-22 0.00031046715 -3.095076e-13 0.000258213 -0.00064917584 -1.4897057e-05 0.0003354271
9.781728e-07 -1.9455068e-05 1.6658026e-10 3.101062e-05 -0.0028525337 0.00074284297 -0.0016213963 -1.7288609e-17
-4.4085547e-05 -8.5586364e-11 -0.000115491064 0.00071194227 -3.6925434e-05 -3.11799e-06 -1.0759627e-10 2.5177078e-06
-0.00016060409 1.4650599e-14 -5.272484e-05 -0.015426278 0.004092543 1.5012882e-18 0.0022894721 -1.392673e-18
-9.995387e-13 -3.2560777e-17 9.838775e-10 -6.1534755e-10 -4.2157546e-05 -0.00023417403 2.2120432e-06 4.735575e-14
-2.1163338e-09 5.991236e-20 -7.423669e-07 -1.4837036e-17 -2.8898184e-11 1.9622952e-09 -3.858876e-18 1.5530115e-23
-0.00041524213 -0.0011126141 0.0005994232 -1.8577525e-13 2.0751596e-22 -0.0012134528 -7.723535e-05 9.276209e-06
0.00013543038 0.00016943726 7.529429e-13 -3.4973646e-06 0.00015908557 -7.044615e-09 -0.002563826 1.0357358e-22
0.00016180682 7.629578e-06 0.0005841129 -8.099978e-15 0.0001472241 -2.476682e-05 -9.392042e-09 0.0006200384
-0.00061732676 0.00019409043 6.160891e-08 6.2604345e-06 0.00024584826 -8.118656e-08 -1.1930304e-12 -6.552435e-06
-8.868625e-08 1.7365037e-05 -0.00041004893 0.0005801676 5.3593452e-20 -8.895274e-06 3.6602092e-08 0.00035753142
6.2463085e-05 -2.1130033e-08 -0.00014118162 -1.2211045e-12 -1.1115898e-06 0.00049558724 -0.0016366332 -1.0800005e-14
0.0004860866 -8.713862e-11 0.0042544473 -2.0295236e-08 0.00025722673 0.00023740192 -8.397139e-18 1.5732392e-06
-3.680675e-13 -0.002588841 -0.00081727176 -4.5571737e-11 -2.3396862e-05 -1.5976678e-07 -2.2718504e-16 -2.1354865e-05
-8.505887e-12 -8.875328e-20 1.4576854e-07 0.0011443947 -9.564892e-06 -2.7064325e-15 4.0605015e-12 -8.365196e-05

exp_avg_sq f4 [128]
00000000: e426 7937 b0d2 0b31 0544 0a34 74e3 f434
00000010: f50a 0838 87ec 1f36 0478 1e31 1e9d eb35
00000020: e891 c438 1d2a 0a30 a3b5 8d37 1e7d f428
00000030: 925a 8637 5092 aa37 8852 7c35 a3b8 b236
00000040: 598e c535 395e a534 15c2 a32a 7a9f a636
00000050: 9cc3 a33a b90f a939 bef4 8339 fbd3 022d
00000060: d4d3 8634 37a4 ed26 c639 6838 b9f6 9f37
00000070: 8082 2b35 ecc8 3135 eacc 4d31 d4aa 9d35
00000080: cb29 9335 d1dd 8835 04d8 0134 16f6 183b
00000090: 0e81 703a 772b 7123 08ae 9539 5cf4 6431
000000a0: 37fb d530 132b 002f 2044 d135 ffa7 222c
000000b0: 833c c235 7d2a 0038 a9b1 e433 91b8 1522
000000c0: 05b7 9631 9202 642e d361 da2f 7ebd e524
000000d0: 538f 6b30 86c2 0933 eba3 2226 a3ad 2a2b
000000e0: a155 ca38 9e8d 8e38 9668 6637 6c52 0b2c
000000f0: b034 5f26 97aa 1a38 ad5e 3435 96c1 f035
00000100: 588e b936 1afd 4638 aa1b 3724 d827 8537
00000110: 8085 9035 5d63 a034 70e4 0a3a 1ca2 5a31
00000120: 3fae 2536 8185 2233 e346 9735 ad98 132e
00000130: e9fb 1e37 32dc 0b35 3db4 2130 3705 bb38
00000140: 4f5f 883a 0b98 bf35 d6f6 3c2c d6bf 8833
00000150: 9311 7036 be37 e230 e792 f426 0a7d e734
00000160: 48b7 012f 7fa9 f835 cf15 2039 3484 b435
00000170: a725 c62c 2f6e 0638 e970 a72c 22b8 9836
00000180: d571 1436 37c5 1734 da29 1837 d42b 8732
00000190: 73f5 a437 ee84 2637 db6a 2939 cee6 ac2e
000001a0: 823f a238 256e 512b 68af ca39 492c 5634
000001b0: 51f6 2c36 0645 3036 a12d e521 2f79 0235
000001c0: e109 f330 3219 d837 bf06 0037 ba0b 492c
000001d0: 74d4 a634 a6d5 2334 619c 792c a82d d132
000001e0: 136e 0135 e649 1424 25b7 c234 4530 5838
000001f0: 664b 2235 85cf 4a31 7e17 292c 04e5 9634
1.48506115e-05 2.0346924e-09 1.2876997e-07 4.5614036e-07 3.243513e-05 2.3830523e-06 2.3060247e-09 1.7554592e-06
9.3731855e-05 5.0263954e-10 1.6893091e-05 2.7143703e-14 1.601622e-05 2.0333711e-05 9.3997414e-07 5.326308e-06
1.4719072e-06 3.08022e-07 2.9089288e-13 4.965751e-06 0.0012494209 0.00032245906 0.00025168614 7.436714e-12
2.511357e-07 1.6489689e-15 5.5366916e-05 1.9069166e-05 6.3892367e-07 6.623002e-07 2.9947906e-09 1.1747129e-06
1.0964517e-06 1.0197347e-06 1.2092647e-07 0.0023340038 0.0009174504 1.307384e-17 0.00028549158 3.331727e-09
1.5569189e-09 1.1656835e-10 1.559154e-06 2.3114841e-12 1.4471738e-06 3.055715e-05 1.06493935e-07 2.0290974e-18
4.3863815e-09 5.184348e-11 3.9723477e-10 9.963393e-17 8.569618e-10 3.2074716e-08 5.642719e-16 6.06371e-13
9.64806e-05 6.797466e-05 1.3733419e-05 1.9798841e-12 7.744007e-16 3.6875335e-05 6.7192997e-07 1.7937734e-06
5.5300006e-06 4.7442598e-05 3.9705232e-17 1.587339e-05 1.076769e-06 2.987462e-07 0.0005298322 3.1815324e-09
2.468834e-06 3.7839985e-08 1.1271007e-06 3.3559534e-11 9.476186e-06 5.210196e-07 5.8827593e-10 8.917826e-05
0.0010404381 1.4274859e-06 2.6853428e-12 6.367888e-08 3.5773016e-06 1.6459507e-09 1.6970719e-15 4.311808e-07
1.1797596e-10 1.852677e-06 0.00015266913 1.3449521e-06 5.6316787e-12 3.2050706e-05 4.758961e-12 4.551389e-06
2.2119978e-06 1.4134717e-07 9.06965e-06 1.5736e-08 1.966462e-05 9.925321e-06 0.00016156903 7.8626536e-11
7.736591e-05 7.440457e-13 0.0003865913 1.9946414e-07 2.5773372e-06 2.626622e-06 1.5529721e-18 4.860512e-07
1.7683385e-09 2.5760939e-05 7.630965e-06 2.8570328e-12 3.107449e-07 1.5258283e-07 3.5471836e-12 2.4351564e-08
4.8216424e-07 3.215498e-17 3.626857e-07 5.1543368e-05 6.045942e-07 2.951283e-09 2.4029385e-12 2.8106308e-07
