results/circle/DroneAgent/DroneAgent-31359555.onnx (onnx, 100664 bytes, 7 tensors)

network_body._body_endoder.seq_layers.0.weight f4 [128, 56]
000000 99 0e 56 bd c0 e8 af bf 57 89 e7 be f5 42 f3 3e
       -0.052260015 -1.3742905 -0.4522197 0.47512022
000010 d6 72 86 3f 6d 6c 3a 3e 92 9e b4 bf 5f f8 1b bf
       1.0503795 0.18205424 -1.4110892 -0.6092586
000020 8b e2 c1 3e 44 ac f0 bf 9b dd ac 3d 91 0e 83 3e
       0.3786815 -1.8802571 0.084407054 0.2559705
000030 f3 b3 ce bf 67 a9 95 be d0 5a c7 3e f2 2b c1 bf
       -1.6148666 -0.29230806 0.38936472 -1.5091536
000040 3c 25 cb 3d 06 50 bb 3d 53 f0 b8 bf 2c 4f 66 bf
       0.09919211 0.09146123 -1.4448341 -0.89964557
000050 fb 87 02 3e f1 3f b3 bf 52 6e 40 be 5d c5 05 3f
       0.12747185 -1.4003888 -0.18792084 0.5225428
000060 f8 60 06 c0 0d be a8 3e fc 02 dd 3e e5 54 a5 bf
       -2.0996685 0.32957497 0.4316634 -1.2916533
000070 c5 da 9b 3e 75 cc 4f 3d ea 26 3a bf c6 17 80 3d
       0.30440345 0.050732095 -0.7271563 0.062545344
000080 d8 bf 0c bd 8c 40 62 bf fc 0f 06 bd f8 f0 c0 3d
       -0.034362644 -0.8837974 -0.032730088 0.09420961
000090 20 12 4e bf 3a cf 53 3e ce 80 97 be d5 4c c6 be
       -0.80496407 0.2068452 -0.29590458 -0.38730493
0000a0 4a db 83 be 6f 30 ee bb 61 fc d7 be e6 d6 aa 3d
       -0.25753242 -0.0072689573 -0.42184737 0.0834177
0000b0 c3 f2 ea bd 7f 0d 6a be 19 59 ea be ed 58 7b bd
       -0.114720844 -0.22856711 -0.457711 -0.061364103
0000c0 bf 96 5d 3e ed 1c 1e bf 70 67 e1 bd d1 70 69 be
       0.21639536 -0.6176289 -0.11006057 -0.22796942
0000d0 f7 a7 5f 3d e6 77 08 3e bd 8a 95 bd 66 fb f1 3c
       0.054603543 0.13326988 -0.07301853 0.029538821
0000e0 8c 3a 87 be c3 bc 21 c0 26 55 43 bd 46 ad c4 3e
       -0.26411855 -2.527146 -0.047688626 0.38413447
0000f0 a4 e6 9e 3e b8 49 5c 3e 75 df 11 c0 ff 11 cd bd
       0.3103534 0.21512496 -2.2792637 -0.10013198
000100 a3 ab 04 3f 02 97 e2 bf fb 20 e2 be 95 4f b6 3e
       0.51824397 -1.7702334 -0.44165787 0.3560759
000110 46 cd cc bf 3f d5 22 be ee 0e 32 3f d0 69 ba bf
       -1.6000144 -0.1590166 0.6955403 -1.4563541
000120 5e 39 0a be 00 ab f8 3e 79 c1 b1 bf 0a 96 57 be
       -0.13498446 0.48567963 -1.3887168 -0.21053329
000130 73 01 d7 3e 3c 4f 65 bf d7 20 0b 3d 49 71 d0 3e
       0.41993293 -0.8957403 0.033966865 0.4071143
000140 6c 21 a4 bf c4 a2 83 3d de 7f a6 3e e3 3d ae bf
       -1.28227 0.064275295 0.3251943 -1.3612636
000150 c8 91 aa bd 90 a7 f6 3e f7 48 a4 bf c2 fb 98 3c
       -0.08328587 0.48174715 -1.2834767 0.018674735
000160 30 78 8c be a2 a4 3d bf 7e 5d a9 3d 93 b9 81 3d
       -0.27435446 -0.74079335 0.08269785 0.063342236
000170 f9 b7 43 bf 4c ad a3 be 0b 70 d5 3e 39 81 31 bf
       -0.76452595 -0.31968153 0.41687045 -0.69337803
000180 fa 6a 2a 3e 07 b6 24 be 0d 09 1c bf b2 0b 91 3d
       0.16642371 -0.16085063 -0.6095131 0.07082309
000190 a9 73 61 be b9 2a e7 be ce 5e 82 be 51 9a 9c 3e
       -0.22016777 -0.45149782 -0.25462955 0.30586484
0001a0 b0 26 3d bf 25 33 ae bd 2b 9a bf bd 76 0c 5a bc
       -0.7388716 -0.08505849 -0.09355577 -0.013308635
0001b0 d3 39 66 3d 81 21 91 bd a3 d0 84 bd c8 40 24 3e
       0.05620749 -0.070864685 -0.06485107 0.16040337
0001c0 aa 40 25 3e 6f 8d ee bf 5b 75 07 bf ab b7 d5 be
       0.16137949 -1.8636912 -0.52913445 -0.4174169
0001d0 1b 73 9f 3f 87 e1 2b 3e 2f 95 03 c0 11 f2 f5 be
       1.2457002 0.1678525 -2.0559804 -0.48036245
0001e0 eb dd 16 3f fc 86 05 c0 5d b8 e1 be 14 3d 03 3d
       0.5893237 -2.0863638 -0.4408597 0.03204067
0001f0 09 8e d4 bf b6 75 cf be 56 d0 4e 3f 91 0b d4 bf
       -1.6605846 -0.40519494 0.80786645 -1.656603
000200 13 41 c7 3e f3 ed 57 3d 36 7d b3 bf ec 31 d9 be
       0.38916835 0.05271716 -1.4022586 -0.424209
000210 2a 9d 6e 3e 96 f0 7a bf f3 0b b6 be 28 6c 85 3e
       0.23302141 -0.98023355 -0.35555992 0.2605908
000220 9e 82 c2 be 2e fb e0 3b 6f 81 61 3f c4 06 68 bf
       -0.37990278 0.0068658805 0.88088125 -0.90635324
000230 e4 c4 70 3e e5 32 28 3f f5 19 91 be e4 c7 77 3e
       0.23512608 0.6570266 -0.28340116 0.24197346
000240 41 9a e5 bc ca 0f b2 be a8 f2 a3 be 63 d7 da bd
       -0.028027656 -0.3477767 -0.3202107 -0.10685613
000250 00 80 17 bf ad 8c 6b 3e d5 62 95 bc b9 d3 11 bf
       -0.5917969 0.23002882 -0.018235603 -0.5696369
000260 ef ac 63 be b8 8a c3 bc 65 d8 cd be 57 9e ae be
       -0.22233938 -0.023869857 -0.40204158 -0.3410518
000270 87 42 22 3e 0f 75 30 bf b3 2b ac be 30 cf af 3d
       0.1584569 -0.6892862 -0.3362709 0.0858444
000280 6b 42 88 be 11 e6 94 bc 08 78 30 be 33 76 c4 3d
       -0.26613173 -0.01817611 -0.17233288 0.09592857
000290 fd 63 5d be 38 47 0e be b8 48 4f 3e fd 63 d8 bc
       -0.21620174 -0.13894355 0.20242584 -0.026414866
0002a0 32 5e 2f bc 71 ef 89 bf 85 78 d7 be 3c 97 2a 3f
       -0.01070361 -1.0776197 -0.42084137 0.66637015
0002b0 b8 f0 e5 be 6b aa f2 bc 51 7e 82 bf 43 ce 0a bf
       -0.44910216 -0.029622277 -1.0194799 -0.5422098
0002c0 96 28 06 3f 56 41 f6 bf 64 3f 15 3f 37 2d 27 3f
       0.5240568 -1.9238689 0.5829985 0.6530337
0002d0 68 2e e9 bf 06 0a 49 bc 91 30 cf 3e d6 d8 c4 bf
       -1.8217287 -0.012270456 0.4046674 -1.5378673
0002e0 81 28 87 be 08 60 ab 3e bf 5e 92 bf 7e 5c 1b bf
       -0.2639809 0.33471704 -1.1435164 -0.60688007
0002f0 04 fe a7 3f 57 22 d9 bf 3a a5 d9 be 92 58 9f 3e
       1.3124394 -1.6963605 -0.4250887 0.3112226
000300 ef ea 82 bf 92 89 84 be b1 71 5a 3f 0f 16 93 bf
       -1.0227946 -0.25886208 0.8532973 -1.1491107
000310 27 4d a8 be 84 bb 2a 3f 36 78 b1 bf 64 34 40 bf
       -0.32871363 0.66692376 -1.386481 -0.7507994
000320 70 e0 f7 3e 77 46 15 bf 22 db f8 bd ca 46 81 3e
       0.4841342 -0.58310646 -0.12151171 0.2524932
000330 db c2 fd be b1 dc 5c be a3 7b 3f 3c 8e ce f5 be
       -0.49562725 -0.21568562 0.011687192 -0.4800915
000340 cb 51 04 bf a8 86 a7 3e e3 07 25 bf 46 51 34 3b
       -0.51687306 0.32719922 -0.6446516 0.0027514263
000350 f2 d3 b3 3e 81 5c 86 bf 2b 7a 98 be d4 fe 0e 3e
       0.3512264 -1.049698 -0.29780707 0.13964397
000360 ac db d0 3d 89 43 9a be 2b 8f 5c be ad 7e 9e 3d
       0.10198149 -0.3012965 -0.21538989 0.07739005
000370 b0 2c e0 be 8c e5 4d bd 46 8c 20 3d 2f 9a 71 3d
       -0.43784094 -0.05026774 0.039196275 0.05898493
000380 08 7b 3c be 71 6b 10 c0 22 ab f5 be 96 3c 63 3e
       -0.18406308 -2.2565577 -0.47982126 0.2219108
000390 2a e4 00 bf e1 d0 c8 be 55 cc fa bf 9d 75 3a bf
       -0.5034815 -0.39221862 -1.9593607 -0.72835714
0003a0 b1 64 35 3f 23 27 08 c0 8d 60 43 3a 5b 28 99 3e
       0.7085677 -2.1273887 0.0007453047 0.299136
0003b0 1b af de bf d7 5d e5 be 76 50 08 3f bf 50 f5 bf
       -1.7397188 -0.44798157 0.53247774 -1.9165267
0003c0 9c 33 28 3e b4 69 c0 3e 0e f5 95 bf 72 69 b2 bd
       0.16425937 0.37580645 -1.171541 -0.08711518
0003d0 d5 d4 ea 3e 1b e2 57 bf 0e 98 e7 be 78 70 44 3f
       0.45865503 -0.84329385 -0.45233196 0.76734114
0003e0 77 75 62 bf 06 20 b9 3e 1d 3c 41 3f ea 84 2a bf
       -0.8846049 0.36157244 0.7548235 -0.6660906
0003f0 e9 64 48 be 2f 22 9b 3e 28 3e 53 bf 37 ff 0d bf
       -0.19569744 0.30299518 -0.8251672 -0.5546755

network_body._body_endoder.seq_layers.0.bias f4 [128]
000000 6d 34 e3 bf 2e 74 21 c0 fe 6c 00 c0 71 90 cd bf
       -1.7750374 -2.522716 -2.0066524 -1.6059705
000010 b3 97 0a c0 33 d0 c8 bf 22 fa 1b c0 1b 19 f9 bf
       -2.165509 -1.5688537 -2.437142 -1.9460787
000020 4f ea ed bc f1 78 18 c0 c2 28 b4 be bc c4 0f c0
       -0.029042391 -2.3823817 -0.35187346 -2.2463827
000030 7c 17 14 c0 40 67 00 bf 1f bf 04 c0 89 9e 8f be
       -2.3139334 -0.50157547 -2.074165 -0.2805064
000040 5d 06 84 bf 4b b5 a0 bf 99 26 d7 bf ec 47 9b bf
       -1.0314442 -1.2555326 -1.6808654 -1.2131324
000050 09 49 d5 be 6d c6 e3 be c9 75 a2 bf be 51 a1 bf
       -0.41657284 -0.44487324 -1.2692195 -1.2603071
000060 fa 56 aa bf 94 85 e5 bf 0e 23 97 bf 4a fd 55 bf
       -1.3307793 -1.793139 -1.1807573 -0.83589613
000070 e4 f1 88 bf 7b 45 4b bf f9 c4 3e bf 23 29 c0 bf
       -1.0698819 -0.79402894 -0.74519306 -1.5012554
000080 e5 ca 51 c0 fa 03 b7 bf f6 59 bc bf a9 dc 1c bf
       -3.2780087 -1.4298089 -1.4714954 -0.612742
000090 b1 12 0e 3f a9 08 3d c0 9f 94 29 c0 d5 c3 d8 bf
       0.5549727 -2.9536536 -2.649696 -1.6934763
0000a0 f0 94 c0 bf 4b 96 fb bf be 8d 80 bf d3 71 1f c0
       -1.5045452 -1.9655241 -1.0043256 -2.4913223
0000b0 e4 d4 bc bf c4 ea 4c bf c8 da 94 be 78 74 16 c0
       -1.4752469 -0.80045724 -0.29073167 -2.3508587
0000c0 9b 73 c3 bf 29 54 24 c0 7c 7c 3c c0 e2 02 d6 bf
       -1.5269655 -2.5676367 -2.945098 -1.671963
0000d0 9a f8 48 bf 14 37 da bf 41 ee 2f c0 46 73 3c bf
       -0.78504336 -1.7048059 -2.7489169 -0.73613393
0000e0 e2 ea 75 bf 95 3f 88 bf 16 0c 3f be a0 f9 dd bf
       -0.9606153 -1.0644404 -0.18656954 -1.7341805
0000f0 a0 91 c9 bf 39 19 c1 bf b2 7b 02 c0 19 53 e6 bf
       -1.5747566 -1.5085822 -2.0387998 -1.7994109
000100 18 f2 01 c0 14 ca 66 bf ba c8 ca bf b0 e1 15 c0
       -2.0304012 -0.90152097 -1.5842507 -2.3418999
000110 a8 4d ef bf 99 db f8 be 2e 57 b0 bf 5a 4d 0e c0
       -1.8695574 -0.4860504 -1.3776605 -2.2234712
000120 11 2d ce bf 08 f9 9f bd fa 58 cf bf f7 98 1e c0
       -1.6107503 -0.07811171 -1.6199028 -2.4780862
000130 d0 d9 9b bf 7c 98 ce bf b2 dd d3 be e0 15 09 c0
       -1.2175846 -1.6140285 -0.41380078 -2.1419601
000140 e5 29 43 3f f8 7b bc bf 8a bf ac bf 70 15 0b c0
       0.762358 -1.4725332 -1.3495953 -2.1731834
000150 8c 22 53 bf a8 d8 dc bf 69 fa 0a c0 5f e2 83 bf
       -0.8247459 -1.7253618 -2.1715338 -1.0303458
000160 87 04 99 bf 0a e1 2f bf 9e 46 5f be 05 81 a3 bf
       -1.1954507 -0.6870276 -0.21804282 -1.2773749
000170 75 87 6d bf 4f e2 a5 bf f5 b1 2f bf 75 64 27 c0
       -0.92784816 -1.2959689 -0.68630916 -2.6155064
000180 bc 29 65 bf 91 c3 c9 bf 39 89 df bf 51 61 02 c0
       -0.89516807 -1.5762807 -1.7463752 -2.0371897
000190 32 2b 9b bf 54 5c a4 bf 59 1f b8 bf 54 2c 29 c0
       -1.2122557 -1.2840676 -1.4384567 -2.6433306
0001a0 49 d8 81 bf 7e 9a 26 c0 e1 68 80 bf 08 36 eb bf
       -1.014413 -2.6031795 -1.0032007 -1.8375864
0001b0 9d 45 88 bf 1e 8c 49 3e 48 f9 2e c0 65 3b 91 bf
       -1.0646244 0.19682357 -2.733965 -1.1346251
0001c0 4c fe 34 bf 5a 74 0c c0 e1 00 a4 bf b3 fd eb bf
       -0.70700526 -2.1946015 -1.2812768 -1.8436798
0001d0 78 49 60 bf ff a9 4b bf 48 ab 3e c0 77 42 88 bf
       -0.87612104 -0.7955627 -2.9792042 -1.0645283
0001e0 6b a7 3d bf fb f1 bb bf 79 40 99 bf b3 72 ba bf
       -0.74083585 -1.4683222 -1.19728 -1.4566253
0001f0 25 f6 33 bf 5f fc de bf 41 bd ef bf ac 28 96 bf
       -0.7029746 -1.7420768 -1.8729631 -1.1731162

network_body._body_endoder.seq_layers.2.weight f4 [128, 128]
000000 9d 3b 98 be 52 dc 51 bd 3f 7c 47 be 6d 89 02 3e
       -0.2973298 -0.051235504 -0.1948099 0.12747736
000010 14 e0 b9 bc 65 b8 46 bd 0e 0b 3d 3d 66 20 96 be
       -0.022689857 -0.048515696 0.04615312 -0.29321593
000020 d5 a6 05 bf a7 a7 6f be f3 40 1d bf 69 d2 b6 bd
       -0.5220769 -0.23403798 -0.6142723 -0.08926851
000030 92 ea 7e 3e b1 01 5f 3e da 93 1b bf 73 d0 3a be
       0.24894169 0.21777989 -0.6077248 -0.1824358
000040 72 87 ea be 35 ad 15 3d ef 41 11 3e 01 d7 08 be
       -0.45806462 0.036542136 0.14185308 -0.13363267
000050 a0 1d 0f 3e 53 2d a7 bf d4 49 45 bb c5 92 8c bf
       0.13976145 -1.3060707 -0.003010382 -1.098229
000060 99 d6 9d be 41 6c 7e bb ca 6f 83 3e cb fb 89 be
       -0.30827788 -0.0038821849 0.25671226 -0.26949915
000070 02 6e 13 3e 0f a1 07 be 43 a2 05 3f 59 ff 7d be
       0.14397433 -0.13245033 0.52200717 -0.24804439
000080 51 a3 1f be 39 ba 75 be ce 7b f1 3e a6 a9 c7 be
       -0.15589644 -0.2399682 0.47164768 -0.3899662
000090 3e 91 2b bf 5e c7 6d be 5c 7c 8e 3d 78 0e 2e bf
       -0.67018497 -0.23220584 0.069573134 -0.6799083
0000a0 00 72 3f be 9b a9 95 be b6 0d e3 be 07 45 0b be
       -0.18695831 -0.2923096 -0.44346398 -0.1360055
0000b0 cc 77 27 3e be 1e 0c bf 37 b3 f2 be 7b f4 5c 3e
       0.16354293 -0.5473441 -0.47402355 0.21577637
0000c0 de 29 c4 be 1f c1 74 be e4 e7 3a 3c db bf 46 be
       -0.38313192 -0.23901795 0.011407826 -0.19409125
0000d0 7a f9 d6 be 58 45 09 3e 90 24 44 3e cc 55 2b bf
       -0.4198721 0.13405359 0.19154572 -0.6692779
0000e0 71 a3 6a 3e 3b 41 0d 3e c1 3c a7 bd d9 f8 2b be
       0.2291391 0.13794415 -0.08165885 -0.16794147
0000f0 36 c5 2c bf 86 58 b7 be a8 1e df 3e 0b bb db bd
       -0.6748842 -0.35809726 0.43578076 -0.10729035
000100 51 1e 66 3e f6 a7 78 bf 61 91 bf 3d 20 27 da bd
       0.22472502 -0.9713129 0.09353901 -0.10651994
000110 13 39 04 be 88 7d 43 bf 96 a4 e1 3d ea 2b ae be
       -0.12912397 -0.7636342 0.110177204 -0.3401788
000120 fa 2e 42 bf 62 e7 14 bf 16 a1 b0 3d 00 81 86 be
       -0.7585293 -0.5816556 0.08624475 -0.26270294
000130 82 87 56 bd 50 60 bb bd 61 14 17 3b d9 16 58 be
       -0.052375324 -0.091492295 0.0023052918 -0.21102466
000140 a3 c3 1b bf 03 aa 26 be 0b ab 1d bd 27 5c a4 bd
       -0.6084539 -0.16275792 -0.038493197 -0.08025389
000150 11 7c bd be 3b 70 17 be 89 a1 a2 bc c8 c6 06 bf
       -0.37008718 -0.14788906 -0.019852417 -0.52647066
000160 d6 fc 96 be 6f 5d 3a be e0 71 d1 bd 85 19 25 be
       -0.29489774 -0.18199705 -0.10226798 -0.16123016
000170 bf 67 9d 3d dc 34 ae bd 68 ce 04 3e 24 f8 b1 3e
       0.076858036 -0.08506176 0.12969363 0.3475963
000180 f3 07 a2 be d7 0f 17 be 06 34 07 bf 03 1b a3 3d
       -0.3164669 -0.14752136 -0.52813756 0.079641365
000190 5f 5c 18 be e7 4c a6 bd b5 9c ba 3d 63 74 d3 be
       -0.14878987 -0.08120137 0.09111921 -0.41299734
0001a0 5d b3 b3 3e f2 b7 65 3d ca 61 05 bf dd ec 65 be
       0.3509778 0.056083627 -0.5210234 -0.22453637
0001b0 23 1f bd 3c 22 eb fa be d3 be 35 bd d9 c2 1a bd
       0.023086136 -0.49007517 -0.044371437 -0.037783477
0001c0 b0 d6 37 3d 05 2f bc be 5c 39 5e bd 26 b2 19 bf
       0.044882476 -0.36754623 -0.05425392 -0.6003746
0001d0 cb 3c f2 bc 3d 6c 41 bf 92 7e 76 3b 36 f0 00 bf
       -0.029570004 -0.75555784 0.0037612063 -0.5036653
0001e0 c5 91 94 be 04 71 5e bf eb 68 a9 be 99 c4 79 be
       -0.29017463 -0.868912 -0.3308786 -0.24391402
0001f0 fe 75 26 bf b5 f8 47 bf 7e 08 85 bc 8c 3f 29 3e
       -0.6502379 -0.7811387 -0.016239401 0.16528147
000200 db 1f 6e be 65 b9 aa 3c 42 73 9c be e4 4a 27 bf
       -0.2325434 0.020840356 -0.30556685 -0.6534865
000210 4c 7e 03 bf 61 85 e4 be 6b 87 51 be 92 71 36 be
       -0.5136459 -0.4463301 -0.20461814 -0.17816761
000220 1f 79 05 be 77 b7 89 bd 5c 19 18 bd 6a 6e f0 bd
       -0.13034485 -0.06724446 -0.03713356 -0.1173981
000230 a8 bc 18 be 08 d8 a7 be 21 15 d8 3e 42 7a 2d bf
       -0.14915717 -0.32782006 0.4220362 -0.67764676
000240 82 a4 6b bd ea 7e 1e bf 66 14 de 3e 41 20 69 3d
       -0.057529934 -0.61912405 0.43374938 0.056915525
000250 0e 6e 33 bf 1f a0 9f 3d e7 82 8a be 62 db f8 be
       -0.70089805 0.077942125 -0.27052996 -0.48604876
000260 5c 9e 7e be c3 ab 35 3e 88 7f 30 be ef 34 29 bf
       -0.24865097 0.17741303 -0.1723615 -0.66096395
000270 cb f4 2d be 86 00 4f 3e d6 c5 19 bf 78 89 d0 be
       -0.16987912 0.20215043 -0.600675 -0.4072988
000280 84 f0 32 3e 37 1a 44 be 00 ee 33 bf d7 ba 5c be
       0.17474562 -0.19150625 -0.70285034 -0.21555649
000290 d5 e7 3f bf 41 b2 f6 bc 1f d0 6d bd cc 13 18 3e
       -0.7496312 -0.030114295 -0.058059808 0.14851302
0002a0 b8 e2 8e be 70 3a 80 be da 1e 1d bd 57 7d 87 3d
       -0.27907348 -0.25044584 -0.0383595 0.066157036
0002b0 46 11 04 bf 5c aa 7a be e8 15 8f be 10 5d bf 3d
       -0.5158886 -0.2447905 -0.279464 0.09343922
0002c0 f6 73 31 3e c1 1b 7d bb 56 c3 62 3e fe c3 a6 3d
       0.17329392 -0.003862128 0.22144827 0.08142851
0002d0 59 b7 c5 be fd a1 97 be 8e 29 d3 3e 17 cd 3a be
       -0.38616446 -0.29615775 0.4124264 -0.18242298
0002e0 36 87 6e 3e 57 df 05 bd 6c 4d c0 3e bb 7f f7 be
       0.23293766 -0.032683697 0.37559068 -0.48339638
0002f0 80 e3 3c bf 8b 9c f8 3d d8 a8 c6 3d a3 57 17 be
       -0.7378464 0.12139233 0.09700173 -0.14779525
000300 c2 67 1d be ec 85 15 be 9f e1 05 bf c9 02 b8 be
       -0.15371612 -0.14601868 -0.52297395 -0.35939625
000310 9a aa 5c be d6 32 74 be ab a6 75 3b 48 7c 1c bd
       -0.21549454 -0.23847517 0.0037483375 -0.03820446
000320 3e 7f ae be fc 5a 2c bf c3 f7 93 be 51 ee 4c 3e
       -0.34081453 -0.6732633 -0.28899965 0.20012785
000330 85 f1 ba bd 44 66 76 be d0 9b 77 3e 54 f5 91 3e
       -0.091280974 -0.24062449 0.24180532 0.28507483
000340 ff ec e5 bf 73 fb 85 be 29 dd 05 be 09 0c 9b be
       -1.796295 -0.26168403 -0.13072647 -0.3028262
000350 31 5d 04 bf 64 c0 ed 3e 17 b9 c7 be 23 ba 21 3c
       -0.517047 0.46435845 -0.390084 0.009871039
000360 b7 d6 a7 be f6 c3 ee be 06 dc 7d be a4 bc 8e be
       -0.32781002 -0.4663388 -0.24790964 -0.27878296
000370 57 93 dd be b1 1d 56 3c c0 55 01 bf bf a9 9b be
       -0.43276474 0.013068602 -0.5052147 -0.30402943
000380 bb 25 1b 3d f8 88 7b be 42 df 3e bf 7c 36 19 3e
       0.03787778 -0.24563968 -0.74559414 0.1496219
000390 a3 a3 ac 3e a7 f2 d8 be 26 ef a7 bd ba 43 81 3e
       0.33718595 -0.4237263 -0.08199911 0.25246984
0003a0 ce 95 61 3d b8 1d 8f be 3f 02 ec be 0a 70 53 3e
       0.055074506 -0.2795236 -0.46095464 0.20648208
0003b0 49 64 a5 bc 94 43 bf bd 53 d4 4e 3e a2 cc b8 be
       -0.020189421 -0.093390614 0.20198183 -0.36093622
0003c0 84 6e 71 be 99 e6 9b be 31 7c a8 bd 2e 80 88 3d
       -0.23577315 -0.3044937 -0.08226813 0.06665073
0003d0 3e d2 76 3e c6 7f f2 3d ab 6d d8 be 43 10 1a be
       0.24103639 0.11840777 -0.4227117 -0.15045266
0003e0 35 ef 14 bf 26 36 d2 bd 34 8b 45 bf db 94 ef be
       -0.581775 -0.10264234 -0.7716553 -0.46793255
0003f0 f3 7d e3 be 86 7f 02 bf b9 8a c5 bd 50 9c a8 be
       -0.4443203 -0.50975835 -0.096456 -0.32931757

network_body._body_endoder.seq_layers.2.bias f4 [128]
000000 51 98 c7 bf b3 22 3f bf 41 4a 7f bf 7d 1d 55 bf
       -1.5593358 -0.7466232 -0.9972268 -0.8324812
000010 88 11 a4 bf c3 fb 4e bf 30 a8 89 bf 79 a8 6c bf
       -1.281785 -0.8085291 -1.0754452 -0.9244457
000020 d3 68 04 bf 21 06 ee 39 3c ab b9 be eb 6c 15 3f
       -0.5172245 0.00045399464 -0.36263454 0.5836932
000030 2f 37 7b bf e5 73 92 bf a3 95 d8 bf 6a bf 0d 3e
       -0.9813108 -1.1441618 -1.6920666 0.1384255
000040 8d a4 d8 bf 17 5d e6 be 3a 4a 75 bf 1e f6 d6 bf
       -1.6925217 -0.44992897 -0.95816386 -1.6793859
000050 c8 77 89 bf 92 59 c3 bf d8 d7 a0 bf e6 e5 74 bf
       -1.0739679 -1.526171 -1.256587 -0.956633
000060 04 bc b4 be 33 65 6c bf b1 97 7e bf 78 e6 5a bf
       -0.35299695 -0.9234192 -0.9945021 -0.8550792
000070 25 12 9e bf 94 4d 13 bf ba 20 75 bf 60 e0 cd bf
       -1.2349287 -0.5754025 -0.9575306 -1.6084099
000080 fb 1b 1e 3e 64 fe 97 bf 39 32 cc bf 7f 71 b1 bf
       0.15440361 -1.1874509 -1.5952827 -1.3862761
000090 bb ee 23 bf 01 3c 12 bf f9 ab 62 bf 07 20 13 bf
       -0.6403615 -0.5712281 -0.8854366 -0.57470745
0000a0 32 10 83 bf fe bf 52 bf 82 88 2b bf 09 09 ea bf
       -1.0239317 -0.82324207 -0.6700517 -1.8284007
0000b0 61 e9 bb bf b0 8b 95 bf d4 72 89 bd 06 86 0a bf
       -1.4680597 -1.1683254 -0.06711355 -0.54110754
0000c0 e8 cd c7 bc 29 78 21 bf 2c 8f 0a bf 67 bb 5b bd
       -0.024390176 -0.63073975 -0.5412471 -0.053645518
0000d0 5b 4d fb be a3 5f 70 3e 55 6e 91 bf 9f 95 01 bf
       -0.49082455 0.23473983 -1.1361796 -0.5061893
0000e0 fb 0e 8a bf f1 3b 36 3f 1a 87 49 bf 77 43 28 bf
       -1.0785822 0.71185213 -0.78721774 -0.65727943
0000f0 64 45 92 bf 8d 30 38 bf bf ba e4 be 4b a7 ab bf
       -1.1427426 -0.7194908 -0.44673726 -1.3410429
000100 39 80 37 bf 8b 38 7e bf 3a c0 db be e2 32 82 bf
       -0.7168003 -0.9930503 -0.42920095 -1.0171778
000110 a6 58 35 be b3 92 56 bf 83 40 1d bf 36 91 e8 be
       -0.17709598 -0.83817595 -0.6142656 -0.45423287
000120 ec 88 3b bf 5c ea 28 3b f0 ed 92 bf 88 6e 60 bd
       -0.732558 0.0025774455 -1.1478863 -0.05479291
000130 e8 f7 92 bf bc 34 ab be df 93 cb bf 7f 0b 1c be
       -1.1481905 -0.3343867 -1.5904502 -0.1523876
000140 aa 9d d1 bf c7 2b 8f bf 66 72 ec 3d 7c 55 a8 bf
       -1.637624 -1.1185235 0.11545257 -1.3151088
000150 58 57 de bf 05 ad 70 bf 34 ae 8a be c2 01 bd bf
       -1.7370405 -0.94014007 -0.2708603 -1.4766161
000160 4d 02 11 bf 74 95 9e bf 59 d4 cd bf cc 3c 07 3f
       -0.56644136 -1.238936 -1.6080428 0.52827144
000170 66 32 20 be 6c e4 e7 bf 8c 26 5b bf f6 91 e9 bd
       -0.15644225 -1.8116584 -0.8560569 -0.11404793
000180 79 5d 59 bf 0d e8 2e bf 60 78 35 bf 32 40 9a bf
       -0.8490825 -0.6832283 -0.708868 -1.2050841
000190 b4 1d d6 be 93 37 03 be 61 99 ae bf 60 cb 84 3e
       -0.41819537 -0.12814169 -1.3640558 0.25936413
0001a0 a2 9a bf bf 17 df a5 bf df 40 21 bf 2f 2e aa be
       -1.4969065 -1.2958707 -0.6298961 -0.3323836
0001b0 8e 22 2f be 2f 14 0a bf 41 86 f2 be 29 9a d2 be
       -0.17103025 -0.5393705 -0.47368053 -0.4113324
0001c0 3a d8 86 bf d1 51 d9 be 53 af 4d 3a 35 62 76 bf
       -1.0534737 -0.42445233 0.0007846255 -0.962436
0001d0 1b 5a b7 bf 9e 9f 8c bf 53 82 c0 be 55 17 37 bf
       -1.4324373 -1.0986211 -0.3759943 -0.71519977
0001e0 38 40 45 3f 30 01 0a 3a 9e 83 6e bf d2 c6 3d bf
       0.77051115 0.0005264459 -0.9316958 -0.741315
0001f0 3e b1 04 bf b8 14 9d bf 3c 3e 14 bf 51 08 30 bf
       -0.5183295 -1.2271948 -0.5790746 -0.6876269

action_model._continuous_distribution.log_sigma f4 [1, 2]
000000 b8 53 c1 be 1d a1 2b be
       -0.37759185 -0.16760679

action_model._continuous_distribution.mu.weight f4 [2, 128]
000000 b3 0d 31 bc 6d a8 a3 bd 9c 71 4f bd e2 f4 1a 3e
       -0.010806489 -0.07991109 -0.050645456 0.15132478
000010 a0 bd 1b be b8 5a 8c 3d 5d 4a 95 be 45 1c 59 3c
       -0.15209055 0.06853241 -0.29158297 0.013251369
000020 64 aa 02 3e 09 58 90 3d 60 3b d5 3d 35 0f 7c be
       0.12760311 0.070480414 0.104117155 -0.24615176
000030 6e 5f b7 bd 27 95 36 be b0 15 ee ba a7 59 ab 3d
       -0.08953749 -0.17830335 -0.0018164422 0.08366709
000040 fe c6 9a 3e 52 f2 c0 3d c8 59 28 be a8 4e 82 3d
       0.30229944 0.09421219 -0.16440499 0.06362659
000050 8e 4a 49 3e cd f2 a8 be 1a 56 06 3e 1b 10 b6 3c
       0.19657347 -0.32997742 0.13118783 0.022224477
000060 61 66 cc bd 7d 50 4b 3e ec 26 4d be fb 6d c5 3e
       -0.09980465 0.19854923 -0.20034379 0.3856047
000070 d5 27 ca bc 6c f0 2c be b6 ae 64 bc b3 94 af 3d
       -0.024677197 -0.16888589 -0.01395767 0.08573284
000080 63 96 8c 3d 83 be 8d be a2 19 4d bd 6f 86 24 bc
       0.068646215 -0.2768441 -0.050073273 -0.010041817
000090 c9 fc 2c 3e 3a db cd 3e 4f 81 1a 3e ba 9e e9 bd
       0.16893305 0.4020632 0.1508839 -0.11407228
0000a0 0d e5 5d bd 79 aa da 3e f6 9e 02 bd 75 7d 4a bd
       -0.054173518 0.42708185 -0.03188988 -0.04943605
0000b0 79 96 04 3f 04 ca 26 3f 62 0e ea 3d 0d 15 3d 3d
       0.51792103 0.65152 0.114285246 0.046162654
0000c0 a7 6a 95 bd 05 26 6c 3e e3 9d 2c 3f dc 9a f8 bc
       -0.07295733 0.23061378 0.67428416 -0.03034728
0000d0 a1 b1 f0 3c f3 60 cf bd 5d ce 4d be ca e2 71 3e
       0.029381575 -0.101259135 -0.20098253 0.2362167
0000e0 7a 50 91 3e 72 91 01 be 20 ac 5d 3d 70 fb e1 3e
       0.2838171 -0.12653139 0.05411923 0.44137144
0000f0 0e ee f1 3c b2 99 6c 3e 0c 9e 27 be 71 86 0e 3e
       0.029532459 0.23105505 -0.16368884 0.13918473
000100 65 53 8b 3f ba 2d 5e 3e b6 67 52 3e 1c e0 93 3c
       1.0884825 0.21697131 0.20547375 0.0180512
000110 7b fa 1d 3e 60 ac 28 3d f4 11 47 3f 8f 91 01 3f
       0.15427582 0.041180015 0.7776177 0.5061273
000120 05 5a 0a 3e bc 84 9d bd f4 2c 31 bd d9 51 20 bd
       0.13510902 -0.07691333 -0.04325576 -0.039140556
000130 cd 4f 20 3e 63 8f 69 bd 42 27 00 3e 8e 09 b1 3e
       0.15655442 -0.05702151 0.12514976 0.34577602
000140 1b 7c 9b bd 0d 41 9d bc 82 95 fc bd 31 04 65 3e
       -0.075920306 -0.019196058 -0.12333204 0.2236488
000150 c7 ef 94 3c 83 2f 9d 3d 50 f7 bb 3b 67 8c 88 bd
       0.018180741 0.07675078 0.005736269 -0.066674046
000160 eb 6f 4b 3d dc b1 22 3e 04 e0 c4 3e 04 08 e6 be
       0.04966728 0.1588816 0.3845216 -0.4492799
000170 4b 0f 4a 3e fb ff 96 3c dd 2c 52 3d 86 e7 fd 3d
       0.19732396 0.018432608 0.051312316 0.12397675
000180 4e cf b4 bd 08 3b 8b 3e 83 17 9f 3e 15 2d c0 3a
       -0.08828603 0.27193475 0.31072626 0.0014661873
000190 90 1a 16 3c 3a 79 8f bd d2 03 a7 3e 5b 56 5c be
       0.009161606 -0.07005544 0.32620102 -0.21517317
0001a0 fd 7c b4 bd 5e ed be bd 78 4e ce bd 47 29 b2 3d
       -0.08812902 -0.09322618 -0.100735605 0.08699279
0001b0 73 de b9 3e 0e e1 21 3e 22 ad 8a 3d 4b 7f 5f 3e
       0.36302528 0.15808508 0.06771304 0.21825902
0001c0 cd 0f 0f be f2 16 02 be 71 8a 10 be f5 23 72 3d
       -0.13970871 -0.12704065 -0.14115311 0.059116323
0001d0 56 f1 7a be 5b 7b ee 3c c3 a5 10 3d 73 7a fc 3d
       -0.24506125 0.029111555 0.035314333 0.12328043
0001e0 5a 4e e1 ba 24 09 41 3d 03 89 f7 bd 34 33 7b 3d
       -0.0017189488 0.047127858 -0.1208668 0.061328128
0001f0 21 ef 2f 3e 65 34 7b bd 5e cc 03 3f b1 62 be 3e
       0.17181064 -0.061329264 0.51483715 0.3718467
000200 22 b3 10 be ec ca 01 3f dc 66 ae bd 29 c4 5b 3d
       -0.14130834 0.5070026 -0.085157126 0.05365387
000210 07 c0 d2 bc c0 c6 26 3d 3d 60 d4 3d a2 7e d5 bd
       -0.025726331 0.040716887 0.103699185 -0.10424544
000220 27 3c c8 3d f8 b1 d2 be d1 7e 6f 3d 00 d7 4d be
       0.09777098 -0.41151404 0.05847055 -0.20101547
000230 6b 12 43 3e f4 8c db bd 31 7e 0c 3e 6d 1e 6d be
       0.19049995 -0.10720244 0.13720013 -0.23156138
000240 16 8b 23 3e 23 71 49 be 5e bd 9c 3e 19 f6 b3 3d
       0.15971026 -0.19672064 0.30613226 0.08787174
000250 58 dc 2d 3e 2e f6 9a 3e ed c2 b5 3d c4 c6 84 3e
       0.16978586 0.30265945 0.0887507 0.25932896
000260 4b f6 5d 3d 99 52 71 bd b3 e4 b1 3e ae 6e 00 bf
       0.05418996 -0.058916662 0.34744796 -0.50168884
000270 a1 9c bc 3e 6d 3c 0f be 7e 33 e0 3d 3b 45 03 3f
       0.36838248 -0.13987894 0.10947321 0.5127751
000280 7a 92 16 3e 67 4a 4a 3d df e0 a2 3c a5 47 2c 3e
       0.14704314 0.04938736 0.019882618 0.16824205
000290 4b 7c df bd e1 9d 30 3b 93 36 94 be 5b 14 57 be
       -0.10912379 0.0026949572 -0.28947887 -0.21003859
0002a0 ae 17 d7 bd ed a9 34 3e 7c 19 79 bd cb 17 0f be
       -0.105025634 0.17642947 -0.06081532 -0.1397392
0002b0 bb f7 5b 3e d3 c7 85 bd c4 70 72 be b0 21 51 bd
       0.2148122 -0.06532254 -0.23675829 -0.051057518
0002c0 0d 1c 07 3e 46 31 3e 3e b7 99 a4 bd 3e dd 04 be
       0.13194294 0.18573484 -0.08037131 -0.12975022
0002d0 dd 7a ec bc 73 e3 61 3e 56 7c 1d bd b5 d5 1a 3c
       -0.02886718 0.22059421 -0.038448654 0.009450366
0002e0 50 02 10 bd bc db 4d 3d a5 38 cb bb be 33 83 be
       -0.035158455 0.050258383 -0.006201821 -0.25625414
0002f0 c5 4a b6 be 29 d3 08 bd d0 17 0c bd 7c c5 cc bd
       -0.3560392 -0.033404503 -0.034202397 -0.09998605
000300 cb 8c 16 3d 86 f3 98 bd e0 76 61 bc fb 52 40 be
       0.036755364 -0.074683234 -0.013761252 -0.18781655
000310 48 85 5b be 68 46 4d be e6 a8 12 be b1 21 80 be
       -0.21437562 -0.20046389 -0.14322242 -0.25025705
000320 9b 50 79 be 23 e5 a1 be 73 cd a4 bd 7a 3d e5 bd
       -0.24347155 -0.3162013 -0.08046999 -0.11193366
000330 ae a1 1c bd 70 e4 ad 3e 3f 3b bd be 76 b8 8f bd
       -0.038240127 0.33963346 -0.36959264 -0.07017605
000340 c4 4a bf bd 9f de 30 3e 5d d1 96 3d 4d ec 7c 3d
       -0.09340432 0.17272423 0.073641516 0.06174879
000350 8d 16 7c 3d c3 39 ba 3d 67 f1 18 3f 7a d0 8d 3c
       0.061544944 0.090930484 0.5974335 0.017311323
000360 60 b4 bb 3d 35 08 80 bc 94 c2 09 3d bd 84 85 3e
       0.09165263 -0.015628913 0.03363283 0.26077834
000370 09 e8 64 3d 74 5b e7 3d fe 79 cc 3c 70 d0 59 be
       0.05588535 0.1129674 0.024960514 -0.21270919
000380 37 97 14 be 1b db 98 bc c2 c7 01 3e 6c e2 17 3e
       -0.14510809 -0.018659165 0.12673858 0.14832467
000390 56 3b 22 3d 08 16 3a 3e 66 db 3b 3f cc 76 16 be
       0.03960737 0.18172467 0.7338165 -0.14693755
0003a0 31 6e 1a 3e 91 1c c5 3e 49 37 16 3e 53 7e a8 3e
       0.15081097 0.38498357 0.14669527 0.32908878
0003b0 86 1f 6d bf 07 5f 71 3d c3 7a 11 be 4d 4b 8c bc
       -0.92626226 0.058928516 -0.14206986 -0.01712575
0003c0 10 21 aa bd d7 25 3f bf 87 f0 86 be 03 62 06 3e
       -0.083070874 -0.74667114 -0.26355383 0.13123326
0003d0 06 0a a9 bc 58 d9 cd 3c 6a 8e 1b be a9 bc e2 be
       -0.020634662 0.025128052 -0.15191045 -0.4428456
0003e0 32 7d 05 bd 46 1f e9 bd fa 78 33 3d 6c 79 df bd
       -0.0325901 -0.11382918 0.043816544 -0.10911831
0003f0 05 38 d9 bd cc 73 0a 3d fb 25 09 3d 2f 18 bb bd
       -0.10606388 0.03380184 0.033483487 -0.09135472

action_model._continuous_distribution.mu.bias f4 [2]
000000 57 5e 12 c0 fd 42 ce 3f
       -2.287008 1.6114193
