results/circle/DroneAgent/DroneAgent-30999988.onnx (onnx, 100664 bytes, 7 tensors)

network_body._body_endoder.seq_layers.0.weight f4 [128, 56]
-0.08281199 -1.3576404 -0.4702609 0.42312837 1.0135382 0.1515043 -1.3944391 -0.6272898
0.36780494 -1.8612492 0.08640904 0.23767975 -1.580167 -0.28914425 0.411431 -1.5295275
0.10651904 0.11293304 -1.4751207 -0.8705542 0.1525106 -1.4119862 -0.1786178 0.5381648
-2.100472 0.32623735 0.41721377 -1.2802696 0.2788256 0.055709105 -0.72923076 0.06746872
-0.023933059 -0.8942204 -0.022176957 0.12955447 -0.8403003 0.242196 -0.26054674 -0.4226572
-0.22216941 0.02792814 -0.45703685 0.11861464 -0.07952398 -0.2636827 -0.42251334 -0.031082965
0.18611567 -0.58734953 -0.11006057 -0.22796942 0.054603543 0.13326988 -0.07301853 0.029538821
-0.30472544 -2.4913878 -0.079098195 0.36234725 0.2798601 0.17451704 -2.2435055 -0.1315399
0.5244345 -1.7311895 -0.41074103 0.34149438 -1.5672586 -0.124158576 0.68820846 -1.4647825
-0.14412226 0.50100255 -1.3956013 -0.19870487 0.42544982 -0.9043984 0.03981988 0.40546525
-1.2831084 0.0626256 0.32632416 -1.3621017 -0.08235781 0.48174715 -1.2834767 0.018674735
-0.27435446 -0.74079335 0.08269785 0.063342236 -0.76452595 -0.31968153 0.41687045 -0.69337803
0.16642371 -0.16085063 -0.6095131 0.07082309 -0.22016777 -0.45149782 -0.25462955 0.30586484
-0.7388716 -0.08505849 -0.09355577 -0.013308635 0.05620749 -0.070864685 -0.06485107 0.16040337
0.17309374 -1.8709757 -0.49731848 -0.4526037 1.2243135 0.17956676 -2.0633113 -0.44855145
0.6120749 -2.1039543 -0.4221981 0.03581068 -1.6424291 -0.39006644 0.77927136 -1.7051958
0.36708322 0.1153837 -1.4772007 -0.3551195 0.27169687 -1.0217125 -0.32095465 0.30524167
-0.42454794 0.04649143 0.92236245 -0.9533004 0.27072522 0.70726526 -0.33046174 0.29216996
0.022297448 -0.39543185 -0.26981917 -0.05663774 -0.63869256 0.28024304 0.031985212 -0.61721545
-0.17212266 0.026350882 -0.4494121 -0.29083055 0.20867693 -0.7372133 -0.2860473 0.12800203
-0.31217763 0.023978753 -0.17233288 0.09592857 -0.21620174 -0.13894355 0.20242584 -0.026414866
-0.043535646 -1.0434923 -0.44015917 0.615617 -0.4604104 -0.06245472 -0.98536646 -0.5615216
0.49535313 -1.9154142 0.5653212 0.6075808 -1.8067439 -0.030313207 0.38448268 -1.5513746
-0.2936051 0.32822186 -1.1424985 -0.617583 1.3206681 -1.6954803 -0.41360128 0.31832457
-1.0206814 -0.25191918 0.8564811 -1.151774 -0.3229875 0.6756378 -1.3952725 -0.74208516
0.48929134 -0.58837986 -0.11633929 0.25804916 -0.50116575 -0.21012203 0.020198172 -0.48799053
-0.5084808 0.3283861 -0.645836 0.003938516 0.35241327 -1.0508811 -0.29661998 0.13964397
0.10198149 -0.3012965 -0.21538989 0.07739005 -0.43784094 -0.05026774 0.039196275 0.05898493
-0.21165545 -2.2301128 -0.49047592 0.1799114 -0.54565924 -0.41980782 -1.9329333 -0.73900914
0.72323835 -2.1258543 0.01335158 0.28582966 -1.7394661 -0.44165906 0.5421352 -1.940724
0.17572637 0.39847696 -1.1976138 -0.07815795 0.4841316 -0.85474247 -0.4164884 0.7521598
-0.8598879 0.3599114 0.7362689 -0.64796394 -0.19751161 0.29556742 -0.81773984 -0.5621029
00000000: 5599 a9bd 29c7 adbf 09c6 f0be 48a4 d83e
00000010: 9fbb 813f f123 1b3e fb7c b2bf 1096 20bf
00000020: ee50 bc3e 6a3d eebf 39f7 b03d 5262 733e
00000030: ea42 cabf b70a 94be 16a7 d23e 8fc7 c3bf
00000040: a826 da3d 7049 e73d c1d0 bcbf a4dc 5ebf
00000050: bd2b 1c3e f7bb b4bf 96e7 36be 2bc5 093f
00000060: 226e 06c0 9508 a73e 0b9d d53e e0df a3bf
00000070: 3bc2 8e3e 3b2f 643d deae 3abf 0a2d 8a3d
00000080: 430f c4bc a1eb 64bf 73ac b5bc eda9 043e
00000090: ec1d 57bf 3a02 783e 6266 85be 8666 d8be
000000a0: 6180 63be 8ec9 e43c bc00 eabe 3bec f23d
000000b0: 78dd a2bd 6b01 87be ab53 d8be b4a1 febc
000000c0: 1b95 3e3e 8a5c 16bf 7067 e1bd d170 69be
000000d0: f7a7 5f3d e677 083e bd8a 95bd 66fb f13c
000000e0: f904 9cbe e672 1fc0 3cfe a1bd 9485 b93e
000000f0: d349 8f3e 98b4 323e 9895 0fc0 65b2 06be
00000100: 5741 063f 9e97 ddbf a64c d2be 5ad8 ae3e
00000110: ee9b c8bf da46 febd 6e2e 303f fe7d bbbf
00000120: c994 13be b441 003f 10a3 b2bf 4a79 4bbe
00000130: 8fd4 d93e a786 67bf 2c1a 233d 2499 cf3e
00000140: e53c a4bf da41 803d f613 a73e 5959 aebf
00000150: 36ab a8bd 90a7 f63e f748 a4bf c2fb 983c
00000160: 3078 8cbe a2a4 3dbf 7e5d a93d 93b9 813d
00000170: f9b7 43bf 4cad a3be 0b70 d53e 3981 31bf
00000180: fa6a 2a3e 07b6 24be 0d09 1cbf b20b 913d
00000190: a973 61be b92a e7be ce5e 82be 519a 9c3e
000001a0: b026 3dbf 2533 aebd 2b9a bfbd 760c 5abc
000001b0: d339 663d 8121 91bd a3d0 84bd c840 243e
000001c0: 7c3f 313e 227c efbf 87a0 febe acbb e7be
000001d0: 4eb6 9c3f 59e0 373e 4b0d 04c0 89a8 e5be
000001e0: f1b0 1c3f 30a7 06c0 592a d8be 38ae 123d
000001f0: 1e3b d2bf cab6 c7be 547e 473f db43 dabf
00000200: 55f2 bb3e 4a4e ec3d ea14 bdbf 39d2 b5be
00000210: da1b 8b3e 7ac7 82bf 2b54 a4be a348 9c3e
00000220: 595e d9be cc6d 3e3d f21f 6c3f 7f0b 74bf
00000230: 7f9c 8a3e 560f 353f 4832 a9be 4d97 953e
00000240: 23a9 b63c 0b76 cabe bd25 8abe fafc 67bd
00000250: 5b81 23bf 047c 8f3e ed02 033d d501 1ebf
00000260: ec40 30be cedd d73c 5819 e6be bee7 94be
00000270: 68af 553e 03ba 3cbf cb74 92be f712 033e
00000280: bfd5 9fbe 176f c43c 0878 30be 3376 c43d
00000290: fd63 5dbe 3847 0ebe b848 4f3e fd63 d8bc
000002a0: 6f52 32bd 2891 85bf 8b5c e1be 1399 1d3f
000002b0: e9ba ebbe 85d0 7fbd fa40 7cbf e1bf 0fbf
000002c0: ed9e fd3e 4b2c f5bf e4b8 103f 6a8a 1b3f
000002d0: 6243 e7bf 6753 f8bc eada c43e 7193 c6bf
000002e0: 6853 96be b20c a83e 643d 92bf eb19 1ebf
000002f0: a70b a93f 8005 d9bf 8cc3 d3be 70fb a23e
00000300: b0a5 82bf 8dfb 80be 5842 5b3f 556d 93bf
00000310: 9e5e a5be 99f6 2c3f 4a98 b2bf 4bf9 3dbf
00000320: 6584 fa3e 10a0 16bf 4b43 eebd 051f 843e
00000330: 664c 00bf 3b2a 57be a376 a53c e5d9 f9be
00000340: cc2b 02bf 3922 a83e 8255 25bf ab0e 813b
00000350: 836f b43e 4683 86bf 93de 97be d4fe 0e3e
00000360: acdb d03d 8943 9abe 2b8f 5cbe ad7e 9e3d
00000370: b02c e0be 8ce5 4dbd 468c 203d 2f9a 713d
00000380: 35bc 58be 2bba 0ec0 a91f fbbe b23a 383e
00000390: 53b0 0bbf 0df1 d6be 5c6a f7bf b42f 3dbf
000003a0: 2626 393f ff0d 08c0 96c0 5a3c 4458 923e
000003b0: d3a6 debf 2321 e2be 5fc9 0a3f a569 f8bf
000003c0: 9df1 333e 2c05 cc3e 694b 99bf 4611 a0bd
000003d0: 19e0 f73e 67d0 5abf f83d d5be 8b8d 403f
000003e0: 9d21 5cbf 4f46 b83e 1e7c 3c3f f7e0 25bf
000003f0: 7c40 4abe 9d54 973e 6657 51bf fae5 0fbf

network_body._body_endoder.seq_layers.0.bias f4 [128]
-1.7578578 -2.4870238 -2.018019 -1.5718359 -2.139532 -1.5347122 -2.3802412 -1.9310324
-0.024634875 -2.412028 -0.33922413 -2.28549 -2.2573133 -0.5033671 -2.076918 -0.24562867
-1.0052882 -1.2497321 -1.7266262 -1.2064556 -0.42660806 -0.41152063 -1.2868347 -1.2751938
-1.3340167 -1.8123547 -1.1422501 -0.8244785 -1.0368587 -0.7592509 -0.7330994 -1.4574795
-3.2222064 -1.4275997 -1.4141616 -0.62904763 0.53550774 -2.9340806 -2.6562116 -1.7129133
-1.4970506 -1.9563859 -1.0086423 -2.4731271 -1.4577402 -0.7657613 -0.24082926 -2.3108392
-1.5036601 -2.60076 -2.8905706 -1.6848022 -0.7803949 -1.6762913 -2.7194378 -0.67629296
-0.96624804 -1.0564295 -0.11995742 -1.7814589 -1.5822905 -1.4724053 -2.0116055 -1.7486092
-2.0341642 -0.9396841 -1.5699829 -2.3257165 -1.8431051 -0.45501804 -1.3654302 -2.228105
-1.5848005 -0.12306861 -1.5956966 -2.4769123 -1.2011265 -1.6181498 -0.35548845 -2.1188598
0.7475135 -1.4428167 -1.4199268 -2.1697025 -0.7869297 -1.702193 -2.1265929 -1.010274
-1.129613 -0.6463597 -0.24284321 -1.2353523 -0.94067323 -1.2947772 -0.66028064 -2.587117
-0.90380746 -1.5230649 -1.6906693 -2.020197 -1.1875027 -1.2540265 -1.4443753 -2.6527715
-0.9998903 -2.5760834 -1.0080395 -1.7837863 -1.0060892 0.20959884 -2.7046113 -1.1096244
-0.74300635 -2.1673617 -1.2338698 -1.86743 -0.83427244 -0.7687185 -2.9554539 -1.0798079
-0.6923261 -1.4871576 -1.1938959 -1.4243119 -0.64905024 -1.7859753 -1.7905648 -1.1006716
00000000: 7c01 e1bf 662b 1fc0 3927 01c0 eb31 c9bf
00000010: 18ee 08c0 7371 c4bf df55 18c0 122c f7bf
00000020: 14cf c9bc ab5e 1ac0 c9ae adbe 7845 12c0
00000030: d277 10c0 abdc 00bf 39ec 04c0 1586 7bbe
00000040: 49ad 80bf 39f7 9fbf 1602 ddbf 236d 9abf
00000050: 5f6c dabe d5b2 d2be 00b7 a4bf 8d39 a3bf
00000060: 0fc1 aabf 3dfb e7bf 4035 92bf 0611 53bf
00000070: c9b7 84bf 445e 42bf 67ac 3bbf b08e babf
00000080: a138 4ec0 96bb b6bf 3f03 b5bf 4409 21bf
00000090: 0917 093f fac7 3bc0 5fff 29c0 be40 dbbf
000000a0: 5b9f bfbf da6a fabf 311b 81bf b747 1ec0
000000b0: 3b97 babf ef08 44bf f29b 76be cae4 13c0
000000c0: ef77 c0bf da72 26c0 1cff 38c0 99a7 d7bf
000000d0: f6c7 47bf b790 d6bf 450b 2ec0 8921 2dbf
000000e0: 085c 77bf 1539 87bf 3cac f5bd d806 e4bf
000000f0: 7f88 cabf c777 bcbf 25be 00c0 6dd2 dfbf
00000100: bf2f 02c0 238f 70bf 33f5 c8bf 8ad8 14c0
00000110: deea ebbf 20f8 e8be 6bc6 aebf 4699 0ec0
00000120: beda cabf 650b fcbd c93f ccbf bb85 1ec0
00000130: 83be 99bf 881f cfbf 9502 b6be 669b 07c0
00000140: 0b5d 3f3f 38ae b8bf 29c0 b5bf 68dc 0ac0
00000150: 3a74 49bf 76e1 d9bf 191a 08c0 a950 81bf
00000160: 2997 90bf d477 25bf e4ab 78be 0620 9ebf
00000170: f6cf 70bf 42bb a5bf 2708 29bf 5393 25c0
00000180: ed5f 67bf caf3 c2bf da67 d8bf e84a 01c0
00000190: 1700 98bf f183 a0bf 4ae1 b8bf 02c7 29c0
000001a0: d0f8 7fbf 8dde 24c0 7007 81bf 1c53 e4bf
000001b0: 88c7 80bf 14a1 563e 5a18 2dc0 2c08 8ebf
000001c0: aa35 3ebf 0eb6 0ac0 72ef 9dbf f207 efbf
000001d0: e192 55bf bcca 44bf 2826 3dc0 2537 8abf
000001e0: 493c 31bf 2e5b bebf 95d1 98bf da4f b6bf
000001f0: 2828 26bf d79a e4bf 3a31 e5bf cfe2 8cbf

network_body._body_endoder.seq_layers.2.weight f4 [128, 128]
-0.29414105 -0.047576934 -0.19163214 0.13169776 -0.018803166 -0.04497221 0.04956026 -0.28887165
-0.50778365 -0.23060463 -0.63214856 -0.081095986 0.23633912 0.21021771 -0.61358935 -0.18314011
-0.45468274 0.051609714 0.13750339 -0.13012885 0.067797005 -1.2887385 -0.00084279384 -1.101322
-0.29074353 -0.016744444 0.25610223 -0.2809353 0.14894533 -0.12665884 0.52952516 -0.24576646
-0.15303695 -0.2337945 0.47681364 -0.4663297 -0.60075283 -0.2297552 0.026496295 -0.6759942
-0.18388917 -0.2875185 -0.43871436 -0.1363211 0.17716248 -0.5470128 -0.47492927 0.20880446
-0.3787818 -0.23583964 0.014340222 -0.18981251 -0.4153119 0.137546 0.18149102 -0.66192275
0.2360697 0.14429732 -0.09671983 -0.15669017 -0.66970086 -0.3432573 0.44029 -0.10281667
0.24116403 -0.968649 0.07484636 -0.10646103 -0.12381137 -0.76467204 0.12450492 -0.33688816
-0.7546211 -0.5857194 0.09042382 -0.25992325 -0.048735764 -0.08851709 0.014887712 -0.20244916
-0.65952516 -0.15704234 -0.05535813 -0.07674449 -0.36977422 -0.15060416 -0.046478234 -0.5211263
-0.28822428 -0.17636424 -0.14271772 -0.15717588 0.079928994 -0.081547216 0.13800938 0.3508971
-0.31154656 -0.1440814 -0.5228528 0.082756706 -0.14294648 -0.07523811 0.075794 -0.41011453
0.35498098 0.055667 -0.5833225 -0.22128394 0.029471507 -0.4768592 -0.035554215 -0.034495447
0.04912185 -0.38815212 -0.049748257 -0.5972806 -0.025595825 -0.7516859 0.0064262403 -0.50635284
-0.28540775 -0.8649684 -0.3259343 -0.23839132 -0.65132546 -0.77787524 -0.01585415 0.17101705
-0.23315333 0.01541375 -0.30645892 -0.6541295 -0.5152686 -0.44726756 -0.20705423 -0.17948481
-0.13020167 -0.069814675 -0.00018154125 -0.12436296 -0.12041896 -0.30177614 0.42073542 -0.6782836
-0.05821706 -0.62608564 0.41973904 0.054736126 -0.6914864 0.06449404 -0.24544339 -0.53197974
-0.26537204 0.16807345 -0.17837389 -0.6663902 -0.1768442 0.19498059 -0.61779034 -0.41058573
0.1718472 -0.19333094 -0.70384496 -0.15233947 -0.8277624 -0.03352079 -0.05436231 0.1488965
-0.2798597 -0.2582807 -0.050558183 0.062387746 -0.5170856 -0.25043175 -0.2808607 0.09174488
0.17126288 -0.0069275484 0.2183679 0.07222746 -0.41640878 -0.2922043 0.39877567 -0.19270721
0.2131456 -0.033953704 0.37606022 -0.4689228 -0.76881915 0.17381966 0.09504131 -0.14960873
-0.15441978 -0.14145361 -0.5189552 -0.3604317 -0.21636665 -0.2390899 0.0031853083 -0.039575107
-0.34996864 -0.66481304 -0.28991815 0.19544043 -0.09246447 -0.24118966 0.22179295 0.28576538
-1.6797706 -0.2631244 -0.12822068 -0.3046388 -0.520061 0.4455262 -0.402497 0.0026515939
-0.33896893 -0.4679619 -0.22952631 -0.27952057 -0.43353835 0.016527688 -0.5149233 -0.3066986
0.028640542 -0.24648893 -0.74669504 0.13729931 0.32846713 -0.42995805 -0.037909396 0.24847682
0.05040465 -0.28080156 -0.45984253 0.20542718 -0.025360424 -0.09545382 0.1978497 -0.36192945
-0.24316534 -0.30709562 -0.08320571 0.065807946 0.23421848 0.11550385 -0.4259098 -0.15654296
-0.5889455 -0.10810045 -0.76272523 -0.46873605 -0.4444216 -0.5111683 -0.103579216 -0.33000383
00000000: a899 96be 08e0 42bd 373b 44be c7db 063e
00000010: 1909 9abc c834 38bd b3ff 4a3d fce6 93be
00000020: 1cfe 01bf 9f23 6cbe 7dd4 21bf a715 a6bd
00000030: e202 723e 5043 573e 3114 1dbf 1589 3bbe
00000040: 2dcc e8be b564 533d b0cd 0c3e 7f40 05be
00000050: 28d9 8a3d 62f5 a4bf f0ee 5cba 1ff8 8cbf
00000060: 56dc 94be a52b 89bc d51f 833e c0d6 8fbe
00000070: 2085 183e dbb2 01be f68e 073f 34aa 7bbe
00000080: b8b5 1cbe d367 6fbe eb20 f43e c4c2 eebe
00000090: f0ca 19bf f244 6bbe c20e d93c f50d 2dbf
000000a0: 714d 3cbe a035 93be 2b9f e0be c297 0bbe
000000b0: 156a 353e 0809 0cbf ee29 f3be d6d0 553e
000000c0: b0ef c1be f27f 71be 40f3 6a3c 365e 42be
000000d0: c3a3 d4be dcd8 0c3e c8d8 393e c573 29bf
000000e0: 41bc 713e adc2 133e 0c15 c6bd 6373 20be
000000f0: 8471 2bbf 6cbf afbe b16d e13e 8c91 d2bd
00000100: b4f3 763e 62f9 77bf 0c49 993d 3e08 dabd
00000110: d190 fdbd 8cc1 43bf 6ffc fe3d 9b7c acbe
00000120: d92e 41bf b5f1 15bf 2030 b93d a914 85be
00000130: 279f 47bd 7348 b5bd 97eb 733c d54e 4fbe
00000140: a4d6 28bf b5cf 20be 35bf 62bd 372c 9dbd
00000150: 0c53 bdbe fa37 1abe f65f 3ebd 8868 05bf
00000160: 2292 93be d498 34be 9824 12be b7f2 20be
00000170: d0b1 a33d 3a02 a7bd 5552 0d3e c9a8 b33e
00000180: 0883 9fbe 138a 13be aed9 05bf 597c a93d
00000190: 9060 12be 7016 9abd e239 9b3d 88fa d1be
000001a0: 11c0 b53e 1503 643d a054 15bf 4298 62be
000001b0: 3b6e f13c e426 f4be 4ca1 11bd 194b 0dbd
000001c0: fe33 493d e0bb c6be d4c4 4bbd 62e7 18bf
000001d0: 56ae d1bc 7d6e 40bf 3693 d23b 57a0 01bf
000001e0: f720 92be 926e 5dbf dce0 a6be db1c 74be
000001f0: 44bd 26bf d522 47bf 90e0 81bc 181f 2f3e
00000200: bfbf 6ebe f489 7c3c 2fe8 9cbe 0875 27bf
00000210: a5e8 03bf 4100 e5be 0606 54be deca 37be
00000220: 9653 05be fffa 8ebd 1c5c 3eb9 02b2 febd
00000230: 379e f6bd 6782 9abe a26a d73e fea3 2dbf
00000240: 0375 6ebd 2647 20bf 09e8 d63e fd32 603d
00000250: 4105 31bf 7415 843d 8355 7bbe d32f 08bf
00000260: d8de 87be 721b 2c3e a5a7 36be 8c98 2abf
00000270: a516 35be fea8 473e 8227 1ebf 4b38 d2be
00000280: b6f8 2f3e 8cf8 45be 2f2f 34bf e1fe 1bbe
00000290: 3de8 53bf 194d 09bd 03ab 5ebd 5378 183e
000002a0: c549 8fbe 5e3d 84be 1916 4fbd 4b8a 7f3d
000002b0: b95f 04bf 9738 80be f9cc 8fbe bde4 bb3d
000002c0: 895f 2f3e 7d00 e3bb d69b 5f3e feeb 933d
000002d0: 8833 d5be cd9b 95be 532c cc3e 0a55 45be
000002e0: d742 5a3e 0a13 0bbd f78a c03e a616 f0be
000002f0: 55d1 44bf c8fd 313e 05a5 c23d 0833 19be
00000300: 3820 1ebe 37d9 10be 3fda 04bf 818a b8be
00000310: 388f 5dbe fcd3 74be 9bc0 503b 8219 22bd
00000320: 172f b3be 3031 2abf 2770 94be 8921 483e
00000330: 035e bdbd 6cfa 76be b11d 633e d74f 923e
00000340: b902 d7bf 3eb8 86be 484c 03be 9ef9 9bbe
00000350: b822 05bf 031c e43e 1614 cebe 5dc6 2d3b
00000360: 568d adbe b498 efbe f208 6bbe 521d 8fbe
00000370: bdf8 ddbe 1365 873c 03d2 03bf 9907 9dbe
00000380: 929f ea3c 9867 7cbe 6827 3fbf 3198 0c3e
00000390: d82c a83e 7623 dcbe e246 1bbd b570 7e3e
000003a0: 1b75 4e3d 39c5 8fbe 7b70 ebbe 815b 523e
000003b0: aac0 cfbc 4b7d c3bd 1d99 4a3e d14e b9be
000003c0: 5600 79be a33b 9dbe c167 aabd 51c6 863d
000003d0: f8d6 6f3e 488d ec3d d910 dabe cc4c 20be
000003e0: 22c5 16bf c563 ddbd f641 43bf 2cfe efbe
000003f0: 3a8b e3be eddb 02bf 5721 d4bd 43f6 a8be

network_body._body_endoder.seq_layers.2.bias f4 [128]
-1.5233182 -0.8151612 -1.0062102 -0.82082444 -1.335242 -0.75937766 -1.0840671 -0.9267482
-0.5523868 0.004238161 -0.3559419 0.57983065 -1.0522294 -1.1759545 -1.7904091 0.1410197
-1.7117802 -0.4715602 -1.0154454 -1.706697 -1.0558144 -1.5304183 -1.2535136 -0.966084
-0.33487663 -0.91313463 -1.0281785 -0.8569027 -1.2858956 -0.5068374 -0.93281966 -1.6300449
0.1464864 -1.156849 -1.5689461 -1.5112485 -0.59142023 -0.58970135 -0.8770579 -0.61433655
-1.0035646 -0.9432282 -0.6201206 -1.8355136 -1.4564548 -1.1531638 0.016963545 -0.5438446
-0.020227795 -0.63615507 -0.6000512 -0.05242292 -0.44286978 0.25371373 -1.075006 -0.44096166
-1.0337789 0.73673195 -0.7657638 -0.67876035 -1.0677719 -0.72065437 -0.49081337 -1.3596429
-0.7040125 -1.0020449 -0.41734535 -1.0006181 -0.16028178 -0.7799579 -0.6255331 -0.428175
-0.7389415 0.053020824 -1.1300453 -0.10118583 -1.145778 -0.35160354 -1.5617958 -0.20146278
-1.5909446 -1.2536922 0.14843784 -1.3068929 -1.7297007 -0.94989306 -0.26186052 -1.4382095
-0.6110838 -1.2354565 -1.6164485 0.5270476 -0.14625055 -1.8986418 -0.8657936 -0.09071753
-0.8396056 -0.6941467 -0.6630014 -1.222974 -0.36458725 -0.11778209 -1.3758588 0.26915032
-1.5998814 -1.3495076 -0.672561 -0.3395651 -0.15748729 -0.5273387 -0.46644205 -0.4682995
-0.97141004 -0.4114548 0.044735342 -0.9880581 -1.4225396 -1.0812291 -0.39728114 -0.6635195
0.8268319 0.020091446 -0.96089673 -0.7520255 -0.5191634 -1.181739 -0.56473756 -0.70835775
00000000: 17fc c2bf 68ae 50bf 7fcb 80bf 8d21 52bf
00000010: 36e9 aabf 9366 42bf b6c2 8abf 5f3f 6dbf
00000020: 3969 0dbf 45e0 8a3b 043e b6be c86f 143f
00000030: 74af 86bf ad85 96bf 202c e5bf 7867 103e
00000040: 9d1b dbbf 5770 f1be 1dfa 81bf 0c75 dabf
00000050: ed24 87bf bfe4 c3bf 2273 a0bf 4851 77bf
00000060: f374 abbe 31c3 69bf 5a9b 83bf fa5d 5bbf
00000070: 3a98 a4bf 19c0 01bf 45cd 6ebf 50a5 d0bf
00000080: 8800 163e a113 94bf 3ad3 c8bf 9770 c1bf
00000090: 5167 17bf abf6 16bf de86 60bf 2945 1dbf
000000a0: ce74 80bf 6777 71bf 39c0 1ebf 1cf2 eabf
000000b0: 1c6d babf df9a 93bf 22f7 8a3c 6639 0bbf
000000c0: c3b4 a5bc 0fdb 22bf f59c 19bf 6ab9 56bd
000000d0: d4bf e2be c4e6 813e cc99 89bf bac5 e1be
000000e0: de52 84bf 779a 3c3f 1909 44bf 3dc3 2dbf
000000f0: c0ac 88bf ce7c 38bf e44b fbbe c708 aebf
00000100: 2a3a 34bf 0243 80bf 4aae d5be 4114 80bf
00000110: e820 24be 52ab 47bf f022 20bf c139 dbbe
00000120: 452b 3dbf 5d2c 593d 53a5 90bf 843a cfbd
00000130: daa8 92bf 6105 b4be ede8 c7bf 424c 4ebe
00000140: 13a4 cbbf fc78 a0bf 1700 183e 4448 a7bf
00000150: d566 ddbf 312c 73bf 9512 86be 4017 b8bf
00000160: fd6f 1cbf 7023 9ebf c9e7 cebf 97ec 063f
00000170: b4c2 15be b206 f3bf a6a4 5dbf 1dca b9bd
00000180: 65f0 56bf 99b3 31bf 76ba 29bf 698a 9cbf
00000190: 2eab babe bd37 f1bd 241c b0bf 12ce 893e
000001a0: eac8 ccbf aabc acbf f52c 2cbf 7adb adbe
000001b0: 5944 21be abff 06bf 7ed1 eebe f4c4 efbe
000001c0: 54ae 78bf 34aa d2be 683c 373d 60f1 7cbf
000001d0: c715 b6bf b765 8abf 6f68 cbbe 6adc 29bf
000001e0: 41ab 533f d196 a43c 54fd 75bf be84 40bf
000001f0: e5e7 04bf 3943 97bf a492 10bf ef56 35bf

action_model._continuous_distribution.log_sigma f4 [1, 2]
-0.53999305 -0.2988777
00000000: fc3c 0abf 7f06 99be

action_model._continuous_distribution.mu.weight f4 [2, 128]
-0.016089244 -0.12159551 -0.03864912 0.14999332 -0.07451641 0.11212466 -0.2600083 0.0507436
0.09928283 0.105669916 0.11511517 -0.24880992 -0.094085865 -0.058173437 0.013026484 0.10873193
0.29830152 0.07891122 -0.21433063 0.098593034 0.20646513 -0.3770534 0.15275764 0.018129803
-0.0953674 0.23398973 -0.20686965 0.36921966 -0.0065852934 -0.15038766 0.033328615 0.041426603
0.079308 -0.29029542 -0.03885675 0.0019007708 0.246465 0.38707304 0.17558572 -0.06828645
-0.037990306 0.35647804 -0.034246735 -0.03316545 0.49933824 0.64593023 0.011933406 0.04464659
-0.068211935 0.25907603 0.63318866 0.04017812 0.0050661075 -0.10385084 -0.21408884 0.2736749
0.32811397 -0.121847026 0.05773146 0.4177295 0.079304 0.22384417 -0.070960365 0.12400037
1.0797249 0.23145398 0.20484683 -0.016368955 0.13387528 0.042662263 0.7608808 0.54826766
0.15202114 -0.08121059 -0.032504205 0.0040084193 0.14871277 -0.04550021 0.15892737 0.29524583
-0.07121856 -0.016055122 -0.11507378 0.2641927 0.020965027 0.07292484 0.0058607724 -0.049252473
0.040977918 0.18837428 0.383848 -0.44697654 0.2173079 0.011188337 0.07385874 0.10235436
-0.09315215 0.24632758 0.36385208 0.0052226484 0.01002914 -0.065056935 0.30869168 -0.21322696
-0.06421879 -0.070351936 -0.09874789 0.085070595 0.35621184 0.176125 0.094812766 0.22808476
-0.14704424 -0.17548215 -0.1591826 0.032718215 -0.27794525 0.056779493 0.014361624 0.1059776
0.001443464 0.055824015 -0.084063426 0.056732174 0.18914156 -0.04526663 0.53542304 0.36805728
-0.1611187 0.42264327 -0.08867842 0.065929644 -0.05133021 0.029256156 0.0020745785 -0.10564101
0.030042985 -0.41571698 0.047242094 -0.21529552 0.044485208 -0.036144786 0.024444096 -0.22184306
0.12711343 -0.18797486 0.18656424 0.05122493 0.19802667 0.21020703 0.078975454 0.22071637
0.04847732 -0.020994265 0.29145566 -0.5213505 0.32028577 -0.24008936 0.08509306 0.53470355
0.17569916 -0.04548739 0.0129144015 0.050360035 -0.08910738 -0.008994505 -0.3165576 -0.19933197
-0.13782582 0.10149901 -0.11355271 -0.07296287 0.2081893 -0.099481255 -0.30369282 -0.04877118
0.0823404 0.16479233 -0.0859983 -0.18452668 -0.079887375 0.22833419 -0.13274428 0.03132586
-0.02393982 0.039570056 -0.014756526 -0.25153956 -0.32045168 -0.054191846 -0.06879397 -0.15361452
0.07209735 -0.08517731 -0.010195955 -0.17707525 -0.24558496 -0.252802 -0.12295504 -0.28492573
-0.25923225 -0.39503604 -0.09952271 -0.10442871 -0.056606986 0.28830847 -0.3705677 -0.09259929
-0.13383757 0.031190941 0.08709291 0.048769474 0.065515734 0.078426816 0.6172675 -0.09060947
0.06813281 0.017723484 0.040782183 0.23252572 0.06880784 0.020918287 -0.009258956 -0.24019325
-0.14047757 -0.035928246 0.12875704 0.104227334 0.010764999 0.17151527 0.7157051 -0.18348859
0.05012898 0.34631863 0.044224117 0.27546945 -0.96728367 0.061033137 -0.13821125 -0.09780126
-0.17010804 -0.7429027 -0.3254114 0.16047087 -0.079353444 0.053658612 -0.18473437 -0.5579404
0.030661108 -0.15430793 0.018719483 -0.1135403 -0.120829195 -0.054171566 0.052432243 -0.10770188
00000000: 97cd 83bc 1107 f9bd 8a4e 1ebd d997 193e
00000010: 0f9c 98bd 9da1 e53d cf1f 85be 85d8 4f3d
00000020: cc54 cb3d 7869 d83d 81c1 eb3d 07c8 7ebe
00000030: 17b0 c0bd 4547 6ebd 096d 553c d9ae de3d
00000040: faba 983e 359c a13d 7d79 5bbe 25eb c93d
00000050: 986b 533e 250d c1be 806c 1c3e f484 943c
00000060: fc4f c3bd 019b 6f3e a3d5 53be 5c0a bd3e
00000070: 72c9 d7bb 39ff 19be 9683 083d f1ae 293d
00000080: 3c6c a23d 9aa1 94be 4128 1fbd 4923 f93a
00000090: 5261 7c3e 702e c63e becc 333e c4d9 8bbd
000000a0: b99b 1bbd 4a84 b63e 4e46 0cbd 7fd8 07bd
000000b0: 43a9 ff3e af5b 253f 5584 433c 58df 363d
000000c0: b3b2 8bbd 9da5 843e a718 223f d091 243d
000000d0: 9701 a63b c0af d4bd 1b3a 5bbe 1e1f 8c3e
000000e0: 8efe a73e ef8a f9bd d377 6c3d a4e0 d53e
000000f0: 236a a23d 6837 653e ab53 91bd e8f3 fd3d
00000100: 6d34 8a3f 4602 6d3e 5ec3 513e 3018 86bc
00000110: 9a16 093e a0be 2e3d 16c9 423f 455b 0c3f
00000120: 6eab 1b3e bd51 a6bd 2123 05bd 0f59 833b
00000130: 2948 183e 6e5e 3abd dbbd 223e 762a 973e
00000140: 09db 91bd 0886 83bc cdab ebbd 4444 873e
00000150: d9be ab3c 9e59 953d b90b c03b f6bc 49bd
00000160: 76d8 273d 30e5 403e ba87 c43e 1cda e4be
00000170: f685 5e3e 494f 373c 4043 973d 2a9f d13d
00000180: 8ec6 bebd 4c3d 7c3e d24a ba3e c022 ab3b
00000190: 4351 243c 923c 85bd d60c 9e3e 2b58 5abe
000001a0: 2485 83bd ad14 90bd 553c cabd 7e39 ae3d
000001b0: 6661 b63e 1d5a 343e 322d c23d 0d8f 693e
000001c0: c492 16be 98b1 33be c300 23be 8903 063d
000001d0: d74e 8ebe 9d91 683d 044d 6b3c c90a d93d
000001e0: 9d32 bd3a b9a7 643d 7229 acbd ff5f 683d
000001f0: 53ae 413e 8069 39bd 7c11 093f 0172 bc3e
00000200: 4dfc 24be b364 d83e 089d b5bd 1f06 873d
00000210: a03f 52bd 9baa ef3c a7f5 073b 505a d8bd
00000220: b51c f63c dbd8 d4be ed80 413d 6e76 5cbe
00000230: 1f36 363d 8e0c 14bd fc3e c83c d42a 63be
00000240: 062a 023e 7b7c 40be b20a 3f3e 3bd1 513d
00000250: 81c7 4a3e 8340 573e e2bd a13d 7903 623e
00000260: 2790 463d 2afc abbc ad39 953e 3a77 05bf
00000270: 7ffc a33e fcd9 75be 4545 ae3d 55e2 083f
00000280: 7bea 333e fc50 3abd ed96 533c 5346 4e3d
00000290: ee7d b6bd b05d 13bc d613 a2be ae1d 4cbe
000002a0: 3622 0dbe b7de cf3d 538e e8bd 8f6d 95bd
000002b0: 932f 553e d4bc cbbd a07d 9bbe 4ac4 47bd
000002c0: 15a2 a83d 52bf 283e e01f b0bd 90f4 3cbe
000002d0: fe9b a3bd 70d0 693e 1eee 07be 8c4f 003d
000002e0: 711d c4bc 3614 223d 5bc5 71bc cbc9 80be
000002f0: 3e12 a4be 45f8 5dbd dae3 8cbd 204d 1dbe
00000300: c7a7 933d 7171 aebd ef0c 27bc 3753 35be
00000310: a07a 7bbe 446f 81be dacf fbbd c9e1 91be
00000320: 17ba 84be 2a42 cabe 90d2 cbbd b8de d5bd
00000330: badc 67bd 2b9d 933e 0dbb bdbe b2a4 bdbd
00000340: b70c 09be 2584 ff3c c55d b23d 80c2 473d
00000350: 1d2d 863d 3d9e a03d 3e05 1e3f 7591 b9bd
00000360: 3789 8b3d d730 913c 380b 273d 391b 6e3e
00000370: 20eb 8c3d d45c ab3c e0b2 17bc 38f5 75be
00000380: 5ad9 0fbe 7f29 13bd e3d8 033e 2475 d53d
00000390: ae5f 303c b3a1 2f3e 7338 373f 6fe4 3bbe
000003a0: 0c54 4d3d ad50 b13e 5924 353d 550a 8d3e
000003b0: e79f 77bf e2fd 793d 4087 0dbe 074c c8bd
000003c0: cd30 2ebe df2e 3ebf 539c a6be 7a52 243e
000003d0: 0f84 a2bd 22c9 5b3d 022b 3dbe 2fd5 0ebf
000003e0: 012d fb3c e602 1ebe 9a59 993c d187 e8bd
000003f0: 4c75 f7bd 01e3 5dbd 31c3 563d ce92 dcbd

action_model._continuous_distribution.mu.bias f4 [2]
-2.2772691 1.6051809
00000000: c7be 11c0 9176 cd3f
